Assets/Brain/Shooting.onnx (onnx, 185838 bytes, 9 tensors)

network_body._body_endoder.seq_layers.0.weight f4 [128, 211]
000000 5b 74 39 3c b9 ba 43 bc f0 26 11 be 24 07 a1 bc
       0.011319245 -0.011946374 -0.1417501 -0.019656725
000010 48 b7 9b 3c a1 17 35 bd d3 ec 8b bd fe 86 8f 3d
       0.019008294 -0.044211987 -0.0683228 0.070081696
000020 2b 59 32 bd 29 12 88 be 5c 66 4d bd 2d a4 cf 3c
       -0.04354207 -0.26576355 -0.050146446 0.02534684
000030 0c e6 ae bd d0 cc 7b bd a4 0e 69 3b 01 f5 8d bd
       -0.08539972 -0.06147462 0.0035561705 -0.069314964
000040 6d 03 1b 3e d2 97 35 bd e1 1c cd ba 1a c6 da 3d
       0.15138026 -0.04433424 -0.0015648865 0.10682316
000050 53 42 76 3d 87 c9 0c bc 12 2a c6 bd 20 38 a2 bd
       0.060121845 -0.00859297 -0.09675993 -0.07920861
000060 ea 30 3c be 2b ac 93 3d d4 43 23 3d 76 02 88 bc
       -0.18378034 0.07210573 0.039859608 -0.016602736
000070 4a df 46 3d 76 3c d7 bc d5 02 82 bb f5 78 df 3c
       0.04855279 -0.026273947 -0.0039676228 0.027279356
000080 db 87 83 3c 60 98 2e 3c b4 d6 74 3d 62 f7 42 3d
       0.016055992 0.010656446 0.05977507 0.047599204
000090 dc b4 54 3d 82 26 1f be 4c 45 42 bd 76 af 08 be
       0.051930293 -0.15542033 -0.047429368 -0.13348183
0000a0 61 99 bd bd 15 e3 65 3c 35 81 ae 3d c5 d8 d7 3b
       -0.0925777 0.014031191 0.08520738 0.0065871202
0000b0 65 d5 8c bb 00 87 b8 bb 21 56 5d 3d 63 88 5b 3a
       -0.0042978995 -0.0056313276 0.054037217 0.000837451
0000c0 56 c2 92 bd 68 6a ed 3c f7 d3 f2 3d 23 59 be 3d
       -0.07165973 0.028981403 0.11856835 0.09294345
0000d0 46 bf 78 3c c7 b8 a8 3d 16 ee 21 bd f8 c4 e0 3c
       0.015182322 0.082383685 -0.039533697 0.027437672
0000e0 d6 3f 97 bd 09 fd ab bd 0a 1a a1 3c d7 f9 b3 bc
       -0.073852226 -0.08397872 0.019665737 -0.021969719
0000f0 7b e8 50 bd 26 25 8b bc f1 da 64 3d fe c6 64 bd
       -0.05100296 -0.016985487 0.05587286 -0.055853836
000100 28 4a e8 3c ab b2 90 3c 69 35 90 3d 33 a1 96 bd
       0.028355673 0.01766332 0.07041437 -0.07354965
000110 ec b8 bd bd ba 65 c0 3d 4d 35 95 3b 58 72 fb 3c
       -0.09263787 0.09394403 0.004553473 0.030694172
000120 f7 76 d2 3d 29 cd 71 bd 7a f4 81 3d 0f 91 bd 3b
       0.10276597 -0.059033547 0.06345458 0.0057851146
000130 0f 19 5a 3d 87 7a 2a 3c b5 84 9b bd 06 3d 22 3c
       0.053246554 0.010405189 -0.07593671 0.009902244
000140 ee a7 78 3d 72 87 bf 3c 22 c5 86 3e b5 3c 25 3e
       0.060707025 0.023380015 0.26322275 0.16136439
000150 e2 c1 39 bd 9f 40 0a 3d 81 f0 9d 3d 31 1f d2 bd
       -0.045350917 0.033753034 0.07711888 -0.102598555
000160 44 00 4a bd 77 2d 9d bd 99 81 2c 3d 63 e4 02 3e
       -0.04931666 -0.07674687 0.04211578 0.12782435
000170 8b 1a 98 3d b2 7b 05 bd 65 75 14 bd 03 b8 94 bc
       0.07426938 -0.03258867 -0.03624477 -0.01815415
000180 91 62 ee 3d 09 70 a3 3d 21 05 37 3b ec 30 20 bd
       0.11639894 0.079803534 0.002792664 -0.039109156
000190 db 9e d7 3d 7b c3 48 3d 47 97 2f bd 72 26 61 bd
       0.10528346 0.04901455 -0.04286888 -0.054968305
0001a0 0d b4 a9 3d 1d 31 6d bd 60 78 e4 bc 3f 96 c2 3c
       0.08286295 -0.057908166 -0.02788943 0.023753284
0001b0 2d 9c 42 3e 30 bf 2c 3e 9b 77 9a 3c 50 75 15 bd
       0.19004889 0.16869807 0.01885586 -0.03648883
0001c0 a0 42 0e 3d 00 15 fc 3d 26 3f f4 3d c2 44 c0 bc
       0.034731507 0.12308693 0.11926107 -0.023470286
0001d0 e8 fb 08 3b 76 6d 57 3d 73 dc b5 3d 6c 54 0c bd
       0.00209021 0.052594624 0.08879938 -0.0342602
0001e0 c9 67 a2 bd 75 3e b7 bb 09 fc 39 bc 22 33 cd bd
       -0.07929952 -0.0055921623 -0.011351594 -0.100195184
0001f0 4d 8c 25 3e f4 bc 97 3c db dd 82 bd be 4f 9b 3d
       0.16166802 0.018522717 -0.06389972 0.07583569
000200 4b fb 83 3d a2 07 27 3e 78 10 91 3c c2 20 71 3c
       0.06444415 0.16311505 0.017708048 0.014717283
000210 5d f5 88 bd d4 01 b3 3c cd 5f f4 3d b5 44 1a bd
       -0.06687424 0.021851458 0.11932335 -0.03766318
000220 d3 c1 0a 3e be ca a6 bd 04 c9 a8 bd 12 90 1e 3e
       0.135505 -0.08144139 -0.08241466 0.15484646
000230 b2 80 38 3d 7a 55 d1 bc 52 0b d8 3d 73 72 43 bd
       0.04504461 -0.025553454 0.10549034 -0.04771657
000240 14 15 14 3e d0 a0 8d 3d 47 83 e3 3d bc 35 0a 3d
       0.14461166 0.06915438 0.111090235 0.03374265
000250 4b 1b 03 be 76 e3 92 3d 8c 1b 85 3d 8f fe 85 3d
       -0.1280338 0.07172291 0.06499395 0.06542694
000260 1f bd f6 3c 1b 8e 39 bd c0 bd 1a bd 68 1e 7c 3d
       0.030119477 -0.045301538 -0.037778616 0.061552435
000270 37 fc 73 bd be 88 95 bd 61 99 2e bd b2 5d 5e 3d
       -0.059566703 -0.07301472 -0.042626742 0.054288574
000280 71 c7 79 3d a9 93 81 3d dc 61 e2 3b 95 59 3e bd
       0.060981218 0.06326992 0.0069086384 -0.04647215
000290 94 a3 62 3d 4e d2 34 3c 73 55 c6 bc 30 08 ba bd
       0.05533178 0.011036469 -0.024210667 -0.09083593
0002a0 cc 75 65 3d 1e 5c 12 3c d7 c5 38 3d c4 9a 93 bb
       0.056020543 0.008933095 0.04511055 -0.0045045335
0002b0 fc db 6a 3d 3f 62 a8 bd 12 f1 a4 bb eb 3e 49 bd
       0.0573387 -0.08221864 -0.0050336206 -0.04913227
0002c0 35 81 ad bd b5 c4 a1 bb b3 81 d5 3c f5 27 0b 3b
       -0.0847191 -0.0049367794 0.026062822 0.0021233533
0002d0 e0 15 7e bd 94 0b 2f 3c 11 d0 d4 3d d2 b1 58 3d
       -0.06203258 0.010683913 0.10391248 0.052903958
0002e0 e7 6f 33 3d a4 e0 0e bc 4d 7e 52 3c 92 63 8a 3b
       0.04380789 -0.008720551 0.012847495 0.0042232955
0002f0 1a cf 29 bc 9c d8 21 3e e1 c4 49 3c ea 6a 87 bc
       -0.010364318 0.15805286 0.012315006 -0.016530473
000300 38 89 04 be a5 bf d6 3c cb cc 3e 3e 73 7f 0c bd
       -0.1294297 0.02621443 0.1863281 -0.034301233
000310 73 df 49 3d de 79 01 3e 08 82 6f 3d 12 26 2a 3c
       0.049285363 0.12644145 0.058473617 0.010385053
000320 4b 6d 19 3d 50 2a 20 3e a7 62 82 3d c8 54 ea bc
       0.037457746 0.15641141 0.06366473 -0.02860488
000330 5b 87 1c 3e d0 6c 8a 3c c5 90 03 be 83 ef 02 3e
       0.15286009 0.016897589 -0.12848194 0.12786679
000340 d2 15 2d 3e 7b dd b4 3d e8 f8 89 3d a6 4a c3 3c
       0.16902855 0.088313065 0.06736928 0.023839306
000350 d9 50 16 3d 5d 45 c5 3d ba 4f 6f bd bf 53 50 bd
       0.036698196 0.096323706 -0.058425643 -0.050861116
000360 6e 84 b9 3d ec 58 1a ba cb f9 89 bb 47 95 e7 3c
       0.09058462 -0.0005887884 -0.004210686 0.028269423
000370 79 a6 2d bc a3 ff fb bc c9 7b 87 bd c7 09 53 3e
       -0.010598772 -0.030761546 -0.06615407 0.20609199
000380 86 55 0b 3e d6 c2 5f bd 5d 5f 93 bc c9 07 6e bc
       0.13606843 -0.05462917 -0.017989809 -0.014528223
000390 21 af 14 3e 83 a1 c5 bc 32 e8 a6 3d 89 0f a3 bd
       0.14519931 -0.024124866 0.081497565 -0.079619475
0003a0 27 65 cc 3d 70 73 80 3e 32 53 0e 3c 6e 55 7b bd
       0.09980231 0.25088072 0.0086868275 -0.06136077
0003b0 f7 21 05 3e a2 c0 1e 3c f6 f5 a5 3d 81 a8 d8 bd
       0.13001238 0.009689482 0.08103554 -0.105790146
0003c0 3a 8c 72 bc 0d fd 14 3c 2c 82 d3 bd b2 1c 2a 3e
       -0.01480394 0.009093535 -0.10327563 0.16612509
0003d0 cb 48 cc bd e8 e2 ad bc bc 3f c8 bc d3 1e c2 3c
       -0.09974822 -0.021226361 -0.024444453 0.023696339
0003e0 15 ba b6 3c 33 9a 87 3c 86 85 c8 bc 92 72 f9 bd
       0.022305528 0.01655302 -0.024477731 -0.12180056
0003f0 11 a5 1c 3c ff b2 81 3e 57 b1 5e 3d 59 32 15 3e
       0.009560839 0.25331876 0.054368343 0.14569987

network_body._body_endoder.seq_layers.0.bias f4 [128]
000000 e7 77 0a 3d 88 77 be 3c 4f 8c 6a 3c 35 19 89 3c
       0.033805754 0.023250356 0.014315679 0.016735652
000010 5e 1b 75 3c 75 17 6b bc d7 12 4f 3c 06 92 a6 3a
       0.014960138 -0.014348854 0.012638769 0.0012708313
000020 55 b1 3f 3c 0a b3 71 3c ce c3 56 bc e8 61 68 3c
       0.011699994 0.014752159 -0.013108207 0.014183499
000030 ed c4 b9 3c f1 a0 ba 3c 27 02 4f 3c 23 8f 16 3c
       0.02267691 0.022781821 0.0126347905 0.0091894
000040 26 99 7c 3c 9e fb 04 3d ca 3f 94 3b 97 a0 8c 3b
       0.015417373 0.032466523 0.004524206 0.0042916047
000050 8c ce a4 3c a5 9e b5 3c 6b 25 be 3c 0e 48 9f 3c
       0.02011802 0.022170374 0.023211202 0.019443538
000060 9e 01 49 3c 6c 86 06 3c 0c c8 da 39 2b d5 b4 3c
       0.012268452 0.00821076 0.00041729247 0.022074303
000070 a1 3f fa 3b 83 31 33 bb f0 79 bc 3b f1 6d 5c 3c
       0.0076369797 -0.0027342744 0.005751841 0.013453946
000080 e5 bd f5 3c 65 2b 13 bc be 06 6c 3b 69 ed 4a 3c
       0.029997775 -0.008982514 0.003601476 0.012385705
000090 f6 9c d4 3b b2 5c 9d 3c d7 fb 21 3c e0 1c 8a 3c
       0.0064884378 0.01920924 0.009886703 0.016859472
0000a0 a1 07 12 3d 1a ba 03 3d 1c 07 8b 3c 53 de 2c 3c
       0.035651807 0.032159902 0.016971163 0.010551053
0000b0 cb 84 99 ba d2 9d 31 3c 05 69 6c 3c 86 76 85 3b
       -0.0011712549 0.01084085 0.0144293355 0.004072967
0000c0 73 e9 e3 3b 02 87 83 3c 2a e6 a3 3c 24 1f 4e 3c
       0.0069553195 0.016055588 0.020007212 0.012580667
0000d0 ce cb 35 3c da 27 ab 3c 31 53 ae 3c b9 79 a9 3c
       0.011095954 0.020893026 0.021279903 0.020687925
0000e0 58 d0 3b 3c bb a3 dd 3b ee 0d 25 3c 33 10 b6 3c
       0.011463247 0.006763903 0.010074122 0.022224521
0000f0 56 89 de 3c 45 b6 84 3b c8 d9 54 3c cd 38 f2 3c
       0.027165096 0.0040500485 0.012991376 0.0295681
000100 a0 07 1c 3c 0b e5 6c 3c fb 92 9d 3c 24 3e d4 3b
       0.009523302 0.014458905 0.019235125 0.0064771343
000110 5d 7e 51 3c 98 52 03 3c 01 04 1b 3c 7c 28 dc b9
       0.012786475 0.008015297 0.009461404 -0.00041991833
000120 7c a6 2f 3c e2 49 61 3c 16 cb ba 3c 4d 03 7e 3b
       0.010720845 0.013750525 0.022801917 0.0038759292
000130 c5 f7 8a 3c 4d 1d 0a 3d 96 7b 0c 3c b9 93 a6 bc
       0.016963849 0.03371935 0.008574387 -0.020334112
000140 eb ca d5 3b f8 97 d0 3c 83 60 5d 3c b1 91 4d 3c
       0.006524434 0.02546309 0.01351178 0.012546943
000150 4c 80 62 3c 5e b8 ab 3b 66 88 85 bc b3 95 43 3c
       0.013824534 0.005240484 -0.016300391 0.011937547
000160 ff 5e 01 3c c7 d5 ad 3c 25 94 00 3c 2d a6 bc 3c
       0.007896184 0.021220101 0.00784782 0.023028458
000170 d1 21 16 3b 23 e8 c3 3c 5c 89 ef 3c 75 e4 4e 3b
       0.002290834 0.023914402 0.029240303 0.0031569276
000180 37 ae a6 3c 2b 8b 94 3c ef 27 b3 3c 9b 09 88 3c
       0.020346744 0.018132767 0.021869628 0.016606143
000190 8e c8 f8 3c 26 49 cb 3c 7e 93 a1 3c ff d3 1b 3d
       0.03036907 0.024815153 0.01972365 0.038043972
0001a0 7a b3 19 3c ad 45 49 3c 02 bb 3c 3c 4b 7a 76 3c
       0.009381169 0.012284678 0.0115191955 0.015043805
0001b0 80 ea 3f 3b c6 04 64 ba 9d 79 08 3c 08 ed 02 3c
       0.002928406 -0.0008698221 0.008329776 0.007991083
0001c0 1d 32 09 3d ff c4 1a 3c 16 48 47 3c 73 ff a7 3a
       0.033495057 0.009446382 0.012163183 0.0012817219
0001d0 44 fc 64 3c 37 72 98 3c 85 64 69 bc 7b 0b a3 3b
       0.01397616 0.01860915 -0.014245157 0.004975734
0001e0 99 d2 bd 3c 02 1c 2e 3c 5a 82 90 3b 4b e3 b9 3c
       0.02317171 0.010626795 0.0044100704 0.02269139
0001f0 a3 78 73 3c 49 08 8d 3c a6 fe df ba 6e 09 2d 3c
       0.014860305 0.017215865 -0.0017089441 0.01056133

network_body._body_endoder.seq_layers.2.weight f4 [128, 128]
000000 fe 2a f2 3d 12 d4 a6 3d bb 50 88 3d 85 a5 63 3d
       0.11824606 0.08145918 0.06656023 0.055577774
000010 34 dd 26 3d 0f bf 90 bc e1 e6 90 3e 90 76 79 bd
       0.0407383 -0.017669229 0.28301147 -0.060904086
000020 f7 25 75 bd 33 98 99 3d 9f f0 b1 bd 64 b2 38 3d
       -0.05985066 0.07499733 -0.08688473 0.045092
000030 99 60 7b bc 3b c5 b0 3d 3a 98 be bd 80 0e 9b 3d
       -0.015342855 0.08631369 -0.09306379 0.07571125
000040 b1 b7 32 3e 15 29 27 3d 81 06 43 bc 84 24 57 3d
       0.17452885 0.040810663 -0.011903406 0.05252506
000050 bc f7 db 3c d4 a8 41 bd 9f d2 0c 3e da b2 c5 3d
       0.026851527 -0.047280148 0.1375222 0.09653254
000060 a6 54 11 3d 5e c4 41 3d 00 ca 23 be 9a 78 fa bd
       0.035481118 0.04730641 -0.15995026 -0.12230034
000070 58 0f 88 3d 44 f1 98 3d 8e 61 34 3d ea 34 3e 3e
       0.066435516 0.07467893 0.044038348 0.18574873
000080 72 5e 18 be d3 c9 b6 bc 68 2c 94 3d 50 07 55 bd
       -0.14879778 -0.022313034 0.07235032 -0.052008927
000090 42 5b d4 3d c0 ed 5b bd b0 6b 88 3d 1e 07 75 3d
       0.103689685 -0.053693533 0.06661165 0.05982124
0000a0 d2 33 44 be fc 8a 98 3d 2b 81 1f bd 0e 00 13 bd
       -0.19160393 0.07448384 -0.038941544 -0.035888724
0000b0 b8 bd cd 3d a9 89 ca 3d 6d 5d 0a 3e 78 b1 71 bd
       0.100459516 0.09889538 0.13512202 -0.059007138
0000c0 c9 92 43 bd 9e 58 1c 3e bb dc ae bb eb c3 32 3e
       -0.047747407 0.1526818 -0.0053363717 0.1745755
0000d0 66 91 ab bd 3c 23 65 bd 35 dd 1a 3e 8b 21 15 3e
       -0.08377342 -0.055941805 0.15123446 0.14563577
0000e0 ab 8d 1c be 06 80 8b 3d 3f c0 a6 3c 7d 29 2f 3e
       -0.15288417 0.06811528 0.020355342 0.1710567
0000f0 50 66 92 3d 2d 45 04 be 60 2a 82 bc 9f 53 7b 3d
       0.07148421 -0.12917013 -0.015889347 0.061359044
000100 5c 52 34 3e 46 81 08 bd 85 13 51 3d 89 28 ac bc
       0.17609543 -0.03332641 0.051044006 -0.021015422
000110 03 f5 3a 3d 09 44 10 bd 53 4a b4 3c 1b dd c2 bc
       0.045643818 -0.035221133 0.022008097 -0.023787072
000120 e1 a9 b2 bc 10 12 8d 3d ed 53 93 bd 72 f8 61 bd
       -0.02180952 0.06888211 -0.07193742 -0.055168577
000130 07 1a 5b 3d fa 12 91 bd 71 b9 35 3d e3 57 34 bd
       0.05349162 -0.070836976 0.044366304 -0.044029128
000140 bf 81 48 bd 62 ea f0 bd bb b3 46 3e 6b e6 4e 3d
       -0.04895186 -0.11763455 0.19404499 0.050512712
000150 3a 4d ad bd f8 80 4d bd 8e 82 a1 3d f0 41 dd bd
       -0.084619954 -0.050171822 0.078862295 -0.10803592
000160 c5 76 7b 3c c7 51 38 bd 7a bf 68 bd de 81 aa bd
       0.015348141 -0.044999864 -0.05682323 -0.083255515
000170 d7 65 96 bd 0c b5 f5 3b 11 33 95 3d a9 a3 41 be
       -0.07343643 0.007498389 0.07285131 -0.18910088
000180 3e 48 50 bc 13 49 66 bd e3 01 ab 3d fc d0 78 3d
       -0.012712536 -0.056222033 0.08349969 0.060746178
000190 40 b5 46 be e0 8a 6b 3e b8 b4 99 bd d8 39 61 3d
       -0.19405079 0.23002195 -0.075051725 0.054986805
0001a0 35 65 67 3d d6 5c ee bc 3b 66 cb bd 9a a2 1a 3e
       0.056493003 -0.029097002 -0.09931608 0.1510109
0001b0 23 56 29 3d 5d 83 7f bd fa 03 e8 bc 7e e4 c9 3c
       0.041341912 -0.062381137 -0.028322209 0.024645086
0001c0 fc 37 08 3e 38 0e ed 3d 7f 46 60 bd 4d f4 24 bd
       0.13302606 0.11574978 -0.05475473 -0.040272046
0001d0 c1 d3 22 3d 51 99 39 3d 54 ed 27 3d 80 88 18 bd
       0.039752726 0.04531223 0.040997818 -0.03723955
0001e0 5b 78 8e bd 80 53 6f be 04 8d 09 bc b6 6d fd 3c
       -0.0695655 -0.23371696 -0.008395437 0.030936103
0001f0 3d 63 ca 3c 14 8f df 3d 8f 47 15 3e 4c 17 e6 bd
       0.024705524 0.10915962 0.14578079 -0.11234912
000200 12 23 03 3e 12 4d 7e bd c2 03 31 3b 35 8a e8 bc
       0.12806347 -0.06208522 0.0027010296 -0.028386215
000210 2d 03 bd 3c d3 cd a5 bd a6 64 bc 3d 49 c9 af bd
       0.023072803 -0.080958985 0.09198885 -0.08583314
000220 a4 97 d3 3d 46 b9 f8 3c f0 4e 91 bd 07 14 de bd
       0.103316575 0.030361783 -0.07095134 -0.10843664
000230 b1 be cc 3b 1e 2b cb bd b4 7b 36 3e 19 a7 58 bd
       0.006248318 -0.09920333 0.17820626 -0.05289373
000240 99 6b 0b 3e 5d 2a 8b 3d 06 89 a7 3d 63 d5 f4 bd
       0.13615264 0.067951895 0.08180432 -0.11954763
000250 a2 f7 b4 bd c5 be 2b bd 69 57 8b bb 24 2b 8d 3c
       -0.08836295 -0.04192998 -0.0042523635 0.017232485
000260 a8 f7 5c bd 20 13 9d bd 01 63 37 bd e3 61 97 3d
       -0.05394712 -0.076696634 -0.04477215 0.07391717
000270 98 c1 ce 3d aa b6 f2 bd 0a ff 03 bd 97 00 07 be
       0.10095519 -0.11851247 -0.032225646 -0.13183819
000280 c4 ab 9a 3d ae ed 47 bd e0 ce 4c 3b d1 60 52 3d
       0.07552293 -0.048810653 0.0031251237 0.051361863
000290 03 54 bf 3c aa ed 61 bd 85 78 03 3e 7b 53 e6 3d
       0.02335549 -0.055158295 0.12838943 0.112463914
0002a0 2b 5a 13 be 4f db 21 be 82 0f d4 3c bc 99 c2 3d
       -0.14389865 -0.15806316 0.025886301 0.09501979
0002b0 06 80 c6 3c 6e 8e 90 3b 6c 7f 4c be f1 89 46 3d
       0.024230968 0.00441151 -0.19970483 0.048471395
0002c0 06 31 cc 3d 9b ab 2b 3e a0 31 d2 3d 5c 99 c2 3d
       0.09970288 0.16764681 0.102633715 0.09501907
0002d0 50 2a f1 3c b9 39 14 3e 55 6a c8 3c af 14 06 3d
       0.029439121 0.14475144 0.024464766 0.03273457
0002e0 48 5f 1a 3d ea 9d 50 3d 62 cb 8b bd 5c 48 d5 3d
       0.037688524 0.05093185 -0.068259016 0.10414192
0002f0 ae 42 7d 3c 2b c3 df bd b1 42 f2 3b 4c 20 9f 3d
       0.015457792 -0.10925897 0.007393204 0.07769832
000300 1d d5 02 3d 77 69 d4 3d 44 35 a6 bd b0 b7 21 bd
       0.031941522 0.10371678 -0.08115628 -0.03948182
000310 10 da 51 3b 8d b1 33 bd aa 33 ae bd 28 5d 7e bd
       0.0032020845 -0.043870497 -0.08505948 -0.06210056
000320 36 e3 42 bd 09 bc d1 3d 86 17 05 bc 22 13 c0 3c
       -0.047579966 0.10240943 -0.008123284 0.023446623
000330 7d 0e 66 bd 0a f7 ba 3c 82 9f 91 3d f9 9c 3f bc
       -0.05616616 0.022822876 0.07110502 -0.01169514
000340 5f a1 84 3d b6 53 4d 3d c0 f1 20 be 4e 07 dc bc
       0.064760916 0.05012866 -0.1571722 -0.026858952
000350 e2 10 0d 3e 83 21 21 3b df 13 44 bd f4 66 50 3d
       0.13775972 0.0024586625 -0.047870513 0.050879434
000360 f9 17 81 3d 6a 39 43 3e 65 56 ca 3c 0d a5 a3 3c
       0.063034005 0.1906487 0.0246994 0.019976163
000370 1d 46 ae bd a2 b4 6d bd 61 ae 8b 3d 62 50 3d 3d
       -0.08509467 -0.058033593 0.068203695 0.046219237
000380 38 bb 49 3b bf 7f b3 3d fc 9b d5 3d 4e 4e 73 bd
       0.0030781757 0.087646 0.10430142 -0.05940085
000390 de 97 15 bc b4 a9 9d bd cb 6c d5 3d 64 68 84 bd
       -0.009130446 -0.07698384 0.10421141 -0.064652234
0003a0 a2 6d a2 bd e6 9a 56 3b 40 c0 a2 bd 01 85 45 be
       -0.07931067 0.0032746135 -0.07946825 -0.19289018
0003b0 60 33 e7 3d 62 5b f9 bd 50 f5 fe 3d ac 7a 48 bd
       0.11289096 -0.12175633 0.124491334 -0.048945114
0003c0 fc 6b c6 3c a1 76 fa bb 5e 94 04 bc 18 eb 3b 3c
       0.024221413 -0.007643536 -0.008092014 0.011469625
0003d0 7c fb df 3d b5 28 04 be 02 ab 46 3d ad 4d 94 3c
       0.10936639 -0.12906154 0.04850293 0.018103445
0003e0 27 ab e7 3c 18 ab 77 bc 37 67 22 be a1 02 54 bc
       0.028279854 -0.0151164755 -0.15859686 -0.01294008
0003f0 07 10 fc 3d 26 e7 95 3d fc a4 95 3e 3b 9e a0 3d
       0.123077445 0.07319479 0.29227436 0.0784268

network_body._body_endoder.seq_layers.2.bias f4 [128]
000000 40 dc ea 3b 05 8c 28 3c aa 91 8f 3c ea 76 49 3b
       0.007167369 0.0102872895 0.017525513 0.0030741044
000010 98 25 a0 3c b5 f5 6e 3c 2d 04 2d bc 0c d9 ca 3c
       0.019549176 0.014584948 -0.010560078 0.0247617
000020 da b6 6f 3c d9 fe dc 3c 39 ed e1 3c 6b 94 01 3d
       0.014630998 0.02697699 0.027578937 0.031635683
000030 4f eb c7 3c 8a af 93 ba 38 0f b7 3b 76 c7 2b 3c
       0.024404196 -0.0011267525 0.005586531 0.010484567
000040 92 a0 8f 3c 37 9f 83 3c 8e c5 94 3c 22 23 0b 3d
       0.01753262 0.01606713 0.018160608 0.033969052
000050 14 ac 56 3c 8a dc 81 bc 05 94 23 3c 27 42 11 3c
       0.01310255 -0.015852232 0.009984021 0.00886587
000060 2f 68 76 3c 92 b7 a0 3c 92 d9 18 3c 95 6f c0 3b
       0.015039488 0.019618783 0.009329217 0.0058726766
000070 1e 7b 72 3a 33 33 30 bc 2e bb 8f b9 13 8b 2e 3c
       0.0009249913 -0.010754394 -0.00027414545 0.010653275
000080 4d 91 63 3c 19 9f a1 3c 52 c4 30 3c 48 22 09 3c
       0.013889623 0.019729184 0.010788994 0.00836999
000090 18 a7 fa 3c 32 4d 8a 3b fe 0a 13 3c 57 ae 7f 3c
       0.030597255 0.004220628 0.008974789 0.015605531
0000a0 96 53 bf 3c 62 3f a9 ba 31 af 92 3b bc 87 44 3c
       0.023355287 -0.0012912566 0.004476451 0.011995252
0000b0 de cf d9 3c b3 eb d2 3c c0 38 13 3d d3 1c d6 bb
       0.026588377 0.025747156 0.035942793 -0.006534198
0000c0 6a 3c a2 3c a7 40 49 3c b3 a0 90 3c a0 01 9f 3b
       0.019804198 0.012283481 0.017654752 0.0048524886
0000d0 77 2b 8e 3c dc cb 88 3c 7e 67 e4 39 30 c7 d3 3c
       0.01735471 0.01669877 0.00043564657 0.025851816
0000e0 ee ba 4d 3c ee d5 73 3c cd a5 6f 3c 4e 26 2d 3a
       0.012556775 0.014882548 0.014626932 0.0006605134
0000f0 38 b0 15 3c bc 65 93 b9 8c b0 29 3c 8a 46 92 3c
       0.009136252 -0.00028113823 0.010357033 0.017855901
000100 f7 3a 82 3c 58 ff 00 b9 70 db cb 3b 45 a1 8a 3c
       0.015897257 -0.00012302154 0.0062212273 0.016922602
000110 59 12 52 3c 01 57 a5 3b 10 71 b5 3a c1 cd 20 3c
       0.012821757 0.005045772 0.0013842899 0.009814681
000120 e8 e2 15 3d 25 2c 8d 3b fc 97 9c 3b 57 be 16 3d
       0.036593348 0.004308241 0.00477886 0.036802616
000130 dd e9 bb 3c 09 bd e6 3b 82 4d 6e 3b 87 3d b0 3c
       0.022938663 0.0070415777 0.0036362116 0.021513714
000140 3b 9e d3 3c c6 95 e6 3c bc d2 d3 3c c4 34 6b 3c
       0.025832286 0.02814759 0.025857322 0.014355842
000150 37 63 40 3c 0c 73 8a 3b 1f 22 65 3c 03 f7 70 3c
       0.011742405 0.0042251404 0.013985186 0.01470733
000160 8e 28 be 3c 83 06 32 bb 32 11 18 3b aa 46 0b 3c
       0.023212697 -0.0027164526 0.0023203609 0.008500734
000170 aa 34 bf 3b 0c 3a ba 3b bc cd 9b 3c 93 38 6d 3c
       0.0058351355 0.0056831893 0.019019 0.01447882
000180 18 c4 82 3c e8 eb d3 bb 0d 5c cc ba 2e b8 4e 3c
       0.015962645 -0.006467331 -0.0015591398 0.012617154
000190 8e 3c c4 39 95 61 a9 3c a7 8b 27 3d 23 1d 74 3c
       0.0003742915 0.020676414 0.040904667 0.014899525
0001a0 25 b7 82 3b e0 06 a0 3c ec 4d 8d bb 6f 08 af 3c
       0.0039891177 0.019534528 -0.0043122675 0.021366326
0001b0 81 d5 25 bb d2 3f 40 3c a5 52 79 3a e1 6f 25 3c
       -0.002530426 0.011733966 0.0009510911 0.010097475
0001c0 97 8d 01 3d 4c 36 09 bc 8a 20 97 3b 8a de 2e 3b
       0.03162917 -0.008374762 0.0046120333 0.0026682937
0001d0 8f b4 dd 3c 3d e7 c6 3c 33 b8 e5 3a 66 b3 50 3c
       0.027063636 0.024280185 0.0017526209 0.012738084
0001e0 4e bb 16 3d fd 68 c6 3c 37 c3 03 3d 3c 43 e1 3a
       0.03679972 0.024219984 0.032168593 0.0017186175
0001f0 d3 31 ad 3c 95 6b be 3b f0 4a 35 3b 59 2e ff 3c
       0.021141922 0.0058111646 0.0027663074 0.03115003

action_model._continuous_distribution.log_sigma f4 [1, 3]
000000 8d 75 b8 be d8 d6 ed be 89 ac ac bf
       -0.36027184 -0.46452975 -1.3490154

action_model._continuous_distribution.mu.weight f4 [3, 128]
000000 03 68 9c bd 41 92 47 3d f0 ea 55 bd ba c9 1a bc
       -0.07637026 0.048723463 -0.052226007 -0.009447509
000010 bd 97 cd bd 92 c1 89 bb aa b6 50 bd f2 03 42 bd
       -0.100387074 -0.0042039836 -0.050955452 -0.047367044
000020 05 c0 8d bb 38 b1 e7 bd 3d b5 4f bd 1a c0 86 3d
       -0.004325869 -0.11313099 -0.05070995 0.06579609
000030 78 29 a7 3d 2e ff 8c bb 50 8d 39 bd 55 f1 32 bd
       0.081622064 -0.0043028807 -0.04530078 -0.043687183
000040 48 4f a3 3d a8 5f 7f 3d b5 20 c6 bd 2b 2e de 3d
       0.07974106 0.062347084 -0.09674207 0.108486496
000050 ba 2c 81 ba c3 bf ac bc 13 e8 a8 3c 39 2d 37 3d
       -0.0009855248 -0.021087533 0.020618474 0.044720862
000060 c7 75 b7 bc d0 62 c3 bd 7e d4 51 bd 60 b8 48 bd
       -0.022395028 -0.09540331 -0.05122804 -0.04900396
000070 33 8c 9c 3b b5 75 03 3d 73 dc b3 3c e3 a7 27 3d
       0.0047774552 0.032094676 0.021955704 0.040931594
000080 c3 f5 c2 3d 5b 00 b1 bd cd b0 82 3d ad 1e 9f bd
       0.095195316 -0.08642646 0.06381378 -0.07769523
000090 9b c7 bc 3d c2 92 8a bd 07 bc 8d bc bf be 46 bd
       0.09217759 -0.06766273 -0.017301572 -0.048521753
0000a0 e0 48 8b 3d d4 d4 8e bd 17 85 0d 3d 45 8b 81 bd
       0.06801009 -0.069741875 0.034550752 -0.06325392
0000b0 fb b2 e1 3d 9d 1d ce 3d 7a ea fb 3b 59 64 40 bd
       0.11020466 0.10064242 0.007687864 -0.0469707
0000c0 6e 9f 42 bd bc 40 a5 bd 8d 0f 57 bd 00 eb 51 bd
       -0.047515325 -0.08068988 -0.052505065 -0.051249504
0000d0 ed 6b 67 bd 9b 49 54 3d ea 23 34 3d f0 05 18 3a
       -0.05649941 0.05182801 0.043979563 0.00057992246
0000e0 a9 4e d8 bd 26 0f 79 3d d4 82 bf bd 06 7c 55 bd
       -0.10561878 0.060805462 -0.09351125 -0.05212023
0000f0 c2 77 95 bd 49 ec 88 bc 35 c3 33 3d d5 7a bf bd
       -0.072982326 -0.016714232 0.043887336 -0.093496
000100 08 b8 0a 3c ba 3c d3 3c f7 5a 86 3d 1a 7f 86 bc
       0.008466728 0.025785793 0.06560319 -0.016418029
000110 ee 75 9a bd 4e 8a f9 bc ba fb 25 3d f4 8f 3b bd
       -0.075420246 -0.030461457 0.04052327 -0.04579158
000120 c8 37 f0 bd 95 ff f9 bd da 6d 36 bd 24 96 c8 3d
       -0.117293894 -0.122069515 -0.044538356 0.09794262
000130 f1 ef ed 3b 4e 90 4e bc ca 03 6e 3d 82 50 ba 3d
       0.0072612693 -0.012607647 0.058109082 0.09097387
000140 3d ae 82 bc 51 c4 b8 3d e9 ad 42 3d 92 99 6d 3d
       -0.015952224 0.090218194 0.047529135 0.058007784
000150 01 20 20 bd 69 b7 03 3c ed 33 39 bd 91 33 b9 bd
       -0.03909302 0.008039334 -0.045215536 -0.09043039
000160 c5 ba 98 bd a8 13 c1 bc 8d bb 21 3d 47 c0 00 3d
       -0.074574985 -0.023568943 0.039485503 0.03143337
000170 eb d6 55 bd cb ae 12 3d 48 ce 0e bd 6c fe a8 bd
       -0.052206915 0.035811227 -0.034864694 -0.08251652
000180 60 86 9e bd 4c 78 76 3d af e9 25 3d 89 3b 22 bc
       -0.07740474 0.060173318 0.04050606 -0.00990189
000190 db aa 5f bc 3d dc ab bd b7 bd e2 3d ee 9a 91 3c
       -0.013651575 -0.083916165 0.110713415 0.017774072
0001a0 ee c0 a5 bc 04 97 aa 3c 52 f2 8c bd 01 bd 2b 3d
       -0.020233598 0.020823963 -0.068821564 0.041928295
0001b0 ea c2 55 3d f8 01 c5 3c 76 32 02 3d e3 8f 16 3d
       0.052187838 0.02404879 0.031786405 0.036758315
0001c0 a8 6c 9d 3d 75 cb 72 bd fb 52 1c bd 0d dc be bc
       0.0768674 -0.059276063 -0.038165074 -0.023298288
0001d0 55 15 81 3c 47 11 a8 bc 33 44 85 bd f4 ce e7 bc
       0.015757242 -0.020516051 -0.065071486 -0.028296925
0001e0 07 39 fc bd f0 0b 8d 3d 06 00 30 3d 7f 69 15 3d
       -0.123155646 0.068870425 0.042968772 0.036477562
0001f0 c1 ff 79 3d 83 ab c0 3d 3c bc 7e bd 2e c6 18 be
       0.06103492 0.09407713 -0.062191233 -0.1491935
000200 cb 41 10 bd e1 24 60 bd af 14 60 bd 81 52 9a bd
       -0.035218995 -0.05472267 -0.054707225 -0.075352676
000210 77 83 ed bc e4 f9 07 bd e0 af b2 bc 15 77 0d be
       -0.028993351 -0.0331973 -0.02181238 -0.13814957
000220 8b 5b c4 bd b0 6b 32 3c 61 c0 d5 bc 85 7c b8 3c
       -0.09587773 0.0108899325 -0.02609271 0.022520313
000230 aa bd 35 bd f8 aa 8e bd c9 c3 85 bd 40 6d 0f bd
       -0.04437033 -0.069662035 -0.06531484 -0.0350163
000240 33 d1 a6 b9 5c db c9 3b e2 61 b7 bb c5 6c bc 3b
       -0.00031817853 0.006160183 -0.0055963853 0.005750271
000250 a8 79 6d 3d 0c 6a 9c bb 04 10 31 bd 0c da 01 3d
       0.05797735 -0.004773384 -0.043228164 0.031702086
000260 15 27 97 3d 0b 20 b7 bd 88 93 28 bd ec eb 99 3d
       0.07380501 -0.089416586 -0.04115632 0.07515702
000270 2a 4c 58 bd 86 f9 05 3d 16 73 58 3d 7a c9 5a 3d
       -0.05280701 0.032708667 0.05284413 0.0534148
000280 a7 76 5f bd 7a 82 4c 3d 1a b6 54 bd 5d ea 0a bd
       -0.054556515 0.04992912 -0.051931478 -0.033914912
000290 77 dd 8d bc d2 a4 8d bd 6f 99 69 3c c7 42 7c bd
       -0.017317517 -0.069162026 0.014257773 -0.06158712
0002a0 2b 95 88 3d a2 91 7f bb a6 56 21 bc 46 98 00 3c
       0.066690765 -0.0038996716 -0.009847319 0.007848805
0002b0 51 a6 5a bd f1 0f f4 bc dc 7a 98 3d a2 7f 59 bd
       -0.053381268 -0.029792758 0.074453086 -0.053100236
0002c0 b3 e4 4d 3d 20 4a 7f 3d 15 5d c1 bd 4a c5 a6 bd
       0.050266933 0.06232655 -0.09441582 -0.08143099
0002d0 2e ae d3 bd 31 a7 64 bd 21 f0 04 bd ba df 10 be
       -0.103359565 -0.05582351 -0.032455567 -0.14147845
0002e0 22 c4 ab 3c 53 dc 02 3d 9b 7e de bd 34 36 db bc
       0.020967547 0.0319484 -0.10863992 -0.026759245
0002f0 91 36 76 bc ef ed a6 bd 1d 61 db bb 88 91 f3 bb
       -0.015027658 -0.08150851 -0.0066949264 -0.00743312
000300 c5 57 70 bd df 9d fd bc 5a a9 9f bd 1d 9f 97 3d
       -0.058677454 -0.030959068 -0.07795973 0.07403395
000310 6b 28 f4 bc da d5 3d 3d 6d e7 8b bd 58 0e 89 bd
       -0.029804429 0.046346523 -0.0683125 -0.06692189
000320 3c 5c 15 3d cd db d6 bc 38 a6 60 bd 35 22 65 bc
       0.036464915 -0.026227856 -0.05484602 -0.013985206
000330 50 a4 92 bd 0e bf a2 3d 06 73 8c bc 3a cb 3a 3d
       -0.07160246 0.07946597 -0.017144691 0.04560397
000340 5f 0b b7 3d fd 02 ba 3d c4 e2 b9 3d 30 f2 0a 3d
       0.08937716 0.09082601 0.09076455 0.033922374
000350 56 4d 11 bd d7 4f 6c bd 0a f7 aa bd 9d e7 62 bd
       -0.035474144 -0.05769333 -0.083479 -0.055396665
000360 62 fd d7 3c 7f 8c 1f 3d 77 f2 1b 3d e8 e9 a5 bd
       0.02636594 0.038952347 0.03807303 -0.08101255
000370 4a 7c b9 bd 11 83 5f bd 9b 37 6e bd bc 01 1c 3c
       -0.090569094 -0.054568354 -0.0581585 0.009521898
000380 d4 50 b0 3d 70 ad 8f bd e3 49 64 bd 4d 5f 9e bb
       0.08609167 -0.070155025 -0.055734526 -0.004833138
000390 a6 27 3e bd 96 0a 5c 3b 70 19 c1 bc 53 4a 7d bd
       -0.04642453 0.0033575646 -0.0235717 -0.06183846
0003a0 b9 e8 11 3d 22 c1 e7 3d ee c6 d6 bc 3b d8 61 bd
       0.035622332 0.11316134 -0.026217904 -0.055137854
0003b0 ae 30 e8 bc e0 5a de 3c 2d f4 87 bd 87 7c ab bd
       -0.028343525 0.027142942 -0.0663837 -0.08373361
0003c0 ac 52 08 3d 50 27 6d bb 6e f1 af bd f5 3b aa bd
       0.033281967 -0.0036186762 -0.08590971 -0.08312217
0003d0 9d 1c 8e bd d5 53 d0 3d 22 0f 95 3d 2f dd c9 bd
       -0.06939051 0.1017224 0.07278277 -0.098566405
0003e0 16 70 87 3d 44 e5 93 3d 2b 19 bc 3c fa d7 1c bd
       0.066131756 0.07221463 0.02296122 -0.03829191
0003f0 5f 62 c1 3d 1a e2 6f 3b ca 41 20 3d c7 75 12 bd
       0.09442591 0.0036603273 0.03912524 -0.035756852

action_model._continuous_distribution.mu.bias f4 [3]
000000 b2 80 a5 3b e8 e0 21 3c f1 80 02 bb
       0.005050742 0.009880282 -0.001991328

action_model._discrete_distribution.branches.0.weight f4 [5, 128]
000000 08 4f bf 3a b8 f4 6c 3c b5 e1 94 bd d4 1c c9 bc
       0.0014595697 0.014462642 -0.07269613 -0.02454988
000010 3d 43 45 3d 6d 94 12 3d 0c d4 14 3d 88 0d 4a bc
       0.048159827 0.03578608 0.036335036 -0.012332328
000020 aa 0c 13 3b 27 53 3f bb f8 62 3e bd 4b 27 bf 3b
       0.0022437968 -0.002919385 -0.046481103 0.0058335415
000030 d2 d0 6b 3d 3c 0a 5e 3c 63 27 8e 3d c4 d2 62 3d
       0.057572193 0.013552245 0.06941106 0.055376783
000040 af 21 f9 bc eb 34 ed bc 57 4e 89 3a ea 61 26 bc
       -0.03041157 -0.028955897 0.0010475618 -0.0101551805
000050 4c 78 85 bc 67 d8 75 3b 30 2a b1 bc c2 68 da bc
       -0.016292714 0.003751302 -0.021626562 -0.02666128
000060 f6 3a c0 3c ad d6 2c 3d 93 08 d8 3c 64 4a 9c 3c
       0.023465615 0.04219692 0.026371276 0.019078441
000070 96 8f c6 3c f9 c5 0c 3b 8b 5b 07 3d e1 98 77 bb
       0.024238389 0.0021480306 0.033046287 -0.0037780332
000080 75 0f 7a bb df 70 06 bd 1a 16 aa 3c 99 0d 0e bd
       -0.0038156186 -0.032822486 0.020762492 -0.034680936
000090 a7 22 ce 3c 7c 78 39 3d 10 02 1b bd 6b e6 5e bd
       0.025163008 0.04528092 -0.037843764 -0.054418962
0000a0 0a fd 56 bc 7b d0 47 3d e1 19 85 bc b3 de 27 bd
       -0.013121853 0.048782807 -0.016247692 -0.040983867
0000b0 d5 03 93 bc 76 b2 b9 3c c3 87 6d bd eb 1a d0 3c
       -0.017946163 0.022668105 -0.0579908 0.02540346
0000c0 55 d1 8d 3c 22 bc 07 bc 85 41 c1 3c cd 42 e7 bb
       0.017311731 -0.0082846 0.023590812 -0.007057524
0000d0 85 fb 88 3c b7 62 a4 bc ba c2 e1 3b f5 17 ac 3c
       0.016721496 -0.020066602 0.0068896683 0.021007517
0000e0 1e d2 fd 3c 71 36 56 3c bb 8c 69 bd f9 80 de bb
       0.03098398 0.013074503 -0.057018977 -0.006790277
0000f0 65 6e 21 bb 58 dd 92 3c be a7 86 3c 8b 64 87 3d
       -0.002463245 0.01792781 0.016437408 0.06610974
000100 81 ff 85 bc d3 1f 28 3c 6d 33 08 3c 4e 89 ba bc
       -0.016357185 0.010261494 0.008313042 -0.02277055
000110 fb bc ef b9 1a 89 be 3c 9e 61 2b bc 98 77 c9 3c
       -0.00045726434 0.023258734 -0.0104602855 0.02459316
000120 d5 48 11 3d 4d 8f 93 bb a6 ad 9a 3c bb 46 fc 3b
       0.03546985 -0.004503167 0.01888163 0.0076988614
000130 1c 5b 18 bd 41 6d 11 3d 42 4c 02 3d d8 97 ed bb
       -0.037196264 0.035504583 0.031811006 -0.007250767
000140 af 49 ba bb d9 9b e3 3c e1 da 3b 3d a2 28 42 3c
       -0.0056850533 0.027784275 0.045863036 0.011850508
000150 e7 9a d7 bc 69 fa 1d 3d b0 61 63 3d 91 d9 c0 bc
       -0.02631898 0.038568888 0.055513084 -0.023541244
000160 3f ed a8 3d 17 f9 c8 3b ee 8f 87 3c 5b 50 bc 3c
       0.08248376 0.0061332094 0.016548123 0.022987535
000170 ad c2 22 bd 86 37 31 3d 2f c6 9d bc 71 93 7a 3d
       -0.03973644 0.043265842 -0.01925954 0.061175767
000180 d3 76 d2 3c 65 9c 70 bd 57 78 b4 3b 61 38 0b 3d
       0.025691425 -0.0587429 0.0055075097 0.033989314
000190 13 7a 84 3d af 0a b7 3c 07 4c c2 bc 78 c7 3c 3d
       0.06468596 0.022343962 -0.023717893 0.046088666
0001a0 0f e3 c4 3c 6b 4e ff 3c f1 ed c5 3c 9d 32 d5 bc
       0.024034051 0.031165322 0.02416131 -0.02602511
0001b0 a3 cb 0b bd 8e ff 69 3b db d8 c4 bb 01 cf 51 bb
       -0.03412975 0.00357053 -0.0060072965 -0.0032014253
0001c0 a9 bc a7 3c cc 36 a7 3c 91 44 b3 3c 84 b8 ad bc
       0.020475702 0.020411871 0.021883281 -0.021206148
0001d0 ce 35 a6 bd 83 44 72 3d 23 f3 55 3c 9f 67 bd 3c
       -0.08115731 0.05914737 0.013058457 0.0231207
0001e0 08 ce 13 3d bc 9d 12 3b 62 6b 0e bb 39 6a 42 bd
       0.03608516 0.002237185 -0.0021731486 -0.047464583
0001f0 c7 49 ac 3b 5e f9 ab bc 54 1e 3a 3d 68 36 bf 3c
       0.0052578184 -0.020992931 0.04543908 0.023341373
000200 ce c7 83 bc 2a 4a a9 3c 41 03 6e bd 6f 79 c6 3b
       -0.016086485 0.020665247 -0.058108572 0.0060569565
000210 42 37 20 3d b6 c8 2d 3d f8 4e 40 3c 58 6d b7 bc
       0.039115198 0.04242774 0.011737578 -0.022391006
000220 a1 0b 97 b9 7e ae ea 3b b2 5d 26 bd 0e e3 05 bc
       -0.0002880963 0.0071619144 -0.0406167 -0.00817181
000230 fd d3 32 3d c9 2b 00 3d 20 50 4d 3d ea 0e 30 3d
       0.0436592 0.031291757 0.05012524 0.042982973
000240 3b 1c 1e bd 0d 8b fa bc 3c 01 90 bc 86 24 9b bc
       -0.03860114 -0.030583883 -0.017578714 -0.018938314
000250 c3 42 16 3c e3 00 2a bb f3 55 c6 bc ff c1 20 bd
       0.009171191 -0.002594047 -0.024210906 -0.03924751
000260 22 aa db 3c 9a 5d 21 3d 84 dd 22 3d ea 45 15 3c
       0.026814524 0.039395906 0.039762035 0.009110907
000270 1b ab 35 3d 19 11 b0 3c 42 b0 2e 3c 48 4b 80 bc
       0.044352632 0.021492528 0.01066214 -0.015660897
000280 90 d9 80 3c 16 7e 18 bd e2 07 19 3d 15 6f 06 bd
       0.015728742 -0.03722962 0.037361033 -0.03282078
000290 3b e2 45 3b 05 57 24 3d e4 1c 62 bd 8a e7 67 bb
       0.0030194658 0.04012205 -0.055203333 -0.003538581
0002a0 82 ba d0 3a 40 4e 35 3d 4e 20 a2 3c ce 64 6d bd
       0.0015924724 0.04426408 0.019790795 -0.057957463
0002b0 16 dc 8a bb da 4d 85 3b 7c 85 95 bd 1b 28 a0 3b
       -0.004237662 0.0040681185 -0.07300851 0.0048875934
0002c0 07 78 82 3a 53 f0 54 bc 44 0a d7 3c 44 d3 6c 3b
       0.0009953984 -0.012996751 0.026250012 0.0036136666
0002d0 80 2f b0 3c 06 c8 01 bc 7f 76 ce 3c 07 b7 6a 3c
       0.021507025 -0.007921224 0.025202988 0.014325864
0002e0 0a 58 76 3c a8 a3 c3 bc d7 93 3c bd ef 1a 95 bc
       0.015035639 -0.023881748 -0.04603943 -0.01820132
0002f0 5c 24 e0 b8 4a c4 85 3c 4e 3c b0 bb 54 46 9d 3c
       -0.00010687925 0.01632895 -0.0053782826 0.019198574
000300 28 e9 0e bd 89 95 b0 3c ec c6 f5 3c 60 75 1c bd
       -0.034890324 0.021555679 0.03000208 -0.038197875
000310 41 d4 93 bc 44 9e cb 3b 7b c0 07 bc e5 a3 3c 3d
       -0.018045546 0.006213935 -0.008285637 0.04605474
000320 05 93 21 3c 0b 7d c9 3c 94 a2 7f 3c a2 b8 36 3c
       0.009861712 0.024595758 0.0156027265 0.011152418
000330 94 a5 ed bc 00 06 ee 3c 9c ac 1d 3d a1 fe 6f 3a
       -0.029009618 0.029055595 0.03849469 0.0009155069
000340 11 33 b2 bc c9 7c 78 3c b1 82 3a 3c 8e 96 26 bd
       -0.021752866 0.01516647 0.011383698 -0.040670924
000350 e5 a8 d9 bc 02 c3 f5 3c 7b b3 10 3d 41 cc b3 bb
       -0.026569793 0.030000214 0.035327416 -0.0054869954
000360 f2 88 6e 3d 3d 51 8e 3c a4 1d a9 3c d5 dd e7 3c
       0.05823607 0.017372722 0.020644017 0.02830402
000370 6b 50 c6 bc 59 78 d7 3c 83 91 95 3c b1 7b 3f 3d
       -0.024208268 0.026302503 0.018257862 0.04674882
000380 6d 75 5f 3c 50 f9 ca bd 47 c2 2f 3b 7f 17 7c 3c
       0.013638836 -0.09910834 0.002681868 0.015386461
000390 07 6a 65 3d 3f 66 57 3c d2 f7 c6 bc d5 01 1c 3d
       0.05600932 0.013146936 -0.024288092 0.038087685
0003a0 ad 16 45 bc b0 7f 28 3c 63 2e 8c 3d 9c ed 5f ba
       -0.012029332 0.010284349 0.06844785 -0.00085421815
0003b0 2c 44 ce 3c 0b fd 98 bc 87 6f 2b 3c 51 45 d8 bb
       0.025178991 -0.018675348 0.010463602 -0.00660006
0003c0 80 ac de 3c cc 68 ab 3b 4d 5d dc 3c 1f bc a2 bc
       0.027181864 0.0052309986 0.026899958 -0.019865094
0003d0 63 e4 19 bd 55 17 98 3b 50 75 7e 3c d0 04 06 3d
       -0.037571322 0.0046414533 0.015530899 0.032719433
0003e0 c0 3f da 3c 97 fe 20 3c 63 8d 5a bd 7e 47 88 bd
       0.026641726 0.009826324 -0.053357493 -0.06654261
0003f0 77 68 ba bc 57 e9 02 bd bf 02 07 3d 88 ea a8 3b
       -0.02275489 -0.03196081 0.032961603 0.0051549114

action_model._discrete_distribution.branches.0.bias f4 [5]
000000 68 0c 0f 39 2e 9a b4 3b 7a dd 9b bb da 67 64 bb
       0.00013642164 0.0055115437 -0.0047566267 -0.003485194
000010 24 b8 79 3c
       0.015241656
