Assets/Brain/Tests/1.5mil.onnx (onnx, 136172 bytes, 9 tensors)

network_body._body_endoder.seq_layers.0.weight f4 [128, 114]
000000 0c 15 77 3e c6 2b 88 3d 2c 99 d1 3b 43 4e 1c be
       0.24129122 0.06648974 0.0063964333 -0.1526423
000010 0f 35 bb bd ea d1 6f 3d a5 0f 5b 3e 33 0c 68 3c
       -0.091409795 0.0585498 0.21392687 0.014163065
000020 af 1c 21 bd ba 6b 5a bd a2 b3 f2 bd 90 5e 52 bd
       -0.039333995 -0.053325392 -0.118506685 -0.051359713
000030 29 02 14 bb 86 94 ac bd aa b4 5f 3e 64 0b 33 39
       -0.0022584295 -0.08426766 0.21846262 0.00017075014
000040 b6 ef 07 3e 9b d2 f8 3a f7 a3 dd 3d 08 b3 19 3e
       0.13275036 0.0018983664 0.108222894 0.15009701
000050 39 24 02 3e ba 54 b4 3d b9 61 dd bc 29 8f 9f bd
       0.1270913 0.08805223 -0.027024137 -0.077909775
000060 16 7f 2c 3e f4 5b fb 3b c1 76 1b 3e 08 9a e5 bd
       0.16845354 0.007670874 0.1518202 -0.1121102
000070 21 84 57 bd 37 10 5b bc 10 df 68 bd d4 35 ae 3c
       -0.052616242 -0.013370565 -0.056853354 0.021265902
000080 aa b2 4b 3e 08 33 c7 3d f0 d2 83 3d fc 80 f4 bd
       0.19892374 0.0972653 0.064367175 -0.11938664
000090 3b ce 93 3b 5b bc 71 3e 72 25 4b 3e eb e3 ac bd
       0.0045106686 0.23607008 0.19838503 -0.084419094
0000a0 03 2a 33 3d 51 c9 e4 3d 97 35 b0 3d 2c 39 14 3d
       0.043741237 0.111712106 0.086039715 0.036187336
0000b0 0d f3 c8 bc 4c b1 35 3d 93 8b 0a be 6b 62 32 3d
       -0.024529958 0.044358537 -0.13529806 0.04355089
0000c0 63 6c 83 bc c8 af 87 bb f6 29 9d 3d 57 2f 40 3e
       -0.016042894 -0.004140828 0.07674019 0.18768059
0000d0 9a 1b 16 3c ec f9 53 bd 54 c0 63 3c 5e 3e 31 be
       0.009161854 -0.051752016 0.013900835 -0.17308947
0000e0 08 6d 29 3d 53 57 63 3d 3e d3 33 3d c1 7a b8 bd
       0.041363746 0.0555032 0.043902628 -0.090077884
0000f0 bc 77 95 bd eb 7f e4 bd da 64 f8 bd d2 9f 87 3a
       -0.07298228 -0.11157211 -0.12128611 0.0010347313
000100 63 1f ab 3d 4f 5e 24 3d 3e fe 8d 3d e2 41 e8 3d
       0.08355596 0.040129002 0.069332585 0.11340691
000110 0e 07 c2 bd 9a 6f 21 3e 75 64 f9 3d ce 9f 8f 3d
       -0.09474002 0.15765229 0.12177364 0.07012902
000120 ee 92 3b bd b0 0e 00 be 8f e8 2b 3d fa f4 c5 bd
       -0.04579442 -0.12505603 0.041969832 -0.09665866
000130 08 97 8f 3d 36 4c 68 3e d9 20 94 3c 7f c0 66 3d
       0.07011229 0.22685322 0.01808207 0.056335922
000140 25 04 0b bd ed e9 cc bd da 84 2f 3e ac 53 1f bd
       -0.0339395 -0.10005555 0.17140523 -0.038898155
000150 94 2a 16 bd 66 88 11 bd 61 e8 5e bd 81 e9 51 3d
       -0.0366617 -0.03553047 -0.054420833 0.051248077
000160 f4 24 1b 3e 80 5b 01 be 3e b3 37 3d 23 a1 8f bd
       0.15150815 -0.1263256 0.044848673 -0.07013156
000170 86 c5 db 3c ef a8 95 3d 63 23 c1 3d 02 3a 9e bd
       0.026827585 0.07307612 0.094305776 -0.07725908
000180 d5 ce 64 bc 77 4e 10 bd 0d 1d 25 3b 29 01 0b 3d
       -0.013965328 -0.03523108 0.0025194318 0.033936653
000190 a8 a1 ab bc f8 aa ef 3d 2e db b5 3d d1 52 0a be
       -0.020951107 0.117025316 0.08879696 -0.13508154
0001a0 e1 a0 9e 3b 88 9d 20 be 82 a8 fa bd a9 aa 8d 3d
       0.0048409556 -0.15685093 -0.122391716 0.069173165
0001b0 74 9b 3c ba f5 07 08 3e 43 1d 92 3d f1 37 96 bc
       -0.0007194795 0.13284285 0.071344875 -0.018337222
0001c0 90 5c a8 3d e8 5d 1f 3e 55 f4 4d bd cc 56 58 bc
       0.0822078 0.15563166 -0.05028184 -0.013204288
0001d0 3a ce 35 3d 73 c0 b3 bc fd 56 33 3c 93 85 0e 3e
       0.044386126 -0.021942353 0.010946033 0.13918142
0001e0 f5 10 c7 3c 07 c1 1b be 59 1f f9 bc 86 ad 59 3a
       0.024300078 -0.15210353 -0.030410456 0.000830375
0001f0 5a 53 60 3b b7 20 9e 3d b9 20 99 3d 13 ad 83 bd
       0.003422937 0.077210836 0.074769445 -0.06429496
000200 37 0d 08 3d 9b 49 88 bd d0 38 a0 bc 2a 6d 21 3e
       0.033215728 -0.06654664 -0.01955834 0.15764299
000210 b9 5d af bc 0b f0 86 bd 0a 40 2c 3c d7 b4 23 3e
       -0.021406995 -0.06588753 0.010513315 0.15986954
000220 d1 49 a7 3c b9 29 de 3c a1 82 be 3d b2 9e c4 3d
       0.02042094 0.027119504 0.09302259 0.09600581
000230 47 4a ac bd 00 9a 43 3c 93 b2 bc 3d 78 71 91 3e
       -0.08412605 0.011938572 0.09213748 0.28406882
000240 ba fa ae bc fc 76 c3 3d 5e cf 88 bd 87 d4 0f 3d
       -0.02135979 0.09544179 -0.06680177 0.03511479
000250 3e 08 c0 3d c9 58 d6 3d 1e 5e 94 bd 73 31 d4 bd
       0.09376572 0.10466153 -0.07244514 -0.10360994
000260 55 f8 1b 3c 9d d5 f9 3d a8 b0 ee bc 0e ba ad 3c
       0.009519656 0.121989466 -0.02913697 0.021206882
000270 e8 ce 11 bd 82 7d 0b 3e 10 bb f0 bd fc 16 cb 3c
       -0.03559771 0.13622096 -0.11754429 0.024791233
000280 22 51 82 3d 57 be f9 3d 81 99 7b bd 6c d9 e8 3c
       0.06363131 0.121945076 -0.06142569 0.028423987
000290 74 d2 97 3d fa 47 c0 bd 0c eb 5e 3e d5 a3 12 3d
       0.074131876 -0.093887284 0.21769351 0.035800774
0002a0 c2 f5 6e 3e 55 a2 a0 bd 49 31 09 3e 64 0a d9 bc
       0.23335937 -0.078434624 0.13397707 -0.026494212
0002b0 72 51 f8 bd 38 a2 55 be 21 52 8d bd 9a 9e b0 bb
       -0.121249095 -0.20862663 -0.069004305 -0.0053900005
0002c0 e8 23 d7 3d 03 8f ab bd dc 0a 03 3c 86 89 17 bd
       0.105048954 -0.08376887 0.007998195 -0.036996387
0002d0 66 b4 a9 bd 9b 1f 81 3d de cd 80 3d 32 f5 07 3c
       -0.082863614 0.063048564 0.06289266 0.008298205
0002e0 1c af 6e bd 83 a5 d1 3d 02 fb 94 3e 6f 1b 1e bd
       -0.058272466 0.10236647 0.29097754 -0.03860038
0002f0 21 f7 9e 3c cf f8 53 3d 03 35 57 3e 26 b9 a8 bd
       0.01940495 0.051750954 0.21016316 -0.08238439
000300 72 8d cf 3d 68 99 30 3e 4f 10 8d 3c 95 a0 33 be
       0.101344004 0.1724602 0.01721969 -0.17541726
000310 c7 96 6b bd d8 56 98 3d 80 13 58 bd ad d0 08 3d
       -0.05751684 0.07438439 -0.05275297 0.033402134
000320 6b 55 13 bd 98 a5 f4 bd a7 c2 70 3c 4d 82 c9 3d
       -0.035970133 -0.11945647 0.014694846 0.09839306
000330 8c 77 41 3d 50 8c 10 be cc a8 c5 3a 96 c7 7d bd
       0.04723315 -0.14116025 0.0015080213 -0.061957918
000340 bb 72 04 be 2a ea 13 be 8f 19 73 3e 2a 25 3f bd
       -0.12934391 -0.14444795 0.23740219 -0.0466663
000350 14 74 89 bd ee 11 ea bd e1 cb 80 bc 4d 70 eb 3d
       -0.06711593 -0.11429201 -0.015722217 0.11496029
000360 70 c1 06 3d 31 25 f9 bc fe 33 10 bd a4 32 f6 3d
       0.03289932 -0.030413242 -0.035205834 0.12021378
000370 eb b9 b9 bd 43 5e b8 3c 62 e8 2e be 2a 19 21 be
       -0.09068664 0.022505885 -0.17080835 -0.15732256
000380 1a 15 8f 3c 5a c1 a1 3d 88 e5 e1 bc 00 09 7f 3c
       0.017466117 0.07898207 -0.02757527 0.015566111
000390 d5 21 27 3d 58 90 23 3e 4b 8b 34 3d 3f d2 0f 3e
       0.04080375 0.15973032 0.044078153 0.14045046
0003a0 c0 6d 07 3e 20 33 02 be 20 28 20 3d 0e 05 a0 bd
       0.1322546 -0.12714815 0.039100766 -0.07813464
0003b0 6e a1 a2 bd 53 5f ef 3d 07 f6 5d 3e d5 5b 08 3e
       -0.079409465 0.116881035 0.21675883 0.13316281
0003c0 08 8b 53 3d 3f c9 8c bd d0 7e b8 3d 0c 90 0c be
       0.051646262 -0.06874322 0.090085626 -0.13726825
0003d0 6f 13 be bc 87 53 30 be e9 2f a7 3d 40 8f 4c 3d
       -0.023202626 -0.17219363 0.08163435 0.0499413
0003e0 60 e3 1c be f9 67 97 bd 4e 31 87 3d 5d 32 ce bd
       -0.15321112 -0.07392878 0.06601201 -0.100682
0003f0 c6 19 ee 3d db a9 38 bc 4a 2e 49 bd 13 2e 1c 3d
       0.1162601 -0.011270965 -0.04911641 0.038129877

network_body._body_endoder.seq_layers.0.bias f4 [128]
000000 ee 4a 58 3c ee 99 48 3c 48 9c db 3c eb 2b 90 3b
       0.013201458 0.012243731 0.02680792 0.0043997667
000010 87 3e 51 3c 9f 59 ea 3a 9b 0f 1f 3c 1b 59 db 3c
       0.012771255 0.0017879492 0.0097083105 0.026775887
000020 56 3a cd bb 53 18 2f 3c 8c 17 22 3c 9e 09 d7 3c
       -0.0062630577 0.010686952 0.009893309 0.026249703
000030 af 29 f3 b9 82 84 a2 3c a2 2b ac 3c 69 4d ff 3b
       -0.00046379628 0.019838575 0.0210169 0.0077912104
000040 86 d6 09 bb bb 8b 95 bb 40 c0 57 3c 9d f5 f5 3b
       -0.0021032407 -0.0045637763 0.013168395 0.007506086
000050 d8 66 82 3b e6 23 01 3d 61 bf 6b 3b 61 17 c1 38
       0.003979545 0.031528376 0.0035972225 9.207312e-05
000060 f4 6a 80 3c f1 1d b5 3c 8c 40 4b 3c 6d 09 10 3c
       0.015676 0.022109004 0.012405526 0.00879131
000070 b8 58 88 3c ba 23 1f 3c 1d c3 ff 3c ea 0b 11 3c
       0.016643867 0.009713108 0.031220967 0.008852938
000080 8c e8 e1 3b cb 66 27 3c e9 45 a9 3c 21 33 1f bd
       0.006894177 0.010217379 0.020663219 -0.03886712
000090 9f b4 88 3c 89 86 d3 3b cb 5b 9d 3a fe 17 e6 3c
       0.01668769 0.006455247 0.0012005506 0.028087612
0000a0 a9 51 c5 bb 6a 82 be 3c cf 91 4e 3c 47 18 f5 3b
       -0.0060216975 0.023255546 0.012608006 0.0074797007
0000b0 71 24 e9 3c d2 b0 41 3c c2 90 e7 3c ed bd ae 3c
       0.02845976 0.011821942 0.028267268 0.021330798
0000c0 bd 55 92 3c d5 e3 b0 3c 2c 1c 7f 3c ca 29 3c 3b
       0.017863149 0.021593014 0.015570682 0.0028711432
0000d0 65 f2 73 3b df 44 f1 3c cf b4 42 3c 02 69 b8 3c
       0.0037223336 0.029451786 0.011883928 0.02251101
0000e0 2d 10 84 bb 76 92 7e 3c a2 16 04 3c 96 24 65 3c
       -0.0040302486 0.015537849 0.008062037 0.013985774
0000f0 ff b1 dc 3c 9d 0b 9c 3c 1e 5c 0c bd 8f 7b 12 3d
       0.026940344 0.019048506 -0.034267537 0.035762366
000100 72 a8 3d 3c 04 f7 53 3c 1e 59 83 bb 21 9e dc 3b
       0.011575805 0.012937311 -0.0040084263 0.0067327176
000110 2e 17 8a 3c a5 93 b7 bc ce 9c 48 bc 6b 81 f5 3a
       0.016856756 -0.02240927 -0.012244416 0.0018730586
000120 a6 bf ac 3b 12 3d a9 3c 98 00 ad 3c db 01 7a 3c
       0.0052718697 0.020659003 0.021118447 0.015259231
000130 ac 2a fc 3c 04 d1 3c bc 34 bf bb 3c ae 99 27 3b
       0.030782066 -0.011524443 0.022918321 0.0025573778
000140 d3 de 0b 3c e5 71 af 3c a4 d3 a8 3c 57 95 fc 3c
       0.008537012 0.021416614 0.02060873 0.03083293
000150 31 4b eb 39 04 22 df 3c 72 b6 4d bc 0c fd 1d 3c
       0.00044878715 0.0272379 -0.012555705 0.009642851
000160 ba 3b d3 3c c4 03 fa 3b 5a 03 07 3c 33 22 e8 3c
       0.025785316 0.0076298434 0.008240545 0.02833662
000170 36 d4 b9 3c cf 79 9d 3c a2 4c 0a 3c 77 5c 5d 3c
       0.022684198 0.019223122 0.008441122 0.013510815
000180 13 d6 0d 3c a0 8b 01 3c 34 7f 88 3b 46 44 da 3b
       0.008656996 0.007906824 0.0041655544 0.006660971
000190 ce be 06 3d d0 fc 2e 3d 82 8c 84 3c 5a 93 93 3c
       0.03289681 0.04272157 0.01618028 0.018014599
0001a0 3f c9 3e 3d 02 2f 47 3b 42 07 e0 3b fe 7e 9d 3b
       0.046578642 0.003039301 0.0068368027 0.0048063984
0001b0 aa d8 03 3d e3 55 b3 3c b2 c8 9e 3c d6 12 98 3c
       0.03218905 0.02189154 0.019382808 0.01856367
0001c0 99 ba a3 3c ad e0 05 3d b8 03 7b bb e9 15 8f 3b
       0.019986438 0.03268497 -0.0038301777 0.0043666256
0001d0 56 8e 05 3c 57 a4 50 3b 25 b5 21 bc cd 5c 4a 3c
       0.008151611 0.0031836235 -0.009869848 0.012351227
0001e0 a9 ed a9 3b c1 41 35 3d c8 e7 d3 ba ca 4c d2 3c
       0.005185802 0.04425216 -0.0016167099 0.025671382
0001f0 de e3 db bb 84 44 63 3c 17 12 9f 3b 62 96 d1 bb
       -0.0067105135 0.013871316 0.0048544514 -0.006396101

network_body._body_endoder.seq_layers.2.weight f4 [128, 128]
000000 9e 42 45 bd f5 4d 23 bd 60 4f ce 3d 9d b9 9d bd
       -0.048159234 -0.039869267 0.10073733 -0.077014185
000010 4a b5 ad 3c 7f bc 4d be 11 1d b7 bc 88 af f3 bc
       0.02120461 -0.20091437 -0.022352727 -0.029746786
000020 aa ef 92 3c 3a 06 ae bd 1c b7 36 3e 67 15 d7 bc
       0.017936546 -0.084972814 0.17843288 -0.026255323
000030 fd e1 db bd 02 f3 6d bc d6 2d 3e 3e 25 a5 80 3d
       -0.10736463 -0.01452327 0.18572173 0.06281499
000040 3a 30 1d 3d ef 9e 02 bc 31 8f 07 be a1 e9 84 bd
       0.03837607 -0.007972463 -0.13238217 -0.06489874
000050 11 5d 0d be c5 1e 06 be 0b ce 6d bc 31 70 29 3e
       -0.13805033 -0.13097675 -0.0145144565 0.16546704
000060 7b 02 ab 3d 4b 15 66 3d 25 dd 03 bd 28 21 d8 bb
       0.083500825 0.05617265 -0.03219332 -0.0065957494
000070 6d 93 ba bd d9 3f 01 bd 2b 9f 87 3d 89 9a b3 3d
       -0.091101505 -0.03155503 0.06622156 0.087697096
000080 6a 4f 45 3c fc d0 a5 3d 09 aa e8 3d 38 58 cf bc
       0.01204286 0.08096501 0.11360557 -0.02531062
000090 b0 b2 61 be c5 34 12 3d fc cc fb 3d 35 f7 56 bd
       -0.2204082 0.035694856 0.12294957 -0.05248185
0000a0 68 47 21 3d 62 97 c5 3d c9 5f 25 be 26 36 bf bc
       0.03937474 0.096480146 -0.1614982 -0.02334125
0000b0 0c c7 2f 3a 7d 1d 4a 3e c3 8b fc 3d f4 07 c7 3d
       0.00067053805 0.19737811 0.12331345 0.09718314
0000c0 8b fe 46 3d 86 8d 24 be 70 d1 9a bd 69 3b fd bc
       0.048582595 -0.16069612 -0.07559478 -0.030912118
0000d0 23 92 3e bc 77 63 f7 3d 9d ba b4 3d 76 26 06 3e
       -0.011631521 0.12079518 0.08824656 0.13100609
0000e0 0c 4e 11 bd ad 39 34 3e 1f 80 3f 3d 09 58 b4 3d
       -0.035474822 0.17600127 0.046753045 0.08805854
0000f0 df 35 c7 3c 58 c5 16 bd 40 ad 48 bc af f3 97 3d
       0.02431768 -0.036809295 -0.012248337 0.07419526
000100 47 f0 dd bd 7f d5 bb 3d 36 f2 66 bd 20 90 14 3e
       -0.10836845 0.091715805 -0.056383334 0.14508104
000110 42 63 cc bd 09 fd 0d bc c0 1a f9 3c 87 74 09 bd
       -0.099798694 -0.008666285 0.030408263 -0.033558395
000120 ec 95 cb bd 3a 16 b3 3d 55 8c 71 3b 93 5b 95 bd
       -0.09940705 0.08744474 0.0036857326 -0.07292857
000130 de 18 34 3e 3f 06 2d 3d fc a6 ca bc 2e 44 b3 3c
       0.17587611 0.042242285 -0.024737827 0.021883097
000140 a0 8b e4 3c f3 e4 99 3e c6 4e 14 3c b2 d1 21 3d
       0.02789861 0.30057487 0.009051984 0.03950662
000150 59 6f 5d bd cc 5d bd 3d 77 34 b1 bc 19 28 13 3e
       -0.054061268 0.09246406 -0.021631462 0.14370765
000160 4c 7a 16 bd 90 61 b4 3a 16 1e 85 bd a4 e3 65 bd
       -0.036737725 0.0013761986 -0.06499879 -0.0561253
000170 c3 00 11 bd e6 e4 eb bd 9d 79 07 3e 8c c0 18 be
       -0.035401117 -0.11518268 0.13229986 -0.14917201
000180 74 ef 9d bd 06 85 b3 bd ab 70 a6 bd 3c 9f b1 3d
       -0.07711688 -0.087656066 -0.081269585 0.0867295
000190 d3 a5 90 3e 85 a3 6d 3d 2f 4f 0b bc 31 fc 72 3d
       0.28251514 0.058017273 -0.008502766 0.05932254
0001a0 73 89 08 3d 6f 0f 8f bd 95 44 15 bd 57 1c fd bc
       0.033334207 -0.069853656 -0.036442358 -0.030897303
0001b0 f5 71 ed 3c 4b 06 35 3e 69 bc 0e 3d d9 e1 4a 3d
       0.028985003 0.17678182 0.03484765 0.04953179
0001c0 f2 5b e6 bc 45 1b cb bd 23 c3 32 be 11 25 27 be
       -0.028120015 -0.099173106 -0.17457251 -0.16322733
0001d0 4a 49 0b 3d c8 01 1b bc df 5e 6b be 6d 1b f2 bd
       0.03400544 -0.009460874 -0.22985409 -0.11821637
0001e0 ff 94 37 3d fa a4 18 3d a9 ef d2 bc 49 a4 07 3d
       0.044819828 0.03726671 -0.025749044 0.03311566
0001f0 cf 72 47 bd e7 d9 0f 3d cf ac 26 bc ef 1d 02 3d
       -0.048693474 0.035119917 -0.010173037 0.03176683
000200 a0 2c 78 3d 8f ba 34 3e c1 52 a0 bd 45 2f 1c 3d
       0.060589433 0.17649291 -0.07828284 0.038131017
000210 b2 4d 4f bc 50 ff d9 3d 51 2f bf 3c 65 6c 15 3e
       -0.012652801 0.106444 0.023337992 0.1459213
000220 03 51 d3 bd 1d e3 60 3d 32 bc 17 be 79 85 ad 3d
       -0.10318186 0.054904092 -0.14817885 0.084727235
000230 63 a8 40 bc c1 fb c8 3d 42 53 df 3c b9 3c 43 bc
       -0.0117588965 0.09813643 0.02726138 -0.011916333
000240 d9 8c 85 3d f8 78 85 bd 2e 49 fc bc f5 5e 99 3d
       0.06521005 -0.065172136 -0.030796614 0.07488815
000250 de 7e 9f 3d a8 74 5f 3d 15 43 d2 bd 43 ef 33 3b
       0.0778787 0.05455461 -0.10266701 0.0027455844
000260 b1 ca c8 3b 86 9c f5 3d 86 63 ff bc 3a 24 ab 3b
       0.0061276783 0.11992745 -0.031175386 0.0052228244
000270 10 d3 cc 3c 29 57 49 bc fc d1 5b 3c 2b a1 d6 bc
       0.025002986 -0.012288847 0.013416763 -0.026199898
000280 65 0b 91 3d 09 a6 d9 3d 7b 28 c8 bd 80 00 e7 3c
       0.070822515 0.10627372 -0.09773346 0.02819848
000290 7c 3a a7 3d 5f 52 5e 3d 44 ed a3 3d c1 58 68 3d
       0.08165452 0.054277774 0.08004239 0.056725267
0002a0 d3 df 83 bd b9 1a 29 3d 2c 6e 5a 3c c3 82 b2 3c
       -0.064391755 0.04128525 0.013331931 0.021790868
0002b0 31 b4 88 bd 5f 05 b6 bc 2a ef 48 3d 31 5e 58 3b
       -0.06674994 -0.022219358 0.04905621 0.0033015127
0002c0 96 f0 b1 3d 61 76 6b 3c cc 9f 06 be 81 5e 37 3d
       0.08688466 0.014371485 -0.13146895 0.04476786
0002d0 72 ad 3d 3e 85 5b 07 be f1 00 17 be 64 9c e4 3d
       0.18523195 -0.13218506 -0.14746453 0.11162642
0002e0 14 3f f9 bc 5a a5 d5 3c 7d bc 23 bb b7 7e 37 3d
       -0.030425586 0.026079822 -0.0024984174 0.04479858
0002f0 97 b1 c2 bd a8 77 6e bc 15 64 23 bd a2 5a ee bc
       -0.09506529 -0.014554895 -0.039890368 -0.029095951
000300 65 85 5f bd d6 23 04 be e7 b5 6e bd 7e bc 1d 3d
       -0.054570574 -0.12904295 -0.058278944 0.03850984
000310 3e ee b4 3c 15 fd a2 bd b7 54 05 3e 52 7f ae 3d
       0.022086259 -0.07958428 0.13020597 0.08520378
000320 a6 6c 97 3d c5 2c 31 bd 9c 69 42 bd 29 e6 de bd
       0.0739377 -0.043255586 -0.047464 -0.10883743
000330 c2 27 dc 3c 89 b8 95 3d f3 50 2c 3d da db 93 3d
       0.026874427 0.07310588 0.042069387 0.07219668
000340 64 f9 44 3d d4 21 06 be 69 1d e8 bd a0 ff b3 bd
       0.0480894 -0.13098842 -0.113337345 -0.08788991
000350 6e 5f 5d bc 7c be b2 bd 0a 85 92 bd da ac 31 bd
       -0.013511522 -0.08727738 -0.071542814 -0.043377735
000360 1f 55 cd 3d 2d ee 00 bd 0d f0 44 3d de 70 13 be
       0.10026001 -0.031477142 0.048080493 -0.14398524
000370 47 12 eb 3d 3b a4 64 bc 75 c5 af bc 57 fb 19 3d
       0.114780955 -0.013955171 -0.02145646 0.037593212
000380 6b 41 44 3e d9 f2 1b bc 34 8f 39 bd b6 74 ae 3d
       0.1916558 -0.009518349 -0.045302585 0.085183546
000390 ea 03 9a bd 5d ec 10 be b6 50 d5 3d 7f 7a 1a 3e
       -0.07520278 -0.14152665 0.10415785 0.15085791
0003a0 71 4a b4 3d b3 d5 d4 bc 8c a9 25 be 68 61 02 be
       0.08803261 -0.025980806 -0.16177958 -0.1273247
0003b0 ff de 17 3e 1d 40 38 bc 1d 78 4e 3d 2a 7a 6f 3d
       0.1483116 -0.011245755 0.050407518 0.058466114
0003c0 c4 aa 52 3c 7c 1d 4b bc ca 79 57 3e 40 7f b4 bd
       0.0128580965 -0.012397166 0.21042553 -0.088133335
0003d0 d0 1b 1d 3d 6f fe 80 3d 3a ce 6e bd b3 d0 10 3e
       0.038356602 0.06298529 -0.05830214 0.14142112
0003e0 1d 19 a7 bd 57 32 53 be 89 f0 df bb 8a 75 42 3e
       -0.08159087 -0.20624672 -0.006834094 0.1899015
0003f0 fa 79 d2 bc 06 95 5b 3d 9d 79 57 3e 25 13 06 be
       -0.025692929 0.053608917 0.21042486 -0.1309324

network_body._body_endoder.seq_layers.2.bias f4 [128]
000000 17 5b 07 3c 76 0f d0 3c 22 94 ec 3c 9e 8d 85 3c
       0.008261464 0.025397997 0.028879229 0.01630288
000010 6c 68 aa 3c 56 a9 3f 3c 3e d3 85 3b a9 fe 7d 3b
       0.020801745 0.011698088 0.00408402 0.0038756526
000020 d0 cf e8 b9 a8 5e 4a bc 63 04 ea 3b 69 8e 24 3b
       -0.0004440532 -0.012351669 0.007141636 0.0025109297
000030 4e ec 8f ba 11 95 a1 3c 72 83 a7 3c 18 3a 80 3c
       -0.0010980458 0.0197244 0.02044842 0.015652701
000040 70 44 bc 3c 66 85 2f 3c 75 29 f0 3b 1f 58 f9 39
       0.022981852 0.010712957 0.007329161 0.00047558636
000050 fa a0 08 3c bd f9 a2 b9 4f 3a 6d 3c 57 24 0a 3c
       0.008339161 -0.00031085117 0.014479234 0.008431516
000060 b5 24 9b ba a6 06 6a 3c e2 ad 69 3c 68 e1 a9 3c
       -0.0011836501 0.014283812 0.014262648 0.020737365
000070 5c d9 24 3c 62 b2 2f ba 1e e9 33 3b d2 ae 81 3c
       0.010061588 -0.00067023013 0.002745218 0.015830431
000080 f1 79 9c 3c f6 42 90 3c d1 55 03 3b 66 12 bc 3b
       0.019101115 0.017610054 0.0020040164 0.005739498
000090 1f 52 b0 36 db d8 7a 3b 9d 5b 98 3c a4 95 e8 3c
       5.254769e-06 0.0038276229 0.018598372 0.028391667
0000a0 09 92 82 3c 7d ff 58 3c ac d5 cf 3b a1 95 56 3c
       0.015938776 0.013244507 0.0063426103 0.013097198
0000b0 e5 48 a4 3c 8a 25 31 3b 7c a5 b2 3b 21 73 a0 bb
       0.02005429 0.0027030432 0.005451856 -0.004896537
0000c0 82 78 79 3c cc 3d f9 3b b8 37 de 3b d2 09 ec 3c
       0.015226485 0.0076062437 0.0067815445 0.028813276
0000d0 2d b5 e9 3c 12 dd 5b 3c 38 05 97 3c dd a1 99 3c
       0.028528774 0.0134194065 0.018435106 0.01875394
0000e0 7c e3 69 3c 09 ca 79 3b a0 b9 db 3c 93 18 f3 3c
       0.014275428 0.0038114807 0.026821911 0.029674804
0000f0 28 0d 9c 3b d7 65 8d 3c 1d 89 9d 3c f2 e8 87 3c
       0.0047623105 0.017260475 0.01923042 0.01659057
000100 f5 84 92 3c c9 d5 12 3c 24 03 0c 3d db 81 01 3d
       0.017885664 0.008962103 0.034182683 0.03161798
000110 1c ef 9d 3c 83 99 8e 3c 8e d8 fd 3c 74 8c fc 3b
       0.019279055 0.017407184 0.03098705 0.007707173
000120 43 d5 9a 3c ca 32 1c 3c 6a de 62 3b ea 9b 03 3d
       0.01890052 0.009533593 0.0034617432 0.032131113
000130 42 97 d4 3b 2a 16 64 bb ad ce 02 3c 6e 95 54 3b
       0.006487758 -0.003480325 0.007983846 0.00324377
000140 4f e1 b4 3a 4a 87 ac 3c fe 98 ee 3c 1c 96 e8 3c
       0.0013800057 0.021060605 0.029125687 0.02839189
000150 3b b3 a8 3c a9 cb 59 3b 27 51 a6 3c 24 e6 c7 3b
       0.020593276 0.0033232963 0.020302368 0.006100433
000160 8e 73 98 3c 1e da 0b 3c f8 4c 05 bc 30 9b 93 3c
       0.018609788 0.00853589 -0.008136027 0.018018335
000170 e4 00 e7 3b 7d e0 82 3c b7 ea 0a 3b b1 47 d9 3b
       0.0070496667 0.015976185 0.002119703 0.0066308607
000180 ab f0 a0 3c 24 c0 23 3c 52 24 81 3c 11 c1 f3 3c
       0.01964601 0.00999454 0.01576439 0.029755147
000190 99 16 ea 3c 1d 03 62 3c ff ea 89 3b a5 c8 be 3a
       0.028575229 0.013794688 0.004208922 0.0014555646
0001a0 27 49 11 3c 7a 7e ff 3c e3 42 16 3d da ac af 3c
       0.0088675385 0.031188238 0.036684882 0.021444727
0001b0 66 7b 0a 3c fe 93 8a 3c c2 d1 81 3c a4 57 9b bb
       0.008452272 0.016916271 0.01584709 -0.004740672
0001c0 50 45 4b bb 09 0d ee 3c 0d e9 24 3c 92 75 17 3c
       -0.0031016655 0.02905895 0.010065329 0.00924434
0001d0 75 47 dc 3c 99 4e af 3b 19 2c 41 3c 0f 4c f9 3c
       0.026889542 0.0053499457 0.011790299 0.030431775
0001e0 05 a2 24 bb 7a 78 56 3c e1 c9 8b 3b a3 30 14 3c
       -0.0025120985 0.013090247 0.004266009 0.009044799
0001f0 8a 2f 9e 3c eb cc c5 3c 2b 7a 78 3a 6e 2a 63 3c
       0.019309778 0.024145564 0.00094786537 0.0138650965

action_model._continuous_distribution.log_sigma f4 [1, 3]
000000 0c d9 a1 bd 04 2c 04 be e8 13 6c be
       -0.079027265 -0.12907416 -0.23054469

action_model._continuous_distribution.mu.weight f4 [3, 128]
000000 ed 1d ad bd 73 8c 7a 3d c7 98 dd bb ef 6f a0 3d
       -0.084529735 0.0611691 -0.0067625972 0.0783385
000010 15 91 93 3c 5a 1e 66 bd 2f 30 85 3d 92 ee d2 bb
       0.018013516 -0.05618129 0.06503331 -0.006437131
000020 39 68 c2 3c 10 5b 0f 3c 91 d4 d2 3b a6 d6 08 3d
       0.023731338 0.008749738 0.0064340313 0.03340783
000030 12 75 24 ba 8e b0 9a 3d 51 60 9a bd 8b e1 3d 3d
       -0.00062735484 0.075532064 -0.07537902 0.046357673
000040 9c 13 58 3d 23 3f 17 3d 6e 44 d7 bb b6 3e 44 3c
       0.052753076 0.036925446 -0.0065694368 0.011977842
000050 d2 d2 bf bc 90 e1 10 bb b9 8b a2 bb d4 26 bb 3c
       -0.023415957 -0.0022107102 -0.004960504 0.022845663
000060 05 fc 50 3d f6 18 20 bd 27 7f a5 bd 9b 25 8a bd
       0.051021595 -0.039086305 -0.08080893 -0.06745454
000070 bd 69 67 bc 6b 91 29 bc 69 5c 13 3d 2f 20 b0 3d
       -0.014124331 -0.010349612 0.0359768 0.085998885
000080 2a ff ed bc 60 00 02 bd 4b d8 33 3d 03 5d 5f 3d
       -0.029052336 -0.03173864 0.043907445 0.054532062
000090 15 e2 7b 3c b7 26 12 bc 81 86 07 3d d9 67 d3 bd
       0.015373726 -0.008920363 0.033087257 -0.10322542
0000a0 9c d9 36 3d 76 09 f9 3c 00 b6 ab 3c ad 3c 81 bd
       0.044641122 0.03040002 0.020960808 -0.06310401
0000b0 4a 6e 80 3b 6f e7 ba bc bb 57 13 3d a0 e5 0f 3c
       0.0039193975 -0.022815434 0.03597234 0.008782774
0000c0 82 e2 00 3d 8c bb 0a 3d ba 96 03 bc 46 cc 5e bd
       0.031466015 0.033870265 -0.0080315415 -0.05439403
0000d0 14 ec a6 3d 1b f6 18 3d fd 61 5b 3d 7d 6a 72 3d
       0.08150497 0.03734408 0.053560246 0.059183586
0000e0 2a 4f 0d 3c 9d c4 b4 bc 28 dc ca bd e6 7c a2 bd
       0.008624831 -0.022066409 -0.09905273 -0.07933979
0000f0 ed 24 67 bd b3 3f a8 bd d3 e1 9d bb 15 3a f0 3c
       -0.0564317 -0.08215275 -0.00481818 0.02932457
000100 f3 1f 61 bc 90 e2 83 3d e6 e7 23 3c f0 30 85 bd
       -0.013740527 0.06439698 0.010004019 -0.06503475
000110 81 51 42 bd b4 dd 63 3d 32 d8 5e bd 08 17 cf 3c
       -0.04744101 0.055631354 -0.0544054 0.025279537
000120 3a ba 96 bc 5c fd 83 3d 34 da e7 3b 04 b3 18 bd
       -0.018399347 0.06444809 0.0070755724 -0.037280098
000130 7c 81 4d 3d 31 e4 4c bc df 49 62 bd 34 2d 22 3d
       0.050172314 -0.012505577 -0.05524623 0.03959389
000140 90 a6 67 3d 93 cd 8b 3c 35 5b 49 3d 5e a6 9b 3c
       0.05655533 0.017065799 0.049159247 0.019000228
000150 88 6e 82 bd 3a fb 5a bd 89 4e 8b bd 58 f3 af 3c
       -0.063687384 -0.053462245 -0.06802089 0.02147834
000160 9e ce 4c bd 78 92 46 3d 09 55 c9 3c 46 3f de bc
       -0.050001733 0.048479527 0.02457668 -0.02712978
000170 19 73 9a bc 06 73 cf bd f9 3e e9 3c ef 89 ac 3c
       -0.018853711 -0.10129361 0.02847241 0.021061866
000180 e7 7e 15 3d 74 e6 6c bd 97 b8 38 bc 1b d1 b5 3c
       0.036497977 -0.057836965 -0.011274478 0.022194436
000190 86 68 0b be 5a 26 9f 3d e2 f0 22 3d 92 a4 bf 3c
       -0.13614091 0.07770987 0.039780505 0.023393903
0001a0 bc 4d 8b bc 2a f7 57 bc d0 bd b0 bc 98 75 c1 bd
       -0.01700484 -0.013181487 -0.021574885 -0.09446257
0001b0 70 71 f1 bc 3f 2a 00 bc b5 91 a4 bc cc 34 ee bc
       -0.029473037 -0.007822572 -0.02008901 -0.02907791
0001c0 c0 af 00 3d 70 15 8d bd df d9 1c bd 98 f8 6a 3b
       0.03141761 -0.068888545 -0.038293716 0.003585374
0001d0 1e b5 9e 3d 52 c8 c6 bc 71 97 26 3d 8c 97 01 be
       0.07749389 -0.024265442 0.04067177 -0.12655467
0001e0 9a f5 68 3c 64 2b ce 3c 93 a2 98 bc 13 0e ab 3c
       0.014218712 0.025167175 -0.018632209 0.020880735
0001f0 c6 46 c4 3d 21 2c aa bd 93 04 fa bc 92 4b f0 3a
       0.095838115 -0.08309198 -0.03051976 0.0018333069
000200 b5 01 56 bb eb 78 50 3d 05 82 f1 3c d1 93 73 3c
       -0.0032654826 0.050896566 0.029480943 0.014866785
000210 bb ce 80 bd ae eb 78 bb 4f e3 27 bd 58 14 22 bd
       -0.06289431 -0.0037982273 -0.040988263 -0.039570183
000220 27 6d fb bc ea de 0d bc b6 f9 f5 3c 8c 60 8d 3a
       -0.030691696 -0.008659104 0.030026298 0.001078622
000230 0f db 64 bc 87 60 5f 3d 14 86 ec bc 77 c7 e4 3c
       -0.013968243 0.054535415 -0.028872527 0.027927143
000240 a0 59 8e 3d 16 13 0e bd 9d 1a 25 3d 8d 67 a6 ba
       0.06950688 -0.03468617 0.040308584 -0.0012695655
000250 8d 33 35 3c 66 9a 42 ba 2f c7 83 3d ea 29 83 3d
       0.011059654 -0.000742352 0.06434476 0.06404479
000260 38 11 cd bc ad 45 8d 3d 11 52 1f bd fd d5 1b bd
       -0.025032625 0.06898055 -0.038896624 -0.038045872
000270 9a b3 3e bd f5 87 f2 bc 91 13 9b 3b 68 a0 9b 3c
       -0.046558 -0.029605845 0.004732557 0.018997386
000280 43 f2 6f 3d 07 48 af bd 82 a4 a0 bc ea 47 28 3d
       0.05858065 -0.0855866 -0.019609693 0.041084208
000290 3f 14 3e bd 0a 9d 5c 3c 46 70 bd bd 70 47 dc bc
       -0.046406027 0.013465175 -0.0924993 -0.026889533
0002a0 2d bc 67 3d 87 54 66 3d 4d bb d4 bc 09 6c 3f bc
       0.056575943 0.056232955 -0.025968218 -0.011683472
0002b0 97 ab 68 bd c0 e1 b5 3c 13 6d c2 bb 96 dc 06 bc
       -0.056804266 0.022202373 -0.005933413 -0.008231303
0002c0 94 74 ed bd f0 70 bd 3c cd a6 51 bd 66 d1 80 3d
       -0.11594501 0.023125142 -0.051184464 0.062899396
0002d0 57 8b 80 3c 64 f0 68 bd 85 4f af 3d 18 d5 34 3d
       0.015691442 -0.05686988 0.08560089 0.044148535
0002e0 7f 94 09 3d ae b7 67 bd 59 17 1b bd a9 d7 c9 3c
       0.033588883 -0.056571655 -0.037864063 0.024638968
0002f0 2e 92 02 bc 15 fa 4c 3d f8 23 a1 3d 99 b8 9f 3d
       -0.007969422 0.050043184 0.078681886 0.07798881
000300 55 c7 2e 3d e3 00 25 3d 5d b6 27 3d 11 f9 a6 bd
       0.042670567 0.04028405 0.0409454 -0.081529744
000310 37 25 9a 3d e1 00 c7 bc e4 a9 af 3d 73 d5 01 3d
       0.075266294 -0.024292411 0.08577326 0.0316977
000320 c5 e7 85 bd 6a 41 31 3d 4c 8f 52 3d bc 5b fa 3d
       -0.06538347 0.043275274 0.05140619 0.12224528
000330 25 1f 01 3c c5 63 93 bc 78 2b 52 bd bc 81 2d bd
       0.007880961 -0.01799191 -0.051310986 -0.042360052
000340 75 49 d2 3c f6 2d 10 3d e2 40 f3 3c 7b 88 76 3d
       0.025669793 0.03520008 0.029694024 0.06018875
000350 33 0b 28 3d 11 2d ff 3b 6a 89 69 bd 7d b1 32 bd
       0.041026305 0.0077873548 -0.057015814 -0.043626297
000360 99 1a 9c 3d 48 0a e6 bc d6 3d 33 bd 48 5c 7c 3c
       0.076222606 -0.028081074 -0.043760143 0.015402861
000370 42 b8 c8 bc e9 67 8f bc 49 19 0e bd ce 60 c5 3c
       -0.024501923 -0.017505603 -0.034692083 0.024094012
000380 dd 8f fd ba ba c2 ff 3b a6 72 15 3d 61 be 3e bd
       -0.0019345243 0.0078051956 0.03648629 -0.04656828
000390 b9 4d 3a 3c 7d 0d 80 bc 73 52 45 bd 04 08 71 bc
       0.01137107 -0.015631432 -0.048174333 -0.014711384
0003a0 60 d1 02 3d 60 e6 c4 3d d2 b8 e8 3d 83 cb 19 3d
       0.031937957 0.09614253 0.11363377 0.0375476
0003b0 a2 5a 1b bd 04 1a 79 bd f8 73 ce bd 5c 82 24 bd
       -0.03792823 -0.060815826 -0.10080713 -0.040163383
0003c0 06 f4 ec 3b 1a f6 3c bc 44 0c 98 3c 85 a5 1a bd
       0.0072312383 -0.011533285 0.018560536 -0.037755508
0003d0 05 68 b1 bc 2a 82 85 bd 82 89 4e bd e2 d8 59 3d
       -0.021656046 -0.065189674 -0.050424106 0.05318535
0003e0 5c 37 1a bd fe df ae 3d eb b1 8d bd c1 2a 66 bd
       -0.03765045 0.08538817 -0.06918701 -0.056193117
0003f0 13 38 b8 bb c9 3f 15 3d 9a 9f 53 bd 1d 77 5f bd
       -0.005621919 0.036437783 -0.05166588 -0.054556955

action_model._continuous_distribution.mu.bias f4 [3]
000000 ac 22 1c bb 70 dd 1c 3b b6 df a0 3a
       -0.0023824377 0.0023935698 0.0012273702

action_model._discrete_distribution.branches.0.weight f4 [5, 128]
000000 bf 7f fe ba 68 49 31 3c b9 be e1 3c 84 fe 17 3c
       -0.0019416733 0.010820724 0.027556764 0.00927699
000010 e5 a3 06 bc 67 d0 6d 3b a5 e4 dc bb 62 a0 6e bc
       -0.008217786 0.0036287548 -0.0067411237 -0.014564605
000020 b8 28 90 3c 6e bc b4 3c 7f cf c0 3b 2c 16 07 3a
       0.017597541 0.022062507 0.0058841105 0.0005153145
000030 bb 09 d1 39 e2 8d 51 3c d0 9d d0 3b 04 35 b2 3c
       0.00039870836 0.012790175 0.006366469 0.021753795
000040 e9 5b 27 3d 73 2f 35 bb 45 14 3b 3c 11 08 6b 3b
       0.040859137 -0.002764669 0.011418407 0.0035862962
000050 a8 b3 19 3c 0b e6 4b 3c 3c 53 40 3c f7 c8 28 3c
       0.009381212 0.012444983 0.011738595 0.01030182
000060 73 64 34 3c e9 a4 9c 3a da 39 90 ba 57 5c bf 3c
       0.011010277 0.0011951003 -0.0011003569 0.02335946
000070 1a 84 83 3c 46 fc 43 ba 59 3e b7 3b 9b 4d fd bb
       0.016054202 -0.00074762513 0.005592149 -0.0077301986
000080 ad 3d e3 3b 13 af 18 bd 9e bc d7 bc 23 f9 61 3b
       0.0069348426 -0.03727634 -0.026335057 0.0034480772
000090 65 28 c1 3b e4 94 b7 ba 67 ef 99 3c f7 41 bf 3c
       0.005894708 -0.0014006165 0.018790914 0.023346884
0000a0 6f 05 47 bc 24 cc aa 3b 35 02 7c 3c eb 68 d8 3b
       -0.012147292 0.0052123237 0.015381386 0.006604304
0000b0 50 e7 fd bc c5 f2 70 3c b5 7a 8b bc 3a 20 b3 bc
       -0.030994087 0.014706318 -0.017026285 -0.021865953
0000c0 78 ed fe b9 aa c2 e5 3b 4d b7 29 bc 8f 32 d5 3c
       -0.00048623583 0.007011731 -0.010358644 0.026025085
0000d0 e7 1d c4 bb 51 46 8c bc 18 10 10 ba 1d 9a c0 3c
       -0.00598501 -0.017123373 -0.0005495562 0.023510987
0000e0 1b 23 bc 3b 8d c9 71 bc 16 f5 07 3b 33 2d bc 3c
       0.0057414896 -0.014757526 0.0020745448 0.022970771
0000f0 a5 34 b7 bb ed 4f 0c 3d 85 0a e1 3c 56 28 d2 3c
       -0.0055909925 0.03425591 0.027470836 0.025654
000100 17 31 34 3d 93 e1 55 3c 17 f3 af 3b 0e 01 30 bc
       0.04399213 0.013054269 0.0053695547 -0.010742439
000110 9a 7d cd 3c 1f 14 42 bc 77 53 94 3c 23 98 89 3c
       0.025084306 -0.011845618 0.018106205 0.016796177
000120 51 03 65 3b 72 d9 a6 3c 01 36 9a 3c 4b 63 f2 3c
       0.0034944604 0.020367358 0.01882458 0.029588362
000130 4d 30 94 3b fd 80 84 bc ea 5e e0 3b b1 9c e0 3b
       0.0045223595 -0.016174788 0.006847252 0.0068546166
000140 26 22 5d 3c 98 e7 fc 3c 40 56 d2 bb db 7c 78 bc
       0.013496911 0.030872151 -0.006418973 -0.015166487
000150 40 41 0a 3d fc 3c 0c 3d 37 e5 a6 bb d0 da 30 bc
       0.033753633 0.034237847 -0.0050932425 -0.010794356
000160 ad 77 99 3c d6 96 f2 bb ba e1 de 3b 96 fe 1f bc
       0.018733824 -0.007403235 0.006801811 -0.009765288
000170 fa 4d 9e bc ca 0d a3 3c cc 19 ca bb 6f b4 99 3c
       -0.019324291 0.019904036 -0.006167626 0.018762795
000180 89 b7 04 bc f5 76 ec 3b 9f d8 27 3c e4 82 23 bc
       -0.008100399 0.007216329 0.010244518 -0.009979937
000190 d0 d5 e7 ba 9a b9 5a bb 11 82 91 bb ae 93 ac bc
       -0.0017687622 -0.0033374787 -0.004440554 -0.021066513
0001a0 d2 93 aa 3b 68 43 d2 3c ae 73 79 3d 74 2e 13 3d
       0.00520561 0.025666907 0.060901336 0.035932973
0001b0 49 de 95 3c d7 ac 74 3a 11 3d dc bb d4 8d 20 bc
       0.01829447 0.00093336165 -0.006721147 -0.009799439
0001c0 3b 31 12 bc 0c 2e bc 3c 10 a7 17 3c 4d e8 ab bc
       -0.00892287 0.022971176 0.009256139 -0.020984793
0001d0 da 61 9b 3c dc 91 ba 3c 5c 26 57 bc fc a0 75 3c
       0.018967558 0.02277463 -0.013131704 0.014991995
0001e0 77 46 15 3c 69 63 26 3c 0a 4b 08 bc 58 4a 23 3b
       0.009111038 0.010155537 -0.008318672 0.0024916138
0001f0 7c 32 e6 bb 09 93 94 3c 87 c9 95 bb ae 78 9d bc
       -0.007025061 0.018136518 -0.004571143 -0.019222584
000200 f6 22 a9 bc 5c 80 4a 3b dc ca 24 bd ed b3 19 3b
       -0.020646553 0.0030899262 -0.040232524 0.0023453191
000210 5c 01 4b 3d c9 6a 3f 3a c8 5f 98 3c b5 4a 66 bc
       0.049561843 0.0007301984 0.01860036 -0.0140558975
000220 44 87 56 3d c5 3a 82 bb 6b 93 c1 bc 60 f6 1c bb
       0.052375093 -0.003974291 -0.023629865 -0.0023950562
000230 cc 11 57 bb 07 47 8a bc f6 f3 1f 3c 57 d7 1a bd
       -0.0032817004 -0.016879572 0.009762755 -0.03780302
000240 d4 a8 b1 bc 15 cb 73 bc 1a da d9 3b 48 30 fe 3b
       -0.021686949 -0.0148799615 0.006648314 0.0077572204
000250 7e 68 26 bc e7 c9 10 bc 0b e2 eb bb 43 e5 19 bd
       -0.010156749 -0.0088372 -0.0071985773 -0.037572157
000260 5f b8 91 3b 93 b3 c3 3a 9a 17 65 bc 3a 1c e2 bb
       0.0044470276 0.0014930837 -0.013982678 -0.0069003375
000270 a9 63 0a 3d de 08 56 3c 6c 57 08 bc 27 a8 0d 3c
       0.03378645 0.013063638 -0.008321624 0.008646048
000280 12 f0 8e bb fc f9 84 3c 22 f2 d0 3b 5a 8a ac bc
       -0.0043621147 0.016232483 0.0063765207 -0.021062065
000290 6f 6a 88 3c 56 f8 d3 b8 9e 63 f0 3c 45 33 11 3c
       0.016652314 -0.0001010752 0.029344376 0.008862321
0002a0 44 6a 0a bc bb 02 da bc 9c 83 8d 3c d7 89 e4 bb
       -0.008448187 -0.02661263 0.01727467 -0.0069744396
0002b0 be 18 d7 3c dc f4 32 bc 93 84 17 3d cc 16 8e ba
       0.026256915 -0.010922637 0.036991667 -0.0010840534
0002c0 9f 94 1e 3d d2 28 60 bb 54 58 d5 bb fc d0 dd bc
       0.038715955 -0.0034204018 -0.0065107737 -0.02707719
0002d0 06 d5 1b 3c 63 82 81 3b 34 c9 35 bc d4 b9 b9 bc
       0.009511238 0.003952311 -0.011095334 -0.022671618
0002e0 68 c4 34 bc cb 4e de b9 d7 3a 65 3c 14 42 42 bc
       -0.011033155 -0.00042401845 0.013991079 -0.011856575
0002f0 b0 dd 84 bb c8 9d 50 3a df c0 cf bc c6 3f 8b bc
       -0.0040547475 0.00079580816 -0.025360523 -0.016998183
000300 b7 34 18 bd f6 f8 69 bc dc 0f 34 bd 9e b0 14 3d
       -0.037159648 -0.014280548 -0.043960437 0.036301248
000310 51 f8 74 bc ab 14 a4 3c 6d 76 84 ba d7 a6 74 bc
       -0.014951781 0.020029387 -0.0010106094 -0.014932356
000320 b1 13 48 3c f4 55 5d bc 16 15 38 bc f2 17 ef bc
       0.012211726 -0.013509262 -0.011235496 -0.029186223
000330 b8 83 7a bc 8c a7 a9 3c db 0a 0a 3c 12 2b 53 3b
       -0.015290193 0.020709775 0.00842544 0.0032221717
000340 c5 c2 1e bc b6 a9 72 bc 5b 7b 02 bc b6 d2 b3 bc
       -0.009689991 -0.01481097 -0.007963981 -0.02195106
000350 b2 2f 6a bc 16 80 2d bc 7c b5 1a 3d 62 0e 4d 3c
       -0.014293598 -0.01058962 0.037770733 0.012515636
000360 da bf b7 bc d0 5d 1f 3c e1 a4 f6 3a 6a 4c 8a bb
       -0.02243035 0.0097269565 0.0018817448 -0.004220535
000370 f8 9e 16 bc cf e6 f9 3b c8 34 1e bc 66 f9 7a bc
       -0.009193175 0.0076263915 -0.009656139 -0.01531825
000380 59 10 05 3a 25 44 b7 bc ef 72 ca bb bd 58 b0 bb
       0.00050759834 -0.022371361 -0.006178252 -0.005381672
000390 6e ee 46 3b 78 df ce 3b e1 fa a1 3a 4c dc 16 3c
       0.0030354518 0.0063132606 0.0012358093 0.009207796
0003a0 b4 34 c5 bb 4b 96 06 bd 12 eb b2 bc 69 9c 10 bc
       -0.0060182456 -0.032858174 -0.021840606 -0.008826354
0003b0 0c 8c a3 3b 85 63 88 3b 45 7f a6 3c 4a 1c 48 bc
       0.00499106 0.0041622543 0.020324359 -0.012213776
0003c0 94 87 da 3b bc 30 8f 3c 4f 2f c4 3b 78 b5 84 3c
       0.006668994 0.017479293 0.005987085 0.016199812
0003d0 5d 00 c7 3c 01 25 a1 bc e1 11 c7 3c 32 54 94 bc
       0.024292165 -0.019670965 0.024300518 -0.018106554
0003e0 65 73 0a 3c 22 f7 4b bb 09 7f f9 3b b1 5c 9e 3c
       0.008450364 -0.0031122644 0.0076140207 0.019331308
0003f0 29 88 5f 3c b6 92 3d bc c7 f5 d2 bb 77 69 de 3c
       0.013643303 -0.011570623 -0.0064379903 0.027149899

action_model._discrete_distribution.branches.0.bias f4 [5]
000000 cb e4 2b 3b 82 52 98 bb e3 33 9e bb aa 60 3d bc
       0.00262289 -0.0046485076 -0.0048279627 -0.011558691
000010 d9 b0 a1 3c
       0.019737648
