Assets/Brain/Tests/2million.onnx (onnx, 136172 bytes, 9 tensors)

network_body._body_endoder.seq_layers.0.weight f4 [128, 114]
0	0x3d080ada	0.033213474
1	0xbc9a6088	-0.018844858
2	0xbce10be1	-0.027471485
3	0xbda5de03	-0.08098986
4	0xbe1e270c	-0.15444583
5	0x3cea0797	0.028568072
6	0xbdbcf8ec	-0.092271656
7	0x3cdba1cf	0.026810555
8	0x3ddfe670	0.10932624
9	0xbda16074	-0.07879725
10	0x3dac5431	0.08414496
11	0x3dd85f13	0.10565009
12	0x3d8e6ba3	0.06954124
13	0x3d51e332	0.05124206
14	0xbd42b3a6	-0.047534607
15	0xbdf7a1b3	-0.120913886
16	0x3e01f6cc	0.12691802
17	0x3db28eb7	0.08718627
18	0xbac0a9ab	-0.0014699002
19	0x3c835ddd	0.016035968
20	0xbe15ebec	-0.14640778
21	0xbd622fd2	-0.055221386
22	0x3daf18e2	0.08549668
23	0x3e11fcb3	0.14256553
24	0xbbeaa8ed	-0.007161251
25	0xbc65b5e3	-0.014020416
26	0x3bfa1329	0.0076316786
27	0x3e100ad0	0.14066625
28	0x3e247dc0	0.16063595
29	0xbccab981	-0.024746658
30	0xbcc6950c	-0.024240993
31	0xbba095d6	-0.0049006743
32	0x3e51262f	0.20424722
33	0x3e075591	0.13216235
34	0x3e0ad259	0.13556804
35	0x3c1e57f4	0.009664524
36	0x3d6d03f8	0.057865113
37	0x3da1f50e	0.079080686
38	0xbcf96186	-0.03044201
39	0xbd9c3169	-0.07626612
40	0xbccf2c4a	-0.025289673
41	0xbc3bbd1a	-0.01145866
42	0x3dd1df2d	0.102476455
43	0xbde234fc	-0.11045262
44	0xbe221af9	-0.15830602
45	0xbe2b1b7f	-0.16709708
46	0x3ccf8628	0.025332525
47	0xbdec687f	-0.115433685
48	0x3d9c841d	0.07642386
49	0x3e1819af	0.14853548
50	0xbae6cc6c	-0.001760853
51	0x3cf5d7c1	0.030010106
52	0x3d03302b	0.03202836
53	0xbc956a66	-0.018239211
54	0x3d702c73	0.05863614
55	0xbe30b6d4	-0.17257243
56	0x3d397663	0.045278918
57	0xbd40f9a3	-0.047113072
58	0xbe2007c9	-0.1562797
59	0xbdf4fe0c	-0.11962518
60	0xbe0d7632	-0.13814619
61	0xbd6d9d8b	-0.058011573
62	0xbbe7cb57	-0.0070738005
63	0x3db79844	0.08964589
64	0xbdbd8973	-0.09254732
65	0xbd0af910	-0.03392893
66	0x3da99b6b	0.08281597
67	0xbdfe5d02	-0.124200836
68	0x3e6c24d1	0.2306092
69	0x3e3ec523	0.18629889
70	0xb9fa9dc3	-0.00047801257
71	0x3b9bdb57	0.004756372
72	0xbd1a8bce	-0.037730984
73	0xbcd145bf	-0.025545953
74	0x3de38861	0.111099966
75	0xbe19145e	-0.14949176
76	0xbd4f7dbd	-0.050657023
77	0xbd0f8805	-0.035041828
78	0xbd98a5b8	-0.07453483
79	0xbc8e9d05	-0.017408857
80	0x3d8e2ff9	0.06942744
81	0x3e26f61d	0.16304822
82	0xbda88456	-0.08228366
83	0x3e15d9da	0.14633885
84	0x3d713769	0.058890734
85	0xbd64999e	-0.055810563
86	0xbd6807dc	-0.05664812
87	0x3db02212	0.086002484
88	0xbcbc25e1	-0.02296728
89	0x3bd5a1fe	0.006519555
90	0x3e11c279	0.14234342
91	0x3dc7167e	0.09721087
92	0x3db2d912	0.08732809
93	0x3cc13aef	0.023587672
94	0x3d0f9fc1	0.035064463
95	0x3d0c0c3c	0.034191355
96	0xbb7adc44	-0.0038278261
97	0xbd248ae9	-0.040171538
98	0xbdfb6ca4	-0.12276581
99	0xbbce1c9c	-0.0062900316
100	0xbde1c939	-0.11024708
101	0x3d86f944	0.065905124
102	0x3e171e9c	0.1475777
103	0xbc90f1e0	-0.01769346
104	0x3df8cc80	0.1214838
105	0x3c75919e	0.014988331
106	0x3e5869d2	0.21134117
107	0x3c441fdb	0.011970486
108	0xbe464fb2	-0.19366339
109	0x3db206aa	0.08692677
110	0x3ca389d6	0.019963186
111	0x3db642f7	0.08899491
112	0xbc0988ab	-0.008394401
113	0x3db5a795	0.08869854
114	0xbbc9cfcb	-0.006158804
115	0x3be0068a	0.006836717
116	0x3e0eb6aa	0.13936868
117	0x3c0b5e5d	0.008506385
118	0x3e1b811d	0.15185972
119	0x3cf4e01e	0.029892024
120	0x3db884f0	0.09009731
121	0xbd77fb54	-0.06054242
122	0xbd85a14b	-0.06524905
123	0x3cc865e1	0.024462642
124	0xbdd714dd	-0.10502026
125	0xbe1af284	-0.15131575
126	0x3d989b75	0.07451526
127	0xbcb89421	-0.02253157
128	0xbdf12353	-0.11774316
129	0xbd6c81cb	-0.057740968
130	0xbde3830f	-0.11108982
131	0x3c8abdf9	0.01693629
132	0x3d7b4042	0.061340578
133	0x3e137016	0.14398226
134	0x3c965b1e	0.018353995
135	0xbcd9e922	-0.026600424
136	0xbe1050a6	-0.14093265
137	0xbe13660c	-0.14394397
138	0xbd441aaa	-0.04787699
139	0xbcf3d5eb	-0.02976509
140	0x3d8a3b4a	0.0674959
141	0xbe9072ca	-0.28212577
142	0xbdc29a7c	-0.09502122
143	0xbe6433dd	-0.2228541
144	0x3e380f95	0.17974694
145	0xbe095e5b	-0.134149
146	0xbd8df0d0	-0.06930697
147	0xbd90bb0f	-0.070669286
148	0xbde867b4	-0.11347905
149	0x3c91442f	0.017732708
150	0x3d36bb86	0.04461243
151	0xbe1adfb5	-0.151244
152	0xbc8e5705	-0.017375479
153	0x3dc49b10	0.09599888
154	0xbd30d9ca	-0.04317645
155	0x3d09e839	0.03366873
156	0xbdcbe1c2	-0.09955169
157	0xbd6cd77d	-0.057822693
158	0x3e10d6c3	0.14144425
159	0xbe70a03b	-0.23498623
160	0x3c2d8d96	0.010592839
161	0x3d76eb3d	0.060282934
162	0xbd2f008e	-0.04272514
163	0xbe2afc6c	-0.16697854
164	0xbd4be371	-0.049777452
165	0x3cfc34fc	0.030786984
166	0xbb80848d	-0.0039220513
167	0x3d9327a0	0.07185292
168	0x3ce103e0	0.027467668
169	0xbda07371	-0.07834519
170	0xbe08f024	-0.13372856
171	0x3c94923a	0.018136133
172	0xbe55499a	-0.20828858
173	0x3e34dea5	0.17663057
174	0xbd02dc3a	-0.031948306
175	0x3d9c29c6	0.07625155
176	0x3d16604c	0.03671293
177	0xbd14924d	-0.036272336
178	0x3c0ec63b	0.008714254
179	0x3e2ca6ae	0.16860458
180	0xbd86a7e8	-0.06574994
181	0x3dc190a3	0.094514154
182	0xbd16ecde	-0.036846988
183	0x3dbf4efe	0.093412384
184	0x3d0535cb	0.032522004
185	0xbb58e508	-0.0033095498
186	0x3cc9f3fd	0.024652475
187	0xbd2d5d40	-0.04232526
188	0xbc67fe8b	-0.014159809
189	0xbdc29158	-0.09500378
190	0x3dc42ca2	0.095788255
191	0x3e0038c7	0.12521659
192	0x3b1bbcee	0.0023763734
193	0x3d8c2aad	0.06844077
194	0x3d4bfb41	0.04980016
195	0xbdc0fa4b	-0.094227396
196	0xbd95ec67	-0.07320481
197	0xbd9e5b3f	-0.077322476
198	0xbdfc4a2b	-0.12318834
199	0xbd67c57a	-0.056584813
200	0xbd61f98e	-0.055169635
201	0xbe4a209d	-0.19739003
202	0x3e048e41	0.1294489
203	0x3d059d0c	0.032620475
204	0xbce24132	-0.027618978
205	0x3c108df6	0.008822909
206	0x3e40dbae	0.18833801
207	0x3e0362bb	0.12830631
208	0x3c54dc2c	0.012991946
209	0x3dba3203	0.0909157
210	0x3e670467	0.22560273
211	0xbb40cf04	-0.0029420266
212	0xbe38aafc	-0.18033975
213	0xbe1880dd	-0.14892907
214	0x3def024f	0.11670362
215	0x3cf443be	0.029817458
216	0x3e2ada5f	0.16684864
217	0xbd0dd47c	-0.03462647
218	0x3cfd79ee	0.03094193
219	0xbdd80580	-0.10547924
220	0xbdf52db0	-0.11971605
221	0xbdbdb8bd	-0.09263752
222	0x3c87368e	0.016505506
223	0xbd66bda6	-0.056333207
224	0x3e073c21	0.13206531
225	0xbdf93a75	-0.12169353
226	0xbcb8c863	-0.02255649
227	0xbbf03adc	-0.0073312353
228	0x3d716bf7	0.058940854
229	0x3d175599	0.036946867
230	0xbdb4d47b	-0.0882959
231	0x3d9f3f5d	0.077757575
232	0xb86ee4d6	-5.6956742e-05
233	0xbd0bca44	-0.034128442
234	0x3d4d8a75	0.05018087
235	0x3cdcb4ca	0.026941676
236	0x3d91029f	0.07080578
237	0x3b0f62c1	0.002187893
238	0xbceb2e41	-0.028708579
239	0xbc886ff6	-0.01665495
240	0x3d535cd0	0.051602185
241	0x3d9dda3b	0.0770764
242	0xbad132d5	-0.0015960584
243	0xbdad1eea	-0.08453162
244	0xbbf1457b	-0.007363019
245	0x3e2504f8	0.16115177
246	0xbd9ce635	-0.07661096
247	0x3d483f73	0.048888635
248	0x3d265291	0.040606085
249	0x3e3693fa	0.17829886
250	0xbdd33811	-0.10313428
251	0x3c85e945	0.016346583
252	0x3d188530	0.037236392
253	0xbde70fd5	-0.112823166
254	0xbdbe7686	-0.0929995
255	0x3d1ceace	0.038309865

network_body._body_endoder.seq_layers.0.bias f4 [128]
0	0x3cee85b2	0.029116485
1	0x3af4568a	0.0018641513
2	0x3c75ae2d	0.01499514
3	0x3d0671e7	0.03282347
4	0xbab527c7	-0.0013821059
5	0xbc861967	-0.016369535
6	0x3c2c568a	0.010518679
7	0x3c98055d	0.018557245
8	0x3c3cf724	0.011533532
9	0x3c03bcf4	0.008040655
10	0x3c81bbb4	0.015836574
11	0x3c7db4fd	0.0154850455
12	0x3c3a7be4	0.011382077
13	0x3cbbab2a	0.022908766
14	0x3c174e28	0.0092349425
15	0x3c3198de	0.010839669
16	0x3cd71d3a	0.026259053
17	0x3c8a4b16	0.016881507
18	0x3d26ae4a	0.04069356
19	0x3c2a607f	0.010398983
20	0xbc7c1ada	-0.015387261
21	0x3c9ae1e8	0.018906549
22	0x3ce43335	0.027856449
23	0xbb771f76	-0.0037707961
24	0x3ce1596d	0.027508462
25	0x3caf37d4	0.021388926
26	0x3c359301	0.011082412
27	0x3c3b20bf	0.0114213815
28	0x3d18f3e6	0.037341975
29	0x3c7c7ca9	0.015410581
30	0x3caf807e	0.021423575
31	0x3c8b92f3	0.017037844
32	0x3c980dd0	0.018561274
33	0x3cd5c45e	0.026094612
34	0x3c7fc775	0.015611519
35	0x3c04c30a	0.008103142
36	0x3c7e2bc8	0.015513368
37	0x3c6c9deb	0.014441947
38	0x3bf7e3fd	0.00756502
39	0x3c0ed8ec	0.00871871
40	0x3c815755	0.015788713
41	0x3cb6c7c5	0.022312054
42	0x3ca8185d	0.02051943
43	0x3c5e24af	0.013558551
44	0x3c136d6a	0.008998254
45	0x3d18241f	0.037143823
46	0xbbb7ee94	-0.0056131575
47	0xbba8e328	-0.0051540323
48	0x3cec2937	0.028828247
49	0x3c3b66e9	0.01143811
50	0xbcb20913	-0.021732843
51	0x3d1dd86d	0.038536478
52	0x3cd53da8	0.026030377
53	0xbc5e4bb3	-0.013567853
54	0xbc9448b7	-0.01810108
55	0x3c4f7d42	0.012664141
56	0x3d056c11	0.032573763
57	0x3b264e2a	0.002537618
58	0x3c941911	0.018078359
59	0x3b2d0cf4	0.0026405426
60	0xbca7d324	-0.020486422
61	0x3cc9a6bc	0.024615638
62	0x39c81abb	0.00038166888
63	0x3cf69c27	0.030103756
64	0x3b98d897	0.0046644914
65	0x3c597609	0.013272771
66	0x3c2fbd26	0.010726249
67	0x3c988523	0.018618172
68	0x3c0d89a7	0.008638776
69	0xbb361971	-0.002778616
70	0xbb011a92	-0.0019699675
71	0x3cce25e6	0.025164556
72	0x3c3a2cb9	0.011363202
73	0x3c47fc3d	0.012206134
74	0xbcd3827b	-0.025819054
75	0x3c97951c	0.018503718
76	0x3ca42c20	0.020040572
77	0xbcb3988c	-0.021923326
78	0x3ca68829	0.020328598
79	0x3c5259b4	0.01283877
80	0x3c4a6176	0.012352338
81	0x3c89e4b0	0.01683268
82	0x3c618919	0.013765597
83	0x3c1bc2ac	0.009506863
84	0xba040f40	-0.0005037673
85	0x3c6d55eb	0.0144858165
86	0x3bbc931d	0.005754842
87	0x3cfabd3c	0.030607812
88	0x3bc5dede	0.0060385307
89	0x3bd90030	0.006622337
90	0x3bb364aa	0.0054746466
91	0xbbcb7f29	-0.006210227
92	0x3d0cc09a	0.034363367
93	0x3be80672	0.0070808465
94	0xbb1df0ed	-0.0024099902
95	0x3caa0591	0.020754607
96	0x3c9f6b92	0.019460473
97	0x3b68f5bd	0.0035546862
98	0x3c49e14b	0.01232178
99	0x3c63913e	0.013889609
100	0x3b83d925	0.0040236884
101	0x3c08c3da	0.008347476
102	0xbb179aba	-0.0023132996
103	0x3c0e0976	0.008669248
104	0x3d2d5109	0.04231361
105	0x3a35af81	0.0006930754
106	0x3ce638ae	0.028103199
107	0xbbf31d63	-0.0074192747
108	0x3c4139d0	0.011793569
109	0x3c4a3e8c	0.012344014
110	0x3c600a29	0.013674297
111	0x3c624b30	0.013811871
112	0x3cd17421	0.02556807
113	0xbbe87bb7	-0.007094826
114	0x3baa4913	0.0051966994
115	0x3c4aba5a	0.012373531
116	0x3cfb6f8a	0.030692834
117	0x3c885b39	0.01664506
118	0x3ba09087	0.0049000415
119	0x3cd3fed1	0.025878342
120	0x3cd2a5ef	0.025713889
121	0x3c22610b	0.009910832
122	0x39b03f99	0.0003361672
123	0x3cd44675	0.025912503
124	0x3c3f577b	0.011678572
125	0x3c9f1bd0	0.019422442
126	0xbabfd88f	-0.0014636683
127	0x3d080a6c	0.033213064

network_body._body_endoder.seq_layers.2.weight f4 [128, 128]
0	0xbe2fea21	-0.17179157
1	0x3e31ab9d	0.17350622
2	0x3cdd6a64	0.02702827
3	0x3e26636f	0.16248868
4	0x3d359845	0.04433467
5	0xbda6277c	-0.08113
6	0xbda984fb	-0.08277317
7	0x3d46c437	0.04852697
8	0xbdca07cb	-0.09864768
9	0x3d2bb553	0.04192097
10	0xbd12e71b	-0.03586493
11	0xbe1ac443	-0.1511393
12	0xbdd48a20	-0.10377908
13	0xbdd2d035	-0.102936186
14	0x3ddabb35	0.10680238
15	0x3e27d632	0.16390303
16	0xbcfc8b0f	-0.030828027
17	0x3db3ca47	0.08778816
18	0xbdaeb9e9	-0.08531553
19	0x3de9f112	0.11422934
20	0xbc4f48f8	-0.012651674
21	0xbdc2aed5	-0.09506003
22	0x3c998064	0.01873798
23	0xbc8e4c5b	-0.017370393
24	0x3d9e07c7	0.07716327
25	0x3dab6594	0.08368984
26	0x3e65e185	0.2244931
27	0x3e347103	0.17621236
28	0xbdf7c157	-0.120974235
29	0x3d609dc5	0.05483796
30	0x3df97f4a	0.121824816
31	0x3c414863	0.0117970435
32	0xbdfdcace	-0.123921975
33	0x3d4c08ba	0.04981301
34	0x3dbd7ad4	0.09251943
35	0x3d264c7d	0.04060029
36	0x3d11a16c	0.035554335
37	0xbd26cfa9	-0.040725384
38	0x3d34d933	0.04415245
39	0xbe6566ed	-0.22402544
40	0xbcb36eae	-0.021903362
41	0x3cc63713	0.024196183
42	0x3d6607f3	0.056159925
43	0xbae84c86	-0.0017723001
44	0xbdcadf3e	-0.09905861
45	0xbd8b809c	-0.0681164
46	0xbd98f6df	-0.07468962
47	0x3dedc132	0.11609115
48	0x3e1ceebf	0.1532545
49	0xbc23d585	-0.0099996375
50	0xbda4cd5e	-0.08046983
51	0xbe1f2848	-0.1554271
52	0xbe04cc79	-0.12968625
53	0x3ddc238a	0.10748966
54	0x3a869a1f	0.001026932
55	0xbc0a3094	-0.0084344335
56	0xbd80eb92	-0.062949315
57	0xbdcd6798	-0.100295246
58	0xbc1adcf8	-0.009452097
59	0x3d2a23b1	0.041537944
60	0xbc8de8a3	-0.017322844
61	0xbc1dc7c4	-0.009630147
62	0xbd65513e	-0.05598568
63	0x3cde4812	0.027133975
64	0x3d96e7b9	0.07368416
65	0xbe3af487	-0.18257342
66	0x3dae82eb	0.08521064
67	0x3d91e228	0.07123214
68	0xbd746485	-0.059666175
69	0x3db9b834	0.09068337
70	0xbd655a87	-0.055994537
71	0x3c5e7b31	0.013579176
72	0xbdab1df6	-0.08355324
73	0xbd835abb	-0.0641379
74	0x3d4f82f2	0.05066199
75	0xbd133ca1	-0.035946492
76	0xbd6077ae	-0.054801635
77	0xbe187f0d	-0.14892216
78	0x3df696b6	0.120404646
79	0x3e04e0fa	0.12976447
80	0x3d6dda37	0.058069434
81	0x3d9d8dea	0.076930836
82	0xbdd0ea7b	-0.102009736
83	0xbcbed1ba	-0.023293365
84	0xbdb9278e	-0.090407476
85	0x3bf88e7a	0.007585344
86	0xbe19b112	-0.15008953
87	0xbde7abaa	-0.11312039
88	0xbd75f60c	-0.0600491
89	0x3c9a9151	0.01886812
90	0xbde77b65	-0.113028325
91	0xbe12eac4	-0.14347368
92	0xbb0d6627	-0.002157578
93	0x3d2bfc6a	0.041988768
94	0x3c669f13	0.014076012
95	0xbe04bfd0	-0.12963796
96	0xbd768b38	-0.060191363
97	0xbd52adeb	-0.051435392
98	0xbe124a10	-0.14286065
99	0xbdb9b7fa	-0.09068294
100	0xbcb64008	-0.02224733
101	0x3d98fefc	0.074705094
102	0x3dbc982c	0.09208712
103	0x3e057e67	0.130365
104	0xbe39cd95	-0.1814483
105	0x3b94cd0f	0.0045410465
106	0xbca7bf74	-0.020477034
107	0x3d43d6c5	0.047812242
108	0xbdcf32ac	-0.10117087
109	0xbd9ebb3d	-0.077505566
110	0xbdacbbcf	-0.08434259
111	0x3c2d3d80	0.010573745
112	0x3decf19f	0.11569523
113	0x3d1bf7c9	0.038078103
114	0xbdf8cf3e	-0.12148903
115	0xbd4b3e8a	-0.04962019
116	0xbcff5bdb	-0.03117173
117	0x3c970db3	0.01843915
118	0xbdfa79e9	-0.12230284
119	0x3db0ced8	0.08633202
120	0x3d7f83c2	0.062381513
121	0xbe146cec	-0.14494675
122	0xbe64f148	-0.22357666
123	0xbc59dbc0	-0.013297021
124	0x3dd282cd	0.102788545
125	0x3d83cca6	0.06435518
126	0x3e8dcc8b	0.27695116
127	0x3d287c77	0.041134324
128	0xbdac8f4b	-0.084257685
129	0xbd84dc9c	-0.064873904
130	0xbe4263c8	-0.18983376
131	0x3d149fdb	0.036285263
132	0xbdf30436	-0.118660375
133	0x3d11edb7	0.035627093
134	0xbce152f3	-0.027505374
135	0x3e411e44	0.18859202
136	0x3b46e339	0.0030347838
137	0xbe64ec97	-0.22355877
138	0x3d07cd20	0.033154607
139	0xbcf963bb	-0.030443063
140	0x3d3ccd7e	0.04609441
141	0xbda56f5c	-0.08077881
142	0xb85813c8	-5.1516836e-05
143	0x3d166a4d	0.03672247
144	0xbe25af1c	-0.1618008
145	0xbc0a7e0b	-0.008452903
146	0xbd773e71	-0.060362283
147	0xbcab2281	-0.020890476
148	0xbda86320	-0.082220316
149	0xbda8f9c5	-0.08250765
150	0xbdfd72be	-0.12375401
151	0xbc8acca8	-0.01694329
152	0x3d035ec6	0.032072805
153	0x3dce8a71	0.10084999
154	0x3e066c7c	0.13127321
155	0xbe199405	-0.14997871
156	0xbd915cbe	-0.07097767
157	0xbd0665dc	-0.032811984
158	0xbd891ca1	-0.06694914
159	0xbd86451e	-0.06556152
160	0xbc5bc98a	-0.01341475
161	0xbe58e823	-0.21182303
162	0xbe71bc12	-0.236069
163	0xbc21c5cb	-0.009873818
164	0x3e0abbc5	0.13548191
165	0x3d8ae6f0	0.06782329
166	0xbdae731f	-0.08518051
167	0xbaa43397	-0.0012527582
168	0x3d2d6c80	0.0423398
169	0x3d60b8ab	0.054863613
170	0xbe0dfd1c	-0.13866085
171	0xbd879f19	-0.06622142
172	0x3d28868d	0.041143943
173	0x3d31dcdc	0.04342352
174	0xbd04052f	-0.032231506
175	0x3db25ef6	0.087095186
176	0x3d229ce7	0.039700415
177	0x3d51254b	0.051060956
178	0x3ce6e668	0.028186038
179	0xbcad9996	-0.0211914
180	0x3e3a5de1	0.18199874
181	0xbe21b5bc	-0.15791982
182	0xbdd3981d	-0.10331748
183	0x3d1f7474	0.038929418
184	0xbe12fdbd	-0.14354606
185	0x3da0ef06	0.0785809
186	0x3e1c2f7e	0.15252492
187	0x3c1c9abf	0.009558379
188	0x3e17410f	0.14770912
189	0x3da02034	0.07818642
190	0x3be1bb4e	0.0068887835
191	0xbdaa1824	-0.08305386
192	0x3d682abc	0.05668138
193	0xbc814a17	-0.0157824
194	0xbcdc0f77	-0.026862843
195	0x3e09410e	0.13403723
196	0xbdc3b02c	-0.095550865
197	0x3d936fba	0.071990445
198	0xbde770b5	-0.11300794
199	0xbc5ff830	-0.013670012
200	0x3d14209e	0.03616392
201	0x3db48a37	0.08815425
202	0xbe1dbf58	-0.15405023
203	0x3d292a8f	0.041300353
204	0x3bc959e8	0.006144751
205	0xbd7e456d	-0.06207793
206	0xbdc1474d	-0.09437428
207	0xbe9b728b	-0.30360827
208	0xbd3bfb8b	-0.045894187
209	0x3d710a8b	0.058847945
210	0xbcd23609	-0.025660532
211	0x3b369904	0.00278622
212	0x3cd9527f	0.026528595
213	0x3dd7bddd	0.105342604
214	0x3d1d86d8	0.038458675
215	0xbd93364b	-0.0718809
216	0x3e13c160	0.14429235
217	0x3d8311d1	0.063998826
218	0xbca54716	-0.020175498
219	0x3e067f17	0.13134418
220	0xbca26ee2	-0.019828264
221	0x3c5b9dcb	0.01340432
222	0x3dd35707	0.103193335
223	0x3d3c0cd8	0.045910686
224	0xbe54cae0	-0.20780516
225	0xbe18010e	-0.14844152
226	0x3d7c2f77	0.061568704
227	0x3df5f1ee	0.12009035
228	0x3c530383	0.012879255
229	0x3e0676ee	0.13131306
230	0x3ba5e24f	0.0050623785
231	0xbd5e9b66	-0.05434742
232	0x3dece1d3	0.1156651
233	0xbd467248	-0.04844883
234	0xbe1e2f54	-0.15447742
235	0xbcb52b14	-0.022115268
236	0xbcbd3c3c	-0.023100011
237	0xbb65f86b	-0.0035090696
238	0xbe08630b	-0.13319032
239	0xbd1cf20c	-0.03831677
240	0xbdff005b	-0.1245124
241	0xbe4d1881	-0.20028879
242	0x3db45a7a	0.088063195
243	0x3d3fda18	0.04683885
244	0x3cc9b144	0.02462066
245	0x3c2f2cef	0.010691865
246	0x3ccb7adc	0.024838857
247	0xbd8e5bab	-0.06951078
248	0xbc9240ba	-0.01785313
249	0x3d6b88d8	0.05750355
250	0x3d540176	0.051759206
251	0x3e4d76b5	0.20064814
252	0x3cb54c28	0.02213104
253	0x3e5c81d4	0.215339
254	0x3d6819db	0.056665283
255	0x3ba864e9	0.0051389826

network_body._body_endoder.seq_layers.2.bias f4 [128]
0	0x3caf2053	0.021377718
1	0x3c2ff1af	0.010738774
2	0x3cb52284	0.022111185
3	0x3ca33779	0.019923912
4	0x3c817ecc	0.015807532
5	0x3bb53ae0	0.0055307
6	0x3c1e58ab	0.009664695
7	0x3cbcca41	0.02304566
8	0xbb1871e7	-0.002326125
9	0xb89d7fea	-7.510169e-05
10	0x3bb4a795	0.0055131414
11	0x3a1ba87e	0.0005937888
12	0x3bb4ca4a	0.005517279
13	0x3aac1c54	0.0013131001
14	0x3c9f075c	0.019412689
15	0x3b7ae901	0.0038285854
16	0x3c2bd6be	0.01048821
17	0xbae84681	-0.0017721207
18	0x3cfdda10	0.03098777
19	0x3c5a21d4	0.013313729
20	0x3c40f810	0.011777893
21	0x3ceb0189	0.028687255
22	0x3d210bcb	0.039317887
23	0x39b322e9	0.0003416755
24	0x3c5766a0	0.013147026
25	0x3cb2d2d8	0.021829054
26	0x3c14b364	0.009075973
27	0xb9acfc7b	-0.0003299451
28	0x3ab21150	0.0013585482
29	0x3c2e0e87	0.010623581
30	0x3c8897bb	0.016673913
31	0x3b8153d2	0.0039467597
32	0x3c962f14	0.018332995
33	0x3be97fcc	0.0071258303
34	0x3c731daf	0.01483862
35	0x3bfac70f	0.007653124
36	0x3b2e3cb5	0.0026586477
37	0x3c4f940d	0.012669575
38	0x3c41ee17	0.01183655
39	0x3c78e7d2	0.015191989
40	0x3bb24a95	0.00544102
41	0x3ca638ee	0.020290818
42	0x3baca301	0.005268455
43	0x3d06a68d	0.03287368
44	0x3c5d3239	0.013500744
45	0x3c933d2a	0.017973501
46	0x3b9c7495	0.00477464
47	0x3bc8ba3c	0.0061257165
48	0x3c436378	0.011925571
49	0x3be39404	0.006945135
50	0x3c236007	0.009971625
51	0x3aab05ab	0.0013047954
52	0x3c0be722	0.008538993
53	0x3c8b214b	0.016983649
54	0x3beb93e1	0.0071892594
55	0x3bd36b6e	0.0064520156
56	0x3c4a323d	0.012341079
57	0x3cc4da7d	0.024029965
58	0x3bbf1ea1	0.0058325087
59	0x3c816b66	0.015798282
60	0x3c5ce92f	0.01348333
61	0x3b28c545	0.0025752347
62	0xbc8908f3	-0.0167279
63	0x3cc1ef0d	0.023673559
64	0x3c8d42f5	0.017243842
65	0x3c94da5f	0.018170534
66	0x3c6fe7f7	0.014642707
67	0x3c389466	0.01126585
68	0x3c3bf940	0.011473
69	0x3d1521c3	0.03640915
70	0x3c67bbef	0.014143928
71	0x3c251382	0.010075452
72	0x3c2d16fc	0.010564562
73	0x3c921ac1	0.017835023
74	0x3cda3ae0	0.026639402
75	0x3cc2204e	0.023697045
76	0x3cc38d99	0.02387123
77	0x3d080831	0.033210937
78	0x3c956b9c	0.018239789
79	0x3c321dea	0.01087139
80	0x3c924e50	0.017859608
81	0x3ca88da6	0.020575356
82	0x3c6c9993	0.014440912
83	0x3cb61d7e	0.02223086
84	0x3beb4065	0.0071793073
85	0x3c8ef83c	0.017452352
86	0x3c71a8d2	0.014749723
87	0x3c61ddaa	0.013785759
88	0x3c659d9b	0.014014627
89	0xbb4628e9	-0.0030236787
90	0x3c398040	0.011322081
91	0x3c491156	0.0122722
92	0xbbc0ec0f	-0.0058875154
93	0x3cf019b7	0.029309137
94	0x3c4f129b	0.012638713
95	0x3c004e74	0.007831205
96	0x3ca2a48a	0.019853849
97	0x3cfb24e4	0.03065724
98	0x3cff7345	0.031182894
99	0x3c9315bc	0.0179547
100	0x3cb353ab	0.021890482
101	0x3c96e927	0.018421723
102	0x3caae70e	0.020862129
103	0x3c0a6ffa	0.008449549
104	0x3ca558b2	0.020183895
105	0xba975917	-0.0011546937
106	0x3bc3dbac	0.0059771147
107	0x3cd03bfa	0.025419224
108	0x3c9026ab	0.017596563
109	0x3c330092	0.010925429
110	0x3cb4d015	0.022071877
111	0x3c41660d	0.011804116
112	0x3ca2c1d3	0.019867813
113	0x3ce31c8c	0.027723573
114	0x3cb52eb8	0.022117004
115	0x3c8e51f1	0.017373057
116	0xbc6425fb	-0.013925071
117	0x3b7e82c6	0.0038835271
118	0x3bcb0b6b	0.0061964295
119	0x3c2f41bb	0.010696824
120	0x3bcaedb9	0.0061928895
121	0xbb6fbf36	-0.0036582476
122	0x3c892c3d	0.016744727
123	0x3cfe3e84	0.03103567
124	0x3c971e6f	0.018447129
125	0x3c5fe20d	0.013664735
126	0x3c82b0bf	0.01595342
127	0xbb000822	-0.0019536098

action_model._continuous_distribution.log_sigma f4 [1, 3]
0	0xbe1c22db	-0.15247671
1	0xbe2d261f	-0.16909073
2	0xbc7553e8	-0.014973618

action_model._continuous_distribution.mu.weight f4 [3, 128]
0	0xbce38a85	-0.027776012
1	0xbcf5f8cd	-0.030025864
2	0xbd3f9a4e	-0.046778016
3	0xbd7cad0d	-0.06168847
4	0x3d38131c	0.0449401
5	0x3d8bbfdb	0.06823703
6	0x3d5d3d21	0.054013375
7	0xbd1e5368	-0.03865376
8	0x3c75e933	0.015009212
9	0x3d5ce5d3	0.053930115
10	0xbd72262b	-0.05911843
11	0x3d057477	0.032581773
12	0x3d32613b	0.043549757
13	0x3d4ff56f	0.050771173
14	0xbd24bd9a	-0.04021988
15	0x3b8bbc77	0.00426441
16	0xbc991fd4	-0.018691935
17	0xbd39e19d	-0.045381177
18	0xbd94d241	-0.07266665
19	0xbdac9d5f	-0.08428454
20	0x3a05ada4	0.0005099422
21	0x3decb6ea	0.115583256
22	0x3d7ae7cf	0.061256226
23	0x3d5e5a0e	0.0542851
24	0xbcb53093	-0.022117889
25	0xbd3cddbc	-0.0461099
26	0x3ce6de6e	0.028182235
27	0xbcd41529	-0.025888996
28	0xbd77484a	-0.060371675
29	0x3c0424ca	0.008065412
30	0x3d8570b3	0.06515636
31	0x3d4dc537	0.050236907
32	0x3d1f3d8b	0.03887705
33	0xbc971ef5	-0.018447379
34	0xbd8b5a5c	-0.06804344
35	0x3d9159b3	0.07097187
36	0xbda55830	-0.08073461
37	0xbd1d2b5c	-0.03837143
38	0x3d539ff3	0.05166621
39	0xbd1d90c2	-0.03846813
40	0x3bc499cd	0.00599978
41	0x3cc4cb3b	0.02402269
42	0xbab3be0e	-0.0013713257
43	0x3d7624c4	0.060093656
44	0x3d4b4a26	0.04963126
45	0xbdd2e152	-0.10296883
46	0x3c494025	0.01228336
47	0xbd4ffa83	-0.050776016
48	0xbc9a45f5	-0.018832186
49	0x3c834603	0.016024595
50	0x3d89c009	0.06726081
51	0xbbad34a8	-0.005285818
52	0xbd9a9436	-0.075478
53	0x3d37e436	0.044895373
54	0x3da4cc17	0.080467395
55	0xbb191f23	-0.0023364506
56	0xbd845415	-0.0646135
57	0xbd9f47f3	-0.07777395
58	0x3d6d0aff	0.057871815
59	0x3b8f739e	0.0043777963
60	0x3d99c3ae	0.07508026
61	0x3cd4b922	0.025967184
62	0xbcba55c2	-0.02274597
63	0xbdb15209	-0.08658225
64	0x3ce26c3d	0.027639503
65	0xbd76c17d	-0.06024312
66	0xbc70fae6	-0.014708256
67	0x3c641b25	0.013922487
68	0xbc870a99	-0.016484546
69	0x3d36e3f1	0.044650976
70	0xbdd361d8	-0.103213966
71	0x3d1f28d5	0.0388573
72	0x3d217886	0.03942158
73	0x3ce64b39	0.02811204
74	0x3ba07dd6	0.0048978133
75	0xbdcf45f7	-0.101207666
76	0x3d9f4e50	0.07778609
77	0xbd527f08	-0.051390678
78	0xbd9346be	-0.071912274
79	0xbd2358e3	-0.03987969
80	0x3db3ba8a	0.08775814
81	0x3dbc4d44	0.09194425
82	0x3dadf8e4	0.08494738
83	0x3d435124	0.047684804
84	0xbd420fc8	-0.04737833
85	0x3cd03501	0.0254159
86	0x3d8c54ca	0.0685211
87	0x3da26680	0.079297066
88	0x3d108e02	0.03529168
89	0x3c96dc8b	0.01841571
90	0xbd328cc4	-0.043591276
91	0x3d8969bf	0.067096226
92	0xbc616585	-0.013757114
93	0x3dc7d8f1	0.09758175
94	0xbd9c2b19	-0.07625408
95	0x3d29bcd3	0.041439842
96	0x3dafb857	0.08580082
97	0xbd23df7f	-0.040008064
98	0x3dbf8bed	0.093528606
99	0xbcc6dd6c	-0.024275504
100	0xbd26700a	-0.040634193
101	0xbdb6f3c6	-0.08933215
102	0x3d69987d	0.05703019
103	0xbcd91fa6	-0.026504349
104	0xbd664a0c	-0.05622296
105	0xb8c8ad9c	-9.5690804e-05
106	0xbc948557	-0.018129988
107	0xbae60536	-0.001754916
108	0xbd9f2de7	-0.07772427
109	0x3d83ccce	0.06435548
110	0xbd6d63fa	-0.057956673
111	0xbd61db32	-0.05514068
112	0x3da3fde4	0.0800741
113	0xbdaf5194	-0.08560482
114	0xbcec8387	-0.02887131
115	0xbc927905	-0.017879972
116	0x3cdb094d	0.026737833
117	0x3c9c68fe	0.019093033
118	0xbcc14ddd	-0.023596698
119	0xbd9db828	-0.07701141
120	0xbd9da0d4	-0.07696691
121	0xbc608dae	-0.013705654
122	0xbdb4bd15	-0.08825127
123	0x3d88c263	0.06677701
124	0xbc8798d6	-0.01655237
125	0x3da18125	0.078859605
126	0x3c6da5fb	0.014504905
127	0x3c207833	0.009794283
128	0xbd3c8150	-0.04602176
129	0x3d9aac0f	0.07552349
130	0x3a2b61aa	0.00065376854
131	0xbbbc66d6	-0.0057495637
132	0xbd88acf1	-0.06673611
133	0x3c78edac	0.015193384
134	0x3c6f456f	0.014603957
135	0xbd864e0e	-0.065578565
136	0xbce580dd	-0.028015548
137	0xbb8dc875	-0.004326875
138	0xbbead618	-0.0071666352
139	0xbc81c355	-0.015840212
140	0x3d01b69c	0.03166829
141	0xbd15f4cb	-0.036610406
142	0x3da39e5c	0.07989189
143	0x3da771a8	0.08175975
144	0x3cb099b1	0.02155766
145	0x3ca20c04	0.01978112
146	0x3da9bb29	0.08287651
147	0xbcabdd73	-0.020979619
148	0xbda4ecd4	-0.08052984
149	0xbd13c2af	-0.036074337
150	0x3dc7da4e	0.09758435
151	0x3cdbd19b	0.026833346
152	0x3d6e81bb	0.05822919
153	0x3d996037	0.07489055
154	0x3e05639c	0.13026279
155	0x3a029ab3	0.00049821584
156	0x3d15c1e2	0.036561854
157	0xbd6cb4ca	-0.0577896
158	0xbd5fd2e2	-0.054644473
159	0x3a7b4c49	0.00095862575
160	0x3d5ab78c	0.0533977
161	0xbc820e05	-0.015875826
162	0x3d0628ce	0.032753758
163	0x3d7905f7	0.060796704
164	0x3caa9af2	0.020825837
165	0xbcd89489	-0.026438015
166	0xbc8f2b4b	-0.017476698
167	0xbd566c41	-0.052349333
168	0x3d2a122e	0.041521244
169	0x3d9a379a	0.075301364
170	0x3d44c428	0.04803863
171	0xbdade34c	-0.08490619
172	0xbdbc2cac	-0.09188208
173	0xbd27ee7b	-0.040998917
174	0xbd11410e	-0.03546243
175	0x3c62cf95	0.013843437
176	0x3d100100	0.035157204
177	0x3d25ebf7	0.040508237
178	0x3d9525e6	0.07282619
179	0xbc400282	-0.011719348
180	0x3d23550e	0.039876036
181	0x3d4b1ff8	0.049591035
182	0xbcce24ad	-0.025163973
183	0x3dbbf26b	0.09177097
184	0xb9753428	-0.0002338445
185	0x3d40d32f	0.0470764
186	0xbd35958b	-0.04433207
187	0x3c84cda6	0.016211342
188	0xbd1470fe	-0.03624057
189	0xbcb27e19	-0.021788644
190	0x3cc2bd42	0.023771886
191	0x3b849805	0.0040464425
192	0xbde5ca78	-0.112202585
193	0x3d7f555c	0.062337264
194	0x3d73f72e	0.0595619
195	0x3d497a36	0.049188815
196	0x3d90bee9	0.07067663
197	0xbd0fc6b5	-0.03510161
198	0xba8cc4e1	-0.0010739827
199	0xbd45bd5e	-0.048276298
200	0x3d99b4e5	0.07505206
201	0xbd14e83f	-0.0363543
202	0x3d802ae3	0.0625818
203	0x3bb19f69	0.0054206145
204	0xbda99d30	-0.08281934
205	0xbdc239c5	-0.09483675
206	0xbd377230	-0.044786632
207	0x3d52fa52	0.051508255
208	0x3cf5babe	0.029996272
209	0xbcdb6cce	-0.02678528
210	0x3b371a49	0.002793925
211	0xbdb3cf49	-0.08779771
212	0xbd8d18ed	-0.0688952
213	0x3d88a867	0.06672745
214	0xbd4a4a20	-0.049387097
215	0xbd9396cd	-0.07206497
216	0xbd5972e7	-0.053088095
217	0xbc5e547f	-0.01356995
218	0xbd14192c	-0.03615682
219	0x3cedea0d	0.029042268
220	0x3b10f7ba	0.0022120313
221	0xbd2a9826	-0.041649006
222	0x3c3999e5	0.011328195
223	0xbd1dd669	-0.038534556
224	0xbd915004	-0.0709534
225	0xbdb87acb	-0.09007796
226	0xbd8ca95f	-0.068682425
227	0x3d63e06d	0.05563395
228	0xbd0d70e8	-0.034531504
229	0xbdb27085	-0.08712868
230	0x3d3d7908	0.046258003
231	0x3d7a48dc	0.06110464
232	0x3d5fe0ea	0.054657854
233	0x3c6bbb86	0.014387971
234	0xbd388e6d	-0.045057703
235	0xbd9e7491	-0.07737077
236	0x3c3fa2c7	0.011696524
237	0xbc662788	-0.014047511
238	0xbd977524	-0.0739539
239	0x3cba38af	0.022732107
240	0x3c95cb4a	0.018285412
241	0x3dab1601	0.08353806
242	0xbdc02774	-0.09382525
243	0x3dbdb668	0.09263307
244	0xbb248a49	-0.0025106838
245	0xbd0bb0cf	-0.034104165
246	0xbbb26748	-0.005444441
247	0xbcdb2191	-0.026749404
248	0x3ce7c0a1	0.028290095
249	0xbd5441c8	-0.051820546
250	0x3d13b4de	0.03606116
251	0xbc39d35d	-0.011341897
252	0x3d911a52	0.07085098
253	0x3cf00f5f	0.029304205
254	0xbd8b54cf	-0.06803285
255	0xbd53f936	-0.051751338

action_model._continuous_distribution.mu.bias f4 [3]
0	0x3ac634b1	0.0015121904
1	0xbaea4c57	-0.0017875534
2	0x3c5da79d	0.013528732

action_model._discrete_distribution.branches.0.weight f4 [5, 128]
0	0xbba5a398	-0.0050549023
1	0xbc3b22e6	-0.011421895
2	0xbba69067	-0.005083132
3	0xbcf49414	-0.029855765
4	0x38233708	3.891348e-05
5	0x3b8aa8df	0.004231557
6	0xbc395202	-0.011311056
7	0xbcb4319a	-0.021996308
8	0xbb258b0a	-0.0025259876
9	0xbc91ce03	-0.01779843
10	0xbc6ddc1f	-0.014517813
11	0xbc2c64d3	-0.010522085
12	0x3a8c67af	0.0010712052
13	0xbbe2723d	-0.006910591
14	0xbbedbade	-0.0072549423
15	0x3cb266a3	0.021777457
16	0xbba0c48d	-0.004906243
17	0xbc68404f	-0.014175489
18	0xba80b1a0	-0.0009818561
19	0xbced7f9f	-0.028991519
20	0x39c6e27f	0.00037934256
21	0x3ba71b20	0.005099669
22	0xbc7464ca	-0.014916608
23	0x3d1cab19	0.03824911
24	0xbc62654e	-0.013818098
25	0x3c406f53	0.011745292
26	0x3c4d0e34	0.012515593
27	0xbc7b8d27	-0.015353478
28	0x3c7a02ae	0.015259428
29	0xbc065161	-0.008198113
30	0xbb19ea23	-0.0023485504
31	0x3d0d37da	0.034477092
32	0x3c1781e2	0.009247275
33	0xbc60c421	-0.013718636
34	0xbc3f76c4	-0.011686031
35	0x3c320d04	0.010867361
36	0x3c6ec44e	0.01457317
37	0x3cfa2d34	0.030539133
38	0xbbdf91af	-0.0068227868
39	0xbba06828	-0.004895229
40	0x3bc69188	0.006059829
41	0x3c373646	0.011182373
42	0x3a7ff9bf	0.0009764693
43	0x3d71c0cc	0.059021756
44	0xbb1dfaef	-0.0024105867
45	0x3cba4c8a	0.022741575
46	0x3bd65609	0.006541018
47	0x3d13dc37	0.036098685
48	0xbb1c2a69	-0.002382899
49	0xbc94be8d	-0.018157268
50	0x3bd31715	0.0064419606
51	0xbd239f5d	-0.039946903
52	0x3acd55bf	0.0015665813
53	0xbb04d5c8	-0.0020269025
54	0x3a63e598	0.0008693575
55	0x3c8350f3	0.01602981
56	0xbcb0af75	-0.02156804
57	0xbce68e27	-0.028143955
58	0xbbb94112	-0.005653509
59	0x3c81e58f	0.015856532
60	0x3b064fca	0.0020494335
61	0x3bd3123a	0.0064413818
62	0x3b0a76b4	0.0021127881
63	0xbc9924c9	-0.018694298
64	0x3c4288f2	0.011873471
65	0xbacde717	-0.0015709129
66	0xbc379c89	-0.0112067545
67	0xbb9dc426	-0.0048146425
68	0x3b7f7108	0.0038977284
69	0x3cc897da	0.024486471
70	0x3ca83391	0.020532401
71	0x3c1b5f0f	0.009483113
72	0x3c559e97	0.013038299
73	0x3b9223c0	0.004459828
74	0xbbb3ec87	-0.0054908427
75	0xbcc9bae5	-0.024625251
76	0xbc2a8a38	-0.0104089305
77	0x3bfb18d9	0.007662874
78	0xbcad1719	-0.021129178
79	0x3b192b01	0.002337158
80	0x3c15c0a5	0.009140168
81	0x3c90a738	0.017657861
82	0x3c1a45f4	0.009416092
83	0x3c2a371c	0.010389116
84	0x3c7548eb	0.014970998
85	0x3c8f43af	0.017488329
86	0x3c1e8b22	0.009676727
87	0x3cf214fa	0.029551018
88	0xbb379d33	-0.0028017282
89	0xbaac752d	-0.001315748
90	0xbd2b7f34	-0.041869357
91	0x3ccb884e	0.024845269
92	0xbb593f16	-0.0033149174
93	0x3ab140cd	0.001352334
94	0xbc444b7a	-0.011980886
95	0xbc666abd	-0.014063534
96	0x3ca02e6c	0.019553386
97	0x3a39de22	0.00070902903
98	0xbcef0e67	-0.029181672
99	0xbaa70e55	-0.001274536
100	0xbce4abcc	-0.02791395
101	0xbc064ee6	-0.008197522
102	0xbcd3b2d2	-0.025842104
103	0x3c2a9140	0.010410607
104	0xbc7a32c4	-0.0152708925
105	0x3bfdaf34	0.007741833
106	0xbb8c3ae3	-0.004279481
107	0x3ba2ccc4	0.0049682576
108	0xbcbaafcf	-0.02278891
109	0x3c7c0efb	0.015384431
110	0x3cc81d20	0.02442795
111	0xbc8e6b1d	-0.01738506
112	0x3b7b6aa7	0.003836313
113	0xbc9bbaeb	-0.019010028
114	0xbd1b866e	-0.03797
115	0xbbbc6512	-0.005749353
116	0x3c763a31	0.015028522
117	0x3b21a9f3	0.0024667948
118	0x3d00c344	0.03143622
119	0xba096354	-0.00052409363
120	0x3aa271ef	0.0012393574
121	0xb7273c4d	-9.968016e-06
122	0xbbb58dac	-0.0055405702
123	0x3c3b8356	0.011444887
124	0xbcffccd1	-0.031225594
125	0x3acdd13c	0.0015702615
126	0x3b586d36	0.003302408
127	0x3c8da7d2	0.017291937
128	0x3c04fc69	0.00811682
129	0x3c60997b	0.013708468
130	0xbd121226	-0.03566184
131	0xbc486e39	-0.01223331
132	0x3c20e197	0.00981941
133	0xbc4681ac	-0.012115877
134	0xbba04440	-0.0048909485
135	0xbbd9ea13	-0.0066502183
136	0xbcb99390	-0.022653371
137	0xb921c0ae	-0.00015425935
138	0x3ba7e28e	0.005123443
139	0x3c088d59	0.008334481
140	0x3c3c87ea	0.011507014
141	0x3ca7be6b	0.02047654
142	0xbd2345bd	-0.03986143
143	0xbc91e022	-0.01780707
144	0x3c879cf1	0.016554328
145	0x3c58c454	0.013230402
146	0x3b435203	0.0029803521
147	0xbc256411	-0.0100946585
148	0xbad86157	-0.0016508502
149	0x3b815093	0.003946373
150	0xbcfddb8d	-0.030988479
151	0x3b28844c	0.002571362
152	0xbc5022cf	-0.0127036115
153	0xbcb0421a	-0.021515895
154	0x3c1e8ca6	0.009677088
155	0xba5f2ebc	-0.0008513739
156	0x3c6d9365	0.014500474
157	0xbc59336d	-0.01325689
158	0x3c011e55	0.007880767
159	0xbc060a41	-0.008181156
160	0xbd32def1	-0.043669645
161	0x3c1a968b	0.009435306
162	0xbc26fb3b	-0.010191734
163	0x3be9f64e	0.0071399575
164	0xbc4352eb	-0.011921625
165	0xbc149625	-0.009069
166	0x3c928b29	0.017888622
167	0xbb3f4beb	-0.0029189538
168	0xbb74b43c	-0.0037338873
169	0x3b9e6e86	0.0048349528
170	0x3bcdc6f7	0.006279822
171	0xbbc85cc5	-0.0061145746
172	0x3c347003	0.011013034
173	0xbc966ec5	-0.018363366
174	0xbb938a27	-0.004502553
175	0xbacdc20c	-0.0015698089
176	0xbc7484ac	-0.01492421
177	0xbbc93eee	-0.006141535
178	0x3bfe5ec7	0.007762763
179	0xbbc434e1	-0.005987749
180	0xbc93aa9e	-0.018025693
181	0x3c135c9c	0.008994248
182	0x3c8984cf	0.01678696
183	0x3c324fda	0.010883296
184	0xbc95648f	-0.018236427
185	0xbc41cad7	-0.011828146
186	0x3ca64846	0.020298135
187	0x3cbb4225	0.022858689
188	0x3ba55f72	0.0050467784
189	0x3cdf409f	0.027252493
190	0x3ac96736	0.0015365842
191	0xbca0586f	-0.019573418
192	0x3be32bed	0.0069327266
193	0x3bd7641c	0.0065732133
194	0xbc912291	-0.017716678
195	0x3b103de4	0.0022009546
196	0x3c01850b	0.007905255
197	0xbd4c79ef	-0.049920972
198	0xbbb1ea22	-0.005429522
199	0xbcc68b94	-0.024236478
200	0x3c34e08f	0.011039867
201	0xbcf0f5e3	-0.029414123
202	0xbd74b7c3	-0.05974556
203	0xbc808727	-0.015689446
204	0x3c00f6dc	0.007871356
205	0xbc8d51cf	-0.017250923
206	0x3c4b1edf	0.012397497
207	0xbc91a590	-0.017779142
208	0xbcd0c93f	-0.025486587
209	0xbcabcdab	-0.020972094
210	0x3ba0c46e	0.0049062287
211	0xbbc92bef	-0.0061392705
212	0x3bb7bf11	0.0056074937
213	0xbcbef5f1	-0.023310633
214	0xbc384c66	-0.011248684
215	0xbc71c25f	-0.014755814
216	0x3acd21ba	0.001565031
217	0x3cd87749	0.026424067
218	0x3c8722ce	0.016496088
219	0xbc8435b3	-0.016138887
220	0x3c7400f5	0.014892806
221	0xbba364c0	-0.0049863756
222	0x3bafa83d	0.0053606317
223	0x3b95d985	0.0045730495
224	0xbcb7a4c3	-0.022417432
225	0xbc16c957	-0.009203277
226	0xbc5aa8b0	-0.013345882
227	0xbc269356	-0.010166964
228	0xbce0869b	-0.027407935
229	0xbb1a0d37	-0.0023506412
230	0x3c7e432c	0.015518945
231	0xbc5ae069	-0.013359168
232	0xbcc7bca3	-0.024381941
233	0x3c96a0ee	0.018387284
234	0xbcaa79a6	-0.02080996
235	0xbc910ca8	-0.01770623
236	0xbcecfc27	-0.02892883
237	0x3c686d4d	0.014186216
238	0xbc496dd9	-0.012294256
239	0xbc392019	-0.011299157
240	0x3ca27e2b	0.019835552
241	0xbd0cdb40	-0.03438878
242	0x3bb93221	0.005651728
243	0x3c14b867	0.009077168
244	0x3cd33608	0.0257826
245	0xbae0aa8c	-0.0017140671
246	0x3c2a2bd9	0.010386431
247	0xbc483e19	-0.0122218365
248	0xbca79b34	-0.020459749
249	0x3cbbc34b	0.022920271
250	0xbcb0a1d6	-0.021561544
251	0xbd015ac3	-0.031580698
252	0xbcd7ce2b	-0.026343426
253	0xbb718cd3	-0.003685762
254	0xbd446f4d	-0.047957707
255	0xbc9530d1	-0.018211754

action_model._discrete_distribution.branches.0.bias f4 [5]
0	0xbc134ca6	-0.008990442
1	0xbbca2967	-0.0061694863
2	0xbb0c1eef	-0.0021380743
3	0xbbfca6b9	-0.0077103046
4	0x3cd7bd0d	0.026335264
