Assets/Brain/Tests/3.onnx (onnx, 185838 bytes, 9 tensors)

network_body._body_endoder.seq_layers.0.weight f4 [128, 211]
-0.0107752215 0.066683374 0.00014621869 0.08090858 0.09649061 -0.025949711 -0.045272075 -0.08225079
-0.07850238 0.0839011 -0.021095281 0.1008889 0.14220674 -0.004848294 0.10024531 -0.028321741
0.017014707 0.11624056 0.10429332 -0.063223004 -0.015675755 -0.094789 -0.029026782 0.07959297
0.12173607 -0.05274894 -0.13707206 0.11635243 -0.05248574 -0.0735466 0.019653978 -0.09468674
0.028535793 0.097973414 0.22923963 -0.00171958 0.008841066 0.021703495 0.12879792 0.12669124
-0.2057599 1.1280826e-05 -0.027646877 -0.1081148 0.088068895 0.091371536 0.079190746 -0.05693553
0.0019437765 -0.057517577 0.13359311 0.061396603 0.08022438 0.125821 0.0866666 -0.03725559
0.12404478 0.0049174177 0.028599061 0.042320356 0.19734317 0.10250998 -0.010778161 0.12885308
0.01195958 0.037835132 -0.012190476 0.0150501495 -0.0624304 0.0054825223 -0.030074863 0.04265799
-0.07508254 -0.00055503054 0.07629675 -0.07029185 0.09311194 -0.043160073 0.017821172 0.028671723
-0.011122257 0.076141946 -0.0620289 -0.06285326 0.1554071 0.021331916 0.016777817 -0.034255505
-0.02245967 0.10143765 0.07783429 0.017053701 -0.10050559 0.016640574 -0.035687566 -0.034911454
0.037443798 -0.26570463 0.02333719 -0.08608804 -0.034410916 -0.1212941 -0.0927909 0.11438606
0.023903204 0.085090525 0.12585656 -0.092880175 0.08169056 0.016837498 -0.062211644 0.05078021
-0.03928419 -0.08294276 0.11758863 0.05191254 0.07968068 -0.05035399 0.018635608 -0.051225256
-0.07046129 -0.007513922 0.1296528 0.023221873 -0.018999664 0.11443769 -0.015710698 -0.046243854
-0.0075580515 -0.042070176 0.0134002585 0.0057081287 0.14454249 0.08466417 0.065350324 -0.009553489
0.09468287 0.06674869 0.16217877 -0.008613588 0.04425302 0.067341246 0.12312075 -0.049248494
-0.038463987 0.02545769 0.09411945 0.0047273864 -0.057102714 0.053964596 -0.06496235 -0.04808098
0.048005205 -0.061095167 0.14549531 0.083931215 0.027892811 0.044406842 -0.096076846 -0.085614026
-0.045506347 0.0039987606 0.22747992 -0.13583268 -0.039982155 0.0783757 0.026443738 -0.029409813
0.093062125 0.070361234 -0.05591606 0.11160578 0.13371235 0.006434147 0.04314141 0.00815966
0.07784839 -0.040676575 0.05164679 -0.1117422 -0.03955907 -0.032847162 0.034636572 0.018207312
-0.04317298 -0.08703419 -0.045451194 0.052205916 0.016491558 -0.06689316 0.01494934 -0.025803488
-0.05156487 0.016462091 0.0665975 0.09056785 0.048493434 0.040045604 -0.031777646 -0.058022715
-0.05386401 0.08886235 0.008747269 0.1091558 0.10763994 -0.10320338 0.20771085 0.021025533
-0.12765248 0.014965962 -0.07615429 0.017228426 0.103897974 0.1561008 -0.038680937 -0.0021561773
-0.008515339 0.003536022 -0.026251286 0.08985431 -0.14332472 -0.029013406 0.06794293 0.13415149
-0.06672743 -0.04058676 -0.006116032 -0.06625996 -0.011567465 -0.013688343 0.16297865 -0.101428084
0.027342448 0.117619365 0.0015677357 0.08113662 0.04349196 0.08898903 -0.124119215 0.035820123
-0.011419666 -0.008093079 0.05745024 -0.017126348 -0.02835299 -0.05769195 -0.019340385 0.034255568
-0.15168877 -0.12148523 0.0051572355 0.08150662 -0.073721595 -0.007634323 0.003239384 -0.04366766
00000000: 8e8a 30bc 4b91 883d 4852 1939 66b3 a53d
00000010: de9c c53d 7d94 d4bc 366f 39bd 1a73 a8bd
00000020: dbc5 a0bd 57d4 ab3d 03d0 acbc d79e ce3d
00000030: a59e 113e 70de 9ebb 6a4d cd3d ff02 e8bc
00000040: 6d62 8b3c 880f ee3d bc97 d53d 107b 81bd
00000050: 716a 80bc bc20 c2bd 93c9 edbc a401 a33d
00000060: c350 f93d 460f 58bd 9e5c 0cbe 2f4a ee3d
00000070: 4afb 56bd 9a9f 96bd 6101 a13c 1feb c1bd
00000080: e5c3 e93c 49a6 c83d cbbd 6a3e 8863 e1ba
00000090: 1eda 103c 87cb b13c 9ae3 033e 59bb 013e
000000a0: b9b2 52be c742 3d37 b47b e2bc 4b6b ddbd
000000b0: 775d b43d 0021 bb3d c22e a23d 3b35 69bd
000000c0: 51c6 fe3a 8d97 6bbd a2cc 083e 017b 7b3d
000000d0: ae4c a43d 38d7 003e 427e b13d 5199 18bd
000000e0: 310b fe3d 4a22 a13b 9448 ea3c 1c58 2d3d
000000f0: 5414 4a3e c1f0 d13d e296 30bc 10f2 033e
00000100: 1df2 433c 03f9 1a3d 90ba 47bc e794 763c
00000110: 05b7 7fbd bba6 b33b 8f5f f6bc 25ba 2e3d
00000120: e0c4 99bd 787f 11ba 7841 9c3d 2cf5 8fbd
00000130: 79b1 be3d 9ec8 30bd b5fd 913c f6e0 ea3c
00000140: 213a 36bc 4ff0 9b3d 0412 7ebd 36b9 80bd
00000150: 0a23 1f3e 45c0 ae3c a271 893c 804f 0cbd
00000160: 58fd b7bc 8bbe cf3d 9667 9f3d 34b4 8b3c
00000170: e0d5 cdbd d051 883c 202d 12bd 50ff 0ebd
00000180: ab5e 193d 700a 88be a22d bf3c ed4e b0bd
00000190: 76f2 0cbd 0b69 f8bd 2809 bebd 3d43 ea3d
000001a0: a7d0 c33c f143 ae3d 8be0 003e f637 bebd
000001b0: 614d a73d cbee 893c a3d1 7ebd e9fe 4f3d
000001c0: 75e8 20bd e5dd a9bd 4fd2 f03d 3ea2 543d
000001d0: a02f a33d fc3f 4ebd b4a9 983c 93d1 51bd
000001e0: 024e 90bd 5937 f6bb b4c3 043e cc3b be3c
000001f0: 2fa5 9bbc 4f5e ea3d b9b3 80bc 326a 3dbd
00000200: 88a9 f7bb c751 2cbd c28c 5b3c 410b bb3b
00000210: f202 143e 6964 ad3d 64d6 853d 3d86 1cbc
00000220: 18e9 c13d 8ab3 883d 3112 263e 0220 0dbc
00000230: a842 353d 35ea 893d bb26 fc3d cab8 49bd
00000240: 6a8c 1dbd a58c d03c b3c1 c03d 31e8 9a3b
00000250: 89e4 69bd fb09 5d3d fb0a 85bd 90f0 44bd
00000260: 1ba1 443d ed3e 7abd b9fc 143e 21e4 ab3d
00000270: 777f e43c f3e3 353d f0c3 c4bd 6856 afbd
00000280: dd64 3abd 0908 833b 7ff0 683e b917 0bbe
00000290: 54c4 23bd 7083 a03d 8aa0 d83c d9ec f0bc
000002a0: 5b97 be3d 8d19 903d 3d08 65bd 9291 e43d
000002b0: e4eb 083e 89d5 d23b 0cb5 303d 18b0 053c
000002c0: fa6e 9f3d 7b9c 26bd 968b 533d 18d9 e4bd
000002d0: b108 22bd bf8a 06bd 14df 0d3d 8027 953c
000002e0: 27d6 30bd fb3e b2bd 082b 3abd dfd5 553d
000002f0: 4e19 873c 48ff 88bd 14ee 743c d661 d3bc
00000300: af35 53bd 82db 863c 4564 883d a37b b93d
00000310: 0da1 463d dc06 243d 4729 02bd 3aa9 6dbd
00000320: 82a0 5cbd 77fd b53d b550 0f3c 138d df3d
00000330: 5472 dc3d 4b5c d3bd 27b2 543e bd3d ac3c
00000340: 55b7 02be cb33 753c c8f6 9bbd a122 8d3c
00000350: 76c8 d43d e3d8 1f3e e76f 1ebd a74e 0dbb
00000360: ec83 0bbc 9bbc 673b f00c d7bc 8905 b83d
00000370: b7c3 12be 86ad edbc aa25 8b3d 025f 093e
00000380: 64a8 88bd 4d3e 26bd ff68 c8bb 4db3 87bd
00000390: 7785 3dbc 1245 60bc e0e3 263e 87b9 cfbd
000003a0: 45fd df3c 6ce2 f03d 7b7c cd3a f52a a63d
000003b0: a024 323d e13f b63d 3732 febd 1fb8 123d
000003c0: 8d19 3bbc d598 04bc f150 6b3d 8e4c 8cbc
000003d0: 8844 e8bc 654e 6cbd ba6f 9ebc 914f 0c3d
000003e0: 4d54 1bbe 40cd f8bd 07fe a83b f1ec a63d
000003f0: 59fb 96bd 5829 fabb d84b 543b dcdc 32bd

network_body._body_endoder.seq_layers.0.bias f4 [128]
0.03438688 -0.0072011664 0.029360767 0.018120706 0.016934976 0.03153087 0.012630606 0.035887513
0.013336682 0.008589342 0.0068850173 -0.017707258 0.007989337 0.018498104 0.02083921 -0.00997765
0.011576266 -0.00056916673 0.015689122 0.025868714 0.0251905 0.011536924 -0.009798912 0.01107592
0.014074979 -0.0026507578 0.007410166 0.010883367 0.013045585 0.04104272 -0.005432513 0.015374456
0.023317628 0.016696123 0.009411175 0.013119637 0.0128492145 0.018695781 -0.0043277727 0.043153934
0.01863431 0.0065834774 -0.017353239 0.02724282 -0.008228047 0.02492462 0.0050146 0.023186332
0.020996058 0.023009192 -0.022580935 0.0141341705 0.009552528 0.003909568 0.0077329325 0.012269381
0.0021173633 0.014657978 0.011756683 -0.0008264498 0.0050803265 0.021105465 0.0046026357 0.010701996
0.021340705 -0.0029484928 0.021042613 0.00911358 9.636546e-05 0.023170816 0.0226354 0.014462176
-0.013217894 0.015714549 0.025189495 -0.00889431 0.032355182 0.018203758 -0.006358965 0.030623479
0.005628165 0.0054807714 0.028588498 0.019508408 0.029228652 0.0061394866 0.028410144 -0.00683928
-0.0035391906 0.011576521 0.011807314 0.031972934 0.010916657 0.024230126 0.009947225 0.016706277
0.008275388 0.014127712 0.023596518 0.0013903064 0.009930528 0.025988925 0.0017923091 0.0036164566
0.01910405 0.021694075 0.042069487 -0.00656298 -0.0006255404 0.009605103 0.014228312 0.014395234
-0.003662385 0.027726661 0.014587406 0.0042191376 -0.0032369555 -0.0015562009 0.018451933 0.015815657
0.0017192382 0.023253193 0.0087705795 0.004202778 0.0011562825 0.014575773 0.011048597 0.021416103
00000000: 42d9 0c3d c3f7 ebbb fe85 f03c e071 943c
00000010: 38bb 8a3c 8326 013d 9af0 4e3c c9fe 123d
00000020: 1982 5a3c 50ba 0c3c b69b e13b d00e 91bc
00000030: b5e5 023c 5689 973c feb6 aa3c 4c79 23bc
00000040: 61aa 3d3c 2234 15ba 7986 803c a0ea d33c
00000050: 4f5c ce3c 5e05 3d3c 9e8b 20bc c777 353c
00000060: be9a 663c 56b8 2dbb fad0 f23b 2650 323c
00000070: 26bd 553c 691c 283d 3903 b2bb 24e5 7b3c
00000080: 9c04 bf3c 4fc6 883c 5431 1a3c bff3 563c
00000090: 8385 523c e527 993c fdcf 8dbb 2ec2 303d
000000a0: fba6 983c 36ba d73b 6128 8ebc 562c df3c
000000b0: eece 06bc b72e cc3c 8451 a43b 43f1 bd3c
000000c0: edff ab3c c67d bc3c a7fb b8bc 0293 673c
000000d0: 3582 1c3c d51b 803b 8a64 fd3b 8405 493c
000000e0: 76c3 0a3b 0428 703c 1a9f 403c 1ba6 58ba
000000f0: de78 a63b 5ee5 ac3c b5d1 963b 6d57 2f3c
00000100: b4d2 ae3c 803b 41bb 8f61 ac3c 2051 153c
00000110: d017 ca38 b9d0 bd3c e06d b93c c3f2 6c3c
00000120: de8f 58bc ccbb 803c 335a ce3c 71b9 11bc
00000130: de86 043d 0c20 953c dd5e d0bb 17de fa3c
00000140: 786c b83b 0b98 b33b 6d32 ea3c 19d0 9f3c
00000150: ed70 ef3c bf2d c93b 64bc e83c 0a1c e0bb
00000160: c4f1 67bb 73ab 3d3c 7773 413c 0df6 023d
00000170: c7db 323c 427e c63c b0f9 223c 9adb 883c
00000180: 7e95 073c eb77 673c 7c4d c13c f13a b63a
00000190: a7b3 223c bae6 d43c eaeb ea3a 1302 6d3b
000001a0: 1980 9c3c c6b7 b13c 0e51 2c3d 440e d7bb
000001b0: 4efb 23ba b95e 1d3c de1d 693c fdd9 6b3c
000001c0: a004 70bb 0623 e33c 0400 6f3c b140 8a3b
000001d0: 1a23 54bb 70f9 cbba 8228 973c d68f 813c
000001e0: 1058 e13a 7b7d be3c 7ab2 0f3c 75b7 893b
000001f0: 678e 973a 39cf 6e3c 2d05 353c d370 af3c

network_body._body_endoder.seq_layers.2.weight f4 [128, 128]
0.047105696 -0.024861073 0.0015596714 -0.046992213 0.03878866 -0.02563888 -0.107029036 0.079120025
-0.012496752 0.01639542 -0.09266895 -0.032782264 -0.016408421 0.023220649 0.07577702 0.00037186797
0.18352033 0.03977393 0.1760247 0.031698458 -0.07726158 0.04844469 -0.26061153 -0.021002306
0.11439807 -0.033543006 0.045909755 -0.016896538 0.015768794 -0.005056807 -0.09501888 0.046098907
0.003826197 0.04484953 -0.054468866 0.037924677 -0.16003379 0.23965642 0.17622864 -0.08889834
0.14152594 0.0528018 -0.07997917 -0.046169885 -0.10017233 0.017333163 -0.042399697 -0.058213
0.015737731 -0.13687754 0.14366692 -0.0010550614 0.2881566 0.039274924 -0.04576968 -0.011151424
-0.08056389 0.016370362 -0.01537258 0.3259017 0.01575973 0.018617697 -0.075496845 0.022559727
0.14833729 -0.0317408 0.016789407 0.17327566 -0.040197235 0.07477787 -0.08568965 0.13203172
-0.12772231 0.24347503 -0.031889208 -0.073583975 -0.12757286 0.1308272 0.05558521 0.0053277276
-0.0040748077 0.15331294 0.03606823 0.048663475 -0.07388368 0.22577325 0.09282803 0.026610179
-0.083413936 0.15503323 0.04230436 -0.06268315 -0.14123818 -0.023098718 0.03284101 -0.095821366
-0.015372372 -0.0026521361 0.11851713 0.0048185773 0.07857951 0.10652441 0.14132348 -0.002554624
0.054691814 -0.0053602452 0.014326726 0.20094912 0.06692194 -0.013964969 0.07276979 0.06659703
0.11693982 -0.1451222 -0.07020591 0.011463674 -0.087966 0.13701741 0.09467138 0.037437517
-0.02060977 0.09213509 -0.05472034 0.14049508 -0.016685462 0.058120504 0.0528141 -0.019622553
-0.13108253 -0.07355837 0.042124167 0.019899826 0.074822925 0.05237567 -0.07416825 -0.0012051694
-0.021779155 0.025022201 -0.12438144 0.0047724466 0.045839768 0.2163423 0.008759618 -0.026342724
0.28974932 0.15287608 0.16735396 0.04079945 -0.12622616 -0.03692359 0.06559406 0.06868009
0.011361007 0.06069981 0.08862289 0.05441722 -0.15698567 0.095496915 0.08484653 -0.0034508284
0.13163117 -0.008950472 0.20277731 0.03343971 -0.19363867 0.15622576 0.03100011 -0.06283653
-0.1027959 0.09578492 0.15780914 -0.06966225 0.023573186 0.0041394955 -0.09227867 -0.012019039
0.0106728375 -0.031028036 0.03721183 -0.059769202 0.111885406 0.13504039 -0.025825832 0.13681686
0.0928095 0.023759918 0.08425841 -0.07666949 -0.22413 0.18133502 0.10762948 0.014146498
-0.00212485 0.0063452064 -0.052956905 -0.014007038 0.19380252 -0.049478047 -0.03322112 0.14651375
0.061106283 0.08564601 0.21231472 0.11126506 0.056179065 -0.02331755 -0.009374219 -0.103450865
0.1292566 -0.0041745 0.009198799 -0.058662076 -0.19372351 -0.067487314 0.07735412 0.01282068
-0.038056925 0.026689118 0.15962657 0.08579311 0.012687804 0.0029707036 0.018534444 -0.10695949
0.10820187 0.0143480105 0.12235794 0.08416154 -0.03227423 0.12180575 0.09789381 -0.013792
0.069244355 0.09698748 0.07261968 -0.086825766 0.022533864 0.023045285 -0.018720193 -0.019396696
-0.024782514 -0.01247107 -0.031935867 -0.13505302 -0.12088856 -0.030078895 -0.06759319 -0.07091423
-0.2038744 0.073799156 0.07409271 0.06714653 -0.023066387 0.060317937 -0.030638235 -0.024000183
00000000: e7f1 403d 73a9 cbbc e36d cc3a e87a 40bd
00000010: dce0 1e3d a108 d2bc 0a32 dbbd ae09 a23d
00000020: 2dbf 4cbc b04f 863c 38c9 bdbd b246 06bd
00000030: f46a 86bc 3b39 be3c fb30 9b3d 46f7 c239
00000040: c1ec 3b3e fde9 223d d23f 343e 3ed6 013d
00000050: 523b 9ebd f06d 463d e06e 85be 070d acbc
00000060: 8949 ea3d 6464 09bd de0b 3c3d 9c6a 8abc
00000070: 8f2d 813c 92b3 a5bb 4299 c2bd 35d2 3c3d
00000080: efc0 7a3b 24b4 373d bf1a 5fbd e856 1b3d
00000090: e6df 23be 7e68 753e 4875 343e 5510 b6bd
000000a0: 2dec 103e b346 583d 1ecc a3bd a21c 3dbd
000000b0: 2727 cdbd 47fe 8d3c 4eab 2dbd c170 6ebd
000000c0: 6aec 803c a029 0cbe 6c1d 133e fc49 8aba
000000d0: 4389 933e bede 203d fd78 3bbd 76b4 36bc
000000e0: aefe a4bd 231b 863c 46dd 7bbc 96dc a63e
000000f0: 8d1a 813c 2484 983c 179e 9abd 2dcf b83c
00000100: bbe5 173e a402 02bd f089 893c 2d6f 313e
00000110: dba5 24bd 2425 993d 0e7e afbd 5333 073e
00000120: a3c9 02be 8551 793e 429e 02bd 32b3 96bd
00000130: 76a2 02be 91f7 053e 51ad 633d 3894 ae3b
00000140: f785 85bb 11fe 1c3e 48bc 133d 5a53 473d
00000150: 5450 97bd 1a31 673e 9f1c be3d 97fd d93c
00000160: edd4 aabd 08c1 1e3e 5647 2d3d 0660 80bd
00000170: bea0 10be 8639 bdbc 4b84 063d fe3d c4bd
00000180: 67dc 7bbc 76cf 2dbb 1cb9 f23d 28e5 9d3b
00000190: 4bee a03d 7829 da3d 1ab7 103e 7b6b 27bb
000001a0: 8604 603d ffa4 afbb a5ba 6a3c 9bc5 4d3e
000001b0: 5f0e 893d 53cd 64bc 5408 953d 0664 883d
000001c0: 257e ef3d ea9a 14be 1ec8 8fbd 22d2 3b3c
000001d0: 8527 b4bd 4b4e 0c3e 12e3 c13d 1558 193d
000001e0: d2d5 a8bc 52b1 bc3d 6f22 60bd f1dd 0f3e
000001f0: f3af 88bc c40f 6e3d 9953 583d 7abf a0bc
00000200: 803a 06be c5a5 96bd 648a 2c3d f604 a33c
00000210: c33c 993d df87 563d 86e5 97bd c6f6 9dba
00000220: 336a b2bc 5cfb cc3c b2bb febd 2f62 9c3b
00000230: 7bc2 3b3d d688 5d3e 8084 0f3c b2cc d7bc
00000240: 065a 943e 8c8b 1c3e d65e 2b3e 531d 273d
00000250: 6e41 01be 313d 17bd 2e56 863d 26a8 8c3d
00000260: 8423 3a3c 5da0 783d eb7f b53d 97e4 5e3d
00000270: dac0 20be e393 c33d 04c4 ad3d 4b27 62bb
00000280: 52ca 063e 00a5 12bc dba4 4f3e 14f8 083d
00000290: 3749 46be a5f9 1f3e f1f3 fd3c 70b0 80bd
000002a0: a886 d2bd e22a c43d b898 213e 15ab 8ebd
000002b0: 8e1c c13c 9ba4 873b 99fc bcbd 81eb 44bc
000002c0: 20dd 2e3c 822e febc 6f6b 183d 8dd0 74bd
000002d0: 2d24 e53d 0748 0a3e b290 d3bc b819 0c3e
000002e0: e812 be3d 29a4 c23c ac8f ac3d e504 9dbd
000002f0: 5682 65be e3af 393e d86c dc3d b7c6 673c
00000300: 1141 0bbb 73eb cf3b 57e9 58bd c77d 65bc
00000310: 2b74 463e 7ea9 4abd de12 08bd b307 163e
00000320: 954a 7a3d 2d67 af3d 0869 593e f0de e33d
00000330: 051c 663d 7204 bfbc 5396 19bc 0cde d3bd
00000340: d85b 043e 3eca 88bb 8fb6 163c a547 70bd
00000350: 755f 46be ca36 8abd d66b 9e3d d40d 523c
00000360: 94e1 1bbd 23a3 da3c 2675 233e 4cb4 af3d
00000370: 82e0 4f3c 23b0 423b 8cd5 973c 940d dbbd
00000380: f198 dd3d eb13 6b3c cd96 fa3d e35c ac3d
00000390: fc31 04bd 4b75 f93d 8d7c c83d d7f7 61bc
000003a0: fccf 8d3d 5fa1 c63d a0b9 943d b5d1 b1bd
000003b0: f098 b83c 77c9 bc3c 175b 99bc d2e5 9ebc
000003c0: b304 cbbc 7553 4cbc 2fcf 02bd 574b 0abe
000003d0: 6c94 f7bd 0468 f6bc 4c6e 8abd 7b3b 91bd
000003e0: 73c4 50be 0324 973d ebbd 973d 1f84 893d
000003f0: b8f5 bcbc f10f 773d 09fd fabc 089c c4bc

network_body._body_endoder.seq_layers.2.bias f4 [128]
0.011821236 0.020431072 0.008950658 0.008722632 0.008569086 0.009310518 0.0073000053 0.019076912
0.015489414 -0.0054133716 0.0059245164 0.016861696 0.036624465 0.010583825 0.00847808 0.020403739
0.019187726 0.03634818 0.015232869 -0.0039399248 0.011478948 0.02757562 0.035191167 0.014454506
0.001663983 0.016173372 0.021428922 0.012557314 0.011448199 0.011007379 0.010475883 0.013809995
-0.003683629 -0.0009568166 0.013109093 0.00533826 0.016695255 0.014429857 0.014903424 0.0030780127
0.016319858 0.013837008 0.0052535655 0.01911669 0.031378813 0.009824321 0.016646301 0.011289807
0.02841018 0.02644402 0.024271255 0.030797692 0.006196493 0.021051796 0.0037779456 0.0016848926
0.009708844 0.02017089 0.012483222 0.0034349237 0.0128331585 0.03165141 -0.003188011 0.022764985
0.010429046 0.022226464 0.021668527 0.011101345 0.0069420193 0.025091633 0.013185176 0.020246526
0.010367063 0.014792111 -0.007507833 0.00625763 0.03486659 0.016478408 0.0037485636 0.015974903
0.039782893 0.008529502 0.009998669 0.0022264514 0.03209493 0.021210175 0.028823126 0.024128051
0.018771555 0.017422805 0.023639211 0.002911038 0.026913565 0.027363012 0.015658658 0.008185903
0.021901503 0.020270856 -0.00035377327 -0.023359912 0.003237453 0.0024377366 0.01956759 0.01755486
0.024043264 0.0029906682 0.020364204 0.02106046 0.012946442 0.029479278 0.022484547 0.01043306
0.011753404 0.023248388 0.013380062 0.039851807 0.028303435 -0.00042799368 0.015327142 0.009885915
0.0062122094 0.022825005 0.011078608 0.010734672 0.0108960355 0.008944249 0.03066166 0.016017633
00000000: dcad 413c 105f a73c c8a5 123c 5fe9 0e3c
00000010: 5a65 0c3c 258b 183c e234 ef3b 2f47 9c3c
00000020: 50c7 7d3c a762 b1bb 7222 c23b 8a21 8a3c
00000030: 8903 163d c867 2d3c a5e7 0a3c be25 a73c
00000040: 942f 9d3c d4e1 143d 4993 793c 7c1a 81bb
00000050: 3312 3c3c 44e6 e13c 9d24 103d 98d2 6c3c
00000060: 011a da3a 057e 843c b58b af3c 31bd 4d3c
00000070: 3a91 3b3c 4b58 343c 0aa3 2b3c 5143 623c
00000080: 0a69 71bb e0d2 7aba 85c7 563c 92ec ae3b
00000090: 7dc4 883c 356b 6c3c 7e2d 743c 7cb8 493b
000000a0: 39b1 853c 9eb4 623c 1a26 ac3b 9b9a 9c3c
000000b0: 1287 003d 30f6 203c d35d 883c e2f8 383c
000000c0: 77bc e83c 21a1 d83c 83d4 c63c 714b fc3c
000000d0: f30b cb3b d174 ac3c 6997 773b 9dd7 dc3a
000000e0: d811 1f3c 6c3d a53c 6e86 4c3c 751c 613b
000000f0: 2b42 523c e9a4 013d f3ed 50bb a27d ba3c
00000100: 97de 2a3c 4614 b63c 3282 b13c 6ae2 353c
00000110: e179 e33b f88c cd3c a306 583c 0bdc a53c
00000120: 9dda 293c 9c5a 723c 4504 f6bb ce0c cd3b
00000130: 45d0 0e3d bafd 863c 76aa 753b cddd 823c
00000140: 63f3 223d 53bf 0b3c 75d1 233c a8e9 113b
00000150: f975 033d f6c0 ad3c 7a1e ec3c 31a8 c53c
00000160: cec6 993c 45ba 8e3c 05a7 c13c 1dc7 3e3b
00000170: d679 dc3c 6528 e03c 9646 803c 2a1e 063c
00000180: c86a b33c 110f a63c a57a b9b9 495d bfbc
00000190: 732b 543b 6fc2 1f3b 364c a03c 36cf 8f3c
000001a0: 61f6 c43c 16ff 433b d5d2 a63c fc86 ac3c
000001b0: 501d 543c 877e f13c 8331 b83c 6def 2a3c
000001c0: 5991 403c 6773 be3c 0c38 5b3c a63b 233d
000001d0: 9bdc e73c 5764 e0b9 b11e 7b3c 88f8 213c
000001e0: ca8f cb3b 81fb ba3c 0d83 353c 7ae0 2f3c
000001f0: 4985 323c e68a 123c 292e fb3c 6937 833c

action_model._continuous_distribution.log_sigma f4 [1, 3]
-0.28434086 -0.23994341 -0.8404707
00000000: 2095 91be bab3 75be 1629 57bf

action_model._continuous_distribution.mu.weight f4 [3, 128]
0.06669113 0.07863155 0.040739942 0.025335137 -0.006582128 0.011242696 -0.0015835097 0.029314172
0.05255531 0.010651268 -0.067245744 0.038645554 -0.10439545 -0.08335117 0.03571791 -0.07192044
-0.05024182 -0.054686565 0.017142586 -0.032063548 -0.03561428 0.030865794 -0.061531875 -0.037680145
-0.04651283 0.021972073 0.06266573 0.049518947 -0.04537358 0.0009417612 -0.07681235 0.057782255
-0.0050272243 -0.05826791 0.04549811 -0.063969 -0.09005958 -0.00019923123 -0.020679338 0.059999436
-0.078398116 0.0027134288 -0.010122265 0.07030262 -0.08905089 0.043665048 -0.030998774 0.081412226
-0.072407685 0.016627127 0.043124836 -0.09267662 0.025550079 0.05527816 0.03815904 0.04398586
0.0037507005 -0.004671968 -0.07687024 -0.020994434 0.06946025 -0.070246086 -0.06564812 -0.008335785
0.020783747 0.007907764 0.07077669 -0.087678194 0.0021881927 -0.06451447 0.07066258 0.07493579
-0.07351369 0.017675515 -0.036349315 -0.047703136 -0.088296 -0.064569354 0.047945797 -0.029903064
0.064370416 0.0395943 -0.08475609 0.01343657 0.02513873 0.006960459 -0.105183035 0.06599658
-0.049297024 0.023148363 -0.08562602 -0.038236823 0.052479435 -0.08053687 -0.058015667 -0.023890859
0.019404622 -0.06390822 -0.021615215 0.0045263357 0.0005709681 -0.0069948556 -0.030533675 0.059400935
-0.096564226 0.0331142 -0.044337526 0.042243622 -0.014181308 -0.07535133 -0.10116649 0.06671361
-0.0025022044 0.0060727694 -0.04747932 0.045467306 -0.101798095 0.04225308 -0.09984359 -0.045860186
-0.06838889 -0.09656116 -0.059276715 0.055972263 0.0031774784 -0.025513662 0.019514674 -0.020318467
0.012805016 -0.059006806 -0.06443438 0.063064255 -0.028128073 -0.0841766 0.052992042 0.050915316
-0.109370835 0.0040203896 0.028521443 0.044810776 -0.042114675 -0.030355468 0.05310865 0.002414381
0.027432146 0.026393177 -0.0935115 0.029985335 0.06701331 0.03482817 0.009572084 0.02416827
-0.015628766 0.074570924 0.019190386 0.04408989 0.09120077 0.047018234 -0.0058487095 -0.04725491
0.0012214994 -0.022201434 -0.05198735 0.0228241 0.040699873 0.066093154 0.068590485 -0.00085527106
0.027032936 -0.077137925 0.010495227 0.08589652 0.03335052 -0.010849129 -0.027444396 0.010240578
-0.019392671 0.04768353 0.07252133 0.011550481 -0.059462547 0.08229909 -0.015899576 -0.0066010715
-0.08265478 -0.0047795083 -0.041617893 -0.005331415 -0.033339962 -0.03829602 -0.0018328739 -0.09774599
0.08518846 0.039253555 0.022509433 -0.056670304 0.08179901 0.022197813 -0.02056082 0.08961233
-0.025429443 0.049932614 -0.0070098354 0.018579405 -0.087006174 -0.06801302 0.032295488 -0.10616245
0.0080616865 -0.032038298 0.018813703 0.024873583 0.04125482 -0.012484934 0.0017680445 0.0012919093
0.034120094 -0.10077993 0.044376172 -0.06281397 -0.11706288 0.05177295 0.03645304 -0.026963253
0.050167806 -0.037032567 0.060146153 0.020063676 0.059730634 0.037782732 -0.05893443 -0.07641973
0.020402398 0.063583955 -0.03363728 0.0331043 0.028047696 0.010358701 -0.015810551 0.0402647
-0.082066834 0.0144833885 -0.06094725 0.005179666 -0.0057804277 -0.032537583 0.0017242895 -0.012278052
0.0071108323 -0.012281499 0.06762173 0.03470933 -0.07935091 -0.08801028 -0.12409033 -0.01775409
00000000: 5c95 883d 9409 a13d edde 263d a28b cf3c
00000010: e4ae d7bb 4933 383c c58d cfba 4624 f03c
00000020: 3d44 573d a882 2e3c 23b8 89bd cd4a 1e3d
00000030: 48cd d5bd 05b4 aabd f14c 123d 064b 93bd
00000040: 5eca 4dbd 05ff 5fbd 9c6e 8c3c 1155 03bd
00000050: 47e0 11bd 43da fc3c d908 7cbd 7f56 1abd
00000060: 3d84 3ebd c7fe b33c e456 803d 61d4 4a3d
00000070: a6d9 39bd 86e0 763a cb4f 9dbd 16ad 6c3d
00000080: 6abb a4bb 55aa 6ebd 3a5c 3a3d 2e02 83bd
00000090: 2871 b8bd bae8 50b9 b767 a9bc f8c1 753d
000000a0: 318f a0bd c8d3 313b dbd7 25bc d2fa 8f3d
000000b0: 5060 b6bd 1fda 323d 24f1 fdbc 74bb a63d
000000c0: 7b4a 94bd 9d35 883c aba3 303d 3dcd bdbd
000000d0: 664e d13c 5a6b 623d a74c 1c3d 842a 343d
000000e0: 50ce 753b 4f17 99bb 256e 9dbd 85fc abbc
000000f0: 2d41 8e3d 2edd 8fbd 8672 86bd d192 08bc
00000100: ad42 aa3c 918f 013c 5ff3 903d a090 b3bd
00000110: c867 0f3b 2a20 84bd 8bb7 903d ef77 993d
00000120: 588e 96bd 3ecc 903c 05e3 14bd 5d64 43bd
00000130: 89d4 b4bd f03c 84bd d062 443d 45f7 f4bc
00000140: a3d4 833d a22d 223d 9a94 adbd 0f25 5c3c
00000150: bdef cd3c 9014 e43b 346a d7bd 3729 873d
00000160: adeb 49bd a3a1 bd3c b25c afbd 379e 1cbd
00000170: adf4 563d 84f0 a4bd d6a1 6dbd c3b6 c3bc
00000180: 71f6 9e3c 50e2 82bd 6412 b1bc a851 943b
00000190: 05ad 153a 1a35 e5bb c221 fabc 654e 733d
000001a0: 77c3 c5bd c1a2 073d 449b 35bd a607 2d3d
000001b0: b858 68bc cc51 9abd 6030 cfbd 25a1 883d
000001c0: 06fc 23bb 15fe c63b ad79 42bd ed3b 3a3d
000001d0: 857b d0bd 9111 2d3d cc7a ccbd e4d7 3bbd
000001e0: 790f 8cbd dcc1 c5bd 24cc 72bd 2c43 653d
000001f0: 3e3d 503b 0702 d1bc 3ddd 9f3c ea72 a6bc
00000200: 21cc 513c 1fb1 71bd 2cf6 83bd d527 813d
00000210: d86c e6bc c864 acbd 2f0e 593d 948c 503d
00000220: d1fd dfbd 79bd 833b cda5 e93c 818b 373d
00000230: 7080 2cbd 08ac f8bc 7588 593d 973a 1e3b
00000240: 61b9 e03c 8136 d83c f582 bfbd cea3 f53c
00000250: 463e 893d fca7 0e3d 3bd4 1c3c 89fc c53c
00000260: e607 80bc a4b8 983d 2835 9d3c 9a97 343d
00000270: 78c7 ba3d 3196 403d 88a6 bfbb 5d8e 41bd
00000280: b81a a03a c8df b5bc b0f0 54bd 9bf9 ba3c
00000290: e9b4 263d d95b 873d 2b79 8c3d 4534 60ba
000002a0: 2d74 dd3c 7dfa 9dbd 2cf4 2b3c 84ea af3d
000002b0: 8e9a 083d 8cc0 31bc 12d3 e0bc 19c8 273c
000002c0: 61dd 9ebc ce4f 433d 1086 943d 3b3e 3d3c
000002d0: 008f 73bd 6d8c a83d d43f 82bc cd4d d8bb
000002e0: e946 a9bd 6c9d 9cbb 8677 2abd 27b3 aebb
000002f0: 7c8f 08bd 4adc 1cbd 0b3d f0ba 0d2f c8bd
00000300: 4a77 ae3d 56c8 203d b465 b83c 1f1f 68bd
00000310: 3d86 a73d 30d8 b53c 2a6f a8bc ab86 b73d
00000320: 6851 d0bc 2486 4c3d c3b2 e5bb d633 983c
00000330: 4b30 b2bd 694a 8bbd 4648 043d b36b d9bd
00000340: 2a15 043c 973a 03bd 321f 9a3c afc3 cb3c
00000350: d0fa 283d 9c8d 4cbc bbbd e73a 4855 a93a
00000360: 83c1 0b3d b565 cebd cac3 353d 9ca4 80bd
00000370: aabe efbd df0f 543d c84f 153d 0ae2 dcbc
00000380: c27c 4d3d 76af 17bd d05b 763d 945c a43c
00000390: 1ca8 743d 11c2 1a3d 3b65 71bd f381 9cbd
000003a0: ee22 a73c 4e38 823d 3fc7 09bd 6098 073d
000003b0: 48c4 e53c 8bb7 293c 2185 81bc 99ec 243d
000003c0: a812 a8bd bc4b 6d3c d3a3 79bd 30ba a93b
000003d0: be69 bdbb 2146 05bd 8e01 e23a e229 49bc
000003e0: fc01 e93b 5738 49bc 437d 8a3d 5f2b 0e3d
000003f0: bb82 a2bd bc3e b4bd 1223 febd 0671 91bc

action_model._continuous_distribution.mu.bias f4 [3]
0.0042190515 -0.0011423095 0.005415558
00000000: f83f 8a3b 8cb9 95ba fe74 b13b

action_model._discrete_distribution.branches.0.weight f4 [5, 128]
0.0154735055 0.0116084 -0.0054396763 -0.0040138485 0.011736873 0.018959327 0.036282793 -0.03039756
-0.004457556 0.016387511 0.008019399 0.0138893835 -0.03577084 -0.042979002 0.0068514296 0.0507274
-0.02117654 -0.034583412 0.011800411 -0.016331656 0.025500624 0.06446753 0.049298987 0.040584173
-0.0059416797 -0.014981584 -0.0065574455 0.047367528 0.009794451 -0.026778176 -0.012719263 0.007912892
-0.013223378 -0.009699769 -1.9850233e-06 0.04587197 0.023477934 0.0014595543 0.02688403 -0.026736613
0.021553377 0.03290302 -0.0076458626 0.0060846303 0.007842725 0.011354822 0.06302224 0.023687702
-0.041538555 -0.0043416657 0.014221672 0.02294028 -0.0044354284 0.026657071 0.03341633 0.013744008
0.006676423 -0.032217033 0.010484937 0.042832524 0.0026003674 -0.018836005 -0.040160544 0.02443467
0.0002589217 -0.06496747 -0.013003649 0.008337104 0.031004366 -0.03188593 -0.011461637 0.022030525
-0.005258763 -0.014816288 -0.028401429 0.02936136 -0.050704807 0.042933367 0.017457742 0.030353801
0.011018171 -0.012904968 -0.02304251 0.018589772 -0.041362654 0.027737603 0.03644446 0.018277757
-0.04900339 0.039654225 0.017125493 0.03842821 0.01883654 -0.017719481 0.05086026 -0.018061135
0.009659171 0.046005428 0.025075238 0.037469305 -0.012197657 -0.019779246 -0.04701249 0.0006750963
-0.012584541 0.019807069 -0.01848112 0.012315618 -0.007028277 -0.008027596 0.017699504 -0.023268452
-0.0384817 0.05670517 0.03315762 -0.021678792 0.0046717036 0.024488166 -0.020175101 0.046182465
0.045319326 0.031210672 -0.030843457 -0.01389526 0.027500138 0.007708139 0.027964277 -0.020355346
0.011400252 0.015321344 0.0133783175 -0.020567697 0.04554122 0.04366999 0.031771887 -0.036707055
0.0209756 0.025907047 -0.014729004 0.052751258 -0.027835501 -0.053212874 -0.031625215 0.046516713
-0.030109221 -0.046066467 0.015113617 0.0009951678 0.047272682 0.05874584 0.05107779 0.008358858
-0.030362803 -0.029671462 0.000496234 0.04010658 -0.008741779 -0.040500637 0.043458067 -0.007602034
-0.006233067 -0.015435069 -0.011017122 0.011129852 0.016641613 -0.010452978 0.04233206 -0.006804774
-0.015397662 0.0114635425 -0.037218705 -0.0003193934 -0.0094578 0.0077244327 0.054539096 -0.028960086
-0.0706258 -0.012285611 0.00188468 0.03267313 0.033469424 0.008594119 -0.008563117 0.017689211
0.035028066 -0.03490582 0.033050284 -0.014023922 0.0055981334 -0.00455684 0.002295089 0.056852654
-0.006786559 -0.02936592 0.0328981 -0.02160608 0.025698649 0.0072430735 -0.036115248 0.034920033
0.0008203081 -0.037918456 0.030710263 -0.0065381066 -0.021677397 0.042980973 -0.026672568 0.02034568
0.027106293 -0.01966478 0.008102716 -0.009912831 -0.05272658 0.048212413 0.0036951408 -0.0014530545
-0.030730918 0.055431902 0.01630126 0.03358962 0.034704704 -0.005381496 0.051154487 0.019642187
-0.00806785 -0.010264582 0.008520154 0.01344396 0.017312992 -0.038960792 -0.022716453 0.020317301
-0.006422077 0.015576889 -0.027507987 0.05061009 -0.012144038 -0.029748026 0.043325946 -0.0018900207
0.011389796 0.05184256 0.022792045 -0.05911416 0.005248777 0.023563782 -0.023209002 0.07204871
0.026858335 0.025491094 0.0015822276 -0.022657968 0.03354666 0.025929864 0.047056343 -0.019051738
00000000: 9684 7d3c 2931 3e3c 503f b2bb 9a86 83bb
00000010: 034c 403c 9750 9b3c 449d 143d 4e04 f9bc
00000020: b110 92bb 1a3f 863c cc63 033c 4c90 633c
00000030: 7284 12bd c00a 30bd f581 e03b 89c7 4f3d
00000040: 6c7a adbc 56a7 0dbd 8356 413c f7c9 85bc
00000050: afe6 d03c 8d07 843d bced 493d 973b 263d
00000060: 6cb2 c2bb 5175 75bc d7df d6bb 7404 423d
00000070: e878 203c e85d dbbc 7564 50bc 13a5 013c
00000080: dea6 58bc c8eb 1ebc 7136 05b6 3fe4 3b3d
00000090: cc54 c03c 844e bf3a e63b dc3c be06 dbbc
000000a0: b590 b03c 51c5 063d 258a fabb 9461 c73b
000000b0: c67e 003c 9309 3a3c ce11 813d b60c c23c
000000c0: 5524 2abd 8844 8ebb 0402 693c 41ed bb3c
000000d0: 1257 91bb ee5f da3c 90df 083d 8c2e 613c
000000e0: e5c5 da3b 02f6 03bd 03c9 2b3c 2871 2f3d
000000f0: ed6a 2a3b f74d 9abc 627f 24bd 382b c83c
00000100: e2bf 8739 aa0d 85bd 420d 55bc 5998 083c
00000110: defc fd3c d29a 02bd 97c9 3bbc 5c79 b43c
00000120: b451 acbb 04c0 72bc 1daa e8bc 3c87 f03c
00000130: d8af 4fbd e6da 2f3d 8a03 8f3c 89a8 f83c
00000140: 8f85 343c 5c6f 53bc a5c3 bcbc 9449 983c
00000150: e36b 29bd f839 e33c c946 153d 3cbb 953c
00000160: c7b7 48bd 786c 223d c34a 8c3c e666 1d3d
00000170: 164f 9a3c 7228 91bc d952 503d f2f4 93bc
00000180: 8041 1e3c 3070 3c3d 966a cd3c 6a79 193d
00000190: aed8 47bc 1608 a2bc 2b90 40bd f2f8 303a
000001a0: 642f 4ebc 6f42 a23c b865 97bc 72c7 493c
000001b0: 764d e6bb 2e86 03bc 8dfe 903c 7b9d bebc
000001c0: fd9e 1dbd ae43 683d 49d0 073d b997 b1bc
000001d0: 1715 993b 689b c83c 4146 a5bc d329 3d3d
000001e0: c2a0 393d 86ad ff3c 6bab fcbc f2a8 63bc
000001f0: f847 e13c 8e94 fc3b 5715 e53c 41c0 a6bc
00000200: 1fc8 3a3c 6006 7b3c bb30 5b3c 967d a8bc
00000210: 6e89 3a3d 4edf 323d 3d23 023d 235a 16bd
00000220: 06d5 ab3c 043b d43c ec51 71bc b411 583d
00000230: 4707 e4bc bef5 59bd 7189 01bd 4f88 3e3d
00000240: 9da7 f6bc 31b0 3cbd 1b9f 773c 4a70 823a
00000250: 00a1 413d 7a9f 703d f236 513d 97f3 083c
00000260: 6abb f8bc 9111 f3bc b315 023a cc46 243d
00000270: ae39 0fbc ffe3 25bd 1601 323d 7c1a f9bb
00000280: c13e ccbb 5fe3 7cbc 2981 34bc fc59 363c
00000290: fe53 883c f842 2bbc 6264 2d3d 95fa debb
000002a0: 7a46 7cbc 95d1 3b3c a472 18bd 4274 a7b9
000002b0: e3f4 1abc 3d1d fd3b 6364 5f3d b43d edbc
000002c0: 42a4 90bd 9649 49bc 5e07 f73a 43d4 053d
000002d0: 3c17 093d 59ce 0c3c 514c 0cbc f7e8 903c
000002e0: 9779 0f3d 68f9 0ebd bc5f 073d 98c4 65bc
000002f0: 8c70 b73b 8b51 95bb 3469 163b 54de 683d
00000300: c861 debb cc90 f0bc 28c0 063d 3cff b0bc
00000310: f985 d23c 4e57 ed3b 95ed 13bd 4f08 0f3d
00000320: f209 573a 6250 1bbd 1794 fb3c 9d3d d6bb
00000330: cc94 b1bc d10c 303d 6e80 dabc fcab a63c
00000340: 040e de3c 0818 a1bc 41c1 043c 6d69 22bc
00000350: d4f7 57bd 617a 453d 2d2a 723b 6b74 beba
00000360: 68bf fbbc 900c 633d 388a 853c 4595 093d
00000370: 8526 0e3d 4357 b0bb 5e87 513d a7e8 a03c
00000380: 042f 04bc c72c 28bc 1e98 0b3c 0e44 5c3c
00000390: fad3 8d3c 5a95 1fbd db17 babc 7870 a63c
000003a0: 4970 d2bb 3536 7f3c 6e58 e1bc 874c 4f3d
000003b0: caf7 46bc 22b2 f3bc 8c76 313d 92ba f7ba
000003c0: 449c 3a3c dd58 543d 62b6 ba3c b021 72bd
000003d0: effd ab3b d508 c13c ce20 bebc 468e 933d
000003e0: 0306 dc3c b3d2 d03c c062 cf3a 349d b9bc
000003f0: 3968 093d de6a d43c 27be 403d 6412 9cbc

action_model._discrete_distribution.branches.0.bias f4 [5]
-0.010377723 0.0032053886 -0.007953781 0.02150471 0.002276178
00000000: 5307 2abc 7f11 523b 9350 02bc a52a b03c
00000010: ee2b 153b
