Assets/Brain/Tests/3MilNormalized.onnx (onnx, 185838 bytes, 9 tensors)

network_body._body_endoder.seq_layers.0.weight f4 [128, 211]
0.11273865 0.06704471 -0.12764367 -0.044835504 0.053183526 0.04031271 0.096555285 0.035060145
0.004513826 0.051553246 0.035797473 0.017964067 0.034369327 -0.07053616 0.026197255 0.06719583
-0.07502583 -0.12009623 0.010265979 -0.0048232637 -0.06286582 0.030839698 0.06964644 -0.01600159
0.06358224 -0.103186265 -0.040166456 0.14004424 0.056606766 0.122588485 0.0020698481 -0.014005995
-0.03540681 0.033543725 -0.024981279 0.06783871 0.08647998 0.007905741 -0.075347096 -0.009712279
-0.09127282 0.0016095822 -0.15985097 0.039427914 0.021889733 0.008558308 -0.011127485 -0.112639
0.05649517 0.051301107 -0.15420654 -0.015305526 -0.033922195 0.07593948 -0.109529965 -0.008566794
-0.026947634 0.012810827 0.042688575 0.03654847 -0.08407338 0.07897406 -0.10712164 -0.013897784
-0.06850302 0.0731964 -0.033778172 0.076472014 -0.09131365 0.116073065 -0.056578364 -0.011501318
0.015717028 -0.0043077185 -0.0076041035 0.12418236 0.08274285 0.08101204 0.050592903 0.023444777
0.042108037 0.10888077 0.15621474 -0.07898848 -0.118454255 -0.040684897 0.018313546 -0.1266337
0.03426429 -0.015189121 0.05867395 0.044465125 -0.055957403 0.086589456 -0.018273883 -0.03778877
0.010696479 -0.050634336 -0.039712694 0.08779646 -0.032808594 -0.031265616 0.06771542 -0.05485416
0.035947643 0.07750428 0.07238767 -0.021896908 -0.04966511 -0.025988739 0.05046519 0.13004924
0.20618545 -0.04204509 0.0740103 0.016661523 0.163899 0.012288167 0.11269078 0.013290156
0.037797246 -0.025607737 0.119260915 0.0056515117 -0.06452087 0.17301571 0.06425073 -0.19577391
0.100692764 5.217999e-06 -0.03520669 -0.022797579 -0.0375938 0.026482254 -0.010548606 0.067462206
-0.05687904 -0.24699453 -0.046005473 -0.048684403 -0.10312988 -0.0023451617 -0.041524217 0.1314586
0.013569898 -0.038720764 0.038089063 -0.12236396 0.027802648 -0.084711015 -0.0043155593 0.05912526
-0.03220252 -0.038315944 -0.033756852 0.036356688 0.01459645 -0.0030040853 0.018396057 0.03473069
0.09562991 -0.026956193 -0.18756154 0.0033098108 0.044194087 0.0007361976 -0.0069414675 0.0026814018
-0.10499717 -0.028445223 -0.03245728 -0.123362504 -0.1048142 -0.0034004543 -0.02914636 -0.0052058315
-0.101620875 -0.11955767 0.1236107 -0.10806999 0.11666237 0.06201094 -0.13899796 -0.016744353
-0.058500096 -0.048428364 0.11412832 -0.11214751 -0.088874705 -0.051541887 0.07954516 0.06549727
-0.113606304 -0.029006047 -0.075174406 0.07720663 0.012727646 -0.12058349 0.010295873 -0.030421143
-0.06438436 0.03482361 -0.13258398 -0.124467194 -0.0067696907 -0.047189504 0.033175852 0.025449261
-0.07557261 -0.025428332 0.0016476599 -0.046535805 0.007235811 0.06040326 0.043537214 0.07633217
9.4119445e-05 -0.029739877 0.03343867 -0.19205959 0.057799835 0.043672916 -0.07489627 -0.08866777
-0.01635807 0.07808674 -0.06488493 0.063677214 -0.014198161 0.019938111 -0.014475214 -0.07629828
0.03666973 -0.08190433 0.046129685 0.07147313 0.04243031 -0.0052421447 -0.045111377 -0.06307468
0.007324417 0.030715838 -0.1497416 0.03997154 -0.12735894 -0.11933028 -0.016339928 0.15775555
-0.04853589 0.0012361944 0.076052785 0.03901655 0.04129064 0.023661705 -0.0137300175 -0.002927457
00000000: 85e3 e63d bd4e 893d 06b5 02be 6fa5 37bd
00000010: f8d6 593d f11e 253d c7be c53d 3a9b 0f3d
00000020: b8e8 933b 7f29 533d 5fa0 123d 6129 933c
00000030: dac6 0c3d 4375 90bd a09b d63c f89d 893d
00000040: 24a7 99bd 03f5 f5bd a332 283c 780c 9ebb
00000050: ccbf 80bd 89a3 fc3c cba2 8e3d c415 83bc
00000060: 6837 823d 5253 d3bd 9585 24bd c267 0f3e
00000070: 7fdc 673d ac0f fb3d 4aa6 073b 6779 65bc
00000080: bb06 11bd 2565 093d 8aa5 ccbc 06ef 8a3d
00000090: 6a1c b13d 1587 013c 944f 9abd 4020 1fbc
000000a0: 3fed babd 9ef8 d23a f9af 23be 2a7f 213d
000000b0: 1952 b33c 2538 0c3c 0e50 36bc 47af e6bd
000000c0: 7b67 673d 1c21 523d 52e8 1dbe 07c4 7abc
000000d0: 00f2 0abd 2886 9b3d 3f51 e0bd bd5b 0cbc
000000e0: 49c1 dcbc 81e4 513c 37da 2e3d d9b3 153d
000000f0: aa2e acbd 27bd a13d 9762 dbbd 88b3 63bc
00000100: 504b 8cbd ffe7 953d fb5a 0abd 5c9d 9c3d
00000110: a702 bbbd b7b7 ed3d b7be 67bd 0670 3cbc
00000120: ffc0 803c c327 8dbb d82b f9bb 5253 fe3d
00000130: 1575 a93d a4e9 a53d 813a 4f3d 430f c03c
00000140: 7a79 2c3d e2fc de3d c2f6 1f3e b6c4 a1bd
00000150: 2598 f2bd 35a5 26bd 4a06 963c 44ac 01be
00000160: b658 0c3d cadb 78bc 1954 703d 1021 363d
00000170: 9733 65bd d055 b13d 1cb3 95bc 66c8 1abd
00000180: 4940 2f3c f365 4fbd c7a9 22bd a1ce b33d
00000190: 4e62 06bd 6010 00bd 62ae 8a3d c1ae 60bd
000001a0: d63d 133d 90ba 9e3d fd3f 943d 2561 b3bc
000001b0: a46d 4bbd 56e6 d4bc 96b4 4e3d a12b 053e
000001c0: 4722 533e 7937 2cbd b692 973d bf7d 883c
000001d0: 24d5 273e 4f54 493c 6cca e63d f4be 593c
000001e0: 49d1 1a3d 51c7 d1bc 113f f43d 5130 b93b
000001f0: 8523 84bd 082b 313e e395 833d f578 48be
00000200: 0238 ce3d 4516 af36 e434 10bd fdc1 babc
00000210: f5fb 19bd 50f1 d83c 0fd4 2cbc a029 8a3d
00000220: fff9 68bd 22ec 7cbe 3c70 3cbd 4c69 47bd
00000230: c235 d3bd 49b1 19bb 4c15 2abd 159d 063e
00000240: 4754 5e3c aa99 1ebd 4703 1c3d f599 fabd
00000250: 61c2 e33c f87c adbd 8969 8dbb 542d 723d
00000260: cae6 03bd 2ef1 1cbd a044 0abd c0ea 143d
00000270: f325 6f3c 30e0 44bb 54b3 963c c541 0e3d
00000280: 9dd9 c33d 3cd3 dcbc 2210 40be 69e9 583b
00000290: dc04 353d 62fd 403a 4075 e3bb 75ba 2f3b
000002a0: c208 d7bd f505 e9bc edf1 04bd 7ba5 fcbd
000002b0: d4a8 d6bd 28da 5ebb 59c4 eebc ae95 aabb
000002c0: 9b1e d0bd a7da f4bd 9b27 fd3d cd53 ddbd
000002d0: aeec ee3d 2fff 7d3d 7b55 0ebe 742b 89bc
000002e0: cc9d 6fbd d25c 46bd 1cbc e93d 98ad e5bd
000002f0: f103 b6bd 961d 53bd 93e8 a23d 6f23 863d
00000300: 6caa e8bd 179e edbc 0af5 99bd 821e 9e3d
00000310: 9e87 503c 7af4 f6bd 05b0 283c c335 f9bc
00000320: f3db 83bd 34a3 0e3d 18c4 07be a8e8 febd
00000330: 48d4 ddbb c849 41bd 67e3 073d f87a d03c
00000340: d0c5 9abd 144f d0bc 4bf6 d73a 549c 3ebd
00000350: 621a ed3b 6969 773d 1454 323d 0a54 9c3d
00000360: fe61 c538 0ba1 f3bc fdf6 083d 45ab 44be
00000370: 85bf 6c3d 5fe2 323d 3763 99bd 7397 b5bd
00000380: 5c01 86bc f1eb 9f3d 64e2 84bd 3369 823d
00000390: 679f 68bc 4055 a33c 7329 6dbc 4642 9cbd
000003a0: 0033 163d 75bd a7bd 7bf2 3c3d 8160 923d
000003b0: 68cb 2d3d 4cc6 abbb b5c6 38bd 4c2d 81bd
000003c0: aa01 f03b c89f fb3c dd55 19be 33b9 233d
000003d0: 626a 02be 6f63 f4bd 50db 85bc ac8a 213e
000003e0: 92cd 46bd cd07 a23a 90c1 9b3d d1cf 1f3d
000003f0: 6020 293d 31d6 c13c def3 60bc 94da 3fbb

network_body._body_endoder.seq_layers.0.bias f4 [128]
0.010174214 0.014242902 0.00506302 0.017102446 0.007678847 0.040828016 0.005724872 0.013169967
0.034595728 0.014778381 0.023591654 0.03485943 0.010376335 0.009868673 0.008718235 0.0062575215
0.012362763 0.02330569 0.008879026 0.01864661 0.0054500108 0.008659643 0.017875783 0.017333101
0.025523093 0.020041898 0.0024298877 0.021759314 0.017855547 0.024807772 0.021234388 0.02625971
0.014661806 0.0052884785 -0.004066353 0.023268305 0.04777091 0.02008909 0.01675852 0.036214076
0.011811146 0.018668467 0.017497415 0.014897582 0.010071474 0.008475259 0.032755863 0.015650814
0.01387456 0.017548835 0.0040790373 0.022635933 0.028183108 0.022890825 0.0102127 -0.0003867055
0.019728255 0.00713639 0.044300042 0.008369546 0.02546138 0.0049484484 0.022882937 -0.024113832
0.021889737 0.016537188 0.02453157 0.024781544 0.020562172 0.0059985816 0.02005017 0.0138780195
0.03618256 0.012011086 0.01834037 0.014216883 0.020081626 0.017736519 0.015775036 -0.0014900832
0.017924523 -0.0027471075 0.022880519 0.004783143 0.011352943 0.008849095 0.01803329 0.029268118
0.008652712 0.014728724 0.022897378 0.031674918 0.0019018012 0.00834524 0.009876141 0.008970821
0.016838415 -0.027299577 -0.010415932 0.010051661 0.032554388 0.021927405 0.023512311 0.022239093
0.02622086 0.02267603 0.0032309007 0.023955282 -0.0022775878 0.016893674 0.032363594 0.030755196
0.008353724 -0.003043761 0.012804399 0.014426517 0.014708818 0.00694916 0.0050050053 0.0014634879
0.024004476 0.033241473 0.016148087 -0.014315622 0.0106208585 0.013565326 0.021123877 0.014207475
00000000: bfb1 263c 105b 693c b1e7 a53b 6e1a 8c3c
00000010: d69e fb3b 473b 273d b597 bb3b d8c6 573c
00000020: 40b4 0d3d 0621 723c 4943 c13c c3c8 0e3d
00000030: 8101 2a3c 37b0 213c eed6 0e3c e50b cd3b
00000040: 308d 4a3c 93eb be3c 5679 113c c7c0 983c
00000050: 0196 b23b 2de1 0d3c 3c70 923c 26fe 8d3c
00000060: ce15 d13c e82e a43c c03e 1f3b 9740 b23c
00000070: cc45 923c ab39 cb3c bdf3 ad3c 9a1e d73c
00000080: 1238 703c f94a ad3b 0b3f 85bb 2c9d be3c
00000090: 6eab 433d e091 a43c 2a49 893c 3655 143d
000000a0: 8983 413c 9dee 983c bd56 8f3c fd14 743c
000000b0: d302 253c d0db 0a3c 032b 063d 2336 803c
000000c0: 1f52 633c 93c2 8f3c 72a9 853b fe6e b93c
000000d0: 43e0 e63c 8a85 bb3c 2b53 273c bcbe cab9
000000e0: 269d a13c 61d8 e93b f673 353d 6c20 093c
000000f0: 6294 d03c 9826 a23b ff74 bb3c 5f8a c5bc
00000100: 1b52 b33c ff78 873c 6ef6 c83c aa02 cb3c
00000110: 0072 a83c c08f c43b 4140 a43c a260 633c
00000120: 2a34 143d 25ca 443c 8b3e 963c eeed 683c
00000130: 3982 a43c 2d4c 913c a63a 813c e54e c3ba
00000140: 73d6 923c d108 34bb ed6f bb3c e9bb 9c3b
00000150: b201 3a3c cbfb 103c 8dba 933c b1c3 ef3c
00000160: 1bc4 0d3c bf50 713c 4893 bb3c 8fbd 013d
00000170: dc45 f93a 79ba 083c 8acf 213c 5afa 123c
00000180: b7f0 893c 5da3 dfbc 96a7 2abc b9af 243c
00000190: c057 053d 1aa1 b33c e49c c03c c22e b63c
000001a0: 21cd d63c 15c3 b93c 85bd 533b de3d c43c
000001b0: 9543 15bb 9a64 8a3c b08f 043d 52f2 fb3c
000001c0: 0fde 083c d679 47bb 8bc9 513c 335d 6c3c
000001d0: 41fd 703c c7b5 e33b 0701 a43b 81d2 bf3a
000001e0: 09a5 c43c 3628 083d fe48 843c 128c 6abc
000001f0: 1c03 2e3c 1a41 5e3c fb0b ad3c 78c6 683c

network_body._body_endoder.seq_layers.2.weight f4 [128, 128]
0.02131397 0.30351412 -0.08992644 -0.19129 -0.054484103 0.0058977436 0.058165554 0.24724741
-0.105684176 0.049061168 0.15741542 -0.035516124 0.10211888 -0.122059666 0.09195138 -0.057256497
0.092433676 -0.044600565 -0.10672014 -0.03951042 0.063291036 0.07609677 0.001547707 0.123435326
-0.041836694 -0.12260485 -0.088299215 0.04698172 0.037863743 0.05265326 0.092780344 0.005369248
0.16348647 0.12851249 -0.1453544 0.1797229 -0.03682594 -0.097809575 0.050271295 -0.11239868
-0.18479232 -0.10585732 -0.07305931 0.06926485 -0.0982412 -0.08488781 0.22970887 -0.060417425
-0.080648206 -0.082542345 0.12486958 0.002524229 0.04138759 -0.01686342 -0.043599386 -0.12605923
0.06449988 -0.01734582 0.09848779 0.11379349 0.014282276 0.04760804 -0.046928894 0.00473363
0.01860196 -0.07348695 -0.058251183 -0.015131743 0.12888585 0.18955925 0.10028389 0.024745312
0.0143866725 0.15300849 -0.104708545 0.031068169 0.10752367 -0.020066839 0.013629493 0.01633194
-0.047771145 -0.035715543 0.061219726 -0.10852404 0.0690927 -0.009449704 0.07279531 0.1264284
0.06904879 -0.078491546 0.023165762 -0.18096498 -0.07750625 -0.060566884 0.1372219 0.027810875
0.16916779 -0.10989884 -0.031629622 -0.17792243 0.07153058 0.016989684 0.03376503 -0.026749311
0.055808116 0.024383266 0.008203177 0.04609031 -0.09488016 0.099168226 -0.1288091 -0.21071486
0.007922446 -0.07919855 -0.07434985 0.082914375 -0.019331736 -0.19288895 -0.055931497 0.052880425
0.20930868 0.036226787 -0.074696824 -0.06826407 0.102990866 0.107397474 0.047168333 -0.027405037
-0.02741765 -0.039470833 -0.06294209 -0.05967779 -0.13061444 -0.07096157 -0.026330352 0.0648316
-0.12524867 0.12704732 -0.05304688 0.012789301 0.17091578 0.04865367 0.05332223 -0.042461734
0.016784964 -0.09097747 -0.11418317 0.0990829 0.010192376 0.11073845 -0.06416705 0.12389907
0.027343512 0.0622704 -0.036376834 0.03525834 -0.012344687 0.057961762 -0.15425105 0.06765201
-0.030677965 0.036694523 0.21631092 0.11759548 0.20719376 -0.151195 0.045391478 -0.0750261
-0.06310922 0.14890301 0.09854634 0.0537086 -0.029714439 -0.051401913 -0.08379394 -0.11070336
-0.094104126 0.04488147 0.10526025 -0.06289987 -0.0676189 0.0142469285 -0.022599738 -0.113402076
0.014597778 -0.024928961 -0.12417803 0.19627205 -0.0368147 0.08753335 0.0691778 -0.00510476
-0.08995132 0.07286359 -0.06933879 -0.17700753 -0.11379685 -0.09575603 0.10001354 0.0557391
-0.05715744 -0.004014891 0.0625333 0.052178647 -0.07184627 0.0075920504 0.18821053 -0.051285338
-0.047892213 -0.0649359 0.07432015 -0.0092855785 -0.087175086 0.04425441 -0.04599824 0.07923648
-0.11613259 0.071709685 0.096976705 -0.13507435 -0.041348286 0.1424692 0.008950112 0.014653046
0.1844598 0.07698396 0.057934478 -0.19356444 -0.17084806 0.04523176 0.039183006 -0.010018129
-0.06317036 -0.050441064 -0.09288676 0.025086302 0.031577975 -0.012194786 -0.1386899 -0.119447514
0.12884925 -0.016428312 -0.083293214 0.040958814 -0.012724555 -0.051132128 0.006979385 0.02669675
-0.05888971 0.1118469 0.04257177 0.17367679 0.05601976 0.024911916 -0.09421 0.15893725
00000000: a39a ae3c 3466 9b3e 5a2b b8bd 87e1 43be
00000010: b92a 5fbd dc41 c13b 013f 6e3d 6d2e 7d3e
00000020: f270 d8bd 5df4 483d 8231 213e 5b79 11bd
00000030: b423 d13d 6bfa f9bd 0151 bc3d ca85 6abd
00000040: de4d bd3d 15af 36bd 1790 dabd aed5 21bd
00000050: bb9e 813d a0d8 9b3d 6edc ca3a a9cb fc3d
00000060: f45c 2bbd 4018 fbbd 38d6 b4bd e76f 403d
00000070: 0317 1b3d f2aa 573d 9f03 be3d 84f0 af3b
00000080: ff68 273e c798 033e c9d7 14be 4809 383e
00000090: ccd6 16bd 6350 c8bd 46e9 4d3d 4731 e6bd
000000a0: 333a 3dbe b9cb d8bd 1fa0 95bd bbda 8d3d
000000b0: af32 c9bd a9d9 adbd cd38 6b3e 4378 77bd
000000c0: e32a a5bd f60b a9bd 9fbb ff3d 896d 253b
000000d0: 0986 293d 2825 8abc 4595 32bd ac15 01be
000000e0: 8318 843d d218 8ebc f7b3 c93d 900c e93d
000000f0: 3500 6a3c a600 433d 8338 40bd 911c 9b3b
00000100: 2363 983c 5380 96bd cb98 6ebd 21eb 77bc
00000110: a7fa 033e d21b 423e a461 cd3d aeb6 ca3c
00000120: 14b6 6b3c 42ae 1c3e 6f71 d6bd ac82 fe3c
00000130: 5f35 dc3d 3663 a4bc 3d4e 5f3c 90ca 853c
00000140: adab 43bd 764a 12bd 89c1 7a3d da41 debd
00000150: 7980 8d3d eed2 1abc b515 953d 7276 013e
00000160: 7469 8d3d 2dc0 a0bd 20c6 bd3c e24e 39be
00000170: 99bb 9ebd fb14 78bd e683 0c3e a2d3 e33c
00000180: 523a 2d3e a512 e1bd 108e 01bd 4c31 36be
00000190: a07e 923d f32d 8b3c 334d 0a3d 5f21 dbbc
000001a0: 0d97 643d 6abf c73c 9e66 063c 31c9 3c3d
000001b0: 8850 c2bd b618 cb3d 88e6 03be a3c5 57be
000001c0: 26cd 013c d932 a2bd bc44 98bd 03cf a93d
000001d0: 975d 9ebc ae84 45be 6d18 65bd 2599 583d
000001e0: 0455 563e 8a62 143d a6fa 98bd 08ce 8bbd
000001f0: e0ec d23d 35f3 db3d 9533 413d 8780 e0bc
00000200: fb9a e0bc 2bac 21bd c8e7 80bd b370 74bd
00000210: cbbf 05be 4d54 91bd c0b2 d7bc 6ec6 843d
00000220: 3041 00be b118 023e af47 59bd 378a 513c
00000230: 8c04 2f3e 1249 473d 6968 5a3d 5bec 2dbd
00000240: 9f80 893c 6552 babd ded8 e9bd faeb ca3d
00000250: ecfd 263c d7ca e23d 046a 83bd ccbe fd3d
00000260: 80ff df3c 3f0f 7f3d e0ff 14bd 0d6b 103d
00000270: 5f41 4abc 5069 6d3d fdf3 1dbe 238d 8a3d
00000280: 5b50 fbbc ff4c 163d 9c80 5d3e e6d5 f03d
00000290: 9a2a 543e ddd2 1abe 6aec 393d 49a7 99bd
000002a0: 683f 81bd 087a 183e aad2 c93d 8dfd 5b3d
000002b0: b26b f3bc d08a 52bd 289c abbd 71b8 e2bd
000002c0: aab9 c0bd a2d5 373d b092 d73d a6d1 80bd
000002d0: c77b 8abd f36b 693c 1623 b9bc 593f e8bd
000002e0: 852b 6f3c d237 ccbc 0d51 febd 8afb 483e
000002f0: 03cb 16bd af44 b33d 17ad 8d3d d545 a7bb
00000300: 6638 b8bd 8239 953d 7f01 8ebd 7641 35be
00000310: 530e e9bd bd1b c4bd e6d3 cc3d af4e 643d
00000320: eb1d 6abd 598f 83bb 7511 803d 47b9 553d
00000330: 2324 93bd bcc6 f83b 43ba 403e 9310 52bd
00000340: a02a 44bd 1dfd 84bd 2a35 983d 8a22 18bc
00000350: da88 b2bd 1d44 353d a768 3cbd bc46 a23d
00000360: ecd6 edbd 87dc 923d b99b c63d ee50 0abe
00000370: d25c 29bd 72e3 113e 7ea3 123c 5413 703c
00000380: 08e3 3c3e c4a9 9d3d b44c 6d3d c235 46be
00000390: cbf2 2ebe f044 393d 5c7e 203d 1423 24bc
000003a0: 765f 81bd 4a9b 4ebd 6a3b bebd ca81 cd3c
000003b0: e857 013d a4cc 47bc ba04 0ebe e6a0 f4bd
000003c0: 0ff1 033e ab94 86bc a295 aabd 6ec4 273d
000003d0: a77a 50bc ec6f 51bd 53b3 e43b 25b3 da3c
000003e0: 5636 71bd fd0f e53d bc5f 2e3d 54d8 313e
000003f0: fa74 653d 1314 cc3c 2cf1 c0bd 72c0 223e

network_body._body_endoder.seq_layers.2.bias f4 [128]
0.019774528 -0.0054744 0.016886817 0.0077015986 0.017092489 0.0006425821 0.02262925 0.014465116
0.01776964 0.017916806 0.023531632 0.01070334 0.001334635 0.014457087 0.010686248 0.018204601
0.031394377 0.03002733 0.001576782 -0.0010330616 -0.003013054 0.014262895 0.010559116 0.012481399
-0.008999889 0.010686974 0.0060418877 -0.0040110955 0.02036765 0.0046987752 0.016991079 0.012379204
0.006563838 0.014818398 0.003158213 0.0044589182 0.0037875182 0.022616947 -0.002333741 0.005254339
0.010601902 0.010524865 0.023309575 -0.004362754 0.00908023 0.0012340646 0.019332824 0.017769208
0.0037337327 0.02349273 0.015432705 0.018710686 0.030840928 0.013733916 0.021857254 0.061330892
0.008933015 0.009376197 0.0021487533 0.021606995 0.011067591 0.011999448 0.008333236 0.015876528
0.0062887524 0.027115658 0.0006262358 0.0071392157 0.011109418 0.021657243 0.016506506 0.015282639
-0.0004069956 0.014300823 0.005889494 0.014733333 0.04061328 0.014123286 0.0053399364 0.015995128
0.03561061 0.022542113 0.015568358 0.00538893 0.017466465 0.036907338 0.03989948 0.0077042966
0.018093344 0.017730402 0.025623687 0.0037660047 0.018885022 0.021834536 0.012840031 0.03668526
0.009777493 0.009381253 -0.0023712297 -0.007956704 0.017638683 0.021612957 0.016552676 0.015226035
0.0072940863 0.019319745 0.0102989515 0.0061479746 0.022603646 0.014647813 0.0062335627 0.0036335257
0.01563108 0.015448011 0.032801453 -0.0015424936 0.019937756 0.012156235 0.019936997 0.037762947
0.016697116 0.022849126 0.008932895 0.0151748285 0.025727835 0.01513269 0.012247191 0.018345835
00000000: 31fe a13c 9862 b3bb 3956 8a3c b15d fc3b
00000010: 8c05 8c3c f472 283a fa60 b93c 18ff 6c3c
00000020: a391 913c 44c6 923c 69c5 c03c 105d 2f3c
00000030: ebee ae3a 6bdd 6c3c 5f15 2f3c d121 953c
00000040: 6497 003d e0fb f53c 06ac ce3a cc67 87ba
00000050: a876 45bb ebae 693c 2400 2d3c c87e 4c3c
00000060: 4574 13bc 6b18 2f3c 07fb c53b 826f 83bb
00000070: 0fda a63c 2ff8 993b e030 8b3c 25d2 4a3c
00000080: 7715 d73b dec8 723c 06fa 4e3b 1e1c 923b
00000090: 0338 783b 2d47 b93c adf1 18bb 972c ac3b
000000a0: 9ab3 2d3c 7c70 2c3c b9f3 be3c 6ff5 8ebb
000000b0: 3fc5 143c 56c0 a13a df5f 9e3c bb90 913c
000000c0: a4b1 743b d373 c03c 75d9 7c3c 2747 993c
000000d0: 1da6 fc3c 3804 613c fc0d b33c 1a36 7b3d
000000e0: c85b 123c 9f9e 193c 19d2 0c3b 2701 b13c
000000f0: d754 353c 5599 443c 2088 083c 7e0f 823c
00000100: e111 ce3b a821 de3c f929 243a 15f0 e93b
00000110: 4704 363c 886a b13c a738 873c 0964 7a3c
00000120: 0662 d5b9 004e 6a3c a8fc c03b 1464 713c
00000130: 1c5a 263d 5b65 673c a2fa ae3b 3708 833c
00000140: 6edc 113d 3daa b83c 6d12 7f3c 9f95 b03b
00000150: d515 8f3c 262c 173d a36d 233d 5374 fc3b
00000160: 7e38 943c 593f 913c c4e8 d13c 13cf 763b
00000170: c3b4 9a3c 57de b23c fe5e 523c 4843 163d
00000180: c731 203c d4b3 193c a266 1bbb d65c 02bc
00000190: 007f 903c a80d b13c 7a99 873c 9f76 793c
000001a0: 3b03 ef3b 7144 9e3c efbc 283c f374 c93b
000001b0: 482b b93c 61fd 6f3c ea42 cc3b 7220 6e3b
000001c0: c00c 803c a819 7d3c d15a 063d 7f2d caba
000001d0: 8154 a33c f22a 473c ea52 a33c 52ad 1a3d
000001e0: 64c8 883c 172e bb3c 475b 123c d89f 783c
000001f0: 2ec3 d23c 1aef 773c 71a8 483c 014a 963c

action_model._continuous_distribution.log_sigma f4 [1, 3]
-0.27740872 -0.18906617 -0.7242264
00000000: 8408 8ebe 909a 41be e766 39bf

action_model._continuous_distribution.mu.weight f4 [3, 128]
0.050021637 0.012718165 0.06853738 0.05852377 0.04576807 0.09097159 0.021874482 0.03995839
0.07262778 -0.010887854 0.0063285283 -0.067347914 -0.058214188 -0.023983926 0.017016541 0.060431216
-0.09449859 -0.116083406 -0.008596022 0.025750658 -0.024107303 0.06000541 -0.009280849 0.0491792
-0.025602816 -0.038954645 -0.02510837 -0.0046302946 0.059264507 -0.09067563 0.043845855 0.024153749
0.05445669 -0.037588216 -0.057664394 -0.008690965 -0.05084664 0.07753201 -0.0492332 -0.048001856
0.013316541 0.038509883 0.08401313 -0.029289478 -0.04579077 0.046875346 -0.0484644 -0.03704347
-0.066944815 -0.06531417 0.045828965 0.051551525 -0.061960783 0.078337416 -0.0050328197 0.04066152
-0.016505241 0.06630413 -0.056438122 -0.08535824 0.052990478 0.07339757 -0.0030808586 0.07358696
0.039340217 -0.13360545 0.02909643 -0.056034897 0.00709584 0.07227676 -0.10525838 -0.005653095
0.0057051186 -0.03341491 -0.040298436 0.0769275 -0.058554042 0.033118885 -0.021182384 -0.063387595
0.09480542 -0.026704 -0.044314872 0.05331707 0.07810989 0.040235527 0.032433674 0.06602637
0.10053988 -0.10217099 -0.09801445 -0.015626017 0.032442406 0.01119475 0.0274569 -0.123816535
-0.0337894 0.0567962 -0.018910736 -0.012911962 0.024380768 0.0721945 -0.05497802 0.074600056
-0.03393159 -0.05406924 0.042247858 0.00236047 -0.08333412 -0.04064972 0.06518836 0.026970085
-0.08801986 0.11367599 -0.084996134 -0.031305607 0.024930136 0.052156217 -0.037518606 -0.0917561
-0.037909202 -0.06812521 0.0003716929 0.08055907 -0.03763101 0.016117042 -0.011854865 0.02278216
-0.10138679 -0.041083496 0.031366557 0.025568547 0.06670357 -0.021192214 0.06747854 -0.045700133
-0.032282375 0.059264395 0.09579285 0.00095405604 -0.004106203 0.04238905 0.033899475 -0.0020921242
0.009129548 0.014756515 -0.012737943 0.061057903 0.020625245 0.0488852 -0.08408211 0.045229282
-0.021783024 0.026435455 0.03431972 -0.05919043 0.0494826 -0.014291329 -0.014027195 -0.06704272
0.05597318 -0.036434602 -0.01651543 -0.08979496 -0.03560324 -0.019953255 -0.011909335 0.07637588
0.11305116 0.10409113 0.030426804 -0.026210941 0.07622733 -0.002323028 -0.004342554 -0.061529957
-0.017328994 -0.054481916 0.08368113 -0.075124286 0.067538396 0.04542296 -0.08323486 -0.022089727
-0.057518564 0.027552316 -0.009376143 -0.022271194 0.07673096 -0.06494951 -0.021610098 -0.0046646814
-0.06514228 -0.031952243 0.034950357 0.0023753985 -0.06175364 -0.037062533 0.04359341 -0.07509421
-0.005346956 0.0040829126 -0.029695082 0.011215366 0.051409625 0.07234145 -0.028769843 0.053606045
0.031007163 -0.064678326 0.017323056 0.023492962 0.01685501 -0.041996393 -0.008714256 0.015192037
0.0024835768 0.061248623 0.07070571 0.029230257 0.07871323 -0.029494718 0.062007852 0.040003438
-0.025210222 -0.056137804 -0.018562293 0.044823963 0.12633945 -0.07502449 0.03570414 0.06042421
0.02166074 0.031468853 -0.022288648 -0.07450826 0.013685188 0.06656541 -0.028487405 -0.047078792
-0.026011148 0.006903076 -0.06085959 -0.017510075 -0.057178553 0.06102285 0.028110407 0.03443022
-0.107368976 -0.0853273 -0.016813993 0.00956096 0.08090882 -0.059893418 0.0094123 0.02844425
00000000: 7de3 4c3d da5f 503c 535d 8c3d 9fb6 6f3d
00000010: 4d77 3b3d 504f ba3d 1d32 b33c 69ab 233d
00000020: e0bd 943d f862 32bc 8b5f cf3b b4ed 89bd
00000030: 0072 6ebd f079 c4bc 4666 8b3c b986 773d
00000040: 7a88 c1bd 23bd edbd 54d6 0cbc 0bf3 d23c
00000050: ae7c c5bc 3cc8 753d b40e 18bc 2170 493d
00000060: ffbc d1bc e88e 1fbd 12b0 cdbc bab9 97bb
00000070: 57bf 723d 25b4 b9bd b697 333d 15de c53c
00000080: fa0d 5f3d 1af6 19bd 8031 6cbd 8d64 0ebc
00000090: 9144 50bd 1ac9 9e3d c0a8 49bd 989d 44bd
000000a0: 9f2d 5a3c 8abc 1d3d 130f ac3d 7df0 efbc
000000b0: 1a8f 3bbd 5d00 403d 9b82 46bd e5ba 17bd
000000c0: 5d1a 89bd 70c3 85bd 27b7 3b3d b127 533d
000000d0: 97ca 7dbd 5e6f a03d 5aea a4bb b28c 263d
000000e0: 0036 87bc 76ca 873d a92b 67bd 4dd0 aebd
000000f0: 8b0c 593d 7751 963d 3be8 49bb c3b4 963d
00000100: 3523 213d decf 08be a35b ee3c d984 65bd
00000110: 3884 e83b d705 943d b591 d7bd 993d b9bb
00000120: 01f2 ba3b 13de 08bd f90f 25bd 2a8c 9d3d
00000130: 5dd6 6fbd aba7 073d ae86 adbc 5bd1 81bd
00000140: 5829 c23d 59c2 dabc 8383 35bd 0063 5a3d
00000150: 14f8 9f3d 02ce 243d 2cd9 043d d538 873d
00000160: dae7 cd3d 063f d1bd cdbb c8bd 2202 80bc
00000170: 54e2 043d 2f6a 373c 4bed e03c 8693 fdbd
00000180: c166 0abd 22a3 683d b0ea 9abc b28c 53bc
00000190: 2dba c73c b6da 933d a230 61bd eac7 983d
000001a0: dafb 0abd b577 5dbd 170c 2d3d 1db2 1a3b
000001b0: 14ab aabd 5280 26bd 7a81 853d 5ef0 dc3c
000001c0: c243 b4bd f5ce e83d 7412 aebd 4f3a 00bd
000001d0: 493a cc3c c2a1 553d 1cad 19bd 9fea bbbd
000001e0: ae46 1bbd 3b85 8bbd c7df c239 27fc a43d
000001f0: f922 1abd e307 843c e83a 42bc a7a1 ba3c
00000200: e1a3 cfbd 2b47 28bd 387a 003d 2175 d13c
00000210: e29b 883d 4b9b adbc 3032 8a3d 1030 3bbd
00000220: 863a 04bd 39bf 723d 0b2f c43d 9e19 7a3a
00000230: 548d 86bb 24a0 2d3d 2dda 0a3d 051c 09bb
00000240: 1a94 153c 4fc5 713c ceb2 50bc da17 7a3d
00000250: 46f6 a83c d93b 483d 3e33 acbd 5742 393d
00000260: 5072 b2bc 2b8f d83c d692 0c3d aa71 72bd
00000270: 44ae 4a3d 2e26 6abc 52d2 65bc b24d 89bd
00000280: 2244 653d 733c 15bd 5e4b 87bc 6ce6 b7bd
00000290: b4d4 11bd 0275 a3bc 5f1f 43bc f56a 9c3d
000002a0: 5e87 e73d bb2d d53d a241 f93c 54b8 d6bc
000002b0: 131d 9c3d f13d 18bb fc4b 8ebb d606 7cbd
000002c0: 89f5 8dbc 6e28 5fbd 0361 ab3d c3da 99bd
000002d0: 9251 8a3d 6d0d 3a3d 0a77 aabd 84f5 b4bc
000002e0: 9698 6bbd 65b5 e13c 659e 19bc 1472 b6bc
000002f0: 1f25 9d3d 4004 85bd a907 b1bc 2fda 98bb
00000300: 5169 85bd 5be0 02bd 1b28 0f3d 93ac 1b3b
00000310: 63f1 7cbd e2ce 17bd 018f 323d feca 99bd
00000320: 8535 afbb f4c9 853b 1a43 f3bc a8c0 373c
00000330: e692 523d c127 943d bcae ebbc 0392 5b3d
00000340: bc02 fe3c 1276 84bd 15e9 8d3c 5074 c03c
00000350: 8513 8a3c 6904 2cbd 3dc6 0ebc 06e8 783c
00000360: 81c3 223b d6df 7a3d 28ce 903d 4b74 ef3c
00000370: 6734 a13d e89e f1bc f2fb 7d3d a5da 233d
00000380: ab85 cebc c1f0 65bd f30f 98bc 5599 373d
00000390: 215f 013e 71a6 99bd 813e 123d 607f 773d
000003a0: dd71 b13c 7ce5 003d af96 b6bc c997 98bd
000003b0: d737 603c 7253 883d 6b5e e9bc b1d5 40bd
000003c0: 5515 d5bc 3333 e23b e847 79bd 4a71 8fbc
000003d0: 0f34 6abd 19f3 793d cc47 e63c b406 0d3d
000003e0: 44e4 dbbd 14c0 aebd 80bd 89bc 93a5 1c3c
000003f0: 86b3 a53d cd52 75bd 0c36 1a3c ea03 e93c

action_model._continuous_distribution.mu.bias f4 [3]
-0.00359437 0.0012658938 -0.0021586556
00000000: 868f 6bbb 59ec a53a 3b78 0dbb

action_model._discrete_distribution.branches.0.weight f4 [5, 128]
-4.5077763e-06 0.010164828 -0.013311534 0.009218081 0.024417544 0.016140295 -0.004599678 0.033450965
0.007772063 0.010855965 -0.028656125 0.047657516 0.00830402 -0.041803826 0.018795256 -0.059553396
0.03556635 0.04725318 -0.017468307 0.013308613 -0.025006453 -0.00027749443 0.02406167 0.0073535647
0.026410948 0.03310086 -0.039119132 -0.009116387 -0.024522332 0.03275845 0.02690017 0.042918906
-0.008709372 0.018244412 -0.0042018373 0.041571062 0.0031864848 0.047571264 -0.0065704007 0.0022252197
0.016877273 -0.004267517 0.022714328 0.023292432 -0.017973803 -0.0012174381 -0.053584054 -0.0011280753
0.01411339 0.021927418 -0.016075382 0.0061297007 -0.017225804 0.008053966 0.02236351 0.06349686
-0.00017807317 0.020960916 -0.007749631 0.0010588757 0.009734097 0.014211886 0.0054942505 -0.00022912545
0.007086756 -0.0038036082 -0.014404282 0.032879416 0.0477231 -0.006441164 0.033301815 0.03639382
0.0019030332 -0.019290503 0.019825703 -0.007236536 -0.021750463 -0.004262143 -0.018761627 0.004855677
0.0036879356 0.025511913 0.023689285 -0.0020806622 -0.042302083 0.014121952 0.043041937 -0.0015500613
0.015123227 0.045554414 -0.021654237 -0.03534728 0.014929342 0.010451045 0.016850334 -0.04669812
0.014242272 0.02591953 0.005912217 -0.015261702 -0.011061188 0.009023837 -0.00026707794 0.017221836
0.036554966 -0.05330166 -0.011987961 -0.016740913 -0.045837168 0.015201348 -0.028072685 0.019322427
-0.051405717 0.0050288225 0.023219204 0.0030013793 0.026072651 0.00310734 0.010130139 -0.017543416
0.0032945601 0.036598183 -0.0522518 0.042316 -0.044312622 0.036044896 -0.026567204 -0.04712787
-0.025069736 0.010508433 -0.005863808 0.014247429 0.031304285 0.019490628 -0.049106438 0.007808264
0.018753638 -0.004427303 -0.028238922 0.047912937 0.010764401 -0.016258178 0.029110346 -0.013094634
0.03392242 0.046043072 0.014316023 -0.012564887 0.0023912317 -0.010572231 0.008980305 -0.01482024
-0.0006568928 0.024235278 -0.022718519 -0.005728225 -0.002269777 0.036264952 0.00028952735 0.026245493
-0.0043880297 -0.052223384 0.021709194 0.011850942 -0.006952451 0.056197185 0.027945526 0.041473012
-0.02550761 -0.005893097 0.010518639 0.005652043 0.02863711 -0.0066027306 -0.04180782 0.015036862
0.016327767 0.02306014 0.024506064 0.03069394 -0.04049113 0.009715479 0.0032412603 0.06613562
0.018304536 0.037381463 0.010271688 -0.018682407 0.043847688 0.012950702 -0.030148316 0.027049303
0.0017831086 -0.033761077 0.004615663 0.023276443 0.022091743 0.032473426 0.015434548 0.0462784
-0.020211028 -0.034902256 0.028571757 0.0013837614 -0.08255923 0.00022948638 -0.0019597493 0.015547547
0.004800782 0.008811193 0.038264032 -0.017097322 0.012347907 0.020340044 0.06201898 0.021346493
0.014900146 0.0042678486 -0.016089858 0.0057961824 0.010757295 0.047779527 0.007850541 -0.05629214
0.008866924 0.0156209925 0.030784052 -0.003063436 0.0132246865 0.037779335 0.0035352935 0.0065691774
0.053034224 -0.043478005 0.018290734 0.0069883536 -0.07426151 0.031501926 -0.014344322 0.0033471112
-0.035543457 0.010695066 0.017484082 0.047385015 0.016876567 0.05590891 0.04463883 -0.07396476
0.024222426 0.028232504 -0.034284927 0.005900792 -0.034950815 0.042185817 -0.021584135 -0.025701405
00000000: 8141 97b6 618a 263c 9f18 5abc 6f07 173c
00000010: 4d07 c83c a738 843c e5b8 96bb e103 093d
00000020: caac fe3b 38dd 313c 40c0 eabc 8734 433d
00000030: 960d 083c 7d3a 2bbd 82f8 993c 43ee 73bd
00000040: 05ae 113d 8d8c 413d b219 8fbc 5e0c 5a3c
00000050: 55da ccbc ac7c 91b9 fb1c c53c 2cf6 f03b
00000060: c65b d83c c494 073d 623b 20bd e65c 15bc
00000070: 0fe3 c8bc b92d 063d bf5d dc3c bccb 2f3d
00000080: c1b1 0ebc 4e75 953c 91af 89bb 6b46 2a3d
00000090: 58d4 503b 16da 423d 844c d7bb fed4 113b
000000a0: 3542 8a3c 87d6 8bbb 6613 ba3c c5cf be3c
000000b0: cc3d 93bc 7292 9fba f47a 5bbd eddb 93ba
000000c0: d93b 673c 21a1 b33c 85b0 83bc a8db c83b
000000d0: 211d 8dbc c8f4 033c ae33 b73c a40a 823d
000000e0: 27b9 3ab9 3ab6 ab3c 9ef0 fdbb f9c9 8a3a
000000f0: c37b 1f3c f8d8 683c 1d09 b43b 6541 70b9
00000100: 0538 e83b f545 79bb f0ff 6bbc 91ac 063d
00000110: 4c79 433d 6610 d3bb 7c67 083d b011 153d
00000120: 336f f93a 1e07 9ebc 8369 a23c 7720 edbb
00000130: 072e b2bc 72a9 8bbb fcb1 99bc 5f1c 9f3b
00000140: 4bb1 713b 5cfe d03c 0810 c23c b85b 08bb
00000150: f344 2dbd c25f 673c be4c 303d 6d2b cbba
00000160: 69c7 773c 4497 3a3d 3a64 b1bc 4fc8 10bd
00000170: 339a 743c dc3a 2b3c b609 8a3c 8746 3fbd
00000180: 6b58 693c 3255 d43c 45bb c13b 380c 7abc
00000190: fc39 35bc b7d8 133c 9806 8cb9 cf14 8d3c
000001a0: a9ba 153d d752 5abd 2769 44bc 3d24 89bc
000001b0: c1bf 3bbd 130f 793c b0f8 e5bc 114a 9e3c
000001c0: cd8e 52bd d2c8 a43b 3336 be3c cab2 443b
000001d0: 5096 d53c 84a4 4b3b e2f8 253c 36b7 8fbc
000001e0: 8ce9 573b fae7 153d fc05 56bd 8b53 2d3d
000001f0: 2781 35bd d0a3 133d 77a3 d9bc 2709 41bd
00000200: 0c5f cdbc 902b 2c3c 3025 c0bb 0c6e 693c
00000210: ec38 003d cfaa 9f3c d523 49bd 77dc ff3b
00000220: 3ba1 993c e912 91bb 5055 e7bc 5b40 443d
00000230: 2c5d 303c df2f 85bc d278 ee3c e08a 56bc
00000240: 3cf2 0a3d a997 3c3d c18d 6a3c f5dc 4dbc
00000250: 36b6 1c3b 2737 2dbc 2122 133c 98d0 72bc
00000260: 5433 2cba 1089 c63c 301c babc d6b3 bbbb
00000270: 8ac0 14bb 8f8a 143d b4cb 9739 ca00 d73c
00000280: 76c9 8fbb 30e8 55bd 7bd7 b13c 742a 423c
00000290: 63d1 e3bb 052f 663d 04ee e43c 9bdf 293d
000002a0: 56f5 d0bc e11a c1bb 5f56 2c3c c634 b93b
000002b0: 5f98 ea3c b85b d8bb ad3e 2bbd 2c5d 763c
000002c0: cfc1 853c 9ee8 bc3c f1c0 c83c dc71 fb3c
000002d0: 07da 25bd ac2d 1f3c 536b 543b 1d72 873d
000002e0: 65f3 953c 4e1d 193d 954a 283c d90b 99bc
000002f0: a299 333d 2e2f 543c 9af9 f6bc 8096 dd3c
00000300: 32b7 e93a 0e49 0abd fd3e 973b 3dae be3c
00000310: bef9 b43c db02 053d 30e1 7c3c 6b8e 3d3d
00000320: 9991 a5bc abf5 0ebd 510f ea3c 545f b53a
00000330: d014 a9bd 48a2 7039 236f 00bb 23bb 7e3c
00000340: e14f 9d3b d25c 103c bfba 1c3d af0f 8cbc
00000350: e04e 4a3c 2aa0 a63c 9d07 7e3d d7de ae3c
00000360: be1f 743c 4fd9 8b3b e1ce 83bc e7ed bd3b
00000370: 5e3f 303c 77b4 433d 8e9f 003c 9692 66bd
00000380: 9346 113c 31ef 7f3c d62e fc3c edc3 48bb
00000390: 5bac 583c 81be 1a3d 62b0 673b 4142 d73b
000003a0: 6a3a 593d fe15 32bd 73d6 953c 8ffe e43b
000003b0: 6b16 98bd 2a08 013d 7204 6bbc 355b 5b3b
000003c0: 0496 11bd 5c3a 2f3c c73a 8f3c ca16 423d
000003d0: ba40 8a3c be00 653d 35d7 363d d67a 97bd
000003e0: 1c6e c63c da47 e73c 5a6e 0cbd 6e5b c13b
000003f0: 9628 0fbd 09cb 2c3d 36d1 b0bc c18b d2bc

action_model._discrete_distribution.branches.0.bias f4 [5]
0.0041087163 -0.011278782 -0.005842846 0.012936735 0.0008585134
00000000: 69a2 863b a4ca 38bc 5875 bfbb 99f4 533c
00000010: dc0d 613a
