Assets/Brain/Tests/new750k.onnx (onnx, 136172 bytes, 9 tensors)

network_body._body_endoder.seq_layers.0.weight f4 [128, 114]
000000 dc e0 3c 3e 21 c9 0f bc a6 86 ec bc 07 29 d7 3d
       0.18445152 -0.00877598 -0.0288728 0.10505872
000010 96 3b 2c 3c ad c7 43 3e 09 49 9f bd db d7 80 3e
       0.010512253 0.19119139 -0.07777602 0.25164685
000020 f9 24 4d bd 92 f2 c6 bc 25 4b c6 bb d6 38 c2 3d
       -0.050084088 -0.024285588 -0.0060514384 0.09483497
000030 07 5f 0a bd 7d b7 6d 3c 7c 25 95 bd 5d d6 eb bc
       -0.03378203 0.014509079 -0.0728254 -0.02878874
000040 77 12 61 be 8b 8f 74 3e 5d 10 53 3d 94 04 dc ba
       -0.219797 0.23882882 0.051529277 -0.0016786032
000050 ed 51 fe 3d 89 60 0f 3d bc 61 59 3e 85 94 1d bd
       0.1241797 0.035004172 0.21228689 -0.038471717
000060 5e 90 c0 3d a3 43 8b bc bb 21 0f 3d 33 d1 13 bd
       0.09402536 -0.017000025 0.034944277 -0.03608818
000070 3e c3 c7 bc 8f e6 07 3e b2 6c a5 bd 67 16 ab 3d
       -0.02438509 0.13271545 -0.080773726 0.08353882
000080 ea 3f 18 be 60 37 1e bd da a6 91 3c e0 b9 f4 bd
       -0.14868131 -0.03862703 0.017779756 -0.11949515
000090 89 6d 78 3d 1b 50 89 bd cc cc cd bd fc 91 8b 3d
       0.060651336 -0.06704732 -0.100488275 0.06814954
0000a0 57 10 d2 bd 45 42 90 3d 2e 66 e5 3c dc 9f d9 3d
       -0.10257023 0.0704389 0.028002825 0.10626194
0000b0 01 a1 0a 3e 26 2a 99 3b 27 3c cf bd 27 3a fe bd
       0.1353798 0.004674214 -0.10118895 -0.124134354
0000c0 e1 39 81 3b 55 63 84 bc 75 0d 46 bd 28 1a c9 3b
       0.0039436673 -0.016160646 -0.048352677 0.0061371513
0000d0 bc 47 32 bd 6c a3 a0 bd 22 53 6c 3d 93 f6 64 bd
       -0.043525442 -0.0784367 0.05769647 -0.055899214
0000e0 a4 df 0d 3d d8 24 08 3d f0 2c 80 3d 83 5d 1f bd
       0.03463711 0.033238262 0.06258571 -0.03890754
0000f0 41 0e 84 bd 88 38 31 be 56 3d 73 3d 1a 35 4b 3c
       -0.06448031 -0.17306721 0.059384666 0.012402797
000100 aa a0 23 bd f1 5d b0 3d 7c 47 0c be 55 14 ea 3c
       -0.039948143 0.08611668 -0.13699144 0.028574148
000110 8f 46 c0 3d 51 0c 2a 3d 02 64 ca bd 16 08 eb 3c
       0.09388458 0.041515652 -0.09882356 0.02869038
000120 c8 02 55 3e 3a 1a 8d 3c 9e fb a2 bd d0 9e a7 bd
       0.20801842 0.01722442 -0.079581484 -0.08184588
000130 9a 31 7e 3c fc 95 f9 bb 6e 95 85 3c 34 b8 a8 3d
       0.015514756 -0.0076167565 0.016306605 0.08238259
000140 91 16 b4 bd da 7d a0 bd 23 19 de bd b1 6e 03 3d
       -0.08793367 -0.07836504 -0.10844638 0.032087985
000150 11 68 98 3c d4 8f a7 bc de ed 06 3e 8d 96 23 3e
       0.01860431 -0.020454325 0.13176677 0.159754
000160 bf 79 42 3e fc ef 58 3d 2b cc 92 3d 8f 85 16 3e
       0.18991755 0.052963242 0.07167848 0.14699386
000170 bf 2f e2 3c 2f 6e 19 be 54 99 c3 3d af 6f 31 3d
       0.027610658 -0.14983438 0.095507294 0.0433194
000180 c1 1e 3c bc 11 d1 08 3e 03 d1 01 3e 41 ca 0b bd
       -0.011481942 0.13361003 0.12677388 -0.03412843
000190 be db 37 3d eb 70 35 be 68 9b 47 3e df 80 91 3c
       0.044887297 -0.17718856 0.19492877 0.017761646
0001a0 77 11 30 3d 51 7a 2c bb d3 2c 33 bd c2 dc d4 3c
       0.042985406 -0.0026318023 -0.04374392 0.025984172
0001b0 96 8e 92 bd 07 29 33 bd a2 05 32 3d 00 f1 90 3d
       -0.07156102 -0.0437403 0.043462403 0.07077217
0001c0 01 b6 97 bd fc 60 29 3d 9c 46 39 3d ca d0 34 bd
       -0.07407761 0.041352257 0.045233354 -0.04414443
0001d0 61 b2 51 bd 2a 35 cd 3d f3 c7 27 3e f0 c0 12 be
       -0.051195506 0.10019906 0.16384868 -0.14331412
0001e0 36 d5 1e 3d 18 29 16 3e bb c1 9a bd 28 ab 99 3d
       0.038777553 0.14664114 -0.075564824 0.075033486
0001f0 51 a8 a8 bc be aa c2 3c 95 1b 2a 3e 5f 85 0a 3d
       -0.020588072 0.023763057 0.16612084 0.0338186
000200 83 82 70 3c 88 45 b8 3c eb 28 24 3d 32 af f6 bd
       0.014679554 0.022494093 0.040078085 -0.120451346
000210 1a 62 2c 3d 25 c7 1b be 0e b9 37 be 1f 90 23 be
       0.042085744 -0.15212686 -0.17941687 -0.15972947
000220 fd 79 2e bb da 43 80 bd d7 15 a1 3d 84 bd 57 bc
       -0.0026623004 -0.06262942 0.07865494 -0.013167743
000230 a4 fc 13 bd 96 5f 86 3d a1 ee 6a 3c 3c d1 a8 bd
       -0.03612961 0.065612 0.01433912 -0.08243033
000240 b0 59 6a be 5f 55 63 bd f4 4d 95 bd 1a 39 a9 bc
       -0.22885776 -0.055501338 -0.07290259 -0.020657111
000250 67 1b 57 3d 89 47 45 bd bf 76 53 be b0 08 b9 3d
       0.052516367 -0.048163924 -0.20650767 0.0903486
000260 9c a6 a1 3c 66 b7 1a be 1a ab 07 be 3d e6 a1 3d
       0.019732766 -0.15109023 -0.13248864 0.079052426
000270 27 a9 8e 3c 70 a6 be bd d9 ab 29 bd f5 ea 06 3e
       0.017414642 -0.09309089 -0.041423652 0.13175566
000280 a2 9e 95 bd c0 dd 91 3c 5a 61 f4 bd 98 fb 2b 3e
       -0.073056474 0.017805934 -0.11932631 0.16795194
000290 53 81 76 3d bf 7c 84 bd 4d 69 5e be ef d2 c9 3d
       0.060181927 -0.06469106 -0.21719857 0.098546855
0002a0 4f 8b 5e 3d 93 13 07 3d 40 b5 1e 3c 73 47 a9 3d
       0.054332074 0.03297765 0.009686768 0.08265581
0002b0 e6 28 00 3e 9d b0 05 3e fe c0 90 bc 8f bd 80 bd
       0.12515602 0.13055654 -0.01767015 -0.062861554
0002c0 15 db 5d bd 2f 37 02 3e 09 e7 26 3e d8 2a 84 bd
       -0.05416401 0.12716363 0.1629907 -0.06453484
0002d0 7a 9b 48 3d 61 d6 a6 3d 2d 8f b5 bd bb 42 06 3e
       0.0489764 0.08146358 -0.08865199 0.13111393
0002e0 87 14 88 be 34 59 c3 3b 3f 57 4f bd 13 a7 94 bc
       -0.2657816 0.0059615616 -0.050620314 -0.018146073
0002f0 12 e0 ca 3d 47 07 d8 bb 20 b9 a9 bd ad 89 2d bd
       0.09906019 -0.0065926644 -0.08287263 -0.042367626
000300 c2 03 b1 3c 1f 5a af 3d 0a f1 c4 3d aa fc 8e 3d
       0.021608237 0.08562111 0.09616287 0.069817856
000310 6f 95 7d 3e 06 04 a8 bd 9a 7d 39 3e 8b 4a 4f 3d
       0.24764036 -0.082038924 0.1811432 0.0506082
000320 a0 b6 e2 bd 61 11 b1 3d e7 5e 5c bd 53 7b 0d 3e
       -0.11069989 0.08645893 -0.053801443 0.13816576
000330 3c 84 b3 3e 3a df 65 3d 97 0f 64 3b c8 a7 65 3d
       0.35061824 0.05612109 0.0034799331 0.05606821
000340 76 16 29 3c cd 3f f8 3d 7c 4a 63 3b af 93 10 3e
       0.0103202965 0.12121544 0.0034681847 0.14118837
000350 a9 c4 56 bd 13 8c f8 bc d1 19 13 bc 81 a4 c3 bc
       -0.052433643 -0.03034023 -0.008978323 -0.023882153
000360 ef 64 75 3d d1 c2 cd 3d 9c aa 9a bd 8e 54 64 bd
       0.05991071 0.10046924 -0.075520724 -0.0557447
000370 e9 fe c2 bd c7 2f 10 3d 9d ab 90 3d e5 fa 40 3e
       -0.095212765 0.035201814 0.07063983 0.18845709
000380 f4 28 bd bd 08 18 83 bd 88 78 04 3e 24 58 dd bc
       -0.09236327 -0.06401068 0.12936604 -0.027019568
000390 24 85 6a 3d 28 af 45 bd 20 13 a4 3d a2 4e 81 3d
       0.05725588 -0.048262745 0.0801146 0.06313826
0003a0 ab f2 f0 3d 6c 68 05 3e d4 b3 41 be 04 74 59 3d
       0.11765035 0.13028115 -0.18916255 0.053089157
0003b0 03 71 01 be 91 10 9c bb 06 31 8e 3d ad ff cb bc
       -0.12640767 -0.004762717 0.06942944 -0.02490219
0003c0 01 ca 9d 3d 31 df b1 3d 46 3d d8 3b 62 f0 c5 3c
       0.07704545 0.086851485 0.0065991012 0.024162475
0003d0 a2 a6 e8 bd c2 90 22 3d e8 2a 03 3e 50 b9 c4 3d
       -0.11359908 0.039688833 0.12809336 0.09605658
0003e0 7d 47 5c 3d a8 17 e6 3d 34 f8 21 bd 5b 78 de 3c
       0.053779114 0.11234981 -0.039543346 0.027157
0003f0 e3 2a 9f bd a2 86 9d bc 57 47 9c bd 12 74 b0 bc
       -0.07771852 -0.019229237 -0.076307945 -0.021539722

network_body._body_endoder.seq_layers.0.bias f4 [128]
000000 76 ff 0b 3c 33 f6 1c ba a4 ce 2a bb 02 42 72 3c
       0.008544793 -0.0005987614 -0.0026063109 0.014786245
000010 2f ae 11 ba 0d 66 56 3c 46 88 81 3c 2e e2 5a 3c
       -0.00055572664 0.013085854 0.01581205 0.0133595895
000020 6f ff c3 3c fa 24 3c 3b 52 59 a4 bc 66 15 c2 ba
       0.023925511 0.0028708563 -0.020062122 -0.0014807403
000030 6c 26 c2 3b 97 a5 35 3c 82 ed 0d 3c 01 e1 b4 bb
       0.0059249904 0.011086843 0.008662583 -0.0055199866
000040 ec de 8a 3b 49 b8 c1 bb f3 5c 6c 3c 9c f9 b5 bc
       0.004238 -0.005911861 0.014426458 -0.02221375
000050 dd 5f 0e 3c a9 2c cc b9 c7 96 d4 bc 22 7c df 3c
       0.008689848 -0.00038943187 -0.025950802 0.02728087
000060 18 63 3e 3c e2 a1 1d 3c 08 22 49 3c 8c f9 0d 3d
       0.0116203055 0.009621115 0.01227618 0.034661815
000070 63 78 b2 3c 27 4a 5d bb a0 68 ef 3c 94 d9 a9 3c
       0.02178592 -0.0033766122 0.029224694 0.020733632
000080 c7 3b a6 3c 2d 45 de 3c a6 7d 33 bc f4 4f d6 3c
       0.020292176 0.027132595 -0.01095525 0.026161171
000090 e0 a9 aa bb 82 c3 12 3c 21 8c c0 bb 30 6f 67 3c
       -0.005208239 0.0089577455 -0.0058760797 0.01412563
0000a0 f0 5b 9b 3c c2 1b 7c 3c cd 4f 55 39 bc 4c ce 3c
       0.018964738 0.015387477 0.00020342991 0.025183074
0000b0 6b 21 20 3d 6d b7 2b bd 8e 31 be 3c 4f 74 a9 3c
       0.03909437 -0.041922975 0.023216989 0.020685343
0000c0 f7 04 cd 3c db 6a 77 3c 2d 60 ec 3a c8 cf e5 3c
       0.025026781 0.01510116 0.0018034034 0.02805318
0000d0 6a d6 94 3c ad 12 8f 3c be 53 00 bb f1 4e 50 3c
       0.018168647 0.01746496 -0.0019581164 0.012714134
0000e0 d6 37 17 3b 54 bf 23 3d 0d 16 fd b8 90 1c 5a bc
       0.0023074052 0.039977387 -0.000120680874 -0.013312474
0000f0 75 54 03 3c 93 34 4f bb 20 0b 75 3c f6 f3 3e 3c
       0.008015742 -0.003161703 0.014956266 0.0116548445
000100 bb 7b fa 3c 4d 8d 00 3d 92 99 bf 3c 62 6f 15 bb
       0.030576577 0.031384755 0.023388658 -0.0022801985
000110 0f 53 c1 3b 3e 52 b6 3c 04 b3 d7 3c dd eb 26 3c
       0.005899794 0.022256013 0.026330478 0.01018807
000120 3d 91 0c 3d ed a8 04 3d 73 fa 91 bc 58 25 93 3c
       0.034318198 0.032387663 -0.017819619 0.017962143
000130 73 b2 69 3c ee fe d0 ba e7 1c 19 3c 0d 91 83 bc
       0.014263737 -0.0015945116 0.00934527 -0.016060377
000140 1f 9d d3 3c ce e5 b6 3c 74 e9 b4 3b 37 2c 95 ba
       0.025831757 0.022326376 0.005520994 -0.0011380975
000150 49 4f aa ba 27 16 66 3c 1d 5e 25 3b f5 de b8 3c
       -0.00129936 0.0140433675 0.0025233098 0.022567252
000160 35 31 ab 3c a3 48 58 3c 44 80 6f 3c 3f 73 80 3c
       0.020897487 0.013200912 0.014617983 0.015679954
000170 1f 3e a0 3b 8f 3a 44 3c 08 9c 3d 3c 9f 62 76 bc
       0.004890218 0.011976852 0.011572845 -0.015038162
000180 4f ef 6c 3c 40 ce 2c bb 0f f6 28 3c ac 69 9b 3c
       0.0144613525 -0.0026368052 0.010312571 0.018971287
000190 c3 b8 ca 3c fd 7b 0c 3c 9b 8a 0a bc ed 40 ff 3c
       0.024746304 0.008574483 -0.008455898 0.031158889
0001a0 73 7b 68 3c 1f 96 e3 3c 91 65 44 3c 21 0e 3d 3c
       0.014189589 0.027781544 0.011987106 0.011539013
0001b0 e4 79 02 b9 3b 2e 89 ba 97 33 ce 3c a2 b0 01 3c
       -0.00012443174 -0.0010466048 0.025171084 0.007915648
0001c0 62 50 84 3c 43 59 91 3c 39 f8 7e b9 f9 c7 b6 3b
       0.01615161 0.017742759 -0.00024315798 0.005578038
0001d0 90 68 d7 3c df 2f 0c 3d 05 da e6 3b 5d d5 6c 3c
       0.026294976 0.03422534 0.007045033 0.014455167
0001e0 81 53 8d 3b 6c 37 f2 3b 60 65 07 3d 69 6c 8c 3c
       0.004312933 0.0073918607 0.033055663 0.017141538
0001f0 c1 4a 47 3d ea a2 9d 3b be ff de 3c cf 4b 53 3d
       0.048655275 0.0048106806 0.027221557 0.05158597

network_body._body_endoder.seq_layers.2.weight f4 [128, 128]
000000 d0 d4 48 3c 8b 1f a5 3d 50 1b 8f 3c 30 ad 3d bd
       0.01225777 0.08062657 0.017469078 -0.046307743
000010 1e f4 27 3e 3f 9d 1a be ba 90 02 be e1 e2 f1 bc
       0.16401717 -0.15099047 -0.12750521 -0.02952713
000020 5e 57 0c be b0 8e fc bb ef 6f 94 bd ee cf 35 bd
       -0.13705203 -0.0077074394 -0.07247912 -0.04438775
000030 b0 0e 5d 3e f0 c9 76 3d 67 ba b4 bd b4 0a 77 bd
       0.21587634 0.060251176 -0.08824616 -0.06031294
000040 d4 4c 01 3e c4 17 4f bd a5 90 de 3a 66 4d ad 3d
       0.12626964 -0.050559774 0.0016980363 0.08462028
000050 15 e8 93 3d c9 6c f7 bd 28 50 aa bb d6 f6 e8 3c
       0.072220005 -0.12081296 -0.0051975437 0.028438013
000060 ee 2c 2b 3c 05 89 61 3e d5 c0 91 3d 3c c6 30 bc
       0.010447724 0.22024925 0.07116858 -0.01078945
000070 5a 89 2e bd dc ff 09 3e 23 0e bf bd 5f ed fe 3d
       -0.042611457 0.13476509 -0.09328868 0.12447619
000080 54 20 8c bc 41 b0 86 bd 3e c0 bc bd be 00 f7 3d
       -0.017105259 -0.065765865 -0.09216355 0.120606884
000090 ec d4 42 bd 5d 93 32 3e 23 ee 94 bd dd f8 33 bc
       -0.04756634 0.17439027 -0.072719835 -0.010984627
0000a0 a4 74 6c 3d de 90 0d be 1e ab 5f bd 6d 3a 85 bc
       0.057728425 -0.13824794 -0.05460655 -0.016263211
0000b0 f8 9e 3d bd 76 b5 bd 3d 65 6e f2 bb 57 87 c5 3d
       -0.046294183 0.092631266 -0.007398414 0.09644955
0000c0 b6 1f 08 3d c8 0b 60 3e ee 26 15 bd 31 4c e4 bd
       0.033233367 0.21879494 -0.03641408 -0.11147345
0000d0 0d 81 dd 3c 78 bd 68 bd 2a df ae 3b e8 53 f0 bd
       0.027039075 -0.056821316 0.005336662 -0.11734754
0000e0 cd 96 c4 3d aa fd 84 bc 90 29 28 3d 48 9f ce bc
       0.095990755 -0.016234238 0.041055262 -0.025222436
0000f0 4c 21 32 be fb 06 72 be 0b cb f5 3d bc d4 b9 bc
       -0.17395514 -0.23635475 0.12001618 -0.022684447
000100 1d 18 38 be fe 0f f5 3d 50 71 11 be 56 81 cf bd
       -0.17977948 0.11965941 -0.14203382 -0.10132091
000110 48 7f c9 3d 57 4b b2 bd 84 76 fb 3d 54 d3 db 3c
       0.0983873 -0.08705776 0.122784644 0.026834168
000120 f2 10 1c be 9e 2c 3a 3d 70 e6 90 3d 45 9e 5c bd
       -0.15240839 0.045452707 0.070752025 -0.053861875
000130 da e2 02 bd 46 9f a2 bb ec 2d 19 3d 18 b3 4f 3d
       -0.031954624 -0.0049628345 0.03739731 0.050707906
000140 58 e3 2a bc 84 5d 2b bd 9b 03 91 3d 72 e7 8e bb
       -0.01043018 -0.04183723 0.07080766 -0.0043610865
000150 7b d0 e9 bc d9 e4 7f 3d 05 90 1d be 96 bf 34 3e
       -0.028541794 0.062474106 -0.1538697 0.17651209
000160 dd 42 fc 3d 07 5e d8 3c b6 34 9f bc d1 d4 8b 3d
       0.12317441 0.026412023 -0.019434314 0.06827701
000170 e4 4d 92 3d 1a a0 84 bc 9d e2 11 bd 79 88 17 3e
       0.07143763 -0.016189624 -0.035616506 0.14798154
000180 11 8d 39 3e 5f 91 af 3c 02 16 80 bd 0b 9c ed 3c
       0.18120219 0.021431623 -0.06254198 0.029005071
000190 93 3e c3 bc 61 5e fc 3c e9 22 8d bd 25 d5 d6 bc
       -0.023833549 0.030806722 -0.06891424 -0.026224682
0001a0 9e 80 90 3d 8f b6 8e 3d 2a 97 81 bd 64 9a 93 3d
       0.07055782 0.06968414 -0.063276604 0.07207182
0001b0 6e ab 56 bd 60 6c dd 3c dd 98 ad bd 7c f3 c3 bd
       -0.05240958 0.027029216 -0.08476422 -0.09567925
0001c0 ff cd 1f 3c ff 44 3f bb b3 3e 39 3d df 3e ab 3d
       0.009753703 -0.0029185412 0.04522581 0.08361601
0001d0 e8 80 2b 3e dd 65 95 bd b9 55 70 bd 47 96 2a bc
       0.16748393 -0.072948195 -0.0586755 -0.0104118055
0001e0 02 ca 72 3d b5 f0 91 bd 49 1c 66 3d 8a ea 88 3e
       0.05927468 -0.07125989 0.05617932 0.2674144
0001f0 1b 79 31 3e 87 1f b2 3d 8b 5f fe bc cb cf c1 3d
       0.17331354 0.086974196 -0.031051418 0.094634615
000200 39 0a 1e be 58 cc 05 3e fa bf 3b bc 8a 2a 34 bd
       -0.15433587 0.13066232 -0.011459345 -0.04398588
000210 65 62 94 3d 55 43 cc 3d c5 63 8d 3d 5f 84 60 3d
       0.0724533 0.0997378 0.06903795 0.05481374
000220 8e 55 80 3d ba d4 b8 3d fb ce 76 3d 3b d2 da bd
       0.06266318 0.09024949 0.060255986 -0.106846295
000230 4e c7 a0 bd da 58 05 3d cb e8 8d 3d 95 7e 2e 3c
       -0.07850514 0.03255544 0.06929167 0.010650297
000240 48 99 40 3c f5 b1 c7 bc ac e5 a0 bd 5d ec b5 3d
       0.011755295 -0.024376849 -0.078563064 0.08882973
000250 63 d9 ab bc 1c 4a 8e 3d d0 71 c2 bb 24 60 c7 bd
       -0.020977682 0.06947729 -0.0059339777 -0.09735134
000260 5a 47 b7 3c 05 ee 21 be 6a f1 48 3d 6c 1f db bb
       0.02237289 -0.15813453 0.049058355 -0.0066870954
000270 98 f2 c9 3d 9a ca b9 bd 72 b8 15 3d ec 14 ae 3d
       0.09860724 -0.09071846 0.036552854 0.08500084
000280 bc a7 58 3e 69 1f a3 bd 57 bb 29 3e db a6 21 3e
       0.21157736 -0.079649754 0.1657537 0.15786307
000290 f2 b2 a5 bc d0 a9 c8 bd 32 88 96 3c 8f b0 3d 3d
       -0.02022693 -0.09798014 0.01837549 0.046310958
0002a0 42 be c2 3c 83 81 f2 3d f8 2e f1 bd 5a 40 d0 3d
       0.023772363 0.11841109 -0.11776537 0.10168524
0002b0 5b b1 eb bc 11 1d 02 bd d0 b4 60 3d 49 14 05 3d
       -0.028771093 -0.031766 0.054859936 0.03249005
0002c0 a5 eb cc 3d 45 c4 b7 3d fb 97 ea 3c 0e b8 ca 3d
       0.10005883 0.08972982 0.028636923 0.09898387
0002d0 2e 2b e7 3d 2b cc 3a be b2 49 a9 bd 4e 23 ee bd
       0.11287533 -0.18241946 -0.082660094 -0.116278276
0002e0 d0 94 b9 3c 9f df 98 bd 80 53 75 bd 65 f2 4d bd
       0.022653967 -0.07464527 -0.059894085 -0.050279994
0002f0 9a b1 ca bc 9a 97 8c 3e cd ba da 3c 01 6d 15 bd
       -0.02474289 0.27459413 0.026700402 -0.036480907
000300 e0 8b 58 3e fb 30 d4 bd 87 53 6f 3d d3 e6 d7 3d
       0.21147108 -0.10360905 0.058429267 0.10542073
000310 0a 6e b6 3d 26 68 63 bc 8a da 6e bc 91 ad fd bd
       0.08907707 -0.013879811 -0.014578471 -0.12386621
000320 be 06 b1 3d 9e 15 24 bd 35 2a b0 bd 32 1d 65 3e
       0.08643864 -0.04005968 -0.086018 0.22374418
000330 0f d6 cd bc 73 f1 04 be 2c 5c 30 bd a6 2b d1 bd
       -0.025126485 -0.1298273 -0.043056652 -0.102134034
000340 1b a8 1a bd 09 5c 11 3d 1f cd 12 3e fd 37 c5 3c
       -0.037757974 0.035488162 0.1433606 0.024074549
000350 a8 10 96 3d ae 5d 25 3c b2 78 29 3d 9e 0c 83 bc
       0.07327396 0.010093136 0.04137487 -0.015997227
000360 de 56 05 3c 93 5d c0 bd 92 68 4b bd dc e8 6f 3c
       0.0081383865 -0.09392848 -0.049660273 0.01464292
000370 75 91 2d bd 9e ca de 3c e2 8d 18 be 22 e1 cd bc
       -0.042375047 0.027196225 -0.14897874 -0.025131766
000380 d8 7b 7c 3e 4f 51 18 3e 59 d0 3a bb 70 09 9d bc
       0.24656618 0.14874767 -0.0028505533 -0.01916954
000390 e3 3e 81 bc 67 ce 49 be 2f 73 f5 3d 5e c1 01 3d
       -0.015777057 -0.19707642 0.1198486 0.03167855
0003a0 ba 93 ca bd da 0a 40 bd aa c7 97 bd 42 e8 b3 bc
       -0.09891458 -0.04688535 -0.0741113 -0.021961335
0003b0 63 60 cb 3d 34 0e 2d 3e 31 28 a9 ba 10 cf ba 3d
       0.09930494 0.1689995 -0.0012905655 0.09121525
0003c0 60 c3 9b 3d b7 03 4f 3e df ce 84 3d c1 46 a7 3d
       0.07605624 0.20216261 0.0648477 0.08167792
0003d0 81 69 b0 3d 99 01 b4 3d a7 6e 47 bd d6 09 ca 3d
       0.08613873 0.08789367 -0.04868951 0.09865157
0003e0 07 2a 5f bd 74 a0 03 3e 74 1f 21 bd 7d cc 04 be
       -0.05448344 0.12854177 -0.039336637 -0.12968631
0003f0 99 2f 8b 3d 2e cf c7 bd d6 a5 fd bd bf 60 67 3d
       0.06796188 -0.09756313 -0.12385146 0.05648875

network_body._body_endoder.seq_layers.2.bias f4 [128]
000000 ee fc 01 3c 2f 94 8b 3b be 0f 2d 3c 87 47 dc 38
       0.007933838 0.004259608 0.010562835 0.000105037405
000010 9c 9a 3d bb a6 45 15 3b b6 02 40 3c b8 9b 1c 3b
       -0.0028931266 0.002277711 0.011719396 0.0023896527
000020 e7 5f 0b 3c b3 81 8c 3c 62 08 08 3b de 2a c0 3c
       0.008506752 0.01715169 0.002075695 0.02345794
000030 65 95 85 3c c5 76 8e 3c ca da 06 3c 1b be 65 bc
       0.016306588 0.017390618 0.008230874 -0.014022375
000040 77 5c 78 3c 12 fd 37 3c af e3 5f 3c 88 74 59 3c
       0.015158764 0.01122977 0.013665124 0.013272412
000050 96 f2 4b 3c 0e 09 25 3c d6 e4 81 3c 5f 02 3b 3b
       0.012447974 0.01007296 0.015856188 0.0028535349
000060 ce 41 99 3c 3e ac ad 3c d3 08 38 3c 1d d6 13 3c
       0.018708136 0.021200296 0.011232573 0.009023217
000070 83 92 9c 3c 2b 76 dc 3c 65 26 90 bc b9 c4 7b 3b
       0.019112831 0.026911816 -0.017596433 0.0038416816
000080 55 72 03 3b a2 a2 52 3c dd 3e 68 3c b0 f0 fb 3c
       0.002005716 0.0128561575 0.014175144 0.030754417
000090 1f d2 dc 3b cd 1d 87 3a a3 6d 57 3b d9 d5 95 3a
       0.0067389156 0.0010308564 0.0032871745 0.001143153
0000a0 07 20 8a ba c4 5b 53 3c 03 15 96 3c b1 4a a1 3c
       -0.0010538109 0.012900297 0.018320566 0.019688936
0000b0 27 9a 32 bc 11 22 62 3c 90 34 a7 3c 10 2f 8d 3c
       -0.010901011 0.013802067 0.020410806 0.017234355
0000c0 1d d2 6b 3c 01 d5 63 3c 2e 5d e1 3b 64 0b 41 bb
       0.014393357 0.013905765 0.006877563 -0.0029456252
0000d0 b1 ae e4 3b e5 c7 63 3c fd a2 ca 3b 89 74 15 3c
       0.0069788327 0.013902639 0.0061839805 0.009122022
0000e0 22 5e b1 bb bf 20 2b 3c 68 a1 b4 3a 28 5e 63 3a
       -0.005412833 0.010444819 0.0013781013 0.0008673393
0000f0 b9 c5 9f 3b 3d 98 0c 3c 5e b9 6d 3c 7a 96 90 3c
       0.0048758653 0.008581218 0.014509527 0.017649878
000100 40 c2 59 3c c1 3c 16 3c 33 42 90 3c 3b fb dc 3b
       0.013290942 0.009169758 0.017609691 0.006743816
000110 a7 52 24 3c 67 ff 35 3c 16 8c ba 3b b7 55 b9 3c
       0.0100294715 0.011108256 0.005692969 0.02262388
000120 e0 0c 89 3b 9e 72 04 3b fc 45 89 3b 78 3f 80 3c
       0.004182443 0.0020209919 0.004189251 0.015655264
000130 7f 3b 2e 3c b3 d2 af 3c f9 09 c9 3c eb b1 50 3c
       0.010634302 0.021462774 0.024540888 0.012737731
000140 d7 b7 90 3c a2 7d 68 3c f6 1b 90 3c 4b f7 de 3c
       0.017665787 0.014190109 0.017591458 0.027217528
000150 f0 cb 14 3d 56 89 23 3c a4 ba 82 3c 84 e4 48 bb
       0.036327302 0.009981474 0.015958138 -0.0030653784
000160 ef c6 8e 3c 77 ae 72 3c a2 6f 11 3b 64 d0 2d 3c
       0.017428843 0.0148121035 0.0022191782 0.010608766
000170 9d 72 79 3c 4c ba f9 3b 11 f6 87 3b d0 a2 7a 3c
       0.01522508 0.0076210853 0.0041492064 0.015297607
000180 ca 45 91 3c e0 62 d8 3c 3b 3c d5 3c 8d c3 b3 3b
       0.017733473 0.026414335 0.026029697 0.005485958
000190 2d 34 69 3b f8 f8 c3 3a 96 e6 06 3c eb e9 bf 3b
       0.0035584078 0.0014951518 0.008233687 0.0058567426
0001a0 fe 7f fd 3b 76 b9 39 3c 9d 9d 29 3c 1a 8e e8 3b
       0.007736205 0.011335721 0.010352519 0.007097018
0001b0 4f 4c a0 3c 96 4f 8a 3c 59 7e 3a 3c 9a 85 89 3b
       0.019567637 0.016883653 0.011382663 0.0041968348
0001c0 a5 e6 f9 3a df 49 65 3b 4c 51 fc bb da c1 23 3c
       0.001906593 0.0034986658 -0.007700121 0.009994948
0001d0 d8 4d 5a 3b 3b 6d 62 3c a3 ec 1d 3c 58 60 77 3c
       0.0033310559 0.013819988 0.009638938 0.015098654
0001e0 0c a5 92 3c 67 1b 2f 3c 85 6a 08 3c 49 06 f8 3b
       0.017900966 0.010687686 0.0083261775 0.0075691086
0001f0 27 8a 1e 3c c8 fc bc 3c 6f fd 2a 3c 24 c7 cd 3c
       0.009676493 0.023069754 0.0104364 0.025119372

action_model._continuous_distribution.log_sigma f4 [1, 3]
000000 64 02 45 bd 37 b1 ac bc 87 5f c2 bd
       -0.048097983 -0.021080596 -0.09490877

action_model._continuous_distribution.mu.weight f4 [3, 128]
000000 c7 ce 59 bc 05 48 ba 3c 47 cb e8 bc 8a c5 95 bc
       -0.0132939285 0.02273942 -0.028417243 -0.01828267
000010 48 c4 4a 3c 42 30 9b 3c 1b 2e b7 3b aa 1f 04 bc
       0.012375899 0.01894391 0.005590213 -0.00806419
000020 2c c4 f7 3c 22 09 3e ba 57 ab a6 bc e2 74 8f bd
       0.03024491 -0.00072492857 -0.020345373 -0.070047155
000030 cc 72 bc bc aa 97 ba bc 99 5a 99 bc f1 8b b8 39
       -0.023003958 -0.022777397 -0.018719958 0.0003519948
000040 a1 78 a3 3d cd 15 05 bd d3 21 c3 bd 25 e8 5f bd
       0.079819925 -0.032491494 -0.09527936 -0.05466475
000050 57 fa b9 3c 59 63 29 bd df fc fe 3b 4b dd 5a 3d
       0.02270238 -0.04135451 0.0077816094 0.053433698
000060 73 cd 63 3d 6c 7a 9a 3d 1e 6c f1 3c 1d 85 62 b9
       0.055615854 0.07542881 0.0294705 -0.00021602628
000070 33 44 ad 3d c0 ca b9 bd 73 4c 17 3b 6a 4f 30 3c
       0.084602736 -0.090718746 0.0023086339 0.010761121
000080 23 07 15 bd 14 98 20 bd 02 e4 c4 bc 8f 72 7d bd
       -0.03638376 -0.039207533 -0.024034504 -0.06187683
000090 d6 c7 36 bd d5 08 6b bc ce 2f f8 39 c8 92 ac bb
       -0.044624172 -0.014345367 0.00047337863 -0.005266521
0000a0 81 93 06 3d 5f 3b 2e 3d 98 33 c1 bd 83 0d 04 3d
       0.032855514 0.04253709 -0.09433669 0.03223945
0000b0 7f 23 c2 3a 0c 6c 89 bd a0 61 8c bc 69 ea a4 3d
       0.0014811604 -0.067100614 -0.017136395 0.08052523
0000c0 6d c3 65 3d bf 8c 16 bb 19 09 0c bd 1e 1a 91 3c
       0.056094576 -0.0022972075 -0.034188364 0.017712649
0000d0 c3 5a 1a 3d 40 5b 01 3d a9 02 82 3c c8 10 b3 3d
       0.037684213 0.031581163 0.01587041 0.08743435
0000e0 95 5d 2a 3c ae 73 64 3d b2 a8 7c 3c b9 49 3b bc
       0.010398288 0.055774383 0.0154210795 -0.011431151
0000f0 bb 86 a2 bc 17 31 3c bd a0 d7 ff bc a9 17 78 3c
       -0.019839635 -0.045945253 -0.031230748 0.01514236
000100 9d 80 73 bc 55 7e f3 bc 49 34 52 3d 84 7c 23 3d
       -0.014862207 -0.029723326 0.051319394 0.03991367
000110 e8 4b c5 bc 37 ac 1f bd 09 fd c4 3b 3a c5 a4 bd
       -0.024084046 -0.038982596 0.0060116095 -0.080454305
000120 c9 71 08 bc d4 9c f6 3c 24 38 27 3c 84 fe 8a 3d
       -0.00832791 0.030104078 0.010206256 0.06786826
000130 e8 1d 01 bd eb 23 19 3d 3c bc f5 bc e9 d4 e1 3b
       -0.03152266 0.03738777 -0.029996984 0.006891836
000140 c9 59 7d bd c0 d1 6e bd 91 66 a3 bc d7 25 e2 bd
       -0.061853204 -0.058305502 -0.019946368 -0.110423736
000150 9c dc b7 bd a1 5b 87 3d 30 78 fe 3b 2a ad f4 bc
       -0.08977625 0.06609274 0.0077657923 -0.029867727
000160 3a 41 83 bd 5e 13 86 3d 2a 8a eb ba b6 43 0d 3d
       -0.06408925 0.06546663 -0.0017970253 0.034488402
000170 1a 36 6b bd 74 85 66 bc 68 c5 cf bc 96 8b a0 3d
       -0.057424642 -0.014069904 -0.025362685 0.07839124
000180 84 82 7b bc 96 2b 4b 3d 0c 5d 57 3d e4 2d 34 bd
       -0.015350942 0.049602114 0.05257897 -0.043989077
000190 5c 16 3d 3d 03 75 8b 3c a8 17 54 bd fb 97 7b 3c
       0.0461639 0.017023569 -0.051780373 0.015356059
0001a0 9e 79 1c bd 12 71 d3 3b 01 d6 dd bc 03 71 74 bc
       -0.03820192 0.006452688 -0.027079584 -0.014919522
0001b0 66 98 86 3d b4 e6 81 3b 77 6a 11 3d 19 e7 17 bc
       0.065720364 0.0039642695 0.035501923 -0.009271407
0001c0 19 3a 1e 3d 66 ea 14 3c 30 1e 7d ba bd 5c 83 3d
       0.038629625 0.009089088 -0.00096556824 0.06414173
0001d0 f4 59 05 bc 6d 7f 32 bd a6 81 cf 3c 00 9e 3f bb
       -0.008139122 -0.043578554 0.025330376 -0.0029238462
0001e0 b7 1c 0a 3d 51 60 5b 3d 1e 15 16 bd 73 33 c6 3b
       0.03371879 0.05355865 -0.036641233 0.0060486137
0001f0 0b f8 38 bd f7 07 b1 bd d2 46 e4 bc d9 0d c4 bd
       -0.045158427 -0.08644097 -0.027865801 -0.09572954
000200 2c bf 3e 3d f4 9d 9c bc fb ce 0f 3d a3 68 ab 3b
       0.046569034 -0.019118287 0.0351095 0.0052309795
000210 2a e4 a7 bc 87 9b 1f 3d e2 d9 1d bd 26 62 03 bd
       -0.02049454 0.03896668 -0.038537867 -0.032076024
000220 f2 dc ae bc 82 fc 9a bc 9f 6d 30 39 39 80 ae 3c
       -0.02134559 -0.018919233 0.00016825505 0.021301376
000230 c8 3f c0 bb c9 42 45 3d de bd 58 3d d3 31 50 bc
       -0.0058669783 0.048159394 0.052915446 -0.0127071915
000240 d4 5d 51 bc 9d b6 48 bd 13 14 97 3d b5 2c 42 bd
       -0.012778718 -0.04900228 0.07376876 -0.047405917
000250 96 bc 41 3d 16 45 5a 3d d9 7e 81 bd 32 39 f8 3b
       0.04729899 0.05328854 -0.063230224 0.0075751776
000260 d5 59 c6 3c 95 6e 33 3d e6 ff 7e bc fc b6 3f 3d
       0.024212757 0.04380663 -0.015563941 0.046805367
000270 c3 17 8d bd 5e 37 2b 3c 97 35 06 3d 75 1f 1d 3d
       -0.06889298 0.010450212 0.03276595 0.038360078
000280 59 ca 5f 3c 59 50 26 bd 6d 8e 84 3d ac 6e 6c bd
       0.013659083 -0.04060397 0.06472478 -0.057722732
000290 a1 8a 9a bc c0 ef 00 bd 1e 31 c7 3c c6 03 21 3d
       -0.018864932 -0.031478643 0.024315413 0.03931024
0002a0 99 66 8c 3b 29 e5 59 3d 9d 93 82 bd 3b 64 a1 3d
       0.0042846915 0.05319706 -0.06375811 0.078804456
0002b0 1f b0 1e 3c 0d 12 31 bd 55 c9 e3 3d 8e 01 05 3d
       0.009685545 -0.043230105 0.111223854 0.032472186
0002c0 ba 8e 76 3b fc ba 81 3d 05 4c fd 3c 1b fc a1 3c
       0.0037621693 0.063344926 0.030920038 0.019773534
0002d0 c4 81 9a 3c 46 7d 2b 3d bb 22 53 3d 29 f7 29 3c
       0.018860705 0.041867517 0.051546793 0.010373869
0002e0 ce 92 4b 3c d1 5e db 3c 92 d0 98 3c 09 51 bd ba
       0.012425138 0.02677861 0.018654142 -0.0014443706
0002f0 12 ee f6 3c cb 52 d8 3c 1a ae da 3c 73 c0 55 bd
       0.030142818 0.026406666 0.026694346 -0.052185487
000300 92 db 0b bc 66 11 94 bd fa f4 a9 3d 38 64 11 bd
       -0.008536236 -0.07229881 0.08298679 -0.035495967
000310 62 f8 10 bd 13 f1 0e bd 65 85 e2 3b f7 8b 9c bb
       -0.035393126 -0.034897875 0.0069128745 -0.0047774273
000320 17 3b 29 bd 89 fb 00 bd f4 b3 6f bb f5 2c 40 3c
       -0.041316118 -0.031489883 -0.0036575766 0.011729469
000330 ff 13 26 bd 8a 7e 55 bd 57 a4 e5 3c bd 65 87 3d
       -0.040546414 -0.05212263 0.028032465 0.06611202
000340 1c 87 06 bd 68 4c ee bb fa 9e 27 bd 83 ab 97 bc
       -0.032843694 -0.007272292 -0.040923096 -0.0185144
000350 d5 61 b4 3c 5d 2c 91 bc 2f 9b 7e 3d 39 40 1d 3d
       0.022019306 -0.01772135 0.062159713 0.038391326
000360 53 36 9c 3d 73 59 07 bd 43 ca 00 3d be 1a 81 3c
       0.07627549 -0.03304429 0.03144289 0.015759822
000370 7b 99 f5 bc 2a 34 ec bc c5 b0 9d bc 83 98 af 3c
       -0.029980412 -0.028833468 -0.01924933 0.021435028
000380 b2 64 78 3d f0 23 9b bd 12 3a c3 bc 48 10 3f bc
       0.060642906 -0.07575214 -0.023831401 -0.011661597
000390 b1 40 0e bd a0 77 cf 3c d7 d2 cd 3c d2 20 38 bd
       -0.034729663 0.025325596 0.02512495 -0.044953175
0003a0 d2 c9 7e bc 5b 9a 11 bd 5d ed 8d bd 96 13 aa 3b
       -0.015551047 -0.035547595 -0.06930039 0.005190323
0003b0 7d b1 1b bd e7 e3 16 bd f7 4c 31 bd c5 0e 7d bc
       -0.038011063 -0.03683844 -0.04328629 -0.015445416
0003c0 b3 75 0a 3d f3 e3 89 bc 84 04 6c 3c af 04 4b 3b
       0.033803653 -0.016832327 0.0144053735 0.0030978133
0003d0 b0 a7 c1 bc 7b a0 9a bd ea 5a 08 3d 0b 03 df 3c
       -0.02363953 -0.075501405 0.033289827 0.02722313
0003e0 cf 18 79 bd 10 3c 9c 3c ab a0 e9 3c 92 8c 09 bd
       -0.060814675 0.019071609 0.028518995 -0.033581324
0003f0 64 fc ef bc e1 50 ae bc 4e f5 9f 3a ec c4 37 bd
       -0.029295154 -0.0212788 0.0012203844 -0.044865534

action_model._continuous_distribution.mu.bias f4 [3]
000000 52 92 ab bb 02 39 d1 ba af 05 21 3b
       -0.0052359486 -0.0015962424 0.0024570038

action_model._discrete_distribution.branches.0.weight f4 [5, 128]
000000 c6 fc 3c 3b 54 96 91 bc 97 71 21 bb 10 3c 10 bb
       0.0028837188 -0.017771877 -0.0024634355 -0.0022008456
000010 b8 07 1a 3c 8b 66 94 3b 86 a6 96 3b 5b 92 9c bb
       0.009401254 0.0045288256 0.004597488 -0.004778189
000020 35 8f 33 bb 58 4f 10 bc 81 d3 98 bb 73 53 1c bb
       -0.002739859 -0.0088079795 -0.004663885 -0.002385345
000030 01 31 87 3c e2 6b d1 3c 73 8d 21 bb 4d c2 aa bb
       0.01650286 0.025564138 -0.002465096 -0.0052111507
000040 a3 aa 52 3b 8a fb 17 bc 34 87 72 3b c7 a1 ae bb
       0.0032145164 -0.00927628 0.0037006857 -0.005329344
000050 47 6a 35 bb 9a e7 81 3c d1 82 20 ba bd 5d 87 3c
       -0.0027681754 0.015857507 -0.0006123009 0.01652419
000060 7c 13 e5 3b 24 ec 85 3b a4 a6 e5 3b 64 29 a3 3c
       0.006990848 0.004086988 0.0070083905 0.019917198
000070 0b 5f c1 3c d2 ab 49 3c 37 6c b8 3a f9 30 f9 3b
       0.02360489 0.012309032 0.0014070336 0.007604715
000080 97 20 f6 bb a2 39 32 bc 22 fd 98 3c f0 e6 72 3c
       -0.007511209 -0.010877999 0.01867539 0.014825568
000090 7d 6f 65 bc c6 8d 20 bc 3f 4b 15 bc cc 75 3c 3b
       -0.014003632 -0.009799426 -0.009112178 0.0028756736
0000a0 c7 80 26 3b e9 7d 8e 3c 0a 1f d2 3b 28 5d 36 3c
       0.0025406347 0.017394023 0.0064123916 0.011130609
0000b0 db 76 f1 ba 2e 80 61 bc 1d 39 41 3c ff 3e 8b 3c
       -0.0018422263 -0.013763471 0.011793402 0.016997812
0000c0 14 39 88 bc 2a 59 80 3c 18 c7 03 3c 1f 8d 73 bb
       -0.01662878 0.015667517 0.008043073 -0.0037162972
0000d0 ca 62 f8 b8 05 fc 0f bb ac 4b 2b 3c 50 52 09 3c
       -0.000118439624 -0.0021970284 0.010455053 0.008381441
0000e0 43 40 d1 bc a8 db bd bb e6 01 e2 bb 10 e2 48 bc
       -0.025543338 -0.0057940073 -0.006897199 -0.012260929
0000f0 21 1e 84 3c 2f a0 36 bc 77 ab 45 3b 4a 63 8f 39
       0.016127648 -0.011146589 0.0030162015 0.00027349062
000100 de 83 05 bd 5c 25 31 bc c3 99 3d 3c 9a 00 84 3c
       -0.03259646 -0.01081213 0.011572304 0.016113568
000110 2f 90 06 bc db 09 7a bb c5 32 84 3c a4 2b 84 bc
       -0.008213087 -0.0038152847 0.01613749 -0.01613409
000120 92 bc 29 bc 0e d1 cc bc e3 12 96 bc 73 bb 0a 3c
       -0.0103599 -0.025002029 -0.018319553 0.008467543
000130 8b 25 a1 bc 33 8a 85 3b 62 13 05 3c a2 c4 8d 3c
       -0.019671222 0.0040753125 0.008122297 0.017305676
000140 c6 7f 71 3b dd 60 4d bc 68 aa 93 3c a1 3f 73 3c
       0.003684984 -0.012535301 0.018025592 0.014846713
000150 e2 6d 9c 3c 2f e5 93 3b 8f 6d de 3c 9e 2a 43 bb
       0.019095365 0.004513405 0.027151851 -0.002978004
000160 f7 da 6d 3c 0e 9c 23 3c cc 4d c3 3c cf 65 5f b7
       0.014517537 0.009985937 0.023840807 -1.331554e-05
000170 64 ee 3b bc eb a8 94 3a 95 cd ef bc f0 71 cf 3c
       -0.011470411 0.0011341845 -0.029272834 0.025322884
000180 2e 14 35 3d b6 5b cb 3c 1b 71 e0 3b a1 a0 07 3c
       0.044208698 0.024824005 0.0068494207 0.008278043
000190 35 ef e1 bb 59 56 59 bb eb f2 7b 3c 68 c7 8c 3c
       -0.006894971 -0.003316304 0.01537774 0.017184928
0001a0 8e f3 1b bb db 67 28 3b be b8 4d bb 6f 69 69 bb
       -0.0023796293 0.0025696668 -0.0031390633 -0.0035615822
0001b0 8a e1 7c 3c 2e 9f d7 3c e6 dd 47 bc 4c ab a9 bb
       0.015434632 0.02632102 -0.012198901 -0.005177891
0001c0 f6 14 2b bb 5d 70 63 bc 45 85 3b bc a4 1f 97 bc
       -0.0026105023 -0.01388177 -0.011445348 -0.018447705
0001d0 69 bf d4 3c bb 0e 63 bb 82 f0 e1 3c e2 f1 bb 3a
       0.025970178 -0.0034646231 0.027580503 0.0014339054
0001e0 23 3b 1a 3d 86 e4 5b 3c 6f 38 29 bb 03 cc 0b 3a
       0.037654053 0.013421183 -0.002582099 0.00053328293
0001f0 fd f3 65 bb 00 24 aa 3b d5 75 a6 3b a9 24 93 3b
       -0.0035088055 0.00519228 0.0050799646 0.004490454
000200 1c 6f 09 3c 14 9c 41 bc 29 4e 0c bc f3 96 35 bc
       0.008388307 -0.011816997 -0.008563557 -0.011083352
000210 7c f0 25 bc c7 1a 3e 3c 8e 3f c1 3b 49 ea f8 bc
       -0.010128137 0.011603064 0.005897469 -0.030385153
000220 7a 5a fc 39 f7 d6 f4 bb ea 65 bb ba d1 eb 29 bc
       0.00048132596 -0.007471915 -0.001429734 -0.010371164
000230 a2 52 15 3b e7 10 bc bb 4c 20 45 bb 8a 44 ad 3c
       0.0022784849 -0.0057393196 -0.0030079065 0.021150846
000240 09 7c ea bb 0a ee c0 bb 58 eb 9d 3c fc 0c da bb
       -0.0071558994 -0.0058877515 0.01927726 -0.00665438
000250 0f 05 99 bb 0c f0 76 3b c2 b2 8f bb 5d 03 17 bb
       -0.0046697925 0.00376797 -0.0043853233 -0.0023042776
000260 7d 0e 59 3c 4b 48 29 bb a1 07 0e bb 23 ad 18 3b
       0.013248083 -0.0025830443 -0.0021672028 0.0023296557
000270 e6 0a 99 bb 8d e8 46 bc 59 a5 42 3c 67 32 b4 bb
       -0.0046704886 -0.012140405 0.011880242 -0.0054991725
000280 df f0 53 3c 80 65 12 3c 06 8e 6a bc 2e a7 7a bb
       0.012935846 0.008935332 -0.014316088 -0.003824662
000290 96 1d dd 3b 7e 3f 2d 3c 97 d9 2e bb 17 51 90 3c
       0.0067479117 0.01057422 -0.0026679987 0.017616792
0002a0 0c b1 f3 3b b3 3a 76 bc 54 37 7d bb 71 c3 e6 bc
       0.007436877 -0.015028643 -0.0038637714 -0.028169366
0002b0 f5 f4 60 3c d3 4a a9 ba 0f 90 7f bc a6 3c c2 ba
       0.013730277 -0.0012915976 -0.015598311 -0.00148191
0002c0 7c 36 b4 3a 2d a1 06 bc 63 73 30 3a 14 a9 89 ba
       0.0013749148 -0.008217138 0.0006731061 -0.001050266
0002d0 1b e2 cd 3b fc f1 1a bc 54 00 be bc dc f1 9c bc
       0.0062830574 -0.009457108 -0.023193516 -0.019158296
0002e0 18 d4 e1 3b 57 31 4c bc f5 73 2e 3c 42 50 00 bb
       0.0068917386 -0.012462935 0.0106477635 -0.0019579087
0002f0 e6 52 46 bc 9a cb dc bb 0f aa e1 bb 99 b0 13 bb
       -0.012104725 -0.0067381384 -0.0068867276 -0.002253568
000300 28 5f fc 3b ac 2b 10 3c 21 0e e5 bb 4b 2b c7 bc
       0.007701773 0.008799475 -0.0069902097 -0.024312636
000310 22 b4 eb 39 92 00 3e bc 38 38 14 bb 63 25 e0 bb
       0.00044956902 -0.011596816 -0.0022616517 -0.0068403943
000320 3e c9 21 3c bf 90 92 3c 3b e2 d1 bb 6f 08 f3 3b
       0.00987464 0.017891286 -0.0064051426 0.007416777
000330 65 5f 52 3c e4 6e f7 3b 86 ee fc b9 80 be 95 3c
       0.012840127 0.007551061 -0.000482429 0.018279314
000340 88 d3 8b 3b c3 78 26 3c 87 78 6b 3b 88 46 d9 bb
       0.00426716 0.010160628 0.0035929994 -0.0066307224
000350 61 ac d4 bb 16 32 4b bc 4f 83 d6 3b 70 7c 04 3b
       -0.0064902757 -0.012402078 0.006546415 0.0020215772
000360 ff 28 d8 bb 3a 83 50 3a eb 09 ad 3c db f6 55 bc
       -0.006596684 0.00079541246 0.021122893 -0.013059343
000370 75 e6 3a 3c a5 87 df 3b 64 1a f3 bb 2a 77 4c bc
       0.011407484 0.00682159 -0.0074189175 -0.012479583
000380 39 87 a4 3b 6e b8 11 3c f4 56 26 bc b4 dc fa b8
       0.0050210026 0.008894069 -0.010152567 -0.00011962038
000390 b8 42 ba 3b 39 19 dc bb 8f dc be 3b 79 42 57 bc
       0.005684223 -0.006716874 0.0058246325 -0.013138407
0003a0 e3 7b 88 3c 39 32 8d 3c 31 bc cd bb 55 fe 53 3c
       0.016660636 0.017235862 -0.0062785377 0.012939055
0003b0 02 56 55 bc 2f ae be bb cd 3b f1 3b d6 45 ba 3c
       -0.013020994 -0.005819104 0.007361865 0.022738378
0003c0 72 80 1e bc 1f a5 9e 3a 15 23 94 3b ab 0f 9c bb
       -0.009674178 0.0012103653 0.0045207837 -0.00476261
0003d0 fc 7c a8 3c c5 41 82 bc 09 13 99 bc b2 a5 94 3b
       0.02056741 -0.015900502 -0.018685834 0.004536354
0003e0 de 97 0f bc ff 74 54 bb 15 24 0e bd f0 fd ea 3b
       -0.008764235 -0.0032418368 -0.03470238 0.007171385
0003f0 56 1b 68 bc 03 41 1a bc 37 ca a7 ba 60 4e 00 3b
       -0.014166674 -0.009414914 -0.0012801354 0.0019577965

action_model._discrete_distribution.branches.0.bias f4 [5]
000000 92 b7 e5 39 fc 31 0b bb c3 e4 4a bc 1c b7 98 3a
       0.00043815054 -0.002123951 -0.012383643 0.001165125
000010 fb e6 59 3c
       0.013299699
