Assets/Brain/Tests/NewBain.onnx (onnx, 136172 bytes, 9 tensors)

network_body._body_endoder.seq_layers.0.weight f4 [128, 114]
0	0x3d0887f7	0.03333279
1	0x3d3f65b0	0.046727836
2	0x3aa5b21f	0.0012641585
3	0x3e10c83c	0.14138883
4	0xbe80f0d7	-0.25183746
5	0x3d572e8c	0.052534625
6	0xbd96b00f	-0.07357799
7	0xbcf45ad2	-0.029828463
8	0xbd928184	-0.071536094
9	0x3dc4b8c6	0.09605555
10	0xbd0be653	-0.0341552
11	0x3b1bb702	0.0023760204
12	0x3cca922b	0.024727901
13	0xbdbfec0a	-0.09371193
14	0x3cbd0cac	0.023077331
15	0xbbb589c8	-0.0055401064
16	0xbdc40d15	-0.09572808
17	0xbd37a9a4	-0.044839516
18	0x3d9a68c2	0.07539512
19	0x3bb3fd80	0.005492866
20	0xbdc75a07	-0.09733968
21	0x3d7c44c1	0.061589006
22	0x3d222eb8	0.039595336
23	0x3c9a5de4	0.018843599
24	0xbce2ec3c	-0.027700536
25	0x3ce7cdae	0.028296318
26	0x3d8835f9	0.066509195
27	0xbde5462a	-0.11195023
28	0xbd42a280	-0.047518253
29	0x3d1704e8	0.036869913
30	0xbd851803	-0.064987205
31	0xbda3247e	-0.07965945
32	0x3de14970	0.11000335
33	0xbc0cd2cb	-0.008595179
34	0x3b1592d2	0.0022823107
35	0xbd987378	-0.07443899
36	0x3d44f503	0.048085224
37	0xbccee3a6	-0.025255036
38	0xbd1e35fc	-0.038625702
39	0x3d83a7cb	0.06428488
40	0x3d94d5fb	0.07267376
41	0x3db9208d	0.09039412
42	0xbdc8577d	-0.09782312
43	0x3ce3e55d	0.02781933
44	0xbcde6ca1	-0.027151408
45	0x3e8c0217	0.27345344
46	0xbd31a6f0	-0.043372095
47	0x3d067efa	0.032835938
48	0xbcfab319	-0.030602979
49	0xbd78b8b5	-0.060723025
50	0xbd4b7d2e	-0.049679928
51	0xbd1aed66	-0.037824057
52	0x3dd390f3	0.10330381
53	0x3de36331	0.11102904
54	0x3da54a7c	0.080708474
55	0xbdd6bac2	-0.1048484
56	0xbd5c7f91	-0.053832594
57	0xbd2cbaf8	-0.042170495
58	0x3c63378c	0.013868224
59	0x3b9f2242	0.004856379
60	0xbd599762	-0.053122886
61	0xbd058c96	-0.032604776
62	0xbc46a45f	-0.01212415
63	0xbdddbc66	-0.1082695
64	0x3d352189	0.044221435
65	0xbd742597	-0.05960616
66	0xbd66d289	-0.056353126
67	0x3c8254a7	0.015909506
68	0xbe5d886b	-0.2163407
69	0x3da47b1c	0.08031294
70	0xbc929d6f	-0.017897336
71	0xbbb64449	-0.0055623394
72	0x3db59e4d	0.08868084
73	0xbcee76d7	-0.029109402
74	0x3dcc272a	0.099684075
75	0x3e1560ff	0.14587782
76	0x3da64f3b	0.08120581
77	0x3e0b8aae	0.13627121
78	0xbbeeaf34	-0.0072840694
79	0x3e0ad3f6	0.13557419
80	0x3e1decd6	0.15422377
81	0xbe09945c	-0.13435501
82	0xbdddac47	-0.10823875
83	0x3d2c321d	0.04203998
84	0xbe19e31c	-0.15028042
85	0xbd2611e4	-0.040544406
86	0x3e51bef3	0.20482998
87	0xbe5207cd	-0.20510788
88	0x3d98eb35	0.07466737
89	0xbdf9f3f2	-0.12204732
90	0x3d26666f	0.040625032
91	0x3b69e05c	0.0035686707
92	0xbbdd6e01	-0.0067574983
93	0x3d83fff0	0.064453006
94	0xbc3f54d9	-0.011677944
95	0x3d01b7e3	0.03166951
96	0xbdaf7a11	-0.08568204
97	0xbc8248f4	-0.015903927
98	0x3cf44376	0.029817324
99	0xbd2f06ee	-0.042731218
100	0x3de1c149	0.11023194
101	0x3cf67f35	0.030089954
102	0xbdd60355	-0.10449854
103	0xbde9c354	-0.11414209
104	0xbce26202	-0.027634624
105	0xbe055a4b	-0.13022725
106	0xbc3c533b	-0.011494453
107	0xbe39446a	-0.18092504
108	0x3debc648	0.115124285
109	0x3de1f23d	0.110325314
110	0xbe051576	-0.12996468
111	0xbe3ac22a	-0.1823813
112	0xbdd947f2	-0.106094256
113	0xbd568bd1	-0.052379433
114	0xbd1a5f23	-0.037688386
115	0xbcdb919d	-0.026802832
116	0xbaf8a444	-0.0018969853
117	0x3e11fbc1	0.14256193
118	0xbcefb6da	-0.029261995
119	0x3d9097d1	0.07060207
120	0x3df51964	0.119677335
121	0xbc84e971	-0.016224595
122	0xbd2e34b9	-0.04253075
123	0xbd909cac	-0.07061133
124	0x3d3de420	0.046360135
125	0x3d35d988	0.044396907
126	0xbd9a5afb	-0.075368844
127	0xbd9788c5	-0.073991336
128	0x3d3be67b	0.0458741
129	0xbd257985	-0.040399093
130	0x3ceb5c2f	0.02873048
131	0xbe174ef6	-0.14776215
132	0x3d5def8d	0.05418353
133	0x3bf394a0	0.007433489
134	0xbe262dce	-0.1622841
135	0xbca04075	-0.019561986
136	0xbda1548e	-0.07877456
137	0x3d9e1437	0.077186994
138	0x3e2f0bf4	0.17094404
139	0x3d8ff650	0.07029402
140	0x3d666d6b	0.056256693
141	0x3e41e5ad	0.1893527
142	0xbbaf788e	-0.0053549474
143	0x3d257841	0.040397886
144	0xbd17f27f	-0.037096497
145	0xbd8b8b6f	-0.06813704
146	0xbe0b9656	-0.13631567
147	0xbd5bcb43	-0.053660642
148	0x3d32cac6	0.04365041
149	0x3bf6dc73	0.007533604
150	0x3ced40db	0.02896159
151	0x3d033618	0.03203401
152	0xbd85984d	-0.0652319
153	0xbde689e1	-0.11256767
154	0x3baed4cb	0.0053354255
155	0x3e3e9353	0.18610887
156	0x3d8e181f	0.069381945
157	0xbcae6194	-0.021286763
158	0x3d621b45	0.055201788
159	0x3dddddae	0.10833298
160	0xbd4ca798	-0.049964517
161	0x3c2b931b	0.010472084
162	0xbd8c8895	-0.068619885
163	0x3d326ac4	0.04355885
164	0x3bab7225	0.005232113
165	0x3d45d5b9	0.048299525
166	0x3ce8b858	0.028408214
167	0x3d089bde	0.03335177
168	0x3d9c5131	0.076326735
169	0xbdd64984	-0.10463241
170	0x3d8e0910	0.06935322
171	0xbcc06315	-0.023484746
172	0x3e0080d9	0.12549151
173	0x3db25b93	0.08708873
174	0x3bdb262e	0.006687901
175	0xbd0c2d84	-0.034223095
176	0x3d9a48df	0.0753343
177	0xbd8805c2	-0.06641723
178	0x3d52a338	0.05142519
179	0x3d457151	0.04820377
180	0x3cbf2cb5	0.023336748
181	0x3d9138e8	0.07090932
182	0x3e0077f0	0.12545753
183	0x3e09481a	0.13406411
184	0xbc0611a9	-0.008182921
185	0x391db7b1	0.00015041117
186	0x3e296c35	0.16545184
187	0xbbcc0f70	-0.006227426
188	0xbd8bad90	-0.06820214
189	0x3dc5dc47	0.09661155
190	0x3de94e98	0.11391944
191	0xbca9be7b	-0.020720711
192	0x3ce4e96a	0.027943332
193	0xbe072511	-0.13197733
194	0xbdd03df2	-0.10168065
195	0x3a39fe53	0.0007095087
196	0xbe0fc9d1	-0.1404183
197	0xbd275708	-0.040854484
198	0x3daf97b6	0.085738584
199	0x3da92158	0.08258313
200	0x3cfd9c66	0.030958366
201	0xbd885220	-0.06656289
202	0xbb5d5276	-0.0033771074
203	0xbc7b8e2b	-0.01535372
204	0xbe5e219e	-0.21692511
205	0x3dabcb7d	0.08388422
206	0x39c051f3	0.0003668215
207	0x3a37e5a6	0.0007015116
208	0xbd37a5f4	-0.044836
209	0x3dca7af5	0.098867334
210	0x3d5fa9f7	0.05460545
211	0xbbdfcc39	-0.006829765
212	0xbdd298fd	-0.102830864
213	0xbc54b4ce	-0.01298256
214	0x3d461362	0.04835833
215	0x3cd5e9bf	0.026112435
216	0x3dfee852	0.12446655
217	0x3dcb5467	0.09928208
218	0x3d334ce2	0.043774493
219	0x3d32847e	0.043583386
220	0xbd49e1df	-0.049287673
221	0xbd23e8f8	-0.0400171
222	0xbd3f1994	-0.046655253
223	0x3e428508	0.1899606
224	0x3db9f767	0.090803914
225	0x3d8dfa9e	0.06932567
226	0xbe143543	-0.14473443
227	0xbb854767	-0.0040673497
228	0x3cd4e021	0.02598578
229	0xbde2a1a7	-0.11065989
230	0xbd3a420b	-0.04547314
231	0xbcbbd453	-0.022928393
232	0x3d55dabe	0.052210562
233	0xbdac4be3	-0.08412912
234	0x3e0c7511	0.13716532
235	0x3dcc80a0	0.09985471
236	0xbe28a347	-0.16468535
237	0xbde3710f	-0.111055486
238	0xbd07732e	-0.03306883
239	0x3d70c17a	0.058778264
240	0xbd499eb2	-0.04922361
241	0x3da72744	0.08161786
242	0x3d85c494	0.06531635
243	0xbd4bc88a	-0.049751796
244	0xbd935c3a	-0.07195325
245	0x3b92e67f	0.0044830437
246	0x3df145ab	0.11780866
247	0xbd9b5992	-0.075854436
248	0xbdd09f0e	-0.10186587
249	0x3d8620cd	0.06549225
250	0x3cfe9921	0.031078877
251	0xbd106cb5	-0.03525992
252	0x3b103d25	0.0022009101
253	0xbe2c68aa	-0.16836801
254	0x3d4b6a2e	0.049661808
255	0xbe2dcaf3	-0.1697195

network_body._body_endoder.seq_layers.0.bias f4 [128]
0	0x3c59b155	0.013286908
1	0x3beed350	0.007288374
2	0xba5fcd65	-0.0008537381
3	0x3c80ec9b	0.015737822
4	0x3b75c0ec	0.0037499024
5	0xbbcd5906	-0.006266716
6	0x3c6c9b73	0.014441359
7	0x3ba1ef6b	0.004941871
8	0x3bd76e6e	0.0065744435
9	0x3ca8b1c2	0.020592574
10	0x3c344e73	0.011005032
11	0x3bd6954c	0.0065485593
12	0xbb833802	-0.0040044794
13	0x3b2573a6	0.0025245934
14	0xbb104750	-0.0022015162
15	0xbaa440f8	-0.0012531569
16	0x3c0ba0df	0.008522241
17	0x3c9c9379	0.01911329
18	0x3c4bbcc5	0.012435143
19	0x3c732112	0.014839428
20	0x3ca5abfc	0.02022361
21	0x3bc6babd	0.0060647414
22	0x3c4fe5ae	0.012689037
23	0x3be055dc	0.0068461727
24	0x3c134be4	0.008990262
25	0x3b58c174	0.0033074291
26	0x3b400816	0.0029301695
27	0x3bb2db63	0.005458282
28	0x3b9fd23b	0.0048773563
29	0xba515824	-0.0007985851
30	0x3caf7c07	0.021421446
31	0xbb490293	-0.00306717
32	0x3c94d295	0.01816682
33	0x3bc2e8cf	0.005948163
34	0x3caa00b7	0.020752294
35	0x3bf6c5f3	0.0075309216
36	0x3d041e1f	0.03225529
37	0x3b750eb8	0.0037392806
38	0x3c6bb842	0.014387192
39	0x3c8a004d	0.016845847
40	0x3c5cd362	0.013478132
41	0x3c3741f3	0.011185157
42	0x3bf8efdf	0.0075969542
43	0xbc169c31	-0.009192512
44	0x3cae2923	0.02125985
45	0xbbccdc85	-0.006251874
46	0x3c7ea338	0.015541844
47	0x3c4e4f63	0.012592169
48	0x3c8dbf7e	0.017303225
49	0x3c33bb0d	0.010969889
50	0x3c2471c9	0.010036894
51	0x3b6e023c	0.003631725
52	0x3ca0bebf	0.019622205
53	0x3ca5c267	0.0202343
54	0x3c399ba1	0.011328609
55	0x3b673d89	0.003528448
56	0xbc080ffa	-0.00830459
57	0x3b93f719	0.0045155403
58	0x3c406c36	0.0117445495
59	0x3c6fe2da	0.014641488
60	0x3c322bee	0.0108747315
61	0x3bf1dcf2	0.007381075
62	0x3c76216c	0.015022617
63	0x3b3b1263	0.0028544895
64	0x3b9b35f2	0.0047366554
65	0x3bc6918e	0.006059832
66	0x3cb0538b	0.021524211
67	0x3c30a8aa	0.0107824
68	0xbc04c773	-0.008104193
69	0x3bcf253c	0.0063215774
70	0x3c75976f	0.014989718
71	0xbb8b22e9	-0.004246105
72	0x3c609c06	0.013709074
73	0xbc1bc63e	-0.009507714
74	0x3c21279d	0.009836105
75	0x3b279c14	0.0025575208
76	0xbbe370cc	-0.0069409367
77	0xbc682a13	-0.0141701875
78	0x3c2c248c	0.01050676
79	0x3b85a660	0.0040786713
80	0x3c624b48	0.013811894
81	0x3c1b1d16	0.009467384
82	0x3b799b82	0.0038087075
83	0x3c15d1c8	0.009144254
84	0x3ca7f27d	0.02050137
85	0x3ca37f25	0.019958088
86	0x3c19eb17	0.009394429
87	0x3cbf3da5	0.023344824
88	0x3c659fe0	0.014015168
89	0x3bcfc9db	0.0063412017
90	0x3bf1d305	0.007379892
91	0x3b22fd72	0.0024870303
92	0x3cb35937	0.021893127
93	0x3c036297	0.008019111
94	0xbb7faf1e	-0.003901429
95	0x3bafe965	0.005368399
96	0x39f59a15	0.00046844842
97	0x3cb03036	0.021507364
98	0x3c4ff1bf	0.012691914
99	0x3cc7a103	0.024368769
100	0xbb957f7a	-0.0045623155
101	0x3c905203	0.017617231
102	0x3c9299f7	0.017895682
103	0xbc2ba669	-0.010476687
104	0x3c42ba70	0.0118852705
105	0xbba65913	-0.0050765364
106	0x3c35b45e	0.011090366
107	0xbc20622b	-0.00978903
108	0x3c97488e	0.018467214
109	0x3c1aacd8	0.009440623
110	0x3c90b1a6	0.017662834
111	0x3c31cf4e	0.010852648
112	0xb9d94734	-0.00041442516
113	0x3cd1ee24	0.02562625
114	0x3c0375ff	0.008023738
115	0xbc185054	-0.0092964955
116	0x3be3beb9	0.006950226
117	0xbb26348d	-0.0025360913
118	0x3c231bc1	0.0099553475
119	0x3cc294a6	0.023752522
120	0x3b640578	0.0034793299
121	0x3b82e49e	0.0039945384
122	0xbb710b6c	-0.003678049
123	0x3c0cecb6	0.008601358
124	0x3be57b2d	0.007003209
125	0x3b6fe826	0.0036606877
126	0x39b1e713	0.00033932235
127	0x3c1a39be	0.009413181

network_body._body_endoder.seq_layers.2.weight f4 [128, 128]
0	0xbdb254e6	-0.08707599
1	0x3e00a307	0.1256219
2	0x3c96e178	0.018418059
3	0x3c99ac01	0.018758776
4	0x3e050854	0.12991458
5	0xbc63abf6	-0.013895979
6	0xbe1bbef0	-0.15209556
7	0x3d2044d5	0.039128143
8	0x3caa2c25	0.020773003
9	0xb9bd8844	-0.00036150415
10	0x3e9c288e	0.3049969
11	0x3c9b33a9	0.018945532
12	0x3d76753d	0.0601704
13	0x3e15cb24	0.14628273
14	0x3c875597	0.016520305
15	0x3d4c8ea8	0.049940735
16	0x3dba2105	0.09088329
17	0xbd92e052	-0.07171692
18	0xbd9f50a0	-0.0777905
19	0xbe71b9ba	-0.23606005
20	0xbce4453d	-0.027865047
21	0x3aa5d261	0.0012651199
22	0xbdb922d7	-0.09039848
23	0x3da92b8e	0.082602605
24	0x3d81799d	0.06322024
25	0xbe22713a	-0.15863505
26	0xba953621	-0.001138393
27	0x3d7c5704	0.061606422
28	0x3cbb9db4	0.022902347
29	0xbc4feb03	-0.0126903085
30	0x3c4d4bf8	0.012530319
31	0xbcfed334	-0.031106569
32	0xbd962ebe	-0.07333134
33	0xbd98c408	-0.07459265
34	0x3d3101fa	0.043214776
35	0xbd313e24	-0.043272153
36	0x3e20d9e8	0.15708125
37	0x3dbd68ca	0.092485026
38	0x3d0e68c5	0.034767885
39	0xbd495b4f	-0.049159344
40	0x3b56ead1	0.003279377
41	0x3e0d963c	0.13826841
42	0x3df4fe6d	0.1196259
43	0x3cebe1b7	0.028794153
44	0x3d427b2c	0.047480747
45	0x3d9280ee	0.07153498
46	0xbd990c24	-0.07473019
47	0x3e1be30e	0.15223333
48	0x3e2171fa	0.15766135
49	0xbe1add5f	-0.15123509
50	0xbcef0623	-0.02917773
51	0x3d80c9de	0.06288503
52	0xbd7a63bc	-0.06113027
53	0xbd4c3f40	-0.049865007
54	0xbce85698	-0.028361604
55	0xbc1a217a	-0.0094073955
56	0xbc6c3b32	-0.01441841
57	0xbd9b461c	-0.07581732
58	0x3ce8fe5b	0.028441599
59	0x3e1bab22	0.15202
60	0xbe6ba8ab	-0.2301356
61	0xbcb780dd	-0.022400314
62	0x3e04c495	0.12965615
63	0xbd958fad	-0.073027946
64	0x3cce1485	0.025156269
65	0xbd6d8250	-0.057985604
66	0xbcbec836	-0.023288827
67	0x3c779a10	0.015112415
68	0xbd4bf0bf	-0.04979014
69	0x3dd99e8e	0.10625945
70	0xbc1c86e8	-0.0095536485
71	0x3d7c9a3e	0.061670534
72	0x3cf7336c	0.030175887
73	0xbd5ff6d5	-0.054678757
74	0xbd91c30c	-0.0711728
75	0x3d882dd4	0.06649366
76	0x3d3d381e	0.046196096
77	0x3db884ad	0.09009681
78	0x3dc67d30	0.09691846
79	0x3d99ecd5	0.07515875
80	0xbdcade97	-0.09905737
81	0xbde98e93	-0.11404147
82	0xbd061b97	-0.032741155
83	0x3d1fe15b	0.039033275
84	0x3e8a4d1f	0.27011964
85	0x3c206290	0.009789124
86	0xbce0eed1	-0.027457627
87	0x3e1124b0	0.14174151
88	0x3cedc534	0.029024698
89	0x3e50b645	0.2038203
90	0xbe86e19d	-0.26344004
91	0xbdb5d804	-0.08879092
92	0x3dcc522d	0.09976611
93	0xbe1c9370	-0.15290618
94	0xbe11261a	-0.14174691
95	0x3e40513b	0.18780987
96	0xbd3bee92	-0.045881815
97	0x3c1c055f	0.009522765
98	0xbd73de59	-0.05953822
99	0x3cd4bcef	0.025968997
100	0x3d857a62	0.06517483
101	0x3dd05a0d	0.10173426
102	0x3e6ff649	0.23433794
103	0x3d67c97e	0.056588642
104	0x3d7aa3db	0.06119142
105	0xbdbb47a2	-0.09144522
106	0xbc414b00	-0.011797667
107	0xbe1d5db2	-0.15367773
108	0x3c857749	0.016292231
109	0xbae8af4b	-0.0017752437
110	0xbda13113	-0.07870688
111	0xbdbace4d	-0.0912138
112	0x3d14c4dd	0.036320556
113	0x3d458f3e	0.04823231
114	0xbd57afb1	-0.052657787
115	0x3c3b1675	0.011418928
116	0xbd2b07b4	-0.041755393
117	0xba82e633	-0.0009986818
118	0xbdbff47a	-0.09372802
119	0xbd9b31f8	-0.0757789
120	0x3a00bdca	0.0004911093
121	0xbd47fc9d	-0.048824895
122	0x3dae8884	0.08522132
123	0x3d3c667f	0.045996185
124	0x3d7facec	0.06242077
125	0xbbe05f8f	-0.006847329
126	0x3d933192	0.07187189
127	0x3d065478	0.0327954
128	0x3e0a678a	0.1351606
129	0x3d1090d1	0.035294358
130	0xbd2fefb7	-0.04295322
131	0xbd1e500b	-0.038650554
132	0xbd81875d	-0.063246466
133	0xbda82d74	-0.082117945
134	0x3cdfb7db	0.027309349
135	0xbd9ec511	-0.07752431
136	0xbe57638f	-0.21034072
137	0x3de18ebb	0.11013552
138	0x3e394abd	0.18094917
139	0x3bc8bef9	0.0061262813
140	0x3e0f11f5	0.13971694
141	0x3cdc96b8	0.026927337
142	0x3cbf725d	0.023369962
143	0xbd69f624	-0.057119504
144	0x3dea7678	0.11448377
145	0x3dc9d921	0.09855867
146	0xbd0ac967	-0.03388348
147	0x3ca5ec8a	0.020254392
148	0x3e0db6d5	0.13839276
149	0xbe37f8e0	-0.17966032
150	0xbba0b246	-0.0049040643
151	0x3dc26c11	0.09493268
152	0xbd599f1b	-0.05313025
153	0x3e686185	0.22693451
154	0x3d860832	0.06544532
155	0x3e108ecf	0.14116977
156	0xbd317ee7	-0.043333914
157	0x3db1094e	0.08644353
158	0x3d09377a	0.033500172
159	0xbc103118	-0.008800767
160	0x3dd344bc	0.103158444
161	0x3e302cd5	0.17204602
162	0x3c8df5f0	0.017329186
163	0xbbcbdc51	-0.006221332
164	0xbd2f5d86	-0.0428138
165	0x3e042477	0.12904535
166	0xbd073d60	-0.033017516
167	0xbdf7cdb6	-0.12099783
168	0xbc87739a	-0.016534615
169	0xbdb449a9	-0.08803112
170	0x3ea25f8b	0.31713519
171	0xbdad3c23	-0.08458736
172	0xbd778b0d	-0.060435344
173	0xbcbda91d	-0.023151929
174	0xbe662f46	-0.22478971
175	0xbd229ab3	-0.039698314
176	0xbd8ab994	-0.067736775
177	0x3c57496c	0.013140064
178	0x3db84790	0.089980245
179	0x3d82f6a8	0.06394702
180	0xbd21ba32	-0.03948421
181	0x3e101b9e	0.14073035
182	0x3d894a1c	0.06703588
183	0xbd3e6f56	-0.046492897
184	0xbad7a66d	-0.0016452797
185	0xbdfba44e	-0.12287198
186	0xbc516e00	-0.012782574
187	0xbe64718a	-0.22308937
188	0x3d9caa16	0.07649629
189	0xbe17b622	-0.14815572
190	0xbdd17b7b	-0.1022863
191	0xbd87142b	-0.065956436
192	0xbdf344cd	-0.11878357
193	0x3e39521d	0.1809773
194	0xbe002ba6	-0.1251665
195	0xbcc72bae	-0.02431282
196	0xbdd7bdf0	-0.105342746
197	0x3c958b60	0.018254936
198	0xbdaada40	-0.08342409
199	0x3d0800f6	0.03320404
200	0xbdc71f0f	-0.09722721
201	0xbb0bf6c2	-0.0021356796
202	0xbc518ff8	-0.0127906725
203	0xbc7411df	-0.014896839
204	0x3d29edb1	0.041486446
205	0x3d60d976	0.054894887
206	0xbd7ace56	-0.061231934
207	0x3db73a90	0.08946717
208	0xbcfa7458	-0.030573055
209	0xbda722f6	-0.08160965
210	0x3d90050b	0.07032212
211	0xbdcc309f	-0.09970211
212	0x3cceafb4	0.025230266
213	0xbb33c635	-0.0027431373
214	0xbd9fb5f3	-0.07798376
215	0x3d158a77	0.036509003
216	0xbe3ddc63	-0.18541102
217	0x3d364d7b	0.044507485
218	0x3d4eebca	0.050517835
219	0x3c8e6a80	0.017384768
220	0xbe453e71	-0.19262101
221	0x3d5a95d1	0.053365532
222	0x3d84d9de	0.06486867
223	0xbc46dd67	-0.012137747
224	0x3d85153e	0.06498192
225	0xbe18fe1b	-0.14940684
226	0xbc076237	-0.008263162
227	0xbc42a756	-0.011880716
228	0x3de3591d	0.111009814
229	0x3da0114e	0.078158006
230	0x3d60a101	0.054841045
231	0xbdd07454	-0.10178438
232	0xbe0ef5fb	-0.13961022
233	0xbca1bd04	-0.01974345
234	0xbd2bb0c3	-0.04191662
235	0x3d8e0d4b	0.06936129
236	0x3dff60ad	0.12469611
237	0xbd029155	-0.03187688
238	0xbe26e43b	-0.16298
239	0xbe321396	-0.17390284
240	0x3d2a21a2	0.04153598
241	0xbdee8258	-0.11645955
242	0x3da92e15	0.082607426
243	0x3b5b6e08	0.0033482332
244	0x3d521955	0.05129369
245	0xbe411a4d	-0.18857689
246	0x3d712d3e	0.058881037
247	0x3e482f5f	0.1954932
248	0xbdf01d76	-0.11724369
249	0xbc416620	-0.011804134
250	0x3e3e8977	0.18607126
251	0x3cf64a55	0.030064741
252	0x3d0e385d	0.03472172
253	0xbd66bfae	-0.056335144
254	0xbe17bd77	-0.14818369
255	0xbd869418	-0.065712154

network_body._body_endoder.seq_layers.2.bias f4 [128]
0	0x3ae579af	0.0017507578
1	0x3c6e2662	0.014535518
2	0x3c17421a	0.009232068
3	0x3c2ab8c8	0.010420032
4	0x3c1a561a	0.009419942
5	0x3c921141	0.017830493
6	0x3c02d0c9	0.007984349
7	0x3b036cfe	0.0020053978
8	0x3bc046d3	0.005867818
9	0x3b8b12c4	0.0042441804
10	0x3c1bc754	0.009507973
11	0x3abd1f66	0.0014428913
12	0x3c400283	0.011719349
13	0x38d930cf	0.00010356458
14	0x3c83a9f3	0.016072249
15	0x3c8baf24	0.017051287
16	0x3a9ce810	0.0011971015
17	0x3bf10c58	0.007356208
18	0x3bea6cac	0.007154068
19	0xbb2b7de7	-0.0026167573
20	0x3c2a7f3e	0.010406313
21	0x3b2bb241	0.0026198777
22	0x3bc2597f	0.005931079
23	0x3bb9b61f	0.0056674625
24	0x3babcaeb	0.0052426956
25	0xba9478d2	-0.0011327511
26	0x3c42c996	0.011888882
27	0x3c964991	0.018345626
28	0x3aa63fd9	0.0012683823
29	0x3b135f6f	0.0022487303
30	0xba81ea54	-0.0009911754
31	0xbada7473	-0.0016666785
32	0x3b46a9d3	0.0030313625
33	0xbb4b9023	-0.0031061254
34	0x3b2c98a1	0.002633609
35	0x3bc247f1	0.0059289862
36	0x3c2529de	0.010080783
37	0x3bd1099e	0.0063793203
38	0x3bd0758f	0.0063616703
39	0xbba81b42	-0.0051302025
40	0x3be20d0a	0.006898527
41	0x3b9c3638	0.0047672056
42	0x3be973c8	0.007124398
43	0x3b98b6e9	0.0046604765
44	0x3c148499	0.009064817
45	0xbae0abad	-0.0017141007
46	0x3c3dffb8	0.011596613
47	0x3a3fcf58	0.00073169684
48	0x3b26307e	0.0025358493
49	0x3c409b32	0.011755751
50	0x3bd75e5a	0.006572527
51	0x3c678aa0	0.014132172
52	0x3c3e5829	0.011617699
53	0x3bf85561	0.0075785373
54	0x3c5a3733	0.013318825
55	0x3b38849c	0.0028155213
56	0x3b8cc4bf	0.004295915
57	0x3bbe5395	0.0058083036
58	0x3c7f7c9e	0.015593676
59	0x3bf5efe4	0.007505404
60	0x3b796884	0.003805668
61	0x3c09337c	0.008374091
62	0x3bc262b2	0.0059321756
63	0xba863702	-0.0010239782
64	0x3c27ca2b	0.010241072
65	0xbb5b3b64	-0.0033452148
66	0x3b9dded5	0.0048178234
67	0x3b654dbe	0.0034988965
68	0x3b95df4e	0.004573739
69	0x3bfa49e4	0.007638203
70	0x3b2771de	0.0025550048
71	0x3c270509	0.010194072
72	0xbaf23ede	-0.0018481871
73	0x3c33c57d	0.010972378
74	0x39ed13e6	0.00045218988
75	0x3ba45099	0.005014491
76	0x3b8e702c	0.004346868
77	0x3c83475e	0.016025241
78	0x3b102add	0.0021998205
79	0x3c15eb40	0.009150326
80	0x3b6b1e29	0.003587613
81	0x3a0e8849	0.0005437178
82	0x3a5fda1f	0.00085392775
83	0x3cad3894	0.021145143
84	0x3a86c7fb	0.0010282987
85	0xbb8ad2cb	-0.0042365543
86	0x3a257b71	0.00063126447
87	0x3ab23b1e	0.001359794
88	0x3c68f2d0	0.014218047
89	0x3c314a54	0.010820944
90	0x3c089aa3	0.0083376495
91	0xbb27a98e	-0.002558324
92	0xb87df890	-6.0551392e-05
93	0x3bf00b10	0.0073255375
94	0x3b617166	0.0034399866
95	0x3c34d217	0.011036417
96	0x3b3eddd5	0.0029123921
97	0xbb958aff	-0.0045636888
98	0x3c42f810	0.011899963
99	0xbbc7bb28	-0.006095309
100	0xba0512d5	-0.00050763536
101	0xbb968e74	-0.0045946185
102	0x3c4cdeed	0.0125043215
103	0x3c5ad9cd	0.013357592
104	0x3a8f33b9	0.0010925449
105	0x3af68a07	0.0018809446
106	0x3b035503	0.0020039685
107	0x3adb15ba	0.0016714849
108	0x3c4b7d38	0.012419991
109	0x38fa1284	0.00011924378
110	0x3bd38818	0.0064554326
111	0x3bb28b7e	0.0054487577
112	0x3c860e52	0.01636425
113	0x3ac044d8	0.0014668955
114	0x3bc55d8e	0.0060231155
115	0xbb8c17a3	-0.0042752787
116	0x3b170ac1	0.0023047181
117	0xba74f1e8	-0.0009343908
118	0x3bc3f8b6	0.0059805764
119	0x3b89464e	0.004189289
120	0x3c16ab81	0.009196163
121	0x3aa87fa2	0.001285542
122	0x3c2a51c1	0.010395468
123	0x3bff6a9b	0.007794691
124	0xbb15ae2c	-0.002283941
125	0x3bba5561	0.0056864475
126	0xbc28f235	-0.010311653
127	0xba290a4a	-0.00064483716

action_model._continuous_distribution.log_sigma f4 [1, 3]
0	0x3ac22f1f	0.0014815069
1	0xbc312ddb	-0.010814155
2	0xbbf5e57f	-0.0075041647

action_model._continuous_distribution.mu.weight f4 [3, 128]
0	0xbcd9473d	-0.026523227
1	0x3c396a9a	0.01131692
2	0x3d6c3fa3	0.057677876
3	0x3c771237	0.015080026
4	0xbd30fe9c	-0.043211564
5	0x3cafe732	0.021472547
6	0xbd949817	-0.07255571
7	0xbceeb244	-0.029137738
8	0x3d225fba	0.039642073
9	0xbc8d4496	-0.017244618
10	0xbca0e732	-0.019641493
11	0x3c555003	0.013019565
12	0x3d5b95d5	0.053609688
13	0x3c97393b	0.018459907
14	0xbc8664f3	-0.016405558
15	0x3d1f27f2	0.038856454
16	0x3cae5422	0.021280352
17	0x3d6b381b	0.057426553
18	0x3c71b726	0.014753139
19	0x3c074b80	0.008257747
20	0xbd3fc6c8	-0.046820432
21	0xbd531cdd	-0.051541198
22	0x3c86ca4a	0.01645388
23	0xbd0b6e86	-0.03404095
24	0x3b57d6a9	0.0032934344
25	0xbc815580	-0.01578784
26	0xbce4cd99	-0.027930068
27	0xbc8c87da	-0.017154623
28	0xbc85bb3f	-0.016324637
29	0xbcdb0fca	-0.026740927
30	0xbcc13516	-0.023584884
31	0xbcc1c398	-0.023652837
32	0xbc87b1ac	-0.016564213
33	0x3c10aac3	0.008829775
34	0xbc556330	-0.013024136
35	0xbd4a6852	-0.049415894
36	0x3ccb1a4b	0.02479281
37	0x3d3f63ca	0.046726026
38	0xbd502381	-0.05081511
39	0x3c79addf	0.015239208
40	0x3cafc22d	0.021454895
41	0x3d09cfb5	0.03364535
42	0xbd62b3b5	-0.055347163
43	0x3c972b39	0.018453227
44	0x3d1fa55c	0.03897606
45	0xb9efc990	-0.00045735808
46	0xbcbc3e18	-0.022978827
47	0xbc6c16f0	-0.014409766
48	0x3c9a7375	0.018853882
49	0xbc883d81	-0.01663089
50	0x3d019349	0.031634603
51	0x3caf0cf2	0.021368477
52	0x3b0646dc	0.0020489013
53	0x3c124e0a	0.008929739
54	0xbb8da6ac	-0.0043228474
55	0x3ca180ba	0.019714702
56	0xbcd336aa	-0.025782902
57	0xbd257cf2	-0.04040236
58	0x3d6d9b7b	0.058009606
59	0x3cd91030	0.026496977
60	0xbc0ae511	-0.008477465
61	0xbc032271	-0.008003817
62	0x3c26ce13	0.010180968
63	0xbc8c607c	-0.017135851
64	0x3ca2b680	0.019862413
65	0xbc11ea62	-0.008905979
66	0xbd32c6bc	-0.04364656
67	0xbd3a3779	-0.04546306
68	0x3c47c3d8	0.012192689
69	0x3a7fa1c8	0.00097515853
70	0xbcd8e0f3	-0.026474452
71	0x3ca4a27a	0.020097006
72	0xbc1d8f98	-0.009616755
73	0xbb811a82	-0.0039399276
74	0xbc4e9abc	-0.012610134
75	0x3cf6d3b6	0.030130249
76	0x3c662d27	0.014048851
77	0x3d9e933d	0.07742927
78	0x3cb39aa3	0.021924322
79	0xbccd73d3	-0.025079643
80	0xbc866c74	-0.016409136
81	0x3b9d5e59	0.004802507
82	0x3c414da1	0.011798293
83	0x3c81b945	0.015835414
84	0x3c815969	0.015789704
85	0x3c1a94b4	0.009434868
86	0x3c343737	0.010999492
87	0xbd00abb7	-0.03141376
88	0x3c7659c7	0.015036053
89	0x3d572d81	0.05253363
90	0xbca70bca	-0.020391364
91	0xbc657fb1	-0.014007495
92	0xbcb84254	-0.022492565
93	0xbd2f71f3	-0.04283328
94	0xbb5495c3	-0.0032437898
95	0x3bac8fa4	0.0052661467
96	0xbcd9f853	-0.026607668
97	0xbaa2cc70	-0.0012420546
98	0xbd06b600	-0.032888412
99	0xbc0513d2	-0.008122401
100	0xbd0ea886	-0.034828685
101	0xbc48946b	-0.012242417
102	0xbd24f6c6	-0.040274404
103	0xbd35ab41	-0.044352774
104	0x3ccee8a7	0.025257422
105	0xbc445ff2	-0.011985766
106	0xbc71e918	-0.014765047
107	0x3cd45bbf	0.025922654
108	0x3d3f0734	0.04663773
109	0xbc40bd8b	-0.011763941
110	0x3d806bbe	0.0627055
111	0xbca98236	-0.020691972
112	0x3d2ef4a1	0.042713765
113	0xbca928c8	-0.020649329
114	0xbc256656	-0.0100952
115	0xbbe3f778	-0.006956991
116	0x3cfbed82	0.030752901
117	0xbcb1b07a	-0.021690596
118	0x3bcee16e	0.0063134944
119	0x3ba3a20b	0.0049936823
120	0x3d6ef56a	0.058339514
121	0x3c3a4e21	0.011371166
122	0xbd2f4236	-0.042787753
123	0x3ccbadf3	0.024863219
124	0xbc83bc06	-0.016080867
125	0x3cfd0db7	0.030890329
126	0x3c8c33d8	0.017114565
127	0xbbce6ce4	-0.006299602
128	0x3c97fca2	0.018553082
129	0xbd1c6930	-0.038186252
130	0xbc0517ea	-0.008123377
131	0xbcbb7713	-0.022883927
132	0xbcdb4a74	-0.0267689
133	0x3b8d70b4	0.004316414
134	0xbcc123e4	-0.023576684
135	0xbce6ec8f	-0.028188972
136	0x3ca5ec4f	0.020254282
137	0x3ce690b8	0.02814518
138	0x3cb1d062	0.02170581
139	0x3b23d8db	0.0025001082
140	0xbd22eb13	-0.039774965
141	0x3ce35a03	0.027752882
142	0xbd2a7544	-0.04161574
143	0xbc410420	-0.011780769
144	0x3c50d2ea	0.012745598
145	0xbcc548b3	-0.024082517
146	0xbd4fd85b	-0.050743442
147	0x3c802793	0.01564387
148	0x3d35fe13	0.044431757
149	0x3ca221f1	0.019791575
150	0x3c1bc1e7	0.009506679
151	0x3d096062	0.033539183
152	0x3bc21e97	0.0059240567
153	0xbaa47ab7	-0.0012548779
154	0x3c0c3188	0.008556731
155	0xbc2cd8fc	-0.01054978
156	0x3c27e19d	0.0102466615
157	0x3d420a88	0.047373325
158	0x3d3e296c	0.04642622
159	0xbcbef9dd	-0.023312503
160	0xbb2eaa6e	-0.0026651877
161	0xbc8ca409	-0.017168062
162	0x3d1fda68	0.039026648
163	0xbac55a06	-0.0015056736
164	0xbc9b7831	-0.01897821
165	0x3ce24560	0.027620971
166	0xbc888b60	-0.016668022
167	0x3d235fb3	0.039886188
168	0xbc8ddb1a	-0.01731639
169	0xbbed1e35	-0.007236267
170	0x3caba5f2	0.020953152
171	0x3d05b97e	0.032647602
172	0xbb7f83f8	-0.0038988572
173	0xbbf241bb	-0.0073930896
174	0x3cbd4be7	0.023107482
175	0xbc0c7bf9	-0.008574479
176	0xbccd6ee0	-0.025077283
177	0xbbd70257	-0.006561558
178	0xbc815049	-0.015785353
179	0xbcd41845	-0.025890479
180	0x3d1fe717	0.039038744
181	0x3d0f4406	0.03497698
182	0xbd6a0c5f	-0.057140704
183	0x3c3a3586	0.0113653
184	0xbd034e4a	-0.032057084
185	0x3d59bb3d	0.05315708
186	0x3c03f5d2	0.008054214
187	0x3bbe1d90	0.005801864
188	0x3c675787	0.014119989
189	0x3c71a426	0.014748609
190	0x3d3ef2f0	0.046618402
191	0x3cf0991b	0.029369881
192	0xbc8d3b92	-0.01724032
193	0x3cb8e481	0.022569897
194	0xbc997b81	-0.018735649
195	0x3c6b4596	0.014359852
196	0x3cff94b0	0.03119883
197	0xbd059d2f	-0.032620605
198	0x3c96f204	0.018425949
199	0xbcceadca	-0.025229353
200	0xbc72b888	-0.0148145035
201	0xbd874928	-0.0660575
202	0xbd204c58	-0.039135307
203	0x3d17f251	0.037096325
204	0x3d2dd80a	0.04244236
205	0x3b229572	0.0024808315
206	0x3cec16d7	0.028819485
207	0xbd72fd0e	-0.059323363
208	0x3d9bd712	0.07609381
209	0x3ce0c132	0.027435873
210	0x3ce26054	0.027633823
211	0x3ce45ba1	0.027875723
212	0xbc0dab3f	-0.008646785
213	0x3ca96cc9	0.020681756
214	0x3baaeb4b	0.0052160374
215	0x3d3c1e98	0.045927614
216	0xbc0b89b4	-0.008516718
217	0x3c50e77a	0.012750501
218	0xbc130069	-0.008972266
219	0x3c238f7f	0.009982943
220	0xbc695679	-0.014241808
221	0x3b0d2525	0.0021537032
222	0x3c4f056f	0.012635573
223	0xbd252deb	-0.040326994
224	0xbd6f34b3	-0.058399867
225	0x3c8f6f71	0.017509194
226	0xbd80257a	-0.06257148
227	0xbc6aa176	-0.014320722
228	0x3cd0ae44	0.025473721
229	0xbd078540	-0.03308606
230	0x3d1d72a3	0.038439404
231	0x3ca64b78	0.020299658
232	0x3d467598	0.04845199
233	0x3bedd586	0.00725812
234	0xbc169fbb	-0.009193356
235	0x3bc8524c	0.006113326
236	0xbc6ccad0	-0.014452651
237	0x3d32797f	0.0435729
238	0x3b7a4ed3	0.0038193956
239	0x3d0c295d	0.034219135
240	0xbc5a32a6	-0.01331774
241	0xbcbd307b	-0.023094406
242	0xbd1db0a9	-0.038498554
243	0xbccb1aeb	-0.024793109
244	0x3c9bfe5d	0.019042188
245	0xbc085163	-0.008320185
246	0xbc9d3a6b	-0.019192895
247	0x3ce19702	0.027537826
248	0xbc81dbc9	-0.015851872
249	0xbce7b50a	-0.028284568
250	0xbcae1e6f	-0.021254746
251	0x3c03fa58	0.008055292
252	0x3aada5d0	0.0013248269
253	0x3d597b46	0.05309608
254	0x3c82350d	0.015894437
255	0x3c7248ac	0.014787834

action_model._continuous_distribution.mu.bias f4 [3]
0	0x3b725ecd	0.0036982775
1	0xba916508	-0.0011092732
2	0x3aa1e6a3	0.001235206

action_model._discrete_distribution.branches.0.weight f4 [5, 128]
0	0xbc8b2f42	-0.016990308
1	0xbc02fdf6	-0.007995119
2	0xbbb42276	-0.005497272
3	0x3ce065c8	0.027392283
4	0x3c5e1c3a	0.013556534
5	0xbd31262f	-0.043249305
6	0x3bbb34b6	0.0057130707
7	0x3b7e2123	0.0038777075
8	0xbbfe1026	-0.00775339
9	0x3ca0779c	0.019588284
10	0xbc9eea8f	-0.019398956
11	0xbcdadab2	-0.02671561
12	0xbc75d3e4	-0.015004132
13	0xbb94c7ee	-0.004540435
14	0x3cff0111	0.031128438
15	0xbcd0a1f5	-0.025467852
16	0xbb6460ee	-0.0034847814
17	0xbba8a2ab	-0.0051463447
18	0xbbfcea4c	-0.00771836
19	0x3bcc8e4e	0.00624255
20	0xbb8c9b29	-0.0042909575
21	0xbae127de	-0.0017178019
22	0xbc85b46e	-0.016321387
23	0xbc0b808f	-0.0085145375
24	0xbc90a33f	-0.017655967
25	0x3c90888b	0.017643234
26	0xbb8c8040	-0.0042877495
27	0xbb40a22f	-0.0029393544
28	0xbc91dc31	-0.01780519
29	0x3c8e1586	0.017344248
30	0x3c708505	0.014680152
31	0x3c09ca72	0.008410083
32	0xbce70598	-0.02820091
33	0x3b4bfe7c	0.0031127026
34	0xbcc52399	-0.024064826
35	0xbbf3c2a2	-0.0074389735
36	0xbc6e4e5c	-0.0145450495
37	0xbc12e280	-0.008965135
38	0xbb9c228e	-0.0047648614
39	0x3c038453	0.008027154
40	0x3c2aa8fb	0.010416265
41	0xbc6085f3	-0.013703811
42	0x3c4ce621	0.012506039
43	0x3c60ff69	0.0137327695
44	0xbd080ac5	-0.033213396
45	0xb9d63619	-0.00040857567
46	0x3ba99410	0.005175121
47	0x3c91386f	0.017727105
48	0xbc01c08a	-0.00791944
49	0xbd14f09e	-0.036362283
50	0xbac3bc17	-0.0014933374
51	0xbcf4f124	-0.029900141
52	0xbc65b3bc	-0.014019903
53	0xbc995ff1	-0.018722506
54	0x37a850cb	2.0064783e-05
55	0xbc6df117	-0.014522812
56	0xbb8508aa	-0.0040598707
57	0xbc7010f4	-0.014652479
58	0xbc0b70b9	-0.008510762
59	0x3b80d429	0.0039315415
60	0xbd00395a	-0.031304695
61	0xbc9a9375	-0.018869141
62	0xbc7a0026	-0.015258824
63	0xbc585650	-0.013204172
64	0xbd08b777	-0.03337809
65	0xbc954d54	-0.01822535
66	0x39779e4f	0.0002361473
67	0xbbe52b7b	-0.0069937087
68	0xbd06c75c	-0.032904968
69	0xbbe8b4ac	-0.007101616
70	0x3ad14de5	0.0015968649
71	0xbc6c7580	-0.014432311
72	0x3c97d5dc	0.018534593
73	0xbc585de6	-0.013205981
74	0xbc011550	-0.007878616
75	0xbc2f6a6c	-0.010706525
76	0x3b6b6fff	0.003592491
77	0xbd01505d	-0.03157078
78	0x3bae0c6e	0.0053115403
79	0x3c05ffe6	0.008178687
80	0x3bf30ab6	0.0074170483
81	0x3c8c8e30	0.017157644
82	0x3b725770	0.0036978386
83	0xbc9c3ec6	-0.019072901
84	0x3cf8e07c	0.03038048
85	0x3cb580ac	0.022156082
86	0x3b94105c	0.0045185518
87	0x3ade7c35	0.0016974272
88	0xbcb63779	-0.022243248
89	0xbc907acd	-0.017636681
90	0xbc143f42	-0.009048285
91	0xbcc6646a	-0.024217803
92	0xbc637647	-0.01388318
93	0xbc416630	-0.011804149
94	0xbc3cf405	-0.011532788
95	0xbbafb5f8	-0.0053622685
96	0xbb710e2c	-0.0036782129
97	0x3c672c07	0.014109618
98	0xbcba628f	-0.022752075
99	0x3caed1ec	0.021340333
100	0x3b259dc4	0.0025271038
101	0x3c1aeb7c	0.009455558
102	0xbb3bc490	-0.0028651096
103	0x3c1224c3	0.0089198975
104	0xb96cae69	-0.00022571687
105	0x3c3fde65	0.011710738
106	0xbc6c630b	-0.014427911
107	0x3b523b6b	0.0032078873
108	0xbc95a5b8	-0.018267497
109	0xbb68d5a6	-0.0035527735
110	0xbaaaaeb3	-0.0013022035
111	0xbd01d434	-0.031696513
112	0xbca10f4a	-0.01966061
113	0xbcf49cff	-0.029860018
114	0xbc747a74	-0.014921773
115	0xba81dea0	-0.0009908266
116	0x3c02b15f	0.007976859
117	0xbc02e89e	-0.007990031
118	0xbca224f9	-0.01979302
119	0x3b8b54b6	0.0042520417
120	0xbc95c407	-0.01828195
121	0xbbdcb9ba	-0.0067360075
122	0xbc130ac5	-0.008974736
123	0x3c99ffb1	0.018798681
124	0x3cbf84a1	0.023378672
125	0xbc40ad9e	-0.011760144
126	0x3c66975f	0.014074176
127	0x3cc69de7	0.024245216
128	0x3b38a565	0.0028174755
129	0x3bf6bb08	0.00752962
130	0x3bbe3594	0.005804727
131	0x3a0b1855	0.0005306055
132	0x3c34037d	0.01098716
133	0xb8eaf0e3	-0.00011202858
134	0x3c38da0c	0.011282455
135	0xbc040213	-0.008057135
136	0xbc307b69	-0.010771611
137	0x3bc216ae	0.005923114
138	0xbb195a38	-0.0023399722
139	0x3b981f09	0.0046423716
140	0xbc0c7c37	-0.008574537
141	0xbcc198f1	-0.023632498
142	0x3c824f16	0.015906852
143	0xbc644e4a	-0.013934681
144	0xbc7717a5	-0.015081321
145	0xbc1afee0	-0.009460181
146	0x3bac0acf	0.005250312
147	0x3b7f6b86	0.0038974
148	0xbb0043eb	-0.0019571732
149	0xbae37313	-0.001735302
150	0x3b8b9e31	0.0042608012
151	0xbaab2454	-0.0013057091
152	0xbc32e342	-0.01091844
153	0xbc203f11	-0.009780661
154	0x3b2a4bd1	0.0025985132
155	0xbc1fa20d	-0.009743226
156	0x3c15c680	0.009141564
157	0xbb86ccda	-0.0041137757
158	0xbc2ae017	-0.010429404
159	0xbc31d408	-0.010853775
160	0xbbf9ab82	-0.0076193223
161	0xbbd69ccc	-0.0065494534
162	0xbc31e46d	-0.010857684
163	0xbb01aaa0	-0.0019785538
164	0x3bf432d8	0.00745235
165	0xbbe38683	-0.0069435253
166	0x3c123004	0.008922581
167	0x3a1ff07c	0.00061012036
168	0x3b6d4f84	0.0036210725
169	0x3c0c63dd	0.008568731
170	0x3b7872dd	0.003791026
171	0xbba2c189	-0.004966919
172	0xbc64ebea	-0.013972262
173	0xbc8a065a	-0.016848732
174	0xbac10e3c	-0.0014728974
175	0xbb07184c	-0.0020613847
176	0xb96b6055	-0.00022447233
177	0xbc657ae5	-0.014006351
178	0x3c065cec	0.008200865
179	0x3be5fd83	0.0070187463
180	0xbc41d1ce	-0.0118298065
181	0x3c0c8c44	0.008578364
182	0x3b8b011b	0.004242075
183	0xbc9bc01d	-0.019012505
184	0xbb2038cf	-0.0024447923
185	0x3bfbe78e	0.0076875156
186	0x3be0f1d0	0.006864764
187	0xbbc3cb7f	-0.0059751864
188	0x3bfaea79	0.007657346
189	0xbc8b143d	-0.016977424
190	0xbb694795	-0.0035595645
191	0xbbfb1d18	-0.0076633804
192	0xbac131c8	-0.0014739567
193	0x3c08d494	0.008351464
194	0xbc61df69	-0.013786175
195	0x3beb6540	0.007183701
196	0x3b86d4dd	0.0041147307
197	0x3c195aa6	0.009359991
198	0xbc6ec5de	-0.014573542
199	0xbc01006e	-0.007873638
200	0xbbc1146b	-0.0058923266
201	0x3c68d34f	0.014210536
202	0xbb986a13	-0.004651317
203	0xbab3c888	-0.0013716379
204	0x3c29da09	0.010366925
205	0x3bd68031	0.0065460433
206	0xbc3911af	-0.01129572
207	0xbc10e799	-0.00884428
208	0xbb61fc34	-0.00344826
209	0x3cbe39df	0.023220954
210	0x3c5e933f	0.013584911
211	0x3a44acef	0.0007502576
212	0x3c5eb8dc	0.013593879
213	0x3c7570c1	0.014980496
214	0x3a9e7a36	0.0012090865
215	0x3b8b050c	0.004242545
216	0x3ad54b7a	0.0016273104
217	0x3bf3a963	0.007435964
218	0xbc006ccd	-0.00783844
219	0x3c062e4b	0.008189748
220	0xbbe62b98	-0.0070242397
221	0xbc18081d	-0.009279278
222	0xbc899d96	-0.016798776
223	0x3c475f36	0.012168696
224	0x3abd817a	0.0014458143
225	0xbc763278	-0.015026681
226	0x3c1294bd	0.008946595
227	0x39ca9fb7	0.0003864744
228	0x3cb0126d	0.021493161
229	0x3bc6ef9a	0.006071043
230	0xbc2914a2	-0.010319861
231	0x3bf035b0	0.007330619
232	0x3a89e1bc	0.0010519545
233	0x3bff3ba4	0.007789092
234	0xbc346e95	-0.011012693
235	0x3c196436	0.009362271
236	0xbc159bc0	-0.009131372
237	0xbb1f03aa	-0.0024263659
238	0x3c5a1cb9	0.013312512
239	0xbbe53a9c	-0.006995512
240	0x3adf8d6e	0.0017055699
241	0x3b722159	0.0036946146
242	0xbc75352f	-0.014966293
243	0xbbb823aa	-0.005619486
244	0x3a5b71dc	0.00083711534
245	0x3c50dfe9	0.012748697
246	0x3bf2fce3	0.0074154004
247	0x3c43c25a	0.0119481925
248	0x3a6c5fd0	0.0009016963
249	0x3c2d4b6b	0.010577063
250	0xbc0a4f4f	-0.00844176
251	0x3ad94787	0.0016577103
252	0x3c30acda	0.0107833985
253	0x3b168e29	0.0022972918
254	0xbb48c834	-0.0030636908
255	0xbc04cfa5	-0.008106147

action_model._discrete_distribution.branches.0.bias f4 [5]
0	0xbc9826ab	-0.018573126
1	0xb93a88e5	-0.0001778934
2	0xbb6cadc7	-0.0036114322
3	0x3a8ee788	0.0010902742
4	0x3c8ff679	0.017573582
