Assets/Brain/Tests/NewBain750k.onnx (onnx, 136172 bytes, 9 tensors)

network_body._body_endoder.seq_layers.0.weight f4 [128, 114]
0	0x3b2d9a35	0.002648962
1	0xbc288371	-0.010285244
2	0x3e0e35ec	0.13887757
3	0xbd9e3cfc	-0.077264756
4	0xbc9c966c	-0.019114695
5	0x3dc25121	0.0948813
6	0x3d8059b5	0.0626711
7	0xbd4fafbd	-0.050704706
8	0x3dd2a012	0.10284437
9	0x3b79e5be	0.0038131322
10	0x3db392c9	0.087682314
11	0x3e58dc53	0.21177797
12	0xbd57be31	-0.052671615
13	0x3e275e94	0.16344672
14	0x3dece8d5	0.11567847
15	0x3dcc538f	0.09976875
16	0xbd2e5326	-0.042559765
17	0xbd6be58f	-0.05759197
18	0xbdcc5d1f	-0.09978699
19	0x3e0dcdcf	0.13848041
20	0x3de733b1	0.11289156
21	0xbdf82fbb	-0.12118479
22	0x3d67ad22	0.056561597
23	0xbdbef5e6	-0.09324245
24	0x3d39ae00	0.045331955
25	0xbd125182	-0.035722263
26	0xbd800b22	-0.062521234
27	0x3cd6fc10	0.02624324
28	0xbe6774d7	-0.22603165
29	0x3d75421a	0.059877492
30	0xbd77d9cc	-0.06051044
31	0x3de0221d	0.109440066
32	0xbe67b3a3	-0.2262712
33	0x3d6df6f1	0.05809683
34	0x3c0d8298	0.008637093
35	0x3d461f1b	0.04836951
36	0x3d599ff2	0.05313105
37	0xbdf32782	-0.1187277
38	0xbc2a3bc2	-0.010390224
39	0x3d391d59	0.045194004
40	0xbd096acd	-0.03354912
41	0xbb985495	-0.004648755
42	0xbdd1f96a	-0.1025265
43	0xbc50df59	-0.012748563
44	0x3d25f356	0.040515266
45	0x3d4d8f8d	0.05018573
46	0xbcfc9265	-0.030831525
47	0xbddcf7d4	-0.10789457
48	0xbdcb2f52	-0.09921135
49	0x3c32312c	0.010875981
50	0xbcdcc37b	-0.026948681
51	0x3e1366ad	0.14394636
52	0x3dc5b2f5	0.09653274
53	0xbdf6cd80	-0.12050915
54	0x3d8401c6	0.06445651
55	0xbd8e6b60	-0.06954074
56	0x3db1bfa4	0.08679131
57	0x3d597650	0.053091347
58	0xbe10bc30	-0.14134288
59	0x3d4abf47	0.049498823
60	0x3d16df8c	0.036834285
61	0xbdd0b082	-0.10189916
62	0xbe068744	-0.13137537
63	0xbd6f3a1e	-0.058405034
64	0x3e1cfc98	0.15330732
65	0xbd4f1ce7	-0.050564673
66	0x3c9d3c3f	0.019193767
67	0x3b9b3da9	0.004737575
68	0x3dc6fbcf	0.097159974
69	0x3cb92b5b	0.022603681
70	0x3cbf667e	0.023364302
71	0xbd3b0aa9	-0.045664463
72	0x3e74c12b	0.23901813
73	0x3deb5545	0.11490873
74	0xbe2d9cd5	-0.16954358
75	0xbbca6ed2	-0.0061777616
76	0x3e048bed	0.12944002
77	0xbdfe1ded	-0.12408052
78	0xbd54ce63	-0.05195464
79	0x3e06e9db	0.13175146
80	0x3d72de71	0.059294168
81	0xbd58ed24	-0.05296053
82	0xbd5f99aa	-0.054589905
83	0xbcdd5375	-0.027017334
84	0x3d309f1b	0.043120485
85	0x3dcd5ae5	0.100271024
86	0x3dc13877	0.09434598
87	0x3de2e642	0.110790744
88	0x3d715f6a	0.058928885
89	0xbd60ab1b	-0.05485068
90	0x3e0b4c1b	0.1360325
91	0x3e153f18	0.1457485
92	0x3c363130	0.011120126
93	0xbd4f776b	-0.050650995
94	0xbcc193a9	-0.02362998
95	0x3ca36060	0.019943416
96	0xbcd65f90	-0.026168615
97	0x3daa3270	0.083104014
98	0xbd8ca230	-0.06866872
99	0xbd54c08b	-0.051941436
100	0x3e0afe71	0.13573624
101	0x3e247c56	0.16063055
102	0xbc920cbc	-0.017828338
103	0x3da518e6	0.080613896
104	0x3d903fff	0.07043456
105	0x3de41fd0	0.1113888
106	0xbc860c79	-0.01636337
107	0x3d3ebb40	0.046565294
108	0xbe60d45c	-0.21956009
109	0xbc9d60dd	-0.019211227
110	0xbbd2f2b7	-0.0064376253
111	0x3db5bfe7	0.08874493
112	0xbd086378	-0.033297986
113	0x3dcc7c70	0.09984672
114	0xbe14f6aa	-0.1454722
115	0xbdf5a4a1	-0.11994291
116	0xbd32bfd4	-0.043639973
117	0x3dbd017f	0.09228801
118	0xbdfd9d56	-0.12383525
119	0xbd992411	-0.07477582
120	0x3b38fd18	0.0028227028
121	0xbe382c99	-0.17985763
122	0xbc617b5c	-0.013762321
123	0xbd96edba	-0.073695615
124	0xbe19a860	-0.15005636
125	0x3bb71fc7	0.005588505
126	0xbd7f4bab	-0.062328022
127	0xbd7ba29b	-0.06143437
128	0xbe137659	-0.14400615
129	0xbcb4b5dd	-0.022059375
130	0x3e03cdeb	0.1287152
131	0xbd9b2af8	-0.07576555
132	0x3d95c93a	0.073137715
133	0xbb0e7f89	-0.0021743497
134	0xbd2c1864	-0.04201545
135	0x3e09648d	0.13417263
136	0x3d674f8e	0.056472354
137	0x3c116e0e	0.008876337
138	0xbce3132b	-0.027719101
139	0xbd996b11	-0.074911244
140	0xbd98552c	-0.0743812
141	0xbe0a8b81	-0.13529779
142	0x3e6bb197	0.23016964
143	0x3dbed942	0.093187824
144	0xbc98e9f9	-0.018666254
145	0xbca4800f	-0.020080594
146	0x3d30e43f	0.043186422
147	0xbd825e82	-0.06365682
148	0x3db46d2d	0.08809886
149	0xbdc6c6e6	-0.097059056
150	0xbc2774db	-0.010220732
151	0xbd1ca5d2	-0.038244076
152	0x3da28a56	0.07936542
153	0x3daebf81	0.0853262
154	0xbba540ad	-0.0050431103
155	0xbd89823e	-0.06714295
156	0x3cf81586	0.0302837
157	0x3cf06b33	0.029347992
158	0x3ce85a2f	0.028363315
159	0x3ce42a67	0.02785225
160	0xbd6b36ca	-0.057425298
161	0xbca66626	-0.02031238
162	0x3db9d7df	0.09074377
163	0xbdb9ccbf	-0.09072255
164	0x3e5beac8	0.2147628
165	0x3c4e35f5	0.012586107
166	0xbdea2321	-0.114324816
167	0x3dda5bbd	0.10662029
168	0x3e1e8408	0.15480053
169	0xbcb05cd1	-0.021528633
170	0xbe31311a	-0.17303887
171	0x3d6cc70e	0.05780702
172	0xbd2a5368	-0.04158345
173	0xbe2033e1	-0.1564479
174	0xbcae26f7	-0.021258814
175	0x3e7f3b37	0.24924932
176	0xbcbe42e5	-0.023225257
177	0x3d993f92	0.07482828
178	0x3de15365	0.11002234
179	0xbd12ccb5	-0.035839755
180	0xbb873b73	-0.00412696
181	0x3c8dd8b0	0.017315239
182	0x3dc0bade	0.09410642
183	0x3d0d0f3e	0.034438364
184	0xbd830803	-0.063980125
185	0xbd8b3873	-0.06797876
186	0xbd281a41	-0.041040663
187	0x3e25e6bd	0.16201301
188	0x3e44ccb6	0.19218716
189	0x3e0f97fa	0.14022818
190	0xbd168354	-0.036746338
191	0x3ddb2983	0.10701277
192	0xbd9b9124	-0.07596043
193	0xbcfecd3d	-0.031103725
194	0xbb395e21	-0.0028284865
195	0x3e540ac8	0.20707238
196	0x3dbf59eb	0.09343322
197	0xbcc59879	-0.024120556
198	0xbd3445a6	-0.044011734
199	0xbc2925e1	-0.010323972
200	0x3c3f8022	0.011688264
201	0xbcbcaadd	-0.023030693
202	0x3db60e63	0.08889463
203	0xbd1d1ce7	-0.03835764
204	0xbc931245	-0.017953048
205	0x3d0cfabd	0.03441881
206	0x3d309b6f	0.043116983
207	0xbcb73bc5	-0.022367368
208	0x3dbb7943	0.09153988
209	0xbdb15453	-0.08658662
210	0xbcfdc410	-0.030977279
211	0x3df06468	0.11737901
212	0x3dac9b7b	0.08428093
213	0x3ea64e9d	0.32481852
214	0xbb9637b1	-0.0045842757
215	0xbdbdc281	-0.09265614
216	0x3ced44ea	0.028963525
217	0xbd8b75c1	-0.06809569
218	0x3d1ff010	0.0390473
219	0x3d28a8ab	0.04117648
220	0xbe2b0b5e	-0.16703555
221	0xbdb74461	-0.08948589
222	0x3ddeecf4	0.10885039
223	0x3e77c9df	0.24198101
224	0xbd3c7833	-0.04601307
225	0xbe100b31	-0.14066769
226	0x3dd0564c	0.1017271
227	0x3d0adf51	0.033904377
228	0x3c5b1240	0.01337105
229	0x3dc52366	0.09625892
230	0x3d4be72e	0.049781017
231	0xbd955577	-0.07291692
232	0xbdc83015	-0.09774796
233	0x3e1d65e4	0.153709
234	0xbde94f36	-0.113920614
235	0x3de1b246	0.11020331
236	0xbe0e51ee	-0.13898441
237	0x3d654789	0.055976424
238	0xbcd08b9f	-0.025457202
239	0xbe18579f	-0.14877175
240	0xbe2a7ea0	-0.16649866
241	0x3e0b5878	0.13607967
242	0x3cb0b253	0.021569407
243	0x3e061630	0.13094401
244	0xbc07f7d1	-0.00829883
245	0x3cc06393	0.02348498
246	0x3d7261c2	0.05917526
247	0x3ca0d5e4	0.019633241
248	0x3c14c036	0.00907903
249	0xbd7058d8	-0.058678478
250	0xbe21affa	-0.15789786
251	0xbe572e5c	-0.21013778
252	0xbd6dfeaf	-0.058104213
253	0x3cc29254	0.023751415
254	0x3dbee3bc	0.09320781
255	0xbc215f25	-0.009849344

network_body._body_endoder.seq_layers.0.bias f4 [128]
0	0x3cb5ce2a	0.022193033
1	0x3b9dce0f	0.004815824
2	0xbab7b174	-0.0014014677
3	0x3c26f735	0.010190775
4	0xba8c6dc4	-0.0010713865
5	0x3aa87477	0.0012852092
6	0x3c1da98f	0.009622945
7	0x3c3be5d7	0.011468372
8	0x3c3fb4df	0.011700838
9	0x3abdc4bf	0.001447819
10	0xbc8029ce	-0.015644934
11	0x39ee49b1	0.00045449802
12	0x3bd55467	0.0065103057
13	0x3d0c0135	0.03418084
14	0x3cc02f2f	0.023459999
15	0x3ce4a4cd	0.027910614
16	0x3b7b0cf3	0.003830728
17	0x3cd602ca	0.026124377
18	0x3c58ece8	0.013240077
19	0x3ba38c87	0.0049911174
20	0xbc1e265c	-0.0096527
21	0x3c84d048	0.016212597
22	0xbb2c4afa	-0.0026289807
23	0x3ca09531	0.01960239
24	0xbb8f8753	-0.0043801456
25	0x3ae6a7d0	0.001759762
26	0x38a5595c	7.8844576e-05
27	0x3bdb2fb6	0.006689037
28	0x3b56876d	0.0032734529
29	0xbbe2bfc1	-0.0069198315
30	0x3c398bd5	0.011324842
31	0x3cf0bd5b	0.029387167
32	0xbc4c21d9	-0.012459242
33	0x3c00065d	0.007814017
34	0x3c91d2e7	0.017800761
35	0xb9603f63	-0.00021385918
36	0x3b1a1017	0.0023508125
37	0xb8f31f80	-0.0001159301
38	0x397cd50e	0.00024111962
39	0x3c57c502	0.013169529
40	0x3b6914f1	0.003556546
41	0x3c06c381	0.008225323
42	0xbabc8826	-0.0014383837
43	0x3d21d4c2	0.039509542
44	0x3c00062c	0.0078139715
45	0x3c2b31bb	0.010448868
46	0x3b5ed1e1	0.003399961
47	0xbb8c03da	-0.00427292
48	0x3bcc4787	0.0062341127
49	0xbb06ddf9	-0.0020579083
50	0xba113a0d	-0.0005539961
51	0x3c204b8e	0.009783639
52	0x3c89bf3a	0.016814817
53	0x3c14c42f	0.009079977
54	0x39b963f5	0.00035360423
55	0x3bbad883	0.0057020797
56	0x3cd65097	0.026161475
57	0x3b773bac	0.0037724776
58	0xbaaf8514	-0.0013391101
59	0x3ca56227	0.020188404
60	0x3c795037	0.015216879
61	0xbac840e3	-0.0015278127
62	0x3d083488	0.033253223
63	0x3c2dba2d	0.01060347
64	0x3cd2d99f	0.025738535
65	0x39ae6e90	0.00033270242
66	0x3c84df14	0.016219653
67	0xbb503d0f	-0.0031774675
68	0xb9ac2b26	-0.00032838545
69	0x3cbeb496	0.02327947
70	0x3b9c4354	0.0047687683
71	0xbc04d2f2	-0.008106934
72	0x3c41c0ea	0.011825779
73	0x3c05f449	0.008175918
74	0x3c3d4060	0.011550993
75	0x3bc1f70e	0.005919344
76	0xba1d8a04	-0.00060096406
77	0xbab672a3	-0.0013919662
78	0xba090181	-0.00052263594
79	0x3cd1c666	0.025607299
80	0x3b9c075f	0.004761621
81	0x3c15c496	0.009141108
82	0x3c59f1cf	0.013302281
83	0x3c869559	0.016428636
84	0x3c681076	0.014164081
85	0x3cd2e3ae	0.025743332
86	0x3ce8121b	0.028328946
87	0xbc1881e1	-0.009308309
88	0x3be1bb5a	0.006888789
89	0x3cad2746	0.021136891
90	0x3c30d54f	0.010793044
91	0x3aa1bcb8	0.0012339568
92	0x3c94c5d8	0.018160746
93	0xbb2988bd	-0.0025868856
94	0x3c184d0e	0.009295715
95	0xbaea5a5c	-0.0017879712
96	0x3c863a21	0.01638514
97	0x3c15d1e2	0.009144278
98	0x3b8c250e	0.004276878
99	0x3b56f128	0.003279755
100	0xbbde4ae4	-0.00678383
101	0x3c725fff	0.014793395
102	0x3bdbe395	0.0067104795
103	0x3bba3715	0.005682836
104	0x3c381ed6	0.011237821
105	0x3cc53cc5	0.024076829
106	0x3c6b0159	0.014343583
107	0x3ca0fc0e	0.019651439
108	0x3c39fe2e	0.011352105
109	0xbc40c86a	-0.011766532
110	0x3ba168eb	0.0049258373
111	0xbbdb180b	-0.0066862158
112	0x3c5b09fe	0.013369082
113	0x3cac6c85	0.02104784
114	0x3c2bc55d	0.010484067
115	0x3c557028	0.013027228
116	0x3c7543d2	0.014969783
117	0x3cef9ec1	0.029250504
118	0x3d00d937	0.031457152
119	0x3bb8e4fb	0.005642531
120	0x3bf7b1c6	0.007559034
121	0x3d0fb595	0.03508528
122	0x3c146e4b	0.009059499
123	0x3c917a6f	0.017758576
124	0x3bfb83c1	0.0076756184
125	0x3aa7be15	0.0012797738
126	0xbcbf2f7b	-0.02333807
127	0x3d3e679c	0.04648553

network_body._body_endoder.seq_layers.2.weight f4 [128, 128]
0	0xbc8dba64	-0.017300792
1	0xbdbb2ad3	-0.091390274
2	0xbd02256c	-0.03177397
3	0xbd00519c	-0.03132783
4	0x3c91ecea	0.017813165
5	0xbdda7baf	-0.10668122
6	0x3d955693	0.07291903
7	0x3dba8850	0.09108031
8	0x3d1ce934	0.038308337
9	0x3de77d11	0.113031514
10	0x3d04c9db	0.032419067
11	0xbccd050e	-0.025026824
12	0x3cc37ff1	0.023864718
13	0x3d4ead9a	0.050458528
14	0xbd20d765	-0.039267916
15	0xbd640895	-0.055672247
16	0xbce124ac	-0.027483307
17	0x3c3eb570	0.011639938
18	0x3d12837a	0.035769917
19	0xbaa16ae0	-0.0012315176
20	0xbd30ce99	-0.043165777
21	0xbd936aa9	-0.07198078
22	0x3cdd0bd5	0.026983181
23	0xbd9aae8d	-0.07552824
24	0x3e448ee2	0.1919513
25	0x3e3ea3d6	0.18617186
26	0xbc79416c	-0.015213352
27	0xbd7b3a9a	-0.061335184
28	0x3b191d29	0.0023363328
29	0x3d044d6f	0.03230041
30	0x3dad4b1b	0.08461591
31	0x3cbfa835	0.023395637
32	0xbe145b3c	-0.14487928
33	0x3c6bc1e1	0.014389486
34	0x3dab6765	0.0836933
35	0xbd97062f	-0.07374226
36	0xbd775a61	-0.060388926
37	0x3ddcb9bc	0.107776135
38	0x3d166195	0.036714155
39	0x3d02aa33	0.031900596
40	0x3e552192	0.20813587
41	0xbcd3fc40	-0.025877118
42	0x3d9379a2	0.07200934
43	0xbe14d4da	-0.14534321
44	0x3d7772dc	0.060412273
45	0xbdfb1b70	-0.12261093
46	0x3d1da4b2	0.038487144
47	0x3dad0cab	0.08449682
48	0x3ce10b56	0.027471226
49	0x3e0494ce	0.1294739
50	0x3d4dae88	0.050215274
51	0x3e1ac8c8	0.15115654
52	0x3d979da1	0.07403112
53	0x3deabddd	0.11461995
54	0x3da03976	0.0782346
55	0x3e03843c	0.12843412
56	0x3b864e38	0.00409868
57	0x3e00d3d2	0.12580803
58	0xbca15992	-0.01969603
59	0xbd0f684e	-0.035011582
60	0x3dc6af68	0.09701425
61	0xbc98fed3	-0.018676197
62	0x3dbabe01	0.091182716
63	0xbd22374c	-0.039603516
64	0x3d4d6c28	0.050151974
65	0x3e6239ca	0.22092357
66	0x3dd40362	0.10352208
67	0xbd2ef782	-0.04271651
68	0xbce06a17	-0.027394338
69	0xbd4c98bc	-0.049950346
70	0x3e0b46ca	0.13601223
71	0x3d9138c5	0.07090906
72	0x3c6b9e69	0.01438103
73	0xbdedb6ef	-0.116071574
74	0xbdd04e25	-0.10171155
75	0xbd6afbb4	-0.05736895
76	0xbd896a87	-0.067097716
77	0x3e1717cd	0.14755173
78	0xbd8cfd87	-0.06884294
79	0x3bded13b	0.0067998446
80	0xbb117286	-0.0022193505
81	0x3d36cd09	0.04462913
82	0xbdaf34b2	-0.08554973
83	0x3d7688f3	0.0601892
84	0xbc6998e7	-0.014257646
85	0xbd7e3ce8	-0.062069803
86	0xbdbf113b	-0.09329458
87	0xbccc6d1d	-0.024954373
88	0x3dd75d7b	0.10515877
89	0x3dea6e53	0.11446824
90	0xbd92bc39	-0.07164807
91	0x3e103be4	0.14085346
92	0x3ddc28e1	0.107499845
93	0xbe43d194	-0.19122916
94	0xbd8dc48b	-0.06922253
95	0x3d0d4ca6	0.034496926
96	0xbd84fc6d	-0.06493459
97	0x3cf67b1b	0.030087998
98	0x3dc015b0	0.093791366
99	0x3d6c7c74	0.057735875
100	0x3dcc9038	0.09988445
101	0x3dd057ba	0.101729825
102	0xbe22c1bf	-0.15894221
103	0xbce9ef35	-0.028556446
104	0xbd3090b1	-0.04310674
105	0xbd1f48fc	-0.038887963
106	0xbd6544df	-0.055973884
107	0x3d83d50f	0.06437122
108	0x3ba0992e	0.004901073
109	0x3dda71cc	0.10666236
110	0xbdf15038	-0.11782879
111	0xbdc9be14	-0.09850708
112	0xbd60424e	-0.054750733
113	0xbd9f6e0f	-0.07784664
114	0x3d12c4b0	0.035832107
115	0xbd0f0567	-0.03491726
116	0xbd02a7dc	-0.031898364
117	0x3d3b3fb3	0.045715045
118	0xbdb509c6	-0.08839755
119	0xbe52ca32	-0.20584944
120	0x3d872cb6	0.06600325
121	0xbbeb526c	-0.0071814563
122	0x3d908876	0.07057278
123	0x3d369241	0.044573072
124	0x3cb6ea96	0.022328656
125	0xbd42f135	-0.047593314
126	0xbd1f8024	-0.038940564
127	0xbc168952	-0.009188013
128	0xbc88bd74	-0.0166919
129	0xbdd575c9	-0.10422856
130	0x3c91d869	0.017803388
131	0xbd9f3197	-0.077731304
132	0xbd1676f6	-0.036734544
133	0x3e287ed1	0.16454627
134	0x3ddc5667	0.107586674
135	0x3be0029d	0.006836249
136	0xbd39f447	-0.045398977
137	0xbcb69fa5	-0.022292921
138	0xbd7145de	-0.05890452
139	0xbda731d4	-0.08163801
140	0x3d729b35	0.05923005
141	0x3ca34091	0.019928249
142	0x3c9a1b75	0.01881192
143	0xbdcb05fe	-0.09913252
144	0xbd34c5ac	-0.044133827
145	0xbe151922	-0.14560369
146	0xbe19f114	-0.1503337
147	0xbddffeb6	-0.10937254
148	0xbcbfff1b	-0.023437073
149	0xbd3148a1	-0.043282155
150	0xbb8afcef	-0.004241578
151	0x3dcdbf55	0.10046259
152	0xbd1d882d	-0.038459945
153	0xbc95bb84	-0.018277891
154	0xbd97ccdb	-0.0741212
155	0xbdfb71ba	-0.12277551
156	0x3d984ba2	0.07436301
157	0x3d0be7de	0.034156673
158	0x3c8be139	0.017075168
159	0xbad6c8ac	-0.0016386709
160	0xbd327ae9	-0.043574248
161	0xbd13981a	-0.036033727
162	0x3d2c2a99	0.04203281
163	0xbdda2edc	-0.10653469
164	0xbd5add32	-0.053433605
165	0xbe85f4d4	-0.26163352
166	0xbcc0439a	-0.023469735
167	0x3d261618	0.040548414
168	0xbd495f77	-0.049163308
169	0x3de07541	0.109598644
170	0xbd861367	-0.065466695
171	0x3d608ae2	0.05481995
172	0x3d2e1747	0.042502668
173	0x3d164ac3	0.036692392
174	0xbd422694	-0.047400072
175	0x3d4db98b	0.050225776
176	0x3d461d8d	0.048368026
177	0x3b0e3dd1	0.0021704326
178	0xbc0b5945	-0.00850517
179	0x3e076b45	0.13224514
180	0xbc0f7341	-0.008755506
181	0xbb17c0b5	-0.0023155634
182	0x3d2c7d44	0.04211165
183	0xba898e83	-0.0010494742
184	0xbe001eea	-0.12511793
185	0x3dfb0587	0.12256914
186	0x3dc97e4b	0.098385416
187	0xbe6cbd52	-0.23119095
188	0x3d36b712	0.044608183
189	0x3d2584da	0.0404099
190	0x3d72969b	0.05922566
191	0xbd969861	-0.07353283
192	0x3e3ed536	0.18636021
193	0x3def7ce8	0.11693746
194	0xbd45df71	-0.048308793
195	0x3df8a47e	0.121407494
196	0x3decdf2f	0.115660064
197	0xbd97c7d6	-0.074111626
198	0x3dd18f4b	0.10232409
199	0xbd125398	-0.035724252
200	0x3dcc947f	0.09989261
201	0x3d9d3dfe	0.0767784
202	0x3d8f4c43	0.06996968
203	0xbe04aa4d	-0.1295559
204	0x3d210189	0.039308105
205	0xbcfd27e1	-0.030902805
206	0x3ca63345	0.02028812
207	0x3dd39390	0.1033088
208	0x3da85f43	0.08221295
209	0xbd788207	-0.06067088
210	0x3d15e19a	0.036592104
211	0x3c3c35f4	0.011487473
212	0xbce8a40a	-0.028398532
213	0x3d991b08	0.07475859
214	0x3da66726	0.08125143
215	0xbcbda05f	-0.02314776
216	0xbd461e80	-0.04836893
217	0x3c418008	0.01181031
218	0xbe1d1366	-0.15339431
219	0xbc983947	-0.018582
220	0x3da6ad54	0.081385285
221	0x3d65730e	0.056017928
222	0xbd89c5f8	-0.06727213
223	0x3daa119e	0.083041415
224	0xbdeb21ac	-0.11481032
225	0x3d24fffe	0.040283196
226	0xbe433d62	-0.19066384
227	0xbc515223	-0.012775931
228	0x3df93ecf	0.12170183
229	0xbd4effff	-0.050537106
230	0x3de310ec	0.11087212
231	0x3e094372	0.13404635
232	0xbcd511b3	-0.026009416
233	0x3cbee9c5	0.02330483
234	0x3cb0d2e7	0.021584941
235	0xbc0dd951	-0.008657769
236	0x3e39c647	0.18142043
237	0xbdfab7eb	-0.12242111
238	0x3e372f5a	0.17889157
239	0x3dae1ac7	0.08501201
240	0xbe212ab7	-0.1573895
241	0x3dd1ebd9	0.102500625
242	0x3dbf3a07	0.0933724
243	0xbd61bad1	-0.055109803
244	0x3ddb0a58	0.10695332
245	0x3df5520c	0.1197854
246	0x3da21e46	0.079159304
247	0xbc894d05	-0.016760359
248	0x3e300da1	0.17192699
249	0xbd4773a7	-0.04869428
250	0x3da2bd7b	0.07946297
251	0x3e0798b8	0.13241851
252	0x3da55ce5	0.08074359
253	0x3e29c164	0.16577679
254	0xba32b731	-0.0006817459
255	0xbd5ff590	-0.054677546

network_body._body_endoder.seq_layers.2.bias f4 [128]
0	0xb99cc1d4	-0.00029899052
1	0x3b3314ae	0.0027325558
2	0x3c25b1a0	0.01011315
3	0x3c995fdf	0.018722473
4	0xbb4634a0	-0.003024377
5	0x3c7fdf72	0.015617238
6	0x3ad91fc1	0.001656525
7	0x3c0a41c1	0.0084385285
8	0x3b810a3d	0.003937988
9	0x3cdb94fd	0.026804442
10	0x3b9da029	0.0048103523
11	0x3bd96124	0.0066338945
12	0x3c988f44	0.018623002
13	0x3ab8d696	0.0014102038
14	0x3b42b91d	0.0029712387
15	0x3c118f8c	0.008884322
16	0x3c111441	0.008854927
17	0x3b55fad2	0.0032650721
18	0x3c8b53f4	0.017007805
19	0x3b2d13c3	0.0026409484
20	0x3c907462	0.01763362
21	0x3af14f84	0.0018410538
22	0x3a8d9685	0.0010802305
23	0x3a0983db	0.0005245783
24	0xbb8f51fd	-0.0043737874
25	0x3c0e44a5	0.008683358
26	0xbbc032d7	-0.0058654356
27	0x3b5e6a58	0.0033937898
28	0x3c9a46db	0.018832615
29	0x3b7d8e84	0.0038689682
30	0x3cba1791	0.022716315
31	0x3a774d86	0.0009433854
32	0x3b1b2ac0	0.0023676604
33	0x3bdebf9b	0.0067977435
34	0x3bd4dd0f	0.006496079
35	0x3c66326a	0.014050106
36	0x3c21b234	0.009869147
37	0x3c88572e	0.016643133
38	0xb9930956	-0.0002804498
39	0x3b755e97	0.0037440413
40	0x3c82f22d	0.015984619
41	0xb8c166da	-9.222115e-05
42	0x3c4d50ed	0.012531501
43	0x3bb0264d	0.0053756596
44	0x3c818d33	0.0158144
45	0x3c10a92e	0.008829398
46	0x3c34c015	0.011032124
47	0xbaba899c	-0.0014231685
48	0xbae10456	-0.001716743
49	0x3b99d086	0.0046940474
50	0xb98e70b6	-0.00027168327
51	0xbaefab88	-0.0018285373
52	0x3c8f986d	0.017528737
53	0x3c5ce4d8	0.013482295
54	0x3c191b77	0.009344927
55	0x3c5abb40	0.013350308
56	0x3c2eef4f	0.010677173
57	0x3c395883	0.011312607
58	0x3c2332b4	0.009960819
59	0x3c8026e7	0.01564355
60	0x3bc9d4d5	0.0061594048
61	0xbb2cb481	-0.0026352706
62	0x3b4a3537	0.0030854472
63	0x3a6f9bfe	0.0009140371
64	0x3c8c99cb	0.017163178
65	0x3c066a98	0.008204125
66	0xbb2e81a1	-0.0026627558
67	0x3cb126be	0.021624919
68	0xbb83c4fd	-0.0040212856
69	0x3a9817fb	0.0011603826
70	0x3c23706e	0.009975536
71	0x3beb0fb1	0.0071735014
72	0x3c37aae7	0.01121018
73	0x3cb6c267	0.022309495
74	0x3be4b467	0.0069795134
75	0xbba246d2	-0.00495229
76	0x3bbe4c21	0.005807415
77	0x3bdbf3ac	0.0067123976
78	0x3c504937	0.012712768
79	0x3b522e72	0.003207114
80	0x3c0cc263	0.008591267
81	0x3b84f356	0.004057328
82	0x3c829451	0.015939863
83	0x3d0c6a31	0.03428096
84	0x3c4a4cb3	0.012347388
85	0xbb039a3e	-0.002008095
86	0x3a5973ad	0.000829513
87	0x3bc168d5	0.0059023895
88	0x3c215c2c	0.009848636
89	0x3bac71cc	0.005262589
90	0xbc09e6db	-0.008416857
91	0xbbf846ba	-0.0075767906
92	0x3bbc68f7	0.0057498175
93	0x3a9e065a	0.0012056336
94	0x3c9255f8	0.017863259
95	0x3aecc09c	0.0018062773
96	0x3b8c946d	0.0042901547
97	0xbb28fc9b	-0.002578533
98	0xbb8f8eab	-0.004381021
99	0x3c6e1b2d	0.014532846
100	0xbbe2e737	-0.0069245356
101	0x3c8e156f	0.017344205
102	0x3bffa2bd	0.0078013823
103	0xbb37e55b	-0.002806029
104	0x3be8ad4a	0.007100736
105	0x3a5f44e1	0.00085170387
106	0x3b978aa2	0.0046246806
107	0xbc4153cf	-0.011799767
108	0x3afce0d4	0.0019293078
109	0x3c796726	0.015222346
110	0x3b00d2aa	0.0019656816
111	0x3be292e1	0.006914482
112	0x3bdf15db	0.0068080253
113	0x3c2aedd5	0.01043268
114	0x3c5460ff	0.012962579
115	0x3b6942de	0.0035592834
116	0x3b25570b	0.0025228884
117	0x3c77c7db	0.015123333
118	0xbb7b4c6a	-0.0038345107
119	0x3bdf5713	0.0068158
120	0x3bf65cb3	0.007518375
121	0xbb9fc8a9	-0.0048762155
122	0x3c1656de	0.009175984
123	0xbb267bce	-0.0025403383
124	0x3c7a2402	0.015267374
125	0x3c22deb7	0.009940795
126	0x3bcd1878	0.0062590204
127	0x3bf2dbef	0.007411472

action_model._continuous_distribution.log_sigma f4 [1, 3]
0	0xbc1f1143	-0.009708705
1	0x3be6218c	0.007023042
2	0xbc87ac8c	-0.016561769

action_model._continuous_distribution.mu.weight f4 [3, 128]
0	0x3c880f9c	0.016609006
1	0xbc8bc820	-0.0170632
2	0xbcf11fc7	-0.029434098
3	0xbba97ef7	-0.005172606
4	0xbb3c0a9d	-0.002869285
5	0x3cdefd94	0.027220525
6	0x3d128b3e	0.035777323
7	0xbd413972	-0.047173925
8	0xbb1e43b6	-0.0024149246
9	0xbcbcbf4b	-0.023040434
10	0x3d3fe6f8	0.04685113
11	0x3bb36d01	0.0054756408
12	0xbcc87526	-0.024469923
13	0xbd0ac9cc	-0.033883855
14	0xbc14be1e	-0.009078531
15	0xbcc06917	-0.02348761
16	0x3cecef7a	0.028922785
17	0x3a990855	0.0011675457
18	0xba9ecaa5	-0.0012114836
19	0xbc8d1b13	-0.017224824
20	0x3c9e2428	0.01930435
21	0x3cc2f3d5	0.023797909
22	0x3c5ab210	0.0133481175
23	0xbc0348f4	-0.008012999
24	0x3ca0f699	0.019648837
25	0xbd618217	-0.055055704
26	0x3cb6a6a7	0.022296263
27	0x3d331aa1	0.043726567
28	0xbd5992ee	-0.05311864
29	0x3bc69d76	0.0060612513
30	0xbd363d36	-0.04449197
31	0x3cf87a7c	0.030331843
32	0xbc8f65da	-0.017504621
33	0x3ccd51f4	0.025063492
34	0xbd192b83	-0.03739501
35	0xbd2b23c7	-0.041782167
36	0x3c4553db	0.0120439185
37	0xbd53606a	-0.05160562
38	0x3c9ba962	0.019001666
39	0x3bddf87f	0.006774008
40	0xbd098d3c	-0.033581957
41	0x3cc3afce	0.023887541
42	0x3bede3af	0.007259808
43	0x3ab88dbd	0.0014080327
44	0xbd5c0939	-0.053719733
45	0x3b4fc035	0.0031700258
46	0x3d0661a4	0.03280796
47	0xbad98142	-0.0016594308
48	0xbd40691f	-0.04697525
49	0xbcaa4999	-0.020787047
50	0x3c1717a9	0.00922195
51	0x3c8b9b02	0.017041687
52	0xbd1d793f	-0.038445707
53	0x3cec93b7	0.02887903
54	0x3d636e0f	0.055524882
55	0xbda1fde4	-0.07909754
56	0xbcdfc48b	-0.027315399
57	0xbc08a703	-0.0083406
58	0x390e46f1	0.00013568603
59	0xbd272a84	-0.04081203
60	0x3c7d24a5	0.015450631
61	0x3a04eb8a	0.00050704984
62	0x3b27e454	0.0025618272
63	0x3c1cc21c	0.009567764
64	0x3d4daf89	0.05021623
65	0xbd343631	-0.043996993
66	0xbcd49730	-0.025950998
67	0xbc42a3b5	-0.011879851
68	0x3caf5f5e	0.02140778
69	0x3d2597d0	0.040427983
70	0x3d0e870b	0.034796756
71	0x3cd8d588	0.026469007
72	0xbd5f22b6	-0.054476462
73	0xbcb9922b	-0.022652706
74	0x3c81a72c	0.015826784
75	0xbc8a82ea	-0.016908128
76	0x3c9a98f2	0.018871758
77	0xbd218458	-0.039432853
78	0xbd80812f	-0.0627464
79	0xbc9a9593	-0.01887015
80	0xbd01e9aa	-0.03171698
81	0x3c0bdc4d	0.0085364105
82	0xbca6b036	-0.020347696
83	0x3ca40d5b	0.0200259
84	0x3c97290e	0.018452194
85	0x3bc1d7ad	0.005915603
86	0xbc778c81	-0.015109182
87	0xbc53b9a7	-0.012922681
88	0xbd549272	-0.051897474
89	0xbc99192d	-0.018688763
90	0x3c46d809	0.012136468
91	0x3c109319	0.008824133
92	0x3ce968fc	0.028492443
93	0x3d3b96ae	0.045797996
94	0x3c25fd84	0.010131244
95	0xbc5afbf6	-0.013365736
96	0x3d716f2c	0.058943912
97	0x3c154910	0.009111658
98	0x3c22e192	0.0099414755
99	0x3d45144b	0.048115056
100	0x3bb84558	0.005623501
101	0xbd281b40	-0.041041613
102	0xbd7689fd	-0.06019019
103	0x3cd55d6b	0.026045522
104	0x3d01b6a0	0.031668305
105	0x3cc712f6	0.024301033
106	0x3ceef867	0.029171182
107	0x3b89f43b	0.0042100227
108	0xbd24799f	-0.04015505
109	0x3d5181ca	0.051149167
110	0x3d44fae4	0.04809083
111	0xbd0b04dc	-0.03394018
112	0xbaa158fd	-0.0012309846
113	0xbd6a4ea6	-0.05720391
114	0x3aaa3ab1	0.0012987462
115	0x3c45ac61	0.012065024
116	0x3cec4171	0.028839799
117	0xbd056ea0	-0.032576203
118	0xbc336aeb	-0.010950784
119	0x3c41b400	0.0118227005
120	0x3d2b55b1	0.04182977
121	0x3b06f83d	0.002059474
122	0x3d478566	0.048711203
123	0xbba503b9	-0.005035844
124	0xbc53917a	-0.012913102
125	0xbd6af652	-0.057363816
126	0x3c48e951	0.012262658
127	0xbc86c4ec	-0.016451322
128	0x3c79de21	0.015250714
129	0xbcfbcdb5	-0.030737737
130	0xbd2589e2	-0.0404147
131	0x3ce827b3	0.028339243
132	0x3bb5ee2b	0.0055520735
133	0xbd5ca439	-0.053867552
134	0x3cfd8f01	0.030951979
135	0xbcfef962	-0.031124774
136	0x3d8530fb	0.06503483
137	0x3ce53355	0.027978579
138	0x3c6c9241	0.0144391665
139	0xbcc5423f	-0.02407944
140	0xbcb47ac3	-0.022031194
141	0x3c9650e7	0.018349124
142	0xbd14a5f2	-0.03629107
143	0x3d647f8a	0.055785693
144	0x3d78680d	0.060646106
145	0x3ce2b8ca	0.027676005
146	0x3b760b3e	0.0037543322
147	0xbd19bce0	-0.03753364
148	0xbd0dec66	-0.034649275
149	0xbd487832	-0.048942752
150	0xbc91baf4	-0.017789342
151	0x3d2a573e	0.041587107
152	0x3c9c16d2	0.01905385
153	0xbad30909	-0.0016100715
154	0xbc4b81a3	-0.0124210445
155	0x3bf74b36	0.0075468076
156	0xbd83f384	-0.06442931
157	0x3cf75cc3	0.0301956
158	0xbc194171	-0.009353981
159	0x3bb09a65	0.005389499
160	0xbb6b0712	-0.0035862369
161	0x3a252bd7	0.0006300783
162	0xbc816f5e	-0.015800174
163	0xbd01430e	-0.03155809
164	0xbcdb360c	-0.02675917
165	0x3d0e02ec	0.034670755
166	0x3d226b46	0.039653085
167	0xbb3d5106	-0.0028887405
168	0xbc071d80	-0.008246779
169	0xbc28805a	-0.010284508
170	0x3ba2227a	0.0049479576
171	0xbc07ca65	-0.008288001
172	0xbbb65d3a	-0.0055653127
173	0x3c6ec2d2	0.014572816
174	0xba6617d5	-0.0008777355
175	0x3ce70c1e	0.02820402
176	0x3c2b19fb	0.010443206
177	0xbcabae6a	-0.02095719
178	0xbce73a14	-0.028225936
179	0x3cc17862	0.023616973
180	0xbc895a81	-0.016766788
181	0xbaf5b1db	-0.0018745022
182	0xbcb3626b	-0.021897515
183	0x3b820c6e	0.003968767
184	0xbc4c6faa	-0.012477795
185	0xbc9c09cf	-0.019047646
186	0xbbadd6ce	-0.0053051477
187	0x3bde021e	0.0067751547
188	0x3d930524	0.07178715
189	0xbbe48266	-0.0069735525
190	0xbc8f9301	-0.017526152
191	0xbb8a20aa	-0.0042153196
192	0x3c5cf3be	0.013485847
193	0xbd0bc8bf	-0.034126993
194	0xbb3d3fd2	-0.0028877151
195	0xbbe84d0c	-0.007089263
196	0x3cb4ae5a	0.022055794
197	0x3c8c9092	0.01715878
198	0x3b919824	0.0044431854
199	0x3d29e039	0.0414736
200	0xbd06ed22	-0.03294099
201	0x3cc9176e	0.024547305
202	0xbd2e6bda	-0.042583324
203	0x3c17b8e3	0.009260389
204	0xbc433a08	-0.011915691
205	0x3c1046ee	0.008805973
206	0x3cffb8b0	0.031215996
207	0x3c17b80e	0.009260191
208	0xbd165244	-0.03669955
209	0xbbe4c88f	-0.0069819163
210	0xbd025692	-0.03182084
211	0x3c867ffd	0.016418451
212	0x3b1291a8	0.002236465
213	0x3b3e3727	0.0029024573
214	0xbbb92900	-0.0056506395
215	0x3bbc5623	0.005747573
216	0x3d166774	0.036719754
217	0x3d167389	0.036731277
218	0xbc48d52b	-0.012257854
219	0x3c712792	0.014718907
220	0xbca4cf39	-0.020118343
221	0xbd1df159	-0.038560245
222	0x3cb7100e	0.022346523
223	0x3d4ced3b	0.050030928
224	0x3ce7290e	0.028217819
225	0x3b57f449	0.0032952002
226	0x3c7be77c	0.015375014
227	0x3cd56ff4	0.02605436
228	0x3c3fff82	0.011718633
229	0xbcc0925f	-0.023507295
230	0x3ccebfc4	0.025237925
231	0xbc52661d	-0.0128417285
232	0x3cd425f5	0.025897006
233	0x3ca8c8a7	0.020603491
234	0x3ce1e1bb	0.027573457
235	0x3c6c77dc	0.014432874
236	0xbc7acdf2	-0.01530789
237	0xbd1385c0	-0.036016226
238	0x3cd02184	0.025406606
239	0x3cf61cbe	0.030043002
240	0x3c685046	0.014179295
241	0x3c827e49	0.015929358
242	0x3d50e0a3	0.05099548
243	0xbd5727af	-0.05252808
244	0xbcf7bffd	-0.030242914
245	0x3b0658ce	0.002049971
246	0x3c650b17	0.013979695
247	0xbbad063a	-0.0052802833
248	0xbc38f629	-0.011289158
249	0xbc7b0cd7	-0.0153228855
250	0x3be9bf12	0.007133373
251	0x3ce50f46	0.027961385
252	0xbb10ae5f	-0.002207659
253	0xbc42fcbc	-0.011901077
254	0xbd0c72d9	-0.034289215
255	0x3c841482	0.01612306

action_model._continuous_distribution.mu.bias f4 [3]
0	0x3af5c242	0.001874991
1	0xbb12c28e	-0.0022393796
2	0x3afc519e	0.0019250398

action_model._discrete_distribution.branches.0.weight f4 [5, 128]
0	0x3b975ec9	0.0046194536
1	0x3cba975f	0.022777257
2	0xbb1e9f78	-0.0024203938
3	0x3cc38b97	0.023870273
4	0x3b63c574	0.0034755142
5	0x3c1d6917	0.009607575
6	0x38600e31	5.341898e-05
7	0xbc81befe	-0.015838142
8	0xbc98598d	-0.018597389
9	0x3c061e67	0.008185959
10	0x3c802e72	0.015647147
11	0xbc2c49b6	-0.010515621
12	0x3c7171d6	0.014736613
13	0xbc69bdaa	-0.014266411
14	0x3bd3f788	0.006468717
15	0x3c3d9c69	0.011572936
16	0x3be79603	0.0070674433
17	0x3c46a5b5	0.012124469
18	0xbc9c1250	-0.0190517
19	0xbb6c106a	-0.0036020526
20	0x3bbbfbd5	0.005736808
21	0x3b935238	0.004495885
22	0x3d163858	0.036674827
23	0x3c8d77ad	0.01726898
24	0x3b97fd18	0.0046383254
25	0xbc2cb4f1	-0.010541187
26	0xbc42c102	-0.011886837
27	0x3b88cfc8	0.00417516
28	0x3bd344ae	0.0064473962
29	0x3bdf3bef	0.0068125646
30	0x3aa59c13	0.0012635015
31	0x3c0c78f0	0.008573756
32	0xbc965f96	-0.018356126
33	0xbb64c9be	-0.0034910287
34	0x3bb5b030	0.005544685
35	0xba9ddaa0	-0.0012043305
36	0xbb79882c	-0.003807555
37	0x3c09fa03	0.008421424
38	0xbc54d34d	-0.012989831
39	0xbbb38ee7	-0.005479682
40	0x3cfff8cc	0.031246565
41	0xbb5a18a6	-0.0033278852
42	0xbc3e4dc5	-0.011615221
43	0xbc12a2d6	-0.008949956
44	0xbb5982d8	-0.0033189561
45	0x3c598f17	0.013278744
46	0xbbfcca85	-0.007714572
47	0xbcd9ff1e	-0.026610907
48	0xbc9dbc6b	-0.019254884
49	0xbca6ce50	-0.02036205
50	0x3cb5199f	0.022106944
51	0x3c617d17	0.013762734
52	0x3b602291	0.003420029
53	0x3b99ffba	0.0046996744
54	0x3c91fc89	0.017820613
55	0x3c7884e3	0.015168401
56	0x3bd715d6	0.0065638823
57	0xbc202263	-0.009773823
58	0x3c0347bf	0.008012711
59	0x3bc72e08	0.0060784854
60	0xbc857058	-0.016288921
61	0xbcb107e6	-0.021610212
62	0x3b85543b	0.004068879
63	0xbbd9da0b	-0.006648307
64	0x3c912be2	0.01772112
65	0x3c5894f7	0.01321911
66	0x3cbf55d0	0.023356348
67	0x3a9a4b60	0.0011771731
68	0x3c371b5f	0.011175959
69	0x3bc9d822	0.0061597982
70	0xb9795c4b	-0.00023780872
71	0x3c8acf26	0.01694448
72	0x3c2539a6	0.010084545
73	0xbb9c01a9	-0.00476094
74	0x3bae0c75	0.0053115436
75	0x3add8627	0.0016900942
76	0x3bb94f4b	0.0056552044
77	0xbc8214cd	-0.01587906
78	0xbbe5e2fe	-0.007015585
79	0xbb364188	-0.0027810056
80	0x3b348f9d	0.002755142
81	0xbc6ed1cb	-0.014576386
82	0x3a4e3539	0.0007866207
83	0xbc1564e2	-0.009118291
84	0x3d2a6ca7	0.041607525
85	0x3cbeedbf	0.023306726
86	0x3c564fa9	0.013080516
87	0xbc6cd74c	-0.014455628
88	0xbb51fff9	-0.003204344
89	0xbc95b591	-0.018275054
90	0x3bb8bf46	0.005638036
91	0xbbf28308	-0.007400874
92	0xbb6bf058	-0.003600141
93	0x3bfe7110	0.007764943
94	0xbbf8ad61	-0.0075890278
95	0x3c298a33	0.010347891
96	0xbae2983c	-0.0017287801
97	0xbcd9b060	-0.02657336
98	0x3c3f6c17	0.0116834855
99	0xbbc08a77	-0.0058758813
100	0xbc80be08	-0.015715614
101	0x3ab70221	0.0013962426
102	0xbbcd8b8a	-0.006272738
103	0x3b57c1ae	0.0032921839
104	0x3bf77c5e	0.0075526675
105	0xb9d87523	-0.00041286004
106	0xbac2b678	-0.0014855405
107	0xbcaf5c1a	-0.021406222
108	0x3b4601cc	0.0030213473
109	0x3c3d6e28	0.011561908
110	0xbc7fde27	-0.01561693
111	0xbbc553bf	-0.006021946
112	0xbc73f8bd	-0.014890847
113	0x3ce785c0	0.02826202
114	0x3c05dd25	0.008170401
115	0x3c017a1f	0.007902651
116	0x3c4515b6	0.012029102
117	0xbc801137	-0.015633209
118	0xbc016076	-0.007896533
119	0xbcfa015b	-0.030518224
120	0xbb839ea1	-0.004016713
121	0x3c39879f	0.0113238385
122	0x3ca8b287	0.020592941
123	0x3d0f2fd8	0.034957737
124	0x3bfc6795	0.0077027776
125	0x3bc2e18a	0.0059472965
126	0x3bd35673	0.0064495145
127	0x3d334d7b	0.043775063
128	0xbbbf1aa6	-0.005832034
129	0xbbc5ca12	-0.0060360515
130	0xbae5ce4a	-0.0017532792
131	0x3cdce318	0.026963755
132	0xbcf76a2f	-0.030202
133	0xbb413c57	-0.0029485428
134	0x3c402c54	0.011729319
135	0x3ba1aea8	0.0049341507
136	0xbcd78ba5	-0.026311705
137	0xba9627fa	-0.0011456006
138	0x3c224f42	0.009906592
139	0x3d15497a	0.036447026
140	0xbd24bf8e	-0.040221743
141	0x3bec77bc	0.007216422
142	0x3b986661	0.0046508764
143	0xbb1b369d	-0.0023683675
144	0xbd35b986	-0.044366382
145	0xbc8e05ea	-0.017336804
146	0x3a8c9ec4	0.0010728468
147	0x3c8f8ed3	0.017524159
148	0x3c2b4fc0	0.010456026
149	0xbcc2ed9c	-0.023794942
150	0xbd199db6	-0.03750392
151	0xbcb8c590	-0.022555143
152	0xbaba4b04	-0.001421303
153	0x3be27a8d	0.006911582
154	0x3a4000bc	0.0007324328
155	0xbd57d054	-0.05268891
156	0x3cf554ee	0.029947724
157	0xbc8df47b	-0.017328491
158	0x3c6ca654	0.014443953
159	0xbc3a0228	-0.011353053
160	0x3cb6f351	0.02233282
161	0xbc92b3d4	-0.017908014
162	0x3ca904e4	0.020632215
163	0x3bb4d157	0.0055181193
164	0xb955aafe	-0.00020376962
165	0xbcbf0565	-0.023318002
166	0x39b7337d	0.00034942842
167	0x3b960ae9	0.0045789373
168	0xbc13d8e0	-0.009023875
169	0xbc95f651	-0.01830593
170	0x3bd9a577	0.0066420394
171	0x3cbde49e	0.023180302
172	0x3ccf40b8	0.025299415
173	0xbce536a2	-0.027980153
174	0x3b073c81	0.0020635428
175	0xb9c8dd63	-0.0003831192
176	0x3b8c0119	0.004272592
177	0xbadd13da	-0.0016866878
178	0xbc2ac99d	-0.010424045
179	0xbc6ba2a6	-0.01438204
180	0x3c85ff78	0.016357169
181	0xbd0f8059	-0.03503451
182	0xbd0e96cd	-0.034811784
183	0x3caf0882	0.021366362
184	0x3cbaecbf	0.022817967
185	0x3c90f7d5	0.0176963
186	0xbb1de5af	-0.00240932
187	0x3cb8fc4c	0.022581242
188	0x3cfd4f70	0.030921668
189	0x3c5d5310	0.013508573
190	0x3c7c1be2	0.015387507
191	0xbaa40724	-0.0012514335
192	0xbcb07ea5	-0.021544764
193	0xbb89f2f9	-0.004209873
194	0xbcc54d6c	-0.02408477
195	0xbc1d7c08	-0.009612091
196	0x3b75ef4f	0.0037526672
197	0x3bcd9942	0.0062743733
198	0xbc5cef2e	-0.013484759
199	0xbcce6a46	-0.02519716
200	0x3c1feb6f	0.009760722
201	0x3cc2c21f	0.023774205
202	0xbc825219	-0.015908288
203	0xbaa94eff	-0.001291722
204	0xbc50cc7b	-0.012744064
205	0x3b89a86d	0.004200986
206	0x3c84dfbe	0.01621997
207	0xbacfd993	-0.0015857689
208	0x3ce96b57	0.028493566
209	0x3cffbde2	0.031218473
210	0x3bb9c133	0.005668783
211	0xbc9e571f	-0.019328652
212	0xbd1134da	-0.035450794
213	0xbcf4eafc	-0.029897206
214	0xbbf685a3	-0.007523255
215	0xbcd47c6b	-0.025938233
216	0x3cd34bf0	0.025793046
217	0x3d20a379	0.0392184
218	0x3ac1aac7	0.0014775627
219	0xba842aa0	-0.0010083504
220	0xbb4046f4	-0.0029339166
221	0xbc80bd5d	-0.015715295
222	0x3d0efbff	0.03490829
223	0x3c6490cc	0.013950538
224	0x3afbf0e2	0.0019221569
225	0x3a7e0288	0.0009689708
226	0xbca5cafc	-0.020238392
227	0x3ca469dd	0.02007001
228	0xbc2f2969	-0.010691025
229	0x3d20999a	0.039208986
230	0x3c6e105d	0.0145302685
231	0xbb8839ae	-0.0041572666
232	0xbd5744e9	-0.052555952
233	0x3b183fae	0.0023231315
234	0xbc662b98	-0.0140484795
235	0xbb3503e3	-0.0027620725
236	0x3a603003	0.0008552076
237	0xbbedb284	-0.0072539467
238	0x3caa6400	0.020799637
239	0x3bfe4dc7	0.0077607366
240	0x3c34bc33	0.011031198
241	0x3a81f977	0.0009916265
242	0xbc5e8de1	-0.013583631
243	0xbcc78604	-0.024355896
244	0xbca0c64d	-0.019625807
245	0x3c620672	0.013795482
246	0x3abe7595	0.0014530892
247	0x3c9b3869	0.018947797
248	0x3ad80779	0.0016481719
249	0xbcabf157	-0.020989103
250	0xbc686716	-0.014184734
251	0xbc151e49	-0.009101459
252	0xbb706b99	-0.0036685227
253	0x3b8b10c1	0.0042439406
254	0xbca55a03	-0.020184522
255	0xbc734532	-0.01484804

action_model._discrete_distribution.branches.0.bias f4 [5]
0	0x3b916bcc	0.004437899
1	0xbc137635	-0.009000351
2	0xbc30bd2c	-0.01078729
3	0xbac75c84	-0.0015210067
4	0x3c5411b8	0.012943678
