Assets/Brain/Tests/newneww.onnx (onnx, 185838 bytes, 9 tensors)

network_body._body_endoder.seq_layers.0.weight f4 [128, 211]
0	0x3cbf7f94	0.023376264
1	0xbc49a436	-0.012307217
2	0x3dd48247	0.10376411
3	0x3ceea828	0.029132918
4	0x3b053dea	0.0020331093
5	0xbd441603	-0.047872555
6	0xbca32cd4	-0.019918837
7	0x3d923f3e	0.07140969
8	0xbe1bceaf	-0.15215562
9	0x3cdfc54a	0.027315754
10	0xbda2ee75	-0.07955638
11	0xbd7b9b88	-0.061427623
12	0x3de8a4e7	0.113595776
13	0xbd44caae	-0.048044853
14	0xbd9a93a7	-0.07547694
15	0xbd991660	-0.07474971
16	0x3bb7e2e9	0.0056117666
17	0x3e254d1b	0.16142695
18	0xbd0538d5	-0.032524902
19	0xbe0ce0d5	-0.13757642
20	0xbddcb478	-0.10776609
21	0x3c0252ec	0.00795434
22	0x3d72ef60	0.059310317
23	0xbd38f198	-0.045152277
24	0xbdadfb59	-0.084952064
25	0xbcd4e57a	-0.02598833
26	0xbe332ec1	-0.17498304
27	0x3dc72c88	0.097252905
28	0x3d8efcd0	0.06981814
29	0xbd3994d9	-0.045307968
30	0xbe120331	-0.1425903
31	0x3dbea1b4	0.09308186
32	0xbcec641d	-0.028856331
33	0x3d5380b8	0.051636428
34	0xbdc8c0a2	-0.09802367
35	0x3b55d55e	0.0032628397
36	0xbdee516c	-0.11636624
37	0x3e3a77fd	0.18209834
38	0x3d0d5b34	0.034510806
39	0xbdacaa50	-0.08430922
40	0x3dd809ac	0.1054872
41	0x3c73f8f0	0.014890894
42	0xbda38616	-0.07984559
43	0xbd86fa85	-0.065907516
44	0xbe1f9f7b	-0.1558818
45	0xbcddbbac	-0.027067028
46	0xbd5df690	-0.05419022
47	0xbc837fba	-0.016052116
48	0x3cbc45ef	0.022982566
49	0xbde66a73	-0.11250772
50	0x3ce4f09f	0.027946768
51	0xbd443717	-0.0479041
52	0xbd5af3dc	-0.05345522
53	0x3b8889d6	0.004166822
54	0xbd82db2d	-0.06389461
55	0x3dc94b5d	0.098288275
56	0x3cb75653	0.02238003
57	0x3dfd66fb	0.123731576
58	0xbd802fd1	-0.0625912
59	0x3baff8a1	0.005370215
60	0xbd53dff6	-0.051727258
61	0x3d9e9f16	0.07745187
62	0xbded3881	-0.11583043
63	0xbd7291ae	-0.059220962
64	0xbd02337e	-0.031787388
65	0x3dcebd74	0.10094729
66	0xbc2583a2	-0.0101021845
67	0x3db8ff7d	0.090331055
68	0x3c795400	0.015217781
69	0x3d796825	0.060890336
70	0x3db337b6	0.087508604
71	0xbd80b562	-0.06284596
72	0xbd3fe659	-0.046850536
73	0xbd2de689	-0.042456184
74	0xbdc20f21	-0.09475542
75	0x3d8259fd	0.0636482
76	0x3e1696f6	0.14706025
77	0xbca0f707	-0.019649042
78	0x3e18a36a	0.14906088
79	0xbccc9030	-0.024971098
80	0xbcceacc9	-0.025228875
81	0xbd85055b	-0.06495162
82	0xbda75280	-0.081700325
83	0xbd6ed1e4	-0.058305636
84	0xbddbe963	-0.10737874
85	0x3cbb79a0	0.022885144
86	0x3b1c503e	0.002385154
87	0x3d363ed8	0.044493526
88	0x3cca66e4	0.024707265
89	0x3d68ff5e	0.056884162
90	0x3e36124b	0.17780416
91	0x3ca9a4a7	0.020708395
92	0x3e63b2b3	0.22236137
93	0x3d002908	0.03128913
94	0xbe42bf55	-0.190183
95	0xbce88322	-0.028382841
96	0x3d1f5913	0.038903307
97	0xbd085a1b	-0.033289056
98	0x3d19b088	0.03752187
99	0xbdaaa041	-0.08331347
100	0xbd8c8955	-0.068621315
101	0xbd57ff19	-0.052733514
102	0xbc090456	-0.00836285
103	0xbca69677	-0.02033542
104	0xbd945d14	-0.07244316
105	0xbc8fc9f4	-0.017552353
106	0xbd5c506c	-0.053787634
107	0xbd3f0f62	-0.04664553
108	0xbdc3092f	-0.09523236
109	0x3d8f9fd5	0.070129074
110	0xbe211487	-0.15730487
111	0x3da14a67	0.07875519
112	0x3d8468a3	0.0646527
113	0x3c9cdfb4	0.019149639
114	0xbd5569e1	-0.052102927
115	0x3c240bce	0.01001258
116	0x3dc8e191	0.098086484
117	0xbd823f7a	-0.063597634
118	0x3e429373	0.1900156
119	0xbde2bec2	-0.110715404
120	0x3dac4fed	0.08413682
121	0xbd219502	-0.039448746
122	0xbe0370dc	-0.12836021
123	0xbd9f1aca	-0.077687815
124	0xbe00cff4	-0.12579328
125	0xbc69cadc	-0.014269557
126	0x3c2d5431	0.010579155
127	0xbdc4fd9a	-0.09618683
128	0x3c8876f3	0.016658282
129	0x3a8f46c5	0.0010931125
130	0xbcf8b6ab	-0.03036054
131	0x3d0f088e	0.034920268
132	0xbdc550b5	-0.09634534
133	0x3d0a5917	0.03377637
134	0x3cccf67c	0.025019877
135	0xbc9f932c	-0.019479357
136	0xbd15394c	-0.036431596
137	0x3da8a602	0.082347885
138	0x3dcff711	0.10154546
139	0xbd8cec98	-0.06881064
140	0x3dbf1717	0.09330576
141	0xbda33ae8	-0.0797022
142	0xbd7794ca	-0.06044463
143	0xbc366588	-0.011132605
144	0xbb8e13cb	-0.0043358556
145	0x3ceed16b	0.029152593
146	0x3cf2e21d	0.029648835
147	0x3e2d9c15	0.16954072
148	0xbc9d4c2e	-0.019201364
149	0xbd5b009f	-0.05346739
150	0xbd42123d	-0.047380675
151	0x3db0ac52	0.086266175
152	0xbde035f7	-0.10947793
153	0xbd4b2a74	-0.049601033
154	0x3d212701	0.039343838
155	0xbc7db24e	-0.015484406
156	0xbd6663bd	-0.05624746
157	0xbd0e5efb	-0.03475855
158	0xbe0a96f3	-0.13534145
159	0xbe17bc62	-0.14817956
160	0xbdb6360c	-0.088970274
161	0xbc8737bc	-0.016506068
162	0xbd988431	-0.074470885
163	0xbdb0d5cb	-0.08634528
164	0xbdbce522	-0.09223391
165	0x3d6b4aab	0.057444256
166	0x3d501977	0.050805535
167	0x3da363fd	0.079780556
168	0x3c8eeb21	0.017446103
169	0x3da475e7	0.080303006
170	0xbd806293	-0.062688015
171	0xbd21c597	-0.039495077
172	0xbd92de83	-0.07171347
173	0x3d665ab2	0.056238838
174	0xbcc42786	-0.023944627
175	0x3dab0abd	0.083516575
176	0x3e198743	0.14993005
177	0x3b7858ba	0.0037894682
178	0x3d82e0c3	0.06390526
179	0x3c082aae	0.008310957
180	0xbd0d15ec	-0.034444734
181	0xbdfe274b	-0.12409838
182	0x3d529710	0.051413596
183	0x3d86c189	0.06579883
184	0xbc562c53	-0.013072091
185	0xbd44b2d6	-0.048022114
186	0xbccf7ca4	-0.025327988
187	0x3d488324	0.04895319
188	0x3cd6ae92	0.026206288
189	0x3cd9c7ab	0.026584467
190	0xbd32eb82	-0.04368163
191	0xbddf5e6c	-0.109066814
192	0xbdec29ba	-0.11531396
193	0x3bea38e4	0.007147895
194	0xbd5be344	-0.053683534
195	0x3caf5098	0.021400735
196	0x3ddc8160	0.10766864
197	0x3d9c5b20	0.07634568
198	0x3c44ae94	0.012004513
199	0x3cc60c2f	0.024175731
200	0xbe0aa315	-0.13538773
201	0xbd71197d	-0.0588622
202	0xbd8a27b2	-0.067458525
203	0x3dde581a	0.10856648
204	0x3d5a6c23	0.053325783
205	0xbd8c733c	-0.06857917
206	0x3d7bb5a3	0.06145252
207	0xbe7a9ae0	-0.24473143
208	0x3d41d911	0.04732615
209	0x3e019815	0.12655671
210	0xbdb89155	-0.09012095
211	0x3d982cd1	0.07430423
212	0x3d24d68b	0.040243667
213	0xbd2a5697	-0.041586485
214	0x3c7af302	0.015316727
215	0xbe078f0c	-0.13238162
216	0x3d3b2b71	0.045695726
217	0xbd8f1325	-0.069860734
218	0x3e22ca16	0.15897402
219	0xbdb5307a	-0.08847137
220	0xbcc537fa	-0.024074543
221	0x3c9747c5	0.01846684
222	0x3cbf9366	0.023385715
223	0x3dddc8e4	0.108293325
224	0xbd804309	-0.06262786
225	0x3da235e3	0.07920434
226	0x3dec4b34	0.11537781
227	0xbdbf31cb	-0.09335669
228	0x3ca28536	0.01983891
229	0xbac24ed7	-0.0014824521
230	0xbde1d4ff	-0.11026954
231	0xbd5e57e8	-0.054283053
232	0xbd8d1303	-0.06888392
233	0xbd016a87	-0.031595733
234	0x3bbb4c99	0.0057159183
235	0xbe23920e	-0.15973684
236	0xbd012152	-0.031525917
237	0x3c17e5f6	0.009271136
238	0x3d2edad9	0.04268918
239	0xbcf6ff0c	-0.030150913
240	0xbcef38f6	-0.029201966
241	0xbd3d9ce0	-0.046292186
242	0xbcc8fe65	-0.024535367
243	0x3dc25e9f	0.09490704
244	0x3d9be842	0.07612659
245	0x3d181744	0.037131563
246	0xbb061cf4	-0.0020464035
247	0x3d8c0572	0.06836976
248	0x3de8e029	0.1137088
249	0xbc69ed26	-0.014277732
250	0xbd91bb5d	-0.07115815
251	0x3c767350	0.015042141
252	0xb8f52941	-0.000116901945
253	0x3da99abb	0.082814656
254	0xbbda6cb8	-0.0066657923
255	0xbd80621d	-0.062687136

network_body._body_endoder.seq_layers.0.bias f4 [128]
0	0xbc2bbf33	-0.010482597
1	0x3c8a879c	0.016910367
2	0x3c54e742	0.012994589
3	0x3c00c227	0.0078587895
4	0x3c96c6f1	0.01840541
5	0x3bc69fa1	0.0060615097
6	0x3c9f6d08	0.01946117
7	0x3c74e880	0.01494801
8	0x3c97f441	0.018549087
9	0x3c82fe02	0.015990261
10	0x3c816052	0.015793
11	0x3c49f8a4	0.012327347
12	0x3c89e09c	0.016830735
13	0x3be0ef80	0.006864488
14	0xbb044c4a	-0.0020187073
15	0xbbd90f29	-0.0066241217
16	0xba7062d6	-0.0009170001
17	0x3c376817	0.011194251
18	0x3c931f84	0.017959364
19	0x3c3964a7	0.011315501
20	0x3c91494e	0.01773515
21	0x3b87f0e4	0.0041485894
22	0x3a4482a1	0.0007496272
23	0x3c05e983	0.008173349
24	0x3a813b63	0.0009859618
25	0x3cbde7e2	0.02318186
26	0x3ca729f5	0.020405749
27	0x3c2dc7ce	0.010606719
28	0x3c5c184e	0.013433529
29	0x3a6d3852	0.0009049225
30	0x3cb58265	0.022156904
31	0x3cd98c97	0.026556296
32	0x3c84ea26	0.016224932
33	0x3caebce4	0.021330304
34	0x3c276cdd	0.010218826
35	0x3a323dea	0.0006799387
36	0x3c57f7a9	0.013181605
37	0x3bd83c89	0.006599013
38	0x3c8163bc	0.015794627
39	0x3cdb56b7	0.026774747
40	0x3bfcc5ed	0.0077140243
41	0x3c43e025	0.011955296
42	0x3ccc8670	0.024966449
43	0x3cb4653f	0.022020934
44	0xbc983e38	-0.018584356
45	0xbc106f10	-0.008815542
46	0x3c1aa053	0.009437638
47	0x3a3b7a1f	0.00071516813
48	0x3cb573d2	0.022149954
49	0x3c21a9fd	0.0098671885
50	0x3c1b9501	0.0094959745
51	0x3c7f5f1e	0.015586643
52	0x3c3a4919	0.011369967
53	0xb9dd83a2	-0.0004225048
54	0x3c723137	0.014782242
55	0x3ccdb6c7	0.02511157
56	0x3b04eca0	0.002028264
57	0x3c8e255a	0.017351795
58	0xbb88b147	-0.0041715237
59	0x3c8db1b9	0.017296659
60	0x3ab6edbb	0.0013956347
61	0x3cbfec87	0.023428215
62	0x3b33d62c	0.0027440889
63	0x3c52eaf6	0.012873402
64	0x3cc27fc0	0.023742557
65	0x3c5f4b52	0.013628798
66	0x3c64a9a9	0.013956466
67	0x3c762eec	0.0150258355
68	0xb784fa60	-1.5852216e-05
69	0x3bddf2b1	0.006773316
70	0x3c8669c5	0.016407857
71	0x3c502f9d	0.012706664
72	0xbc1430bb	-0.009044821
73	0x3cc35f0e	0.023849037
74	0x3c00326a	0.00782452
75	0x3cb40d23	0.02197892
76	0x3b0b1ce2	0.0021226932
77	0x3c424ead	0.011859578
78	0x3d03e1b8	0.032197684
79	0x3d1087f0	0.03528589
80	0x3cee83f5	0.029115656
81	0x3c3bf539	0.01147204
82	0x3c9b46b6	0.018954616
83	0x3c9f16d1	0.01942006
84	0xbc109af2	-0.008826004
85	0x3ccdbcc6	0.025114428
86	0x3bc8d5dd	0.00612901
87	0x3cb08ccb	0.02155151
88	0xbbb90423	-0.005646245
89	0xbb14de17	-0.0022715384
90	0x3cbc7aa0	0.02300769
91	0x3bb68c10	0.005570896
92	0x3c94e8df	0.018177448
93	0xbb61d367	-0.003445828
94	0x3c4cc8c1	0.012499035
95	0xba8ee828	-0.0010902928
96	0x3c08b3e1	0.008343668
97	0x3d0fb2ed	0.035082746
98	0x3c501085	0.012699251
99	0x3c02793a	0.007963473
100	0x3c624fc2	0.013812961
101	0x3bdba061	0.0067024683
102	0x3c9f5b54	0.019452728
103	0x3c12ace3	0.008952352
104	0x3c968d07	0.018377794
105	0xbac7e03b	-0.0015249321
106	0x3c9d46cc	0.019198798
107	0x3c4b2330	0.012398526
108	0x3b2782a5	0.0025560048
109	0x3cfd5844	0.030925877
110	0x3cceaa3e	0.025227662
111	0x3bd00cc9	0.0063491804
112	0x3cca9ca7	0.0247329
113	0x3b7d24dd	0.0038626709
114	0x3c9d3671	0.019190999
115	0x3b8a84b1	0.004227244
116	0x3ca05011	0.019569429
117	0x3c815fd7	0.01579277
118	0x3c3670ad	0.011135262
119	0x3c8ea298	0.017411515
120	0x3bdabce6	0.0066753505
121	0xbb313ed5	-0.0027045507
122	0x3c445d3d	0.01198512
123	0x3c14a632	0.009072827
124	0x3cb3801b	0.021911671
125	0x3c62c3ac	0.013840597
126	0x3c3d875e	0.011567919
127	0x3cb0b83c	0.021572225

network_body._body_endoder.seq_layers.2.weight f4 [128, 128]
0	0x3d8d35e4	0.068950444
1	0xbb36c9a9	-0.0027891195
2	0xbd2492f4	-0.040179208
3	0x3d286865	0.041115183
4	0x3a1e3573	0.0006035186
5	0x3d377f96	0.04479941
6	0xbdd1e103	-0.10247996
7	0x3d711c96	0.058865152
8	0xbe1f6333	-0.15565185
9	0x3d3ce18a	0.04611353
10	0x3e07fce4	0.13280064
11	0x3ce67d8a	0.028136034
12	0x3db7c1e2	0.08972527
13	0xbc1e7567	-0.009671546
14	0x3d313abd	0.043268908
15	0xbcd090ba	-0.025459636
16	0x3d15fa5e	0.036615722
17	0x3d8ed28a	0.06973751
18	0xbde84bda	-0.113425925
19	0xbcd15714	-0.025554217
20	0x3e11bbb7	0.14231764
21	0xbdbfc7b5	-0.09364263
22	0x3e0bf1e0	0.13666487
23	0x3e39ac56	0.18132147
24	0x3d7bb547	0.061452176
25	0xbdd89d0f	-0.105768315
26	0xbd5f9b48	-0.054591447
27	0x3d403ace	0.04693108
28	0x3d5347e7	0.051582243
29	0x3ce5ca66	0.028050613
30	0x3e21c1c9	0.1579658
31	0x3da9bde2	0.082881704
32	0xbcfe05e6	-0.031008672
33	0xb9f8ec2d	-0.0004747821
34	0xbdeb1c56	-0.11480014
35	0x3d0b1489	0.03395513
36	0xbd8505f7	-0.06495278
37	0x3d7b0c2f	0.061290916
38	0xbc98c53d	-0.018648738
39	0xbda3b5f1	-0.07993687
40	0xbb8c9fab	-0.004291495
41	0x3e23934e	0.15974161
42	0xbd160328	-0.036624104
43	0x3dd5e867	0.10444718
44	0xbbef7222	-0.007307307
45	0xbcc4c0c7	-0.024017705
46	0x3dd6ae48	0.1048246
47	0x3e1f081e	0.1553044
48	0x3c9702a0	0.018433869
49	0xbdb6c153	-0.089235924
50	0x3da90f56	0.08254878
51	0x3d393479	0.045216057
52	0xbddecffa	-0.10879512
53	0x3d2175c8	0.039418966
54	0xbe1a513a	-0.15070048
55	0x3c19a29c	0.009377148
56	0x3d8ba7c6	0.068191096
57	0xbe6dc99f	-0.23221444
58	0x3ce1dacc	0.02757015
59	0x3c7aabc7	0.015299744
60	0x3df460d5	0.11932532
61	0x3d1702a4	0.036867753
62	0x3d0a9e55	0.033842403
63	0x3dbbe068	0.091736615
64	0x3dd27d2e	0.102777824
65	0xbcbd7fdc	-0.023132257
66	0x3cbe50ce	0.02323189
67	0xbdcd4e27	-0.10024672
68	0xbe194e6b	-0.1497132
69	0x3e3f47cd	0.18679734
70	0x3e3d2ee7	0.18474923
71	0x3c43804d	0.011932445
72	0xbd962bf7	-0.073326044
73	0xb9d398a8	-0.00040358794
74	0x3d30345c	0.043018684
75	0x3e194e51	0.14971282
76	0x3d3bf0f2	0.04588408
77	0xbddcc7fa	-0.1078033
78	0xbdc81dad	-0.09771285
79	0x3e1d4f07	0.15362178
80	0xbddeb621	-0.10874582
81	0x3d4451d5	0.047929604
82	0xbc2e5acb	-0.010641764
83	0x3b203918	0.0024448093
84	0xbcdd99a3	-0.027050799
85	0x3cf8a7c2	0.03035343
86	0xbe24f1c4	-0.16107851
87	0x3e4e3c95	0.20140298
88	0xbdb943f1	-0.09046162
89	0x3d12bac7	0.035822656
90	0x3d8c8146	0.068605945
91	0x3dd47fc6	0.10375933
92	0x3d89d563	0.067301534
93	0xbe01daaa	-0.1268107
94	0x3d821144	0.063509494
95	0x3cc780c4	0.024353392
96	0xbda8e58f	-0.0824691
97	0xbdc976f1	-0.098371394
98	0xbd439388	-0.04774812
99	0xbd1f18ba	-0.03884194
100	0x3d0c66b5	0.034277637
101	0xbd967a19	-0.07347507
102	0x3d2b2ccc	0.04179077
103	0x3d91994f	0.071093194
104	0x3dbd7a35	0.09251825
105	0xbdc1f936	-0.09471361
106	0x3dbf4bc3	0.09340622
107	0xbc75114c	-0.014957737
108	0x3e3c92f4	0.18415433
109	0x3dbd49e9	0.09242613
110	0xbd8aaf0a	-0.06771667
111	0x3c78dc61	0.015189261
112	0xbe28410b	-0.16431062
113	0x3d4eba5d	0.0504707
114	0x3c958a98	0.018254563
115	0x3cb548fb	0.022129526
116	0x3d9d3606	0.0767632
117	0x3dd2d0ff	0.10293769
118	0x3c201134	0.009769727
119	0x3d2a9212	0.04164321
120	0x3cce855c	0.025210075
121	0x3df4daad	0.119557716
122	0xbd322e80	-0.043501377
123	0x3c3a4ac0	0.011370361
124	0x3d887f0f	0.066648595
125	0x3d82882c	0.06373629
126	0x3d51a3fd	0.051181782
127	0xbd65d7a7	-0.056113865
128	0xbe1bc172	-0.15210512
129	0xbc3a8baa	-0.011385838
130	0x3d38a632	0.04508037
131	0xbbf1bea8	-0.0073774643
132	0xbbcb3c82	-0.0062022815
133	0xbd550f54	-0.05201657
134	0x3c403d04	0.011733297
135	0xbd8a8118	-0.06762904
136	0x3e5c31ba	0.21503344
137	0x3de01403	0.10941317
138	0xbe082bdf	-0.13297985
139	0xbdec67c6	-0.11543231
140	0x3c91ed4d	0.01781335
141	0x3db186fc	0.08668324
142	0x3cfb4728	0.030673578
143	0xbe4ec8b0	-0.20193744
144	0xbd0e1979	-0.03469226
145	0x3d6bcd2a	0.057568707
146	0x3d81abe1	0.063316114
147	0xbdff3ee8	-0.1246317
148	0xbe20b92b	-0.15695636
149	0x3d9e8487	0.07740121
150	0xbb2f3ceb	-0.002673919
151	0xbdcf355e	-0.10117601
152	0xbe0b3adc	-0.13596672
153	0xbd80c47d	-0.06287477
154	0x3d8cda22	0.06877543
155	0x3cf9429c	0.03042727
156	0xbcae79d2	-0.021298323
157	0x3d2100b8	0.039307326
158	0x3d16514e	0.036698632
159	0xbd8c7793	-0.068587445
160	0xbdd743e1	-0.10510994
161	0xbd660300	-0.056155205
162	0xbdf5d359	-0.12003202
163	0x3e85834c	0.26076734
164	0x3d330e9e	0.043715112
165	0xbd2d65df	-0.04233348
166	0x3dc8b4cb	0.098001085
167	0xbd241324	-0.040057316
168	0xbe0a595e	-0.13510653
169	0xbd16e52c	-0.03683965
170	0xbc73f7cd	-0.014890623
171	0xbdf00ef4	-0.11721602
172	0xbe1de93c	-0.15421003
173	0x3e3a0e49	0.18169512
174	0xbd8eccd3	-0.06972661
175	0x3d807365	0.0627201
176	0x3c49f059	0.01232537
177	0x3d5e6cf0	0.05430311
178	0xbc85f03a	-0.0163499
179	0xbdeb3ffc	-0.114868134
180	0x3db0f79e	0.08640979
181	0x3cfc5eb5	0.030806879
182	0xbc151cd8	-0.009101115
183	0x3d5ca36b	0.053866785
184	0x3d2c4354	0.042056397
185	0x3df4b67f	0.11948871
186	0xbe301e97	-0.17199169
187	0xbe2d3e50	-0.16918302
188	0x3d8dfc24	0.06932858
189	0xbdc23083	-0.09481909
190	0x3d792725	0.060828347
191	0xbd9bc181	-0.07605267
192	0xbd7fc1e0	-0.062440753
193	0xbdf27da8	-0.11840373
194	0x3d397431	0.045276824
195	0x3ce5bb9f	0.028043566
196	0xbd8708b6	-0.06593458
197	0x3db14c8d	0.08657179
198	0xbd354a1b	-0.044260126
199	0x3d2c0d61	0.042004947
200	0x3de49e60	0.1116302
201	0xbd29fbc8	-0.041499883
202	0xbdf0c927	-0.11757117
203	0x3c0fd562	0.008778902
204	0xbccbf436	-0.024896722
205	0x3d036e5a	0.03208766
206	0x3e4c4813	0.19949369
207	0xbe30d9df	-0.17270611
208	0xbde75d53	-0.11297097
209	0x3d541b29	0.051783714
210	0x3e192295	0.14954598
211	0x3e190c7d	0.1494617
212	0xbd332e92	-0.043745585
213	0xbdb9abb3	-0.09065952
214	0x3c26dab9	0.0101839835
215	0x3e2a75ba	0.16646472
216	0xbda284f0	-0.07935512
217	0x3cbe7830	0.02325067
218	0xbd2b6359	-0.041842792
219	0xbd212513	-0.039341997
220	0xbe0145b5	-0.12624247
221	0xbd618e16	-0.055067144
222	0x3e0f7afa	0.14011756
223	0xbd62c5a3	-0.055364262
224	0xbe253abc	-0.16135687
225	0xbc8285bc	-0.01593291
226	0xbe626d0d	-0.22111912
227	0x3dbed517	0.093179874
228	0x3e1136f6	0.14181122
229	0x3d1df82e	0.03856676
230	0xbd39768c	-0.04527907
231	0x3c969503	0.018381601
232	0x3e095315	0.134106
233	0x3d94f2c1	0.07272864
234	0x3dd07295	0.10178105
235	0xbd904fb2	-0.07046451
236	0xbdb3636f	-0.087592
237	0xbd4bb397	-0.049731817
238	0xbd2c742e	-0.042102985
239	0xbcc0d969	-0.02354117
240	0xbdb2b063	-0.08725049
241	0x3e134afc	0.14384073
242	0x3c9db178	0.019249663
243	0xbe23dc28	-0.16001952
244	0x3d7ca959	0.06168494
245	0x3db4987c	0.088181466
246	0x3d79275c	0.06082855
247	0x3be3661a	0.0069396617
248	0xbe29801c	-0.16552776
249	0xbd1d1eaa	-0.03835932
250	0xbdbf1bcf	-0.09331476
251	0xbcb5a7d5	-0.022174755
252	0xbd3032a3	-0.04301704
253	0x3dd9d81c	0.10636923
254	0xbbaece68	-0.005334664
255	0xbda5319a	-0.08066101

network_body._body_endoder.seq_layers.2.bias f4 [128]
0	0x3c4d5cbd	0.012534318
1	0xba8b9dd6	-0.0010651897
2	0x3c1ef155	0.009701093
3	0x3cf49d4f	0.029860167
4	0x3cf225c1	0.029559018
5	0x3d0d7b64	0.034541503
6	0xbae4c530	-0.0017453786
7	0x3cbc0c3b	0.02295505
8	0x3a87adfc	0.0010351534
9	0xbb4f9a9b	-0.0031677845
10	0x3c85351a	0.016260672
11	0xbc2087ea	-0.009798029
12	0xb9ab9745	-0.00032728366
13	0x3cd1f14b	0.025627753
14	0x3c8bb7c1	0.017055394
15	0x3ae3aeb7	0.0017370795
16	0x3c4818d6	0.012212953
17	0xbb91778b	-0.0044392995
18	0x3c90d822	0.017681185
19	0xbc86ff69	-0.01647921
20	0x3c55c77d	0.01304805
21	0x3ccc8cec	0.02496954
22	0x3bbd0e28	0.00576951
23	0x3cbbeedd	0.022941047
24	0x3b0dc5cc	0.0021632789
25	0x3bf38dbe	0.0074326685
26	0xbb5375e1	-0.0032266306
27	0x3b9ccb0a	0.0047849463
28	0x3cba1d5c	0.022719078
29	0x3c7b9abc	0.015356716
30	0x3cca0503	0.024660593
31	0x3c4cd29a	0.012501383
32	0x3d1b7100	0.037949562
33	0x3c891ee7	0.016738368
34	0x3c6f2552	0.0145963
35	0x3ca5d0e0	0.0202412
36	0x3c103018	0.008800529
37	0x3ad837fb	0.0016496176
38	0x3cedb10a	0.029015083
39	0x3bec2d7b	0.00720757
40	0x3d1c2bae	0.038127594
41	0x3cef2cca	0.029196162
42	0x3c429a09	0.011877545
43	0x3b956fe4	0.0045604575
44	0x3aeed9f7	0.0018222918
45	0x3c055668	0.008138277
46	0x3c44f207	0.012020594
47	0x3d322be2	0.04349888
48	0xbbb05ad9	-0.0053819236
49	0x39a7c46d	0.0003199907
50	0x3b4af6cd	0.0030969859
51	0x3a6c6674	0.0009017952
52	0x3cb1accc	0.021688841
53	0x3b3d43c3	0.00288795
54	0xbba25bff	-0.0049548144
55	0x3b4e7ce9	0.0031507558
56	0x3b9c56bb	0.0047710813
57	0x3bf47881	0.0074606542
58	0x3cd7401c	0.026275687
59	0x3c7e25bb	0.015511925
60	0x3a8cc022	0.0010738412
61	0x3c82ec2a	0.015981752
62	0x3ce6b478	0.028162226
63	0x3b6e68f7	0.0036378482
64	0x38d44e0b	0.000101234844
65	0x3c8bd632	0.01706991
66	0x3bab757e	0.005232512
67	0x3cb61276	0.0222256
68	0x3c7093da	0.014683688
69	0x3b92412f	0.004463337
70	0x3c293b29	0.010329046
71	0x3cea9833	0.028637027
72	0x3b1be895	0.0023789753
73	0xbbf53d43	-0.0074841096
74	0x3a755e1e	0.0009360033
75	0x3ca57739	0.020198451
76	0x3c768db8	0.015048437
77	0x3d04fc34	0.032467082
78	0x3c434dee	0.011920435
79	0x3cdc3058	0.02687852
80	0xbbcd4d16	-0.006265293
81	0xb8036858	-3.133001e-05
82	0xbc7285ab	-0.014802377
83	0xb8c34c76	-9.3125665e-05
84	0x3ca1054b	0.019655844
85	0x3cdfea50	0.027333409
86	0xbbc42f6c	-0.0059870984
87	0x3cb4cab7	0.022069318
88	0x3c83f807	0.01610948
89	0x3bbe532a	0.005808254
90	0x3cbeab8b	0.023275157
91	0xbc369ca3	-0.011145744
92	0x3cb0d2e6	0.02158494
93	0x3ce293d4	0.02765838
94	0xbbd3c11a	-0.0064622285
95	0xbbee6ca7	-0.007276136
96	0x3cb57176	0.022148829
97	0x3d03a022	0.032135136
98	0x3c8fde2b	0.017561993
99	0x3ccb0b0a	0.024785537
100	0x3bed6807	0.007245067
101	0x3d0aa448	0.033848077
102	0x3ba3cb72	0.004998618
103	0x3c21e01b	0.009880091
104	0x3b768ba3	0.003761985
105	0x3cc49112	0.023994956
106	0x3c0ac071	0.008468733
107	0x3c0fd0b9	0.008777791
108	0xbc4348d7	-0.011919222
109	0x3cb2d442	0.021829728
110	0x3d08fe6e	0.033445768
111	0x3c9d4610	0.019198447
112	0x3c1b3249	0.009472438
113	0xba1688d6	-0.0005742436
114	0x3cdeb786	0.02718712
115	0xbb9d499b	-0.004800034
116	0x3cb20016	0.021728557
117	0x3d06841b	0.03284083
118	0x3d3bbc03	0.0458336
119	0x3cdfab2f	0.027303306
120	0x3cb0ed05	0.021597395
121	0x3d3d53b5	0.046222407
122	0xbc626165	-0.013817166
123	0x3c90c132	0.017670248
124	0x3bc4d363	0.0060066446
125	0x3c9a7244	0.018853314
126	0x3c0d82b9	0.008637124
127	0xbc057f7b	-0.0081480695

action_model._continuous_distribution.log_sigma f4 [1, 3]
0	0xbea7786b	-0.3270906
1	0xbf1629ba	-0.5865742
2	0xbfac67e8	-1.346921

action_model._continuous_distribution.mu.weight f4 [3, 128]
0	0x3d13f13a	0.036118723
1	0xbd26aff2	-0.04069514
2	0xbdd02d58	-0.10164899
3	0x3d84440f	0.06458294
4	0x3d916b8b	0.0710059
5	0xbcb86a24	-0.02251155
6	0xbd9577b5	-0.07298223
7	0x3da0002f	0.07812535
8	0xbc15b68c	-0.009137761
9	0xbd937136	-0.07199328
10	0xbc74e0e0	-0.0149461925
11	0xbc574cdf	-0.013140886
12	0x3d2f3d53	0.042783093
13	0x3cdf94d7	0.027292652
14	0x3da237f5	0.07920829
15	0xbd8be029	-0.068298645
16	0xbb035e46	-0.0020045205
17	0x3a61cfd7	0.00086140394
18	0xbdbaad7d	-0.091151215
19	0xbd69e43e	-0.057102434
20	0xbaae3b94	-0.0013292902
21	0x3d88f74e	0.066877946
22	0x3d355c6b	0.04427759
23	0xbc923b99	-0.017850684
24	0xbdb7a56b	-0.08967098
25	0xbd679259	-0.056536052
26	0xbd2362f4	-0.03988929
27	0xbc348c0f	-0.011019721
28	0x3d5b0e1d	0.053480256
29	0x3d8b77c7	0.06809955
30	0x3d95323a	0.072849706
31	0x3d5a6a3b	0.053323966
32	0x3d57ff33	0.05273361
33	0xbd6cc59b	-0.05780564
34	0xbdf7a0d4	-0.120912224
35	0x3da7392b	0.08165201
36	0x3cb1a2fd	0.021684164
37	0x3d3e491b	0.046456438
38	0xbb010977	-0.001968948
39	0xbd467ab4	-0.048456863
40	0x3daede78	0.08538526
41	0x3dd285ae	0.102794036
42	0xbc4c3fd1	-0.012466387
43	0x3bd86168	0.0066034086
44	0xbd8b5b93	-0.06804576
45	0x3bb70532	0.005585336
46	0xbd991b66	-0.07475929
47	0x3da8214a	0.082094744
48	0x3d3df6e9	0.04637805
49	0xbd9b92d0	-0.07596362
50	0xbcd17411	-0.02556804
51	0xbdd8c2d3	-0.10584035
52	0xbd01d1bf	-0.03169417
53	0x3ca974be	0.02068555
54	0xbbad5240	-0.005289346
55	0xbd30fe36	-0.043211184
56	0xbdd0baa4	-0.10191849
57	0xbc89ef5e	-0.016837772
58	0x3daec6d4	0.08534017
59	0xbcf3303e	-0.02968609
60	0xbd633d14	-0.05547817
61	0x3d285326	0.04109492
62	0x3cb9f6d8	0.022700712
63	0x3d301037	0.042984214
64	0xbd05b7b6	-0.032645904
65	0x3da4e4cb	0.08051451
66	0x3cea95da	0.028635908
67	0x3d8ac920	0.06776643
68	0xbdd2a2b8	-0.102849424
69	0xbcf1841f	-0.029481946
70	0x3c626a72	0.013819324
71	0x3daa8b33	0.083273314
72	0x3d03317b	0.03202961
73	0xbd153dc3	-0.036435854
74	0x3bfd7a25	0.007735508
75	0x3d44aa6d	0.048014093
76	0x3d8ed0a1	0.069733866
77	0xbdc354a0	-0.09537625
78	0xbd35814a	-0.044312753
79	0x3cfd8a76	0.030949812
80	0xbc5a5409	-0.0133257
81	0x3d24abee	0.040203027
82	0xbd883746	-0.066511676
83	0xbd82111f	-0.06350922
84	0xbcd24c12	-0.025671039
85	0xbcdf8603	-0.027285581
86	0xbd0ad178	-0.03389117
87	0xbda3ffd6	-0.08007781
88	0x3d6d251e	0.057896726
89	0xbce20073	-0.027588105
90	0x3db989c9	0.090594836
91	0x392bf918	0.00016400625
92	0x3d3eac01	0.046550754
93	0xbd3de80c	-0.046363875
94	0xbc457e91	-0.012054102
95	0x3b83b556	0.0040194197
96	0x3d5d4dc3	0.054029237
97	0x3d52ad33	0.051434707
98	0x3d3fc6d9	0.046820495
99	0x3d55c70c	0.05219178
100	0x3cf1e289	0.029526966
101	0x3d69961c	0.05702792
102	0xbcde041c	-0.027101569
103	0xbd88b4c6	-0.06675105
104	0x3d5124af	0.051060375
105	0xbd0251af	-0.03181618
106	0xbd595988	-0.0530639
107	0xbcfab33d	-0.030603046
108	0xbd8cfe0b	-0.06884392
109	0x3bbc0175	0.0057374784
110	0xbd829dc1	-0.063777454
111	0x3ce6d2c5	0.028176675
112	0x3d5443a6	0.051822327
113	0x3cfbcbbb	0.030736795
114	0x3daf5f4d	0.08563099
115	0xbd34d547	-0.04414871
116	0xbc0d7397	-0.008633516
117	0x3d204cee	0.039135866
118	0xbce3c1d0	-0.027802378
119	0x3ddc2b3f	0.10750436
120	0x3cc847b3	0.024448251
121	0x3c701f2b	0.0146558685
122	0xbccd431e	-0.025056418
123	0x3d1a27a9	0.03763548
124	0x3d8728fe	0.065996155
125	0x3d3a2547	0.045445707
126	0xbd468fa2	-0.048476823
127	0xbb4a8311	-0.0030900876
128	0x3c951ae0	0.018201292
129	0xbb4ba982	-0.0031076376
130	0x3a832e2b	0.0010008266
131	0xbde0bc58	-0.10973424
132	0xbdd3696a	-0.103228405
133	0x3ccb6ae2	0.02483124
134	0x3c762391	0.015023128
135	0x3cbf7d05	0.023375044
136	0x3d53e8fe	0.05173587
137	0x3c8d2348	0.017228737
138	0xbd94b62b	-0.07261308
139	0x3c378567	0.011201239
140	0xbd1a193f	-0.037621733
141	0x3de95088	0.11392313
142	0xbd2cb0ab	-0.04216067
143	0xbcded82a	-0.027202684
144	0x3dae9e75	0.08526317
145	0x3d4e9092	0.05043084
146	0x3ba65bba	0.0050768526
147	0xbc343686	-0.0109993275
148	0x3d691df2	0.056913324
149	0xbcaa2503	-0.020769602
150	0xbd856689	-0.06513698
151	0xbd46bbb2	-0.048518844
152	0xbc82a9f5	-0.015950182
153	0x3d49b9eb	0.04924957
154	0x3d52ad2f	0.051434692
155	0x3dc8d01e	0.0980532
156	0xbda372a0	-0.07980847
157	0x3d8fc3bd	0.07019756
158	0xbbed3dfd	-0.0072400556
159	0x3d353ad6	0.044245563
160	0x3dd4ea90	0.10396302
161	0xbc20ba5b	-0.009810056
162	0x3c9b5f55	0.018966356
163	0xbd3e241a	-0.046421148
164	0xbd51440c	-0.051090285
165	0xbd4fe7a2	-0.05075801
166	0xbd8361e8	-0.064151585
167	0x3cfbe0a5	0.030746767
168	0xbd7f2417	-0.062290277
169	0xbcafc35d	-0.021455461
170	0x3d76f284	0.060289875
171	0xbd302cc4	-0.04301144
172	0xbce6efb6	-0.028190475
173	0xbc553f2d	-0.013015551
174	0xbcd4a737	-0.02595864
175	0x3d54887c	0.051887974
176	0x3ad6539e	0.0016351824
177	0x3d7c94eb	0.061665457
178	0xbc677c78	-0.014128797
179	0x3cab5a5e	0.020917114
180	0xbd9622d1	-0.073308595
181	0x3d8995c7	0.06718021
182	0xbd5dec70	-0.054180562
183	0x3c6653fd	0.01405811
184	0xbd3efa67	-0.04662552
185	0xbd8b1dd2	-0.06792797
186	0xbd9d5c6e	-0.07683645
187	0xbd9a2a16	-0.075275585
188	0xbc49c1b6	-0.012314251
189	0xbdae48b3	-0.0850996
190	0x3ddef425	0.108864106
191	0xbd22ea26	-0.039774083
192	0x3d130677	0.035894837
193	0x3cb5be50	0.022185475
194	0x3d844c4d	0.06459866
195	0x3d85e96d	0.06538663
196	0x3d3e6910	0.046486914
197	0x3bed6073	0.0072441637
198	0xbd5165bf	-0.051122423
199	0x3c9f908a	0.019478101
200	0x3d01c98e	0.03168636
201	0xbd38c5f3	-0.045110654
202	0x3dd461c5	0.103702106
203	0xbd159952	-0.03652317
204	0x3d51b2e2	0.051195987
205	0xbd27cf45	-0.040969152
206	0x3cdf1269	0.027230458
207	0x3d66332f	0.056201156
208	0x3a5a97f4	0.0008338683
209	0xbc05d66f	-0.008168801
210	0xbc74c9a6	-0.014940655
211	0xbb683832	-0.0035433886
212	0x3dada84e	0.08479367
213	0x3c1c67ec	0.009546261
214	0x3d3f509b	0.04670773
215	0x3b8e83e8	0.0043492205
216	0x3c88c7a7	0.016696764
217	0xbc162994	-0.009165186
218	0xbd74a7e6	-0.059730433
219	0xbcaf6928	-0.021412447
220	0x3d852531	0.06501234
221	0x3d03018e	0.031983905
222	0xbca84da0	-0.020544827
223	0x3d3796b4	0.044821456
224	0x3c2bf1da	0.010494674
225	0x3deb7f9a	0.114989474
226	0x3cbb10c2	0.02283514
227	0xbdc0598f	-0.09392082
228	0xbd3cf105	-0.04612829
229	0x3da2c065	0.079468526
230	0xbaf7ca50	-0.0018904898
231	0xbd8a462a	-0.06751664
232	0x3cda023b	0.026612392
233	0x3d8cee3e	0.068813786
234	0xbdbaf7d4	-0.09129301
235	0xbdb02f40	-0.08602762
236	0x3ac7ea7b	0.0015252376
237	0xbe10ea2a	-0.14151827
238	0xbc9cc978	-0.019139037
239	0xbd971089	-0.07376201
240	0x3c8d7dd8	0.017271921
241	0x3d362426	0.044468068
242	0xbc43f5f9	-0.0119605
243	0x3d14181c	0.036155805
244	0x3a6525e1	0.0008741301
245	0x3d1d550b	0.03841118
246	0xbd991e93	-0.07476535
247	0x3d234dc5	0.03986909
248	0x3d8fb069	0.070160694
249	0x3c12dc42	0.008963646
250	0x3d0136c8	0.031546384
251	0x3de325d5	0.110912
252	0xbd8ba374	-0.068182856
253	0xbdc024af	-0.09381997
254	0xbd49b254	-0.049242333
255	0x3d039ad6	0.032130085

action_model._continuous_distribution.mu.bias f4 [3]
0	0x3cc3bc44	0.023893483
1	0xbbe2351f	-0.006903305
2	0x3bb994dd	0.005663498

action_model._discrete_distribution.branches.0.weight f4 [5, 128]
0	0xbd761e29	-0.060087357
1	0x3d236ff4	0.03990169
2	0x3d54585c	0.05184208
3	0xbcf847f1	-0.030307742
4	0x3d3c58d4	0.04598315
5	0x3d3fdc60	0.046841025
6	0x3cac8911	0.021061452
7	0xbcc32f83	-0.023826366
8	0x3c3e8234	0.0116277225
9	0x3c96bd12	0.018400703
10	0xbca252fb	-0.019814959
11	0xbbef0064	-0.0072937477
12	0x3a7e9aa4	0.00097123743
13	0x3cb537be	0.022121307
14	0x3d0e9b3a	0.034816004
15	0x3d4d4161	0.05011118
16	0x3c2684f1	0.010163532
17	0x3ca8f1fd	0.020623202
18	0xbcaaf8ae	-0.020870533
19	0xbc8729fc	-0.016499512
20	0x3c1f7f4b	0.009734939
21	0x3c92371a	0.01784854
22	0x3d29626e	0.041353635
23	0x3d87c70c	0.06629762
24	0x3d448801	0.047981266
25	0x3c803297	0.015649123
26	0xbbff7cc8	-0.0077968575
27	0x3cb7d9d5	0.022442738
28	0x3c81b6d0	0.015834242
29	0x3be5ede3	0.0070168837
30	0x3ce96390	0.028489858
31	0x3cd684d4	0.026186384
32	0x3c94b459	0.018152403
33	0x3d27fd69	0.041013155
34	0x3b9c8d3b	0.004777578
35	0x3d18003e	0.037109606
36	0xbd7dd0c1	-0.06196666
37	0x3c3804ad	0.011231584
38	0x3c46da32	0.012136983
39	0x3cdc9a2a	0.02692898
40	0x3d2df877	0.042473283
41	0x3cbdb3cf	0.023157028
42	0xbd6d3312	-0.057910033
43	0xbd08c07e	-0.0333867
44	0x3cd093c1	0.02546108
45	0xbd28e735	-0.04123612
46	0x3d52de48	0.051481515
47	0xbd29c688	-0.0414491
48	0x3cf5bbec	0.029996835
49	0x3941a790	0.00018468336
50	0xbd335868	-0.043785483
51	0x3ca95b54	0.020673431
52	0x3cded865	0.027202794
53	0xbc117869	-0.008878806
54	0xb8184a8b	-3.6309048e-05
55	0xbd77a604	-0.06046106
56	0x3cf2b53e	0.029627439
57	0xbc1551bb	-0.009113724
58	0x3ccaa655	0.024737516
59	0x3ce6d8c8	0.028179541
60	0xbccf23e2	-0.025285665
61	0xbb92d06d	-0.0044804127
62	0xbbdf4649	-0.0068137986
63	0xbc217bff	-0.009856223
64	0xbd2b69db	-0.041849
65	0x3ba27145	0.0049573504
66	0x3c2f9698	0.010717057
67	0x3c53a7a7	0.012918389
68	0x3ca94b27	0.020665718
69	0xbd92c08e	-0.07165633
70	0x3d371069	0.044693384
71	0x3cb355f9	0.02189158
72	0x3b622553	0.003450711
73	0x3b8f8dcb	0.0043809167
74	0xbc91799b	-0.017758181
75	0xbbdf2f41	-0.006811053
76	0x3c1ddb56	0.009634813
77	0xbbd96f72	-0.0066356
78	0x3ce504eb	0.027956447
79	0xbd8126ea	-0.063062504
80	0xb9557a5e	-0.00020358848
81	0x3c645452	0.013936119
82	0x3c9074a4	0.017633744
83	0xbb9611de	-0.0045797667
84	0x3c8cbb50	0.017179161
85	0x3d6f71a7	0.058457997
86	0x3cc73e29	0.024321632
87	0x3b398b5f	0.0028311831
88	0x3caf2f18	0.02138476
89	0xbd8b1963	-0.067919515
90	0x3bf86d23	0.0075813695
91	0x3d4f3386	0.050586246
92	0xbcb3d36c	-0.0219514
93	0xbd9d7e12	-0.07690062
94	0xbd3d3438	-0.046192378
95	0xbcadb616	-0.02120499
96	0xba99220a	-0.0011683118
97	0x3cf18404	0.029481895
98	0xbc269dab	-0.010169427
99	0xbc38b5f8	-0.0112738535
100	0x3d01c93c	0.031686053
101	0xbba5c8c7	-0.005059335
102	0xbc7a6e66	-0.01528511
103	0x3c9f4964	0.019444175
104	0xbc077f10	-0.00827004
105	0xbc0a58bd	-0.008444008
106	0x3d304751	0.043036763
107	0x3d092765	0.033484835
108	0x3d06d4ba	0.032917716
109	0x3c583c82	0.01319802
110	0x3d22d05c	0.03974949
111	0xbcd377e4	-0.025814004
112	0xbd317a88	-0.043329746
113	0xbbda45eb	-0.006661167
114	0x3d31c5ec	0.043401644
115	0x3c17161d	0.009221581
116	0xbc96810f	-0.018372087
117	0x3c5ded79	0.013545387
118	0xbdc3a023	-0.09552028
119	0x3cb4e2bf	0.022080777
120	0xbc9c9db8	-0.019118175
121	0xbd7dddc0	-0.061979055
122	0x3cd2ddb1	0.025740476
123	0xbccdbee0	-0.02511543
124	0x3ce43618	0.027857825
125	0x3c10742e	0.008816762
126	0x3b80154b	0.0039087883
127	0x3d2dde33	0.042448234
128	0xbc9415f8	-0.018076882
129	0x3d2556da	0.04036603
130	0x3d59eba1	0.05320323
131	0xbc8182ab	-0.015809378
132	0x3caa14d3	0.020761883
133	0x3d37f3f4	0.044910386
134	0x3d01bde0	0.03167522
135	0xbc8a0859	-0.016849684
136	0xbd555ac8	-0.05208853
137	0x3d1dca53	0.03852303
138	0xbc89b1a3	-0.016808337
139	0x3b898563	0.004196809
140	0x3c2539a4	0.010084543
141	0x3c96b68e	0.018397596
142	0xbcb530e4	-0.02211804
143	0x3d3b2bec	0.045696184
144	0x3b9bc195	0.0047533014
145	0x3cf54e96	0.0299447
146	0xbd0fda7f	-0.035120483
147	0x3bfa4cd8	0.007638555
148	0x3c72b0ea	0.014812687
149	0xbc0164dc	-0.007897582
150	0x3c6e3e55	0.014541228
151	0x3b3f4430	0.002918493
152	0x3d63089a	0.055428125
153	0x3c91bc05	0.01778985
154	0x3b5c69b1	0.0033632333
155	0x3d5e63c0	0.054294348
156	0x3cf51255	0.029915968
157	0x3b524716	0.0032085828
158	0xbd234af4	-0.039866403
159	0x3c47b6db	0.012189592
160	0x3c79b1ee	0.015240176
161	0x3d4866ad	0.048926044
162	0xbcd84c6d	-0.02640363
163	0x3c552119	0.013008379
164	0xbd3fda56	-0.04683908
165	0x3cf147a5	0.029453108
166	0x3b2b064e	0.0026096287
167	0x3ca73343	0.020410186
168	0x3c380f5c	0.011234131
169	0x3c11a6ae	0.008889837
170	0x3bd6a639	0.006550577
171	0x3c18487c	0.009294625
172	0x3cea25db	0.028582504
173	0xbc64b383	-0.013958815
174	0x3d73ea4a	0.059549607
175	0xbd38be88	-0.04510358
176	0x3a53a1ac	0.0008073102
177	0x3c8c4f97	0.017127795
178	0x3ae47807	0.001743079
179	0x3cbecc18	0.023290679
180	0xbc428598	-0.011872672
181	0x3c9e2981	0.0193069
182	0x3b3c1fc8	0.0028705467
183	0xbcfabc16	-0.030607264
184	0x3d32d413	0.04365928
185	0xbc47018b	-0.012146364
186	0x3c03dd04	0.0080483
187	0x3b91a360	0.0044445246
188	0xbd8f14ef	-0.06986415
189	0x3d181276	0.03712698
190	0x3be49dbd	0.0069768117
191	0x3b9e3019	0.004827511
192	0x3a43f487	0.0007475097
193	0xbcda66c4	-0.02666033
194	0xbc1164f5	-0.008874168
195	0xbc8bc8fe	-0.017063614
196	0x3d44fe55	0.048094112
197	0xbcaee170	-0.021347731
198	0x3d25c66c	0.040472433
199	0xb8a8e5b3	-8.053649e-05
200	0xbc8409f0	-0.01611802
201	0x3c6689dd	0.014070955
202	0x3c3dc640	0.011582911
203	0xbc22b494	-0.0099307485
204	0xbc3118e4	-0.010809157
205	0x3c7f69c1	0.015589179
206	0x3d381946	0.044945978
207	0xbcf14a2f	-0.029454319
208	0x3cdaa6d2	0.026690874
209	0x3cdda982	0.027058367
210	0x3d0cc031	0.034362976
211	0x3cf88956	0.030338924
212	0x3cac83b0	0.021058887
213	0x3d8d5c6b	0.06902393
214	0x3a83b796	0.001004922
215	0x3cc6e6c3	0.024279958
216	0x3bc6fe52	0.006072798
217	0x3bc3f421	0.00598003
218	0x3c8d477a	0.017245997
219	0x3cd74120	0.026276171
220	0x3c124bdc	0.008929219
221	0xbd60b502	-0.054860123
222	0xbb1ceedd	-0.0023946085
223	0x3c8483d3	0.01617614
224	0x3c0ed331	0.008717344
225	0xbd0741ec	-0.033021852
226	0xbd3a937c	-0.04555081
227	0xbc888e4e	-0.016669419
228	0x3d015e4b	0.031584065
229	0x3bd476dc	0.0064838957
230	0xbcbdd136	-0.023171049
231	0x3cf38624	0.02972705
232	0x3ce131f9	0.02748965
233	0x3c23b966	0.009992933
234	0xbb92cb84	-0.0044798274
235	0x3d2837f5	0.04106899
236	0x3ca0fad8	0.019650862
237	0xbb6976c3	-0.0035623766
238	0x3d4b44f0	0.04962629
239	0xbd408a97	-0.04700717
240	0xbd0cf203	-0.034410488
241	0x3b527515	0.0032113243
242	0x3bb1df59	0.0054282364
243	0x3cc36968	0.023853973
244	0xbd2dc44d	-0.042423535
245	0xbd3a2a53	-0.04545052
246	0xbd8dcdc4	-0.06924012
247	0x3b17e0cd	0.0023174763
248	0x3cd75e68	0.026290134
249	0xbd888bc9	-0.06667287
250	0x3d1655ba	0.03670285
251	0x3c3e7fdd	0.011627165
252	0x3cbf50cd	0.023353959
253	0x3cdd27d0	0.026996523
254	0xbcd324de	-0.025774416
255	0x3d529e19	0.051420305

action_model._discrete_distribution.branches.0.bias f4 [5]
0	0xbb336a37	-0.0027376541
1	0x3ac5ed57	0.001510064
2	0xba3ca0ab	-0.0007195572
3	0xbb3b61eb	-0.00285923
4	0x3c9904a5	0.018678972
