Assets/Brain/Tests/NewTest1.5kk.onnx (onnx, 136172 bytes, 9 tensors)

network_body._body_endoder.seq_layers.0.weight f4 [128, 114]
0.020081215 0.029412057 -0.14511487 0.049588915 0.098074295 0.00011909128 0.21682766 -0.14198546
0.032395698 0.18137784 -0.12112868 -0.069632046 0.03627532 0.12455796 0.040650364 0.13417664
-0.1783738 -0.24135742 0.15765035 0.09503718 -0.13857444 0.035360016 0.068808466 -0.030429622
-0.054578453 0.0091517065 -0.0735493 0.035266437 -0.10048207 0.09248904 -0.058549866 -0.12277964
0.024086295 -0.072012275 0.16401277 -0.07692418 0.0077518965 0.07206269 0.0138539 0.10647754
-0.09469435 -0.059499174 0.078145504 0.14217122 -0.078712575 0.021069208 0.0340088 0.1641963
0.06423453 -0.12371601 0.03260027 -0.10574864 -0.022505322 0.056607407 -0.07539299 0.043900818
0.025334425 0.120290555 -0.010922086 0.17851377 -0.11504728 0.07220389 0.05065647 -0.12159782
-0.059022617 0.078305446 -0.029895723 -0.17079571 -0.010400933 -0.13191879 -0.052906565 -0.040929552
0.045656007 0.21980621 -0.017702084 -0.021108387 0.07548113 0.1382498 -0.0054855067 -0.16664296
0.021908917 -0.042492855 0.06679302 -0.1105945 -0.09594657 -0.09742335 -0.09908909 0.066040695
0.05092502 0.023451008 0.025613246 -0.13145909 0.10981342 0.030489132 -0.00018968136 0.08059622
0.11444602 0.06831892 -0.1828844 -0.14953674 0.11896843 0.011216053 -0.13836777 0.03718771
0.022117684 -0.11409588 -0.041831814 -0.07271693 0.04590148 -0.024200458 -0.05784447 0.12194906
0.04860812 0.07051531 -0.02455855 0.02591041 -0.0852012 0.07206775 -0.13509631 -0.0850682
0.353458 -0.100153536 0.09916833 -0.0225834 0.007388863 0.122430965 0.011103305 0.0077759954
-0.20518425 -0.0829888 0.1528238 -0.036039315 -0.08643139 -0.016951775 -0.1261048 -0.028106567
-0.14161181 -0.0045741186 0.0008862345 -0.08750005 0.027469458 -0.12279664 0.013193855 0.09604209
0.09750988 0.15301624 0.061761726 0.027471565 0.04927695 0.08066513 -0.04858484 -0.01024177
0.05555207 -0.055241678 -0.09345839 -0.17964397 0.04142308 0.23203878 -0.019836245 0.020356918
0.01188837 -0.1674053 -0.03986802 0.066163905 0.16830856 -0.14306797 0.01568522 0.11996487
-0.0067653465 -0.059756994 0.104483105 0.11153242 -0.028337026 -0.021161158 0.027891038 0.07278878
0.10531693 -0.06426706 0.06365882 0.0784797 0.0263224 -0.02526313 0.009540091 -0.012346773
0.0075002676 -0.0014102457 -0.00055736944 -0.06482575 -0.00010735516 0.018660346 0.10172771 -0.13693583
-0.1596426 -0.15266554 0.053479306 -0.10167567 -0.16840793 0.093374155 0.03538268 -0.10054239
0.08552449 -0.06837648 -0.136144 -0.008773512 0.03525021 -0.15564243 -0.0056068543 0.20681132
0.045403883 0.012123341 -0.01497308 -0.11787161 0.03642528 0.047742203 0.052573413 0.028178724
-0.029262308 0.007672986 -0.047752902 -0.03605569 0.040197827 -0.2523025 -0.07962196 0.0942648
0.021191524 -0.03652598 0.04478797 -0.056579657 0.050683066 0.050892107 0.008354295 0.028206278
0.109839536 -0.051398583 0.05786814 -0.06692101 -0.012843747 -0.08605601 -0.111547716 -0.0032338393
0.06799358 0.2152028 0.17963539 0.051720485 0.106716275 -0.1332999 0.0013324622 0.12905383
-0.13546774 0.048008047 -0.014976571 0.15628582 0.04680893 0.039144818 -0.060246952 -0.067866765
00000000: 5c81 a43c 8ef1 f03c fe98 14be bf1d 4b3d
00000010: 2ddb c83d a5c0 f938 1208 5e3e a364 11be
00000020: 5ab1 043d 1dbb 393e 5012 f8bd 3f9b 8ebd
00000030: 6e95 143d 3e18 ff3d ff80 263d 9a65 093e
00000040: 9fa7 36be 6626 77be 186f 213e daa2 c23d
00000050: 75e6 0dbe aad5 103d 74eb 8c3d 8b47 f9bc
00000060: a88d 5fbd 0af1 153c 04a1 96bd 8a73 103d
00000070: 8bc9 cdbd e56a bd3d fcd1 6fbd e473 fbbd
00000080: 9f50 c53c 2c7b 93bd f7f2 273e 6d8a 9dbd
00000090: 9f03 fe3b 9b95 933d 78fb 623c e610 da3d
000000a0: 1def c1bd 68b5 73bd c00a a03d 5595 113e
000000b0: 0f34 a1bd 5599 ac3c d04c 0b3d 1323 283e
000000c0: 658d 833d d25e fdbd dc87 053d be92 d8bd
000000d0: 155d b8bc 2bdd 673d a467 9abd 58d1 333d
000000e0: 248a cf3c e55a f63d 8df2 32bc 50cc 363e
000000f0: e99d ebbd a2df 933d 297d 4f3d 4708 f9bd
00000100: b3c1 71bd 9b5e a03d e0e7 f4bc 12e5 2ebe
00000110: ad68 2abc b815 07be 8eb4 58bd bfa5 27bd
00000120: cb01 3b3d e114 613e f603 91bc 7feb acbc
00000130: da95 9a3d 5b91 0d3e c4bf b3bb 74a4 2abe
00000140: 547a b33c fd0c 2ebd c7ca 883d 5f7f e2bd
00000150: a37f c4bd e585 c7bd 39ef cabd 5840 873d
00000160: c196 503d 541c c03c dfd2 d13c 369d 06be
00000170: dce5 e03d 58c4 f93c 34e5 46b9 a20f a53d
00000180: ad62 ea3d caea 8b3d 0c46 3bbe 2920 19be
00000190: b8a5 f33d 89c3 373c 48b0 0dbe 2452 183d
000001a0: 2530 b53c 1aab e9bd d657 2bbd 9dec 94bd
000001b0: 3103 3c3d 0a40 c6bc 53ee 6cbd 6ec0 f93d
000001c0: 4f19 473d 556a 903d 032f c9bc 1142 d43c
000001d0: f77d aebd 4298 933d b056 0abe 3d38 aebd
000001e0: 72f8 b43e 4c1d cdbd c418 cb3d d300 b9bc
000001f0: 461e f23b 16bd fa3d a3ea 353c c7cd fe3b
00000200: d21b 52be 08f6 a9bd d87d 1c3e f69d 13bd
00000210: f102 b1bd 73de 8abc 9e21 01be be3f e6bc
00000220: b002 11be 7de2 95bb 3152 683a 3a33 b3bd
00000230: a107 e13c ce7c fbbd 0a2b 583c b7b1 c43d
00000240: 43b3 c73d 4ab0 1c3e ddf9 7c3d 0c0c e13c
00000250: a1d6 493d c233 a53d e600 47bd 19cd 27bc
00000260: 918a 633d 1945 62bd 1d67 bfbd 97f4 37be
00000270: 3fab 293d 939b 6d3e 9f7f a2bc 8dc3 a63c
00000280: 70c7 423c 4c6c 2bbe a64c 23bd f180 873d
00000290: 1459 2c3e 6980 12be 4a7e 803c 24b0 f53d
000002a0: d7af ddbb c0c3 74bd 3dfb d53d 1c6b e43d
000002b0: 0d23 e8bc 2a5a adbc bf7b e43c 4912 953d
000002c0: 67b0 d73d 739e 83bd 8e5f 823d f7b9 a03d
000002d0: 13a2 d73c a0f4 cebc 0b4e 1c3c 1f4a 4abc
000002e0: cec4 f53b fed7 b8ba 6e1c 12ba 5dc3 84bd
000002f0: dd23 e1b8 95dd 983c 9e56 d03d e838 0cbe
00000300: 5a79 23be 5b54 1cbe 1e0d 5b3d 553b d0bd
00000310: 2173 2cbe f33a bf3d 6eed 103d 2be9 cdbd
00000320: 7727 af3d f808 8cbd 5569 0bbe c7be 0fbc
00000330: 8662 103d bb60 1fbe b4b9 b7bb 59c6 533e
00000340: 6cf9 393d faa0 463c a651 75bc ac66 f1bd
00000350: ad32 153d 548d 433d 3857 573d 11d7 e63c
00000360: 82b7 efbc ac6d fb3b 8c98 43bd 22af 13bd
00000370: 7aa6 243d cb2d 81be d710 a3bd e70d c13d
00000380: d999 ad3c 449c 15bd 9773 373d 12c0 67bd
00000390: 0c99 4f3d 3e74 503d 74e0 083c da10 e73c
000003a0: 8df3 e03d 5287 52bd 2507 6d3d e20d 89bd
000003b0: 946e 52bc 223e b0bd 2173 e4bd d2ee 53bb
000003c0: 3840 8b3d 1f5e 5c3e 57f2 373e dcd8 533d
000003d0: 108e da3d c57f 08be 03a6 ae3a b026 043e
000003e0: 0eb8 0abe 16a4 443d 4b60 75bc 6409 203e
000003f0: b8ba 3f3d 5156 203d 82c5 76bd bbfd 8abd

network_body._body_endoder.seq_layers.0.bias f4 [128]
0.010796064 0.0058149947 0.0025380477 0.031741563 -0.01051971 0.04531864 0.0139775975 -0.007733595
0.00045040913 -0.010103544 0.03250629 0.0078100655 0.018331513 -0.009049089 -0.019685468 0.025347406
0.02879903 0.0013882248 0.0081167715 0.017597895 -0.014870471 0.011842193 0.023998346 0.0026207957
-0.0054132044 -0.0067523485 0.0009922684 0.01909449 0.005534076 0.009704311 -0.0031757888 0.0075509488
-0.00077628257 -0.01585782 0.026739812 -0.009156042 0.00082129013 0.019850612 0.004902672 0.01935162
0.016336452 0.02089682 0.019061903 0.011472005 -0.0043592616 0.00026326205 0.021009857 0.0070978673
0.012827433 0.014406205 -0.008065698 0.019564455 -0.011386263 0.046410285 0.026223507 0.031371612
-0.012591152 -0.021059273 0.017189458 0.024162497 0.0022356377 0.015913531 0.02245826 -0.008507113
0.010112637 0.023702394 0.008193293 -0.0029524467 0.006096192 0.0071319155 0.015262324 0.019830082
0.0092511745 0.025313325 0.005529136 0.011689699 0.023830445 -0.025757631 0.009937809 0.03352885
0.02485326 -0.008058951 -0.0018152375 0.006686827 0.014576247 0.0017575267 0.014374297 0.014603159
0.01292532 0.019954132 0.0062673655 0.0026914943 -0.012458002 0.021063512 0.004241281 0.03081915
0.009264281 0.0015045732 0.018495716 0.007598821 -0.0067656403 0.03464827 -0.0054095495 0.0065665287
0.017415516 -0.021300776 0.025786785 0.014321456 -0.00841823 0.017333414 0.021911973 -0.0028901766
0.016370319 0.004229127 0.041347094 0.03292606 0.018372491 0.026900904 0.009096794 0.004766954
0.025890881 0.03488922 0.04109163 0.039150298 0.022734573 0.021580312 -0.0011013097 0.033240125
00000000: f9e1 303c b68b be3b 6055 263b 7103 023d
00000010: dd5a 2cbc 0aa0 393d 4b02 653c 196a fdbb
00000020: e424 ec39 5689 25bc 5125 053d 94eb ff3b
00000030: f82b 963c a142 14bc 6b43 a1bc 5da5 cf3c
00000040: f2eb eb3c 18f5 b53a 35fc 043c 7629 903c
00000050: 47a3 73bc c205 423c 2e98 c43c a8c1 2b3b
00000060: 4061 b1bb ce42 ddbb 010f 823a 0c6c 9c3c
00000070: 3257 b53b d5fe 1e3c e520 50bb f36d f73b
00000080: 717f 4bba 42e8 81bc 730d db3c 3903 16bc
00000090: d94b 573a c09d a23c 98a6 a03b 4a87 9e3c
000000a0: 06d4 853c cf2f ab3c b527 9c3c 14f5 3b3c
000000b0: 23d8 8ebb 6f06 8a39 dd1c ac3c 3a95 e83b
000000c0: 272a 523c 0108 6c3c fd25 04bc a345 a03c
000000d0: 738d 3abc b618 3e3d aed2 d63c 857f 003d
000000e0: 1f4b 4ebc 7f84 acbc e8d0 8c3c 6ef0 c53c
000000f0: c783 123b 185d 823c 63fa b73c 6b61 0bbc
00000100: 79af 253c 862b c23c 293d 063c d67d 41bb
00000110: 91c2 c73b d8b2 e93b d40e 7a3c b272 a23c
00000120: 3d92 173c e45d cf3c c12d b53b 2786 3f3c
00000130: 1138 c33c ab01 d3bc 31d2 223c 8c55 093d
00000140: 1099 cb3c b109 04bc 43ed edba 2c1d db3b
00000150: 36d1 6e3c cf5c e63a 2c82 6b3c 1742 6f3c
00000160: b9c4 533c d976 a33c 795e cd3b c863 303b
00000170: a61c 4cbc 638d ac3c 72fa 8a3b 7178 fc3c
00000180: 36c9 173c 1935 c53a 5484 973c 88ff f83b
00000190: 4eb2 ddbb 58eb 0d3d 9742 b1bb 092c d73b
000001a0: fcaa 8e3c f77e aebc cf3e d33c 8aa4 6a3c
000001b0: 9eec 09bc cefe 8d3c bd80 b33c 1e69 3dbb
000001c0: 0c1b 863c 7d94 8a3b 925b 293d 7add 063d
000001d0: e881 963c 495f dc3c b80a 153c 1c34 9c3b
000001e0: 1d19 d43c 00e8 0e3d b24f 283d 105c 203d
000001f0: db3d ba3c 32c9 b03c d259 90ba cc26 083d

network_body._body_endoder.seq_layers.2.weight f4 [128, 128]
0.03570586 -0.047320295 0.026522579 0.08586545 0.20701826 -0.049656965 -0.13904579 -0.055059332
0.08335069 0.0062116985 0.040367465 -0.052009426 -0.0023443555 -0.03738803 0.05175222 0.019567214
-0.02142254 0.10679302 0.027946586 0.08157717 0.029688817 -0.100627735 0.059026036 -0.024281478
0.027234007 0.043388095 0.01444038 0.0767902 0.20995855 0.09702034 0.086497515 0.14983793
-0.052946437 -0.0077201743 0.06643524 -0.012712218 0.124637924 0.029879842 -0.13243888 -0.035093874
-0.114602014 -0.23247774 0.21330805 0.019943904 -0.078606494 -0.17992309 0.016136311 -0.03813335
0.10482464 0.043308426 0.1150931 -0.08927656 -0.03185509 0.027625857 -0.1491799 -0.01164255
0.0143124685 -0.17577273 -0.11033916 0.04384093 0.0046197064 0.007462456 -0.09344024 -0.08946861
-0.037520055 -0.11817341 0.027276667 0.16470169 -0.031208437 0.13921894 0.08306332 0.090049386
0.020438267 -0.035924792 -0.16096842 0.019938258 -3.0394587e-05 -0.10244714 0.06835241 0.014168352
-0.10062984 -0.06603619 0.019384185 0.049887188 -0.041994423 -0.107122466 -0.08326222 0.1273832
0.06892693 0.017618366 -0.032050032 -0.0038362972 0.06781647 -0.011682963 0.018730693 -0.13898312
-0.12146052 -0.20482619 -0.0040786 0.05669414 -0.09896165 -0.056746855 -0.018453125 0.048243985
0.02614762 0.0109096095 0.033183973 0.050564747 -0.0050784224 -0.11158175 0.13299201 -0.056141756
0.024871623 -0.15807243 0.05461669 0.089166895 0.12372898 -0.093414925 -0.031645264 -0.16693158
-0.035632547 -0.022835864 0.11268445 0.08360584 0.13016506 0.103918366 0.03884186 -0.013790971
0.05589368 0.058195993 0.08970704 0.054012474 -0.00078160415 -0.13704084 -0.05869926 -0.16116443
-0.016052185 0.08127019 -0.06511528 0.11602885 -0.0033551955 -0.05117218 0.009177483 -0.16621603
0.3095075 -0.02970524 0.0521756 -0.01637591 0.041250724 -0.019749306 -0.15065074 0.08147012
-0.028894838 0.02742614 0.07848494 -0.09556693 -0.030103434 0.15791719 0.01912525 -0.052224122
0.041683882 0.032170262 0.014273574 -0.044163655 -0.084376976 -0.08213334 -0.052654263 0.070573166
0.072000295 -0.10804721 -0.025028229 0.04084212 -0.05340998 0.005498808 0.047706004 0.15773572
-0.075305134 -0.060923956 -0.1879834 0.06779116 -0.13186572 0.041891173 -0.10769564 -0.060633533
0.030414328 0.027472742 0.017798046 0.03658618 -0.08724514 0.0027530834 0.0902484 -0.11224605
0.033773705 0.1039292 -0.04959354 -0.15434588 -0.09405558 -0.07741489 0.058402475 0.068348825
0.05863962 -0.017296016 0.12133554 -0.18242803 -0.016725667 -0.13132228 0.10449201 0.037259527
0.0046322728 -0.09082975 0.09766646 -0.0011640578 0.064870656 0.06349031 0.01879453 0.080799796
0.031817414 -0.021043465 0.10775438 -0.002756515 0.025283422 -0.058681518 -0.13496208 0.030203491
-0.103770204 0.099249445 0.07328056 0.046508305 0.1123361 0.033570554 -0.033519574 -0.08611173
-0.13993841 -0.014469153 0.0964975 0.029399829 -0.10068593 0.084598765 0.048200853 -0.18672726
0.014399813 0.013159695 0.0054446734 0.043861173 0.066687286 0.041313507 0.040481333 0.030326331
0.084504396 0.122675195 -0.05255538 0.12451411 0.07744233 -0.26196593 0.033717703 -0.029168056
00000000: 4f40 123d edd2 41bd e145 d93c 3ada af3d
00000010: 98fc 533e 1a65 4bbd 0562 0ebe e585 61bd
00000020: c4b3 aa3d 818b cb3b 5b58 253d d607 55bd
00000030: c2a3 19bb 3124 19bd 23fa 533d 6c4b a03c
00000040: 537e afbc 4db6 da3d 3df0 e43c ee11 a73d
00000050: f635 f33c ea15 cebd 49c5 713d f3e9 c6bc
00000060: da19 df3c b7b7 313d 5897 6c3c 2e44 9d3d
00000070: 60ff 563e 9ab2 c63d 9c25 b13d 1d6f 193e
00000080: 5dde 58bd 84f9 fcbb 330f 883d e846 50bc
00000090: 2b42 ff3d 92c6 f43c 0f9e 07be 98be 0fbd
000000a0: 76b4 eabd a50e 6ebe 6d6d 5a3e 6661 a33c
000000b0: 71fc a0bd c23d 38be 4c30 843c b731 1cbd
000000c0: 4dae d63d 2d64 313d eeb5 eb3d a1d6 b6bd
000000d0: 7c7a 02bd 9f4f e23c 9ec2 18be 65c0 3ebc
000000e0: d87e 6a3c c4fd 33be 7ff9 e1bd 8c92 333d
000000f0: e860 973b 9e87 f43b 995d bfbd 523b b7bd
00000100: a1ae 19bd e704 f2bd 5173 df3c 8fa7 283e
00000110: d6a8 ffbc 698f 0e3e 1a1d aa3d d06b b83d
00000120: 276e a73c e025 13bd e8d4 24be 8f55 a33c
00000130: e1f7 feb7 cecf d1bd 59fc 8b3d 6022 683c
00000140: 0417 cebd fb3d 87bd 95cb 9e3c 8256 4c3d
00000150: 5802 2cbd 0663 dbbd 6285 aabd be70 023e
00000160: 9029 8d3d 6454 903c e546 03bd 636a 7bbb
00000170: 5de3 8a3d e669 3fbc 1c71 993c 9751 0ebe
00000180: 4bc0 f8bd f5bd 51be c7a5 85bb 1d38 683d
00000190: 68ac cabd 646f 68bd 022b 97bc 7c9b 453d
000001a0: 8933 d63c 38be 323c ebeb 073d fb1c 4f3d
000001b0: e568 a6bb f984 e4bd 0f2f 083e e6f4 65bd
000001c0: 93bf cb3c bddd 21be c0b5 5f3d 229d b63d
000001d0: 9f65 fd3d 5350 bfbd 779e 01bd 1df0 2abe
000001e0: 6ff3 11bd 4712 bbbc 1bc7 e63d 8a39 ab3d
000001f0: fd49 053e 27d3 d43d a418 1f3d 86f3 61bc
00000200: c5f0 643d ec5e 6e3d 53b8 b73d 2f3c 5d3d
00000210: 91e4 4cba 6f54 0cbe a36e 70bd 4a08 25be
00000220: df7f 83bc fc70 a63d 295b 85bd 89a0 ed3d
00000230: d7e2 5bbb eb99 51bd 275d 163c 8934 2abe
00000240: c477 9e3e 6758 f3bc 15b6 553d c626 86bc
00000250: 85f6 283d 4cc9 a1bc 3044 1abe ced9 a63d
00000260: deb4 ecbc c9ac e03c b6bc a03d 98b8 c3bd
00000270: 7a9b f6bc 0bb5 213e 8eac 9c3c f6e8 55bd
00000280: b8bc 2a3d f7c4 033d b5db 693c f3e4 34bd
00000290: d6cd acbd 8635 a8bd ffab 57bd aa88 903d
000002a0: e474 933d db47 ddbd 0008 cdbc 114a 273d
000002b0: 6cc4 5abd 582f b43b 5f67 433d 7985 213e
000002c0: 9439 9abd 668b 79bd b87e 40be 17d6 8a3d
000002d0: cf07 07be 1496 2b3d 888f dcbd de5a 78bd
000002e0: 7827 f93c 840e e13c 35cd 913c 64db 153d
000002f0: 94ad b2bd 136d 343b 27d4 b83d 42e1 e5bd
00000300: 4c56 0a3d d5d8 d43d 9922 4bbd d90c 1ebe
00000310: 36a0 c0bd b38b 9ebd 6f37 6f3d 78fa 8b3d
00000320: 1930 703d 60b0 8dbc c57e f83d 6ace 3abe
00000330: 4404 89bc 5979 06be e8ff d53d 729d 183d
00000340: 52ca 973b f304 babd 5a05 c83d 4c93 98ba
00000350: e8da 843d 3507 823d fcf6 993c 5d7a a53d
00000360: fa52 023d 5863 acbc 54ae dc3d a6a6 34bb
00000370: 2e1f cf3c 085c 70bd 8033 0abe 506d f73c
00000380: 7985 d4bd 4b43 cb3d 1e14 963d 7e7f 3e3d
00000390: 7810 e63d 4781 093d d24b 09bd 595b b0bd
000003a0: 044c 0fbe 0710 6dbc 7ba0 c53d e9d7 f03c
000003b0: 6d34 cebd 1e42 ad3d 426e 453d 6e35 3fbe
000003c0: 31ed 6b3c c39b 573c 3b69 b23b c6a7 333d
000003d0: 5893 883d 5a38 293d c1cf 253d ed6e f83c
000003e0: a410 ad3d 223d fb3d 4f44 57bd 4101 ff3d
000003f0: 169a 9e3d 6620 86be 931b 0a3d d9f1 eebc

network_body._body_endoder.seq_layers.2.bias f4 [128]
-0.0013218771 0.019827105 0.016682625 0.01765733 0.002122643 0.019495577 0.013957535 0.020707993
0.011587136 0.009808128 0.031233652 0.024620133 0.00963639 0.033163875 0.007562317 0.0148498295
-0.0019203664 0.01746908 0.010873379 0.007695339 0.014444885 0.015169954 0.015299094 0.019199593
0.011301364 0.010061474 0.0055758636 0.0021532024 -0.010018943 0.015825743 0.023664493 0.009496553
0.016132614 0.024951499 0.022170365 0.014928542 0.02252013 0.0014706486 0.0012886475 -0.001636865
-0.0045314184 0.011194792 0.015893511 0.0015442292 0.0144752795 0.010130685 0.020517102 0.0011818218
0.013199122 0.024058467 0.016386122 -0.0081707295 0.022173645 0.017579926 0.0032541773 0.0146961445
0.011141191 0.007419835 0.017644623 0.013594594 -0.009561148 0.013748606 0.006895552 0.005345439
0.019751308 -0.0016311352 0.019454043 0.015436915 0.01669725 0.008571701 0.016463686 -0.005634997
0.018808259 0.016969599 0.0040873066 0.00962166 0.024636537 0.015609162 -0.0007540788 0.00549814
0.0061833696 0.011073317 -0.0061944514 0.011343425 -0.00021875865 0.005562043 0.012252098 0.015652426
0.023658779 0.0018993266 -0.002862623 0.0035877672 0.01622447 0.013783982 0.0058463784 -0.00032902826
0.015246954 -0.011160874 -0.008454496 0.008883335 0.021518784 0.01130961 0.020804927 0.0026767526
0.022559239 0.01625298 0.0017743751 0.021284124 0.02824202 0.020594753 0.0050356714 0.0059147184
0.025608063 -0.005458827 0.0013679502 0.0020782086 0.023920499 0.0050612143 -0.00619479 0.019092342
0.007170533 0.031345382 0.0018366001 0.0060104253 0.018883428 -0.0005189354 -0.004366931 0.022595251
00000000: d642 adba 746c a23c 00aa 883c 1ba6 903c
00000010: 0a1c 0b3b 30b5 9f3c 25ae 643c cfa3 a93c
00000020: f9d7 3d3c 45b2 203c b7dd ff3c 29b0 c93c
00000030: f3e1 1d3c d8d6 073d 50cd f73b b34c 733c
00000040: ceb4 fbba 511b 8f3c 4226 323c 2f29 fc3b
00000050: 3daa 6c3c 668b 783c 0da9 7a3c 7748 9d3c
00000060: 5b29 393c e1d8 243c bcb5 b63b be1c 0d3b
00000070: 7e26 24bc fda4 813c 0adc c13c 6e97 1b3c
00000080: 8b28 843c 1667 cc3c a09e b53c d896 743c
00000090: 237c b83c c7c2 c03a d6e7 a83a 138c d6ba
000000a0: 4b7c 94bb 5c6a 373c 1c33 823c bc67 ca3a
000000b0: b929 6d3c 2cfb 253c 7b13 a83c 5ce7 9a3a
000000c0: 2141 583c 4316 c53c 303c 863c 86de 05bc
000000d0: 81a5 b53c c703 903c 0944 553b 19c8 703c
000000e0: 8b89 363c 1622 f33b 758b 903c dcbb 5e3c
000000f0: 5ca6 1cbc d541 613c 15f4 e13b cb28 af3b
00000100: 7fcd a13c d1cb d5ba 165e 9f3c 1deb 7c3c
00000110: acc8 883c 5270 0c3c dade 863c c8a5 b8bb
00000120: c713 9a3c d403 8b3c d0ee 853b 2ba4 1d3c
00000130: 90d2 c93c 92bd 7f3c 5fad 45ba be29 b43b
00000140: dd9d ca3b dc6c 353c d3fa cabb c6d9 393c
00000150: 9462 65b9 cc41 b63b 06bd 483c 8439 803c
00000160: 0ed0 c13c d3f2 f83a d89a 3bbb bf20 6b3b
00000170: 2ee9 843c 36d6 613c fa92 bf3b 6d81 acb9
00000180: 5cce 793c 19dc 36bc ba84 0abc 688b 113c
00000190: 2948 b03c f14b 393c 186f aa3c 756c 2f3b
000001a0: 27ce b83c f824 853c 2692 e83a 0b5c ae3c
000001b0: cf5b e73c 54b6 a83c 4602 a53b 41d0 c13b
000001c0: 00c8 d13c f6df b2bb cb4c b33a 8e32 083b
000001d0: ecf4 c33c 8bd8 a53b aafd cabb 8b67 9c3c
000001e0: caf6 ea3b 0464 003d 13ba f03a 1af3 c43b
000001f0: 6bb1 9a3c 2a09 08ba 7918 8fbb ad19 b93c

action_model._continuous_distribution.log_sigma f4 [1, 3]
-0.047748014 -0.040849235 -0.10973187
00000000: 6c93 43bd 8751 27bd 1abb e0bd

action_model._continuous_distribution.mu.weight f4 [3, 128]
-0.03948943 0.07970877 -0.06751768 0.049338795 -0.039304953 0.042207625 0.017283795 0.05329936
-0.011169705 0.0034913847 -0.032429095 0.004693687 0.043093108 -0.03715729 0.07367783 -0.004145389
-0.010675152 0.0057469546 0.040777795 -0.015204707 0.06488252 0.06464375 -0.04607164 -0.046590697
0.024141204 -0.0057641347 -0.01656701 0.029843485 0.016125279 0.05407753 0.07227383 0.040062375
0.052898765 -0.0729072 0.05173214 0.012956919 0.05647286 -0.013600922 -0.058879018 -0.033525817
-0.051385164 0.011494832 -0.12545605 -0.035489343 0.04744794 0.039986975 0.077208035 0.006191217
0.035980195 -0.031277623 0.01830359 -0.0061687403 -0.023830878 -0.07645656 0.014210746 -0.014780054
-0.045422044 -0.052611418 -0.05397241 0.0018629741 -0.018115621 -0.073018774 -0.071277395 0.033420242
-0.06976428 -0.099641144 0.0238184 0.0688282 0.07517957 0.060683917 0.03860341 -0.021158976
-0.107746325 -0.051632904 0.0069826557 -0.0043398226 -0.10139895 0.05737008 0.025076084 -0.0736538
0.04315988 0.032702524 0.02306556 0.06828998 -0.05117607 -0.0023993163 -0.039693397 -0.03035194
0.0545442 -0.009918171 -0.05329151 -0.039446518 0.05774692 -0.110287905 0.034137554 -0.05204866
-0.059079167 -0.0031380071 -0.003397319 -0.023312958 0.07645905 -0.0035621934 -0.055674773 -0.011461445
0.08358498 0.07022248 -0.012125009 0.04561665 0.08945732 0.031134913 -0.034623146 -0.09681589
0.06353007 -0.031100944 0.004139955 -0.05041438 -0.0905482 -0.012769764 -0.009410352 -0.077571124
-0.051074803 -0.088483825 -0.03732318 -0.031244759 -0.0144761205 -0.045664154 -0.0037569662 0.094262674
-0.04358698 0.0006429607 0.042201802 -0.09107048 -0.016213082 -0.0012065519 0.011236153 -0.012420083
0.10297875 0.06989959 -0.062306587 0.026303912 0.022233587 0.051575847 0.027834896 -0.038755864
-0.01559598 -0.019023959 -0.04598745 0.052460507 -0.032551117 -0.0095765265 -0.10345801 0.04059038
-0.0756351 0.005408899 -0.028864125 0.028891964 -0.031452514 0.06470075 7.84734e-05 0.05380714
0.015904687 -0.004870321 -0.011453089 -0.09937598 0.040079646 0.05638738 -0.06356786 0.048064448
-0.036985207 0.049254376 -0.001953845 0.035013266 0.055310283 0.013889071 6.1088205e-05 -0.009872241
0.05721302 -0.051716838 0.014309929 -0.0158519 -0.041269094 0.043415833 -0.033860598 0.0538414
-0.00496264 0.033958104 0.00079517474 0.048155755 0.018709484 0.033114348 -0.058246914 -0.0066887736
0.08722993 0.000735584 -0.033045363 0.010977805 0.009201534 -0.0019477254 0.038532108 -0.03156355
-0.029958716 0.050340928 -0.0051999683 -0.032484718 0.027958054 0.0044244276 0.011687592 -0.027647499
-0.047039505 -0.027717033 -0.00717019 -0.0059742057 -0.018961348 -0.0792625 0.07032634 0.019907301
0.037644435 -0.024295367 -0.023652865 -0.03322506 -0.027419843 0.025306577 0.021349119 0.028829152
0.038179945 0.014382169 -0.028079338 -0.058682 0.036833495 -0.08034767 0.07507073 -0.029117038
-0.011036098 -0.03844127 -0.015166263 -0.0019251006 0.0073164785 0.030016739 -0.031200485 -0.0044785296
-0.01448829 -0.0117683625 -0.0075568566 0.014587362 0.045406546 -0.040703494 -0.0076612667 -0.004117187
0.015501652 0.042657267 -0.031489898 0.042661548 -0.073846176 0.013188999 -0.010769862 0.008260097
00000000: abbf 21bd 5a3e a33d b646 8abd 7a17 4a3d
00000010: 3bfe 20bd e7e1 2c3d bf96 8d3c 6e50 5a3d
00000020: 2301 37bc b7cf 643b 5fd4 04bd 80cd 993b
00000030: 6682 303d 3e32 18bd 67e4 963d 0bd6 87bb
00000040: d5e6 2ebc f350 bc3b 9e06 273d 2a1d 79bc
00000050: 20e1 843d f163 843d 9eb5 3cbd e3d5 3ebd
00000060: c6c3 c53c 11e1 bcbb 8ab7 87bc 537a f43c
00000070: 2919 843c 6680 5d3d 4d04 943d 7218 243d
00000080: 60ac 583d 5f50 95bd 15e5 533d 4249 543c
00000090: 1650 673d 67d6 5ebc 202b 71bd 5e52 09bd
000000a0: 4079 52bd d254 3c3c 8d77 00be 465d 11bd
000000b0: c558 423d 62c9 233d 3f1f 9e3d b1df ca3b
000000c0: f85f 133d f71c 00bd 69f1 953c 2523 cabb
000000d0: f938 c3bc 4295 9cbd 30d4 683c 0a28 72bc
000000e0: 770c 3abd 127f 57bd 2c12 5dbd 0a2f f43a
000000f0: 3667 94bc de8a 95bd e2f9 91bd aae3 083d
00000100: 93e0 8ebd a810 ccbd ce1e c33c cdf5 8c3d
00000110: bff7 993d b38f 783d 9c1e 1e3d 9755 adbc
00000120: 1baa dcbd 067d 53bd c3ce e43b 1235 8ebb
00000130: 41aa cfbd e4fc 6a3d 5c6c cd3c ced7 96bd
00000140: 6ac8 303d 15f3 053d fcf3 bc3c 9edb 8b3d
00000150: 009e 51bd d93d 1dbb 8b95 22bd a2a4 f8bc
00000160: bd69 5f3d d37f 22bc 3348 5abd ac92 21bd
00000170: 0988 6c3d a0de e1bd d2d3 0b3d fa30 55bd
00000180: fffc 71bd 06a7 4dbb 8ea5 5ebb d1fa bebc
00000190: 9096 9c3d b073 69bb 3b0b 64bd c9c8 3bbc
000001a0: 9a2e ab3d ced0 8f3d f9a7 46bc 86d8 3a3d
000001b0: 6635 b73d a50e ff3c 00d1 0dbd 6947 c6bd
000001c0: 0e1c 823d 68c7 febc 76a8 873b 4f7f 4ebd
000001d0: 5671 b9bd 4638 51bc e12d 1abc 9cdd 9ebd
000001e0: d033 51bd 0237 b5bd 31e0 18bd 02f5 ffbc
000001f0: 402d 6dbc 560a 3bbd 6f37 76bb ca0c c13d
00000200: 4388 32bd 5d8c 283a ccdb 2c3d 2983 babd
00000210: 4cd1 84bc 2a25 9eba d717 383c 9b7d 4bbc
00000220: 86e6 d23d 8427 8f3d 3135 7fbd 4d7b d73c
00000230: 3623 b63c 3241 533d 0206 e43c 78be 1ebd
00000240: 4886 7fbc 22d8 9bbc 565d 3cbd d4e0 563d
00000250: 5254 05bd dde6 1cbc cbe1 d3bd 1942 263d
00000260: 93e6 9abd 223d b13b 7574 ecbc d7ae ec3c
00000270: 5ad4 00bd d481 843d 1692 a438 e064 5c3d
00000280: 8c4a 823c 3797 9fbb bda5 3bbc a285 cbbd
00000290: 8e2a 243d 74f6 663d de2f 82bd 3adf 443d
000002a0: cd7d 17bd f5be 493d 140c 00bb 126a 0f3d
000002b0: 098d 623d fc8e 633c 7b1c 8038 2ebf 21bc
000002c0: 3358 6a3d 09d5 53bd 3174 6a3c d8db 81bc
000002d0: c809 29bd cdd4 313d 69b1 0abd cd88 5c3d
000002e0: a49d a2bb a717 0b3d 4673 503a f83e 453d
000002f0: a244 993c e9a2 073d 5194 6ebd 802d dbbb
00000300: 9ba5 b23d 35d4 403a 935a 07bd 40dc 333c
00000310: 08c2 163c d24a ffba d8d3 1d3d c848 01bd
00000320: fb6b f5bc 4a32 4e3d 7f64 aabb b20e 05bd
00000330: 4a08 e53c cafa 903b 507d 3f3c 027d e2bc
00000340: 7fac 40bd d50e e3bc eaf3 eabb 45c3 c3bb
00000350: d454 9bbc 6154 a2bd 4207 903d a314 a33c
00000360: 0d31 1a3d 1407 c7bc a7c3 c1bc 0017 08bd
00000370: 949f e0bc bd4f cf3c 59e4 ae3c 1d2b ec3c
00000380: 9362 1c3d 30a3 6b3c a406 e6bc 895c 70bd
00000390: b8de 163d 528d a4bd afbe 993d db86 eebc
000003a0: c0d0 34bc 9874 1dbd eb7b 78bc a853 fcba
000003b0: 12bf ef3b aae5 f53c 2998 ffbc a1c0 92bb
000003c0: 4b60 6dbc 17d0 40bc 829f f7bb d5ff 6e3c
000003d0: 37fc 393d b5b8 26bd 5d0b fbbb 78e9 86bb
000003e0: a4fa 7d3c 63b9 2e3d 8dfb 00bd e0bd 2e3d
000003f0: aa3c 97bd ac16 583c 1374 30bc 5c55 073c

action_model._continuous_distribution.mu.bias f4 [3]
0.0095769195 0.0029076166 -0.0070696594
00000000: 83e8 1c3c b68d 3e3b 9aa8 e7bb

action_model._discrete_distribution.branches.0.weight f4 [5, 128]
0.008696939 -0.011527168 0.028334092 -0.013168281 0.015769076 -0.014973771 0.0055113453 -0.014032957
-0.013066865 -0.008801442 0.03293038 -0.021059243 -0.038693126 -0.0017022825 -0.021501124 -0.014076028
0.018208388 0.008650794 -0.009358955 -0.001451381 -0.008814412 0.0027462794 0.011618502 0.018033566
0.008777969 0.030858546 0.042086687 -0.023298474 -0.0052148057 -0.0004325072 -0.01659438 -0.01001313
-0.017627468 0.040632695 -0.01825901 0.0027698358 -0.03139537 -0.030923294 0.014140274 -0.025432134
-0.024083385 -0.032200273 -0.015096523 0.016132362 -3.2489388e-05 -0.019414239 -0.029724745 0.003329
-0.00532234 0.016522592 0.016568672 -0.014627077 0.012829217 -0.012133707 0.012644041 0.023029583
0.02511307 0.0049035745 0.01520172 -0.015674198 -0.0119372755 -0.006452188 0.005142145 0.005676516
-0.03225221 -0.0077700433 0.021323282 -0.008104527 -0.0140508525 0.0048943693 -0.015728945 -0.011573671
0.021560725 0.017179858 -0.006670977 0.008495389 0.0022159682 -0.009899963 -0.011043215 0.007908382
-0.0013387314 -0.007368179 0.009943088 -0.024601523 0.016563488 -0.007783373 -0.015981337 0.0237996
-0.007153404 -0.031523272 -0.006989772 0.001891549 -0.009939216 0.00084422325 -0.0151020875 0.003047799
-0.004245462 -0.036326643 0.009256752 0.01072717 0.0016891626 -0.0034494498 -0.0003239475 0.011393813
-0.0014005997 -0.0042300625 0.0106197195 0.0013518857 -0.011662245 0.009085737 -0.011261409 0.018720763
-0.0049685193 0.010101833 -0.012356227 -0.015946485 0.01588804 0.0024367662 0.0008084772 0.025208483
-0.029847838 0.031765863 0.0060115596 0.012754612 0.04270317 0.005232651 -0.010845704 -0.01034128
-0.004981889 0.009244548 -0.008112875 0.025329046 0.0015433487 0.008853948 -0.021134885 0.027390009
0.002235942 0.0024280527 -0.01031638 -0.0052460902 0.021881519 0.0011340487 -0.0018555694 -0.0056067165
-0.018155724 -0.003397663 0.021266937 -0.0034772377 0.019473378 -0.014668291 -0.0091571035 -0.022287695
0.017698238 -0.009386171 -0.033712983 0.012584248 -0.008425218 0.0031386188 0.002474736 0.0011339438
-0.008193296 -0.012734685 0.0032077506 0.0101668965 0.019529033 -0.0023805788 -0.017637365 0.013906217
0.028349956 0.02106673 0.017953338 0.0071692634 0.0003262614 -0.0063663945 0.02133892 0.017034117
0.02637755 -0.015551631 -0.02479936 0.0037367635 -0.027848244 -0.0026930417 0.006328721 -0.038877957
0.00991005 -0.0167842 -0.0010466455 0.020874782 -0.015736151 -0.0026067155 -0.0037789987 -0.017100632
0.0015435698 -0.0025815074 -0.0086719915 0.0019196846 0.00438149 0.015918627 -0.015191175 -0.004568395
-0.010019543 -0.02530352 -0.0068739895 0.0050651697 -0.004452004 -0.0136155 0.02218108 -0.019390222
-0.003101327 0.021003595 0.008330656 0.02381507 0.012731389 0.017707696 -0.007022562 -0.02338539
0.015458805 0.037721224 0.025824154 0.011211361 0.010918414 -0.0062930956 0.025082564 0.0014041648
0.017702628 -0.0043391413 0.018556392 -0.020031473 -0.0052648983 0.000535709 0.0019580463 0.0039417595
0.009056026 0.011195027 0.00808865 -0.03138137 0.015193453 0.014364398 0.013520176 -0.0011280365
0.005519888 -0.015706815 0.003859511 -0.007840234 0.010618662 -0.010854298 0.00761063 0.0035447106
0.015675649 0.0138837155 -0.0058536623 0.022526164 -0.0034109994 -0.021416934 0.0036793337 -0.011924403
00000000: 9b7d 0e3c 72dc 3cbc e61c e83c c6bf 57bc
00000010: 262e 813c 8c54 75bc 8498 b43b 7dea 65bc
00000020: 6716 56bc ec33 10bc 02e2 063d 6f84 acbc
00000030: af7c 1ebd 1f1f dfba 2023 b0bc 249f 66bc
00000040: c229 953c 0fbc 0d3c 4d56 19bc 443c beba
00000050: 536a 10bc ecfa 333b 885b 3e3c 21bb 933c
00000060: 78d1 0f3c 10cb fc3c 1763 2c3d 71dc bebc
00000070: f6e0 aabb 22c2 e2b9 f0f0 87bc 1c0e 24bc
00000080: 7b67 90bc 786e 263d eb93 95bc 2286 353b
00000090: 6e98 00bd d952 fdbc 9cac 673c 0d57 d0bc
000000a0: 854a c5bc 6fe4 03bd 6857 77bc 0428 843c
000000b0: 3745 08b8 9c0a 9fbc 4f81 f3bc 5a2b 5a3b
000000c0: 0667 aebb 635a 873c 06bb 873c 68a6 6fbc
000000d0: a331 523c 75cc 46bc f428 4f3c 89a8 bc3c
000000e0: edb9 cd3c 2aae a03b a310 793c 2d67 80bc
000000f0: 9094 43bc e06c d3bb 707f a83b 1102 ba3b
00000100: e51a 04bd d99b febb 2aae ae3c dac8 04bc
00000110: 8c35 66bc f260 a03b fdd9 80bc 7f9f 3dbc
00000120: 1ea0 b03c c6bc 8c3c 3698 dabb 3e30 0b3c
00000130: c739 113b 7433 22bc 9aee 34bc 2992 013c
00000140: 5f78 afba c470 f1bb 55e8 223c 2289 c9bc
00000150: 27b0 873c aa0b ffbb 4beb 82bc 61f7 c23c
00000160: 1a67 eabb 8c1e 01bd 750a e5bb daed f73a
00000170: 18d8 22bc dd4e 5d3a bf6e 77bc 95bd 473b
00000180: 841d 8bbb 3fcb 14bd a2a9 173c 03c1 2f3c
00000190: e466 dd3a 2a10 62bb 7fd7 a9b9 1ead 3a3c
000001a0: 5494 b7ba 569c 8abb 55fe 2d3c c231 b13a
000001b0: 0013 3fbc 58dc 143c c681 38bc 495c 993c
000001c0: f6ce a2bb 2982 253c c671 4abc 34a2 82bc
000001d0: a327 823c 27b2 1f3b fdef 533a 0582 ce3c
000001e0: 7483 f4bc ec1c 023d 9efc c43b b8f8 503c
000001f0: 85e9 2e3d a876 ab3b 2eb2 31bc 796e 29bc
00000200: 1d3f a3bb 7276 173c ddeb 04bc dc7e cf3c
00000210: 304a ca3a 2610 113c 1123 adbc 0361 e03c
00000220: e288 123b f71f 1f3b 0906 29bc 65e7 abbb
00000230: df40 b33c 5ca4 943a 9436 f3ba 8cb8 b7bb
00000240: 50bb 94bc 53ab 5ebb 0038 ae3c 5ee2 63bb
00000250: a286 9f3c 4653 70bc ad07 16bc af94 b6bc
00000260: e5fb 903c 74c8 19bc a016 0abd 292e 4e3c
00000270: ed09 0abc 49b1 4d3b 2e2f 223b d7a0 943a
00000280: 2d3d 06bc 24a5 50bc 2039 523b 0e93 263c
00000290: 5afb 9f3c 7c03 1cbb 3c7c 90bc e7d6 633c
000002a0: 2b3e e83c 2394 ac3c e112 933c 24ec ea3b
000002b0: 100e ab39 309d d0bb f5ce ae3c 228b 8b3c
000002c0: bb15 d83c 45cc 7ebc 0728 cbbc 7de4 743b
000002d0: 0022 e4bc be7d 30bb 2961 cf3b 7e3e 1fbd
000002e0: c35d 223c 057f 89bc 982f 89ba 9701 ab3c
000002f0: 1ae9 80bc 6ed5 2abb 14a9 77bb a016 8cbc
00000300: 9c51 ca3a 822e 29bb f814 0ebc ed9d fb3a
00000310: 9a92 8f3b c867 823c 68e4 78bc 7ab2 95bb
00000320: 0229 24bc 5449 cfbc 343f e1bb b9f9 a53b
00000330: 1ee2 91bb 8c13 5fbc 19b5 b53c 3ed8 9ebc
00000340: a23f 4bbb bb0f ac3c 4e7d 083c d217 c33c
00000350: 5197 503c bb0f 913c 851d e6bb b892 bfbc
00000360: ed46 7d3c 9281 1a3d 2d8d d33c dbaf 373c
00000370: 26e3 323c 5036 cebb f379 cd3c f40b b83a
00000380: 1a05 913c 5b2f 8ebb 9303 983c 0b19 a4bc
00000390: 2b85 acbb d36e 0c3a 9152 003b e029 813b
000003a0: ba5f 143c 596b 373c 4286 043c c089 00bd
000003b0: f6ed 783c a758 6b3c ba83 5d3c a0da 93ba
000003c0: 2de0 b43b 94ab 80bc daef 7c3b 5374 00bc
000003d0: e6f9 2d3c 3ad6 31bc 9762 f93b 604e 683b
000003e0: 386a 803c 8678 633c 14d0 bfbb ca88 b83c
000003f0: 138b 5fbb 9172 afbc fa20 713b 925e 43bc

action_model._discrete_distribution.branches.0.bias f4 [5]
-0.0061415858 5.8193324e-05 -0.0019468643 0.0011366284 0.0076004826
00000000: 5b3f c9bb 9b14 7438 ed2d ffba ecfa 943a
00000010: 780d f93b
