Assets/Brain/Tests/newTest.onnx (onnx, 185838 bytes, 9 tensors)

network_body._body_endoder.seq_layers.0.weight f4 [128, 211]
000000 f1 55 1b be 49 cb df bc 73 3c f8 3c 06 08 f4 3d
       -0.15169503 -0.027318614 0.030302262 0.11915593
000010 7b 2d 22 bc 6d fe 8b bd dd 97 ab bd 05 63 3c 3d
       -0.009898539 -0.06835637 -0.08378575 0.04599287
000020 1d 23 55 bd 8c d7 86 bd f7 73 1c 3d 68 b1 b0 bb
       -0.05203544 -0.06584081 0.03819653 -0.005392242
000030 33 38 66 bd dd b0 29 3b 01 a8 0f bd f7 6d 4f 3d
       -0.05620594 0.0025892772 -0.03507233 0.05064198
000040 da bb e4 3d 19 a6 e9 3d 97 ac a4 bd c6 66 a3 3b
       0.11168642 0.11408634 -0.080407314 0.004986617
000050 90 cf b6 bd 41 61 79 bc c4 a6 b9 bd 8f 71 5c 3d
       -0.08926308 -0.015220941 -0.09065011 0.053819235
000060 a7 b5 46 bd 14 f6 20 3e 03 57 47 bc 40 2e 93 bc
       -0.04851308 0.15718871 -0.012166741 -0.01796639
000070 d3 cb ee bd b0 5c d2 bc 5d 4a c4 3b 42 c1 59 3b
       -0.1165997 -0.025678962 0.00599031 0.0033226763
000080 a4 e5 31 3e 6e 90 b8 bb 97 93 ac 3d 91 c6 19 3d
       0.17372757 -0.0056324517 0.08426588 0.037542883
000090 92 22 80 3d 74 bb f0 bc 5f 2a 92 bd 24 bd af bc
       0.06256594 -0.02938626 -0.07136988 -0.021452494
0000a0 64 34 8d bd b4 ae e4 3c f5 5e 07 3e 16 62 33 bd
       -0.06894758 0.027915336 0.13219817 -0.043794714
0000b0 83 72 c2 bc b1 aa a1 3d ee ce b6 3b c6 2b 0e 3e
       -0.023736244 0.07893885 0.005578867 0.13883886
0000c0 95 bb 34 3d af 45 1f 3d 99 04 75 bd 6d 6e 4c 3d
       0.044124205 0.038884815 -0.059818838 0.049909998
0000d0 f3 e8 1b 3e c0 58 22 bd c1 28 0c bd 3f c1 f8 ba
       0.15225582 -0.03963542 -0.034218553 -0.001897849
0000e0 39 8b 48 bd cb 78 a5 bd 82 4b e0 bb c0 96 6d bd
       -0.048960898 -0.0807968 -0.0068449387 -0.058005095
0000f0 ee 96 96 3d f2 5b fe bd 1e 5b 7f 3d f5 48 24 bc
       0.07353006 -0.12419881 0.062342755 -0.01002716
000100 07 12 a9 3d 5f 92 69 bc 98 51 10 bc 54 df 01 bd
       0.082553916 -0.014256089 -0.008808516 -0.031707123
000110 3b 5a 73 3d 60 42 14 3b 29 b6 a7 bd ed 83 b0 3d
       0.059412222 0.002262257 -0.08189041 0.08618913
000120 6e f5 be 3b d1 31 a4 3c 9b fc 0f bd 89 99 46 bd
       0.0058275973 0.020043286 -0.035153013 -0.048486266
000130 a6 46 e2 3d 95 a2 10 bc 92 42 05 bd c6 42 77 3c
       0.11048631 -0.008827825 -0.03253419 0.015091604
000140 eb a1 db 3d d0 20 f4 3d 32 43 16 3e d3 aa ea 3d
       0.10724243 0.11920321 0.1467407 0.114583634
000150 f6 2a fc bc ee dc 36 bd 83 fb 6e bd 49 89 f9 3b
       -0.030782204 -0.04464429 -0.05834533 0.0076152426
000160 eb 04 75 3c 7b ad 1c be b2 d0 1b bd fa a0 11 3b
       0.014954786 -0.15300553 -0.038040824 0.0022221194
000170 75 6d 13 bd 45 0d 04 be 04 4d 16 be 25 2c 85 bd
       -0.03599306 -0.12895687 -0.14677817 -0.065025605
000180 16 ca ff bc a9 93 ab 3b a0 6c 94 bd 25 61 e8 bc
       -0.031224292 0.0052361083 -0.07247281 -0.028366635
000190 5a 5a 82 bd 7f 68 6b bd 12 c7 8d 3d 6a c0 91 bd
       -0.063648894 -0.057472702 0.06922735 -0.07116778
0001a0 4c db 0a 3a 7c 6e 8b bc 80 f8 a7 bd f0 cc 31 3e
       0.000529696 -0.017020456 -0.082016945 0.17363334
0001b0 36 c3 44 bd 3c 9d cb bd 55 3f a3 bd e5 0b fb bb
       -0.04803773 -0.099420995 -0.07971064 -0.00766133
0001c0 9e 7a 88 bd 1d 29 5b 3d 9a 6a ef 3d 65 0a 77 3d
       -0.06664012 0.053506006 0.116902545 0.060312647
0001d0 59 a3 ce bc 1b cf 3a bc e3 2e 0c bd ad d4 86 bc
       -0.025224375 -0.011401917 -0.034224402 -0.016458834
0001e0 83 80 15 3c a6 4e 11 3e e6 4c 48 be 46 67 8e 39
       0.009124878 0.14190158 -0.19560584 0.00027161295
0001f0 e9 b3 0d 3e 5c 9f 28 3d 15 2f fc bc 41 2c 30 3e
       0.13838162 0.041167602 -0.03078417 0.17204382
000200 ac af 75 bd 16 67 85 bd a5 9c dc 3d 0e 95 dc bd
       -0.059981987 -0.06513803 0.10772065 -0.107706174
000210 98 ca a5 bd cd fa c6 3b ed 05 17 3e e4 17 81 3d
       -0.08095282 0.0060723783 0.14748354 0.06303385
000220 f2 16 cb bc db ed 71 3d 8c d5 8f 3d d5 85 03 bd
       -0.024791215 0.059064727 0.07023153 -0.032110054
000230 42 a3 d0 3d 10 6a 1f 3e 31 3f 82 bd 8a 39 fb 3c
       0.10187389 0.15567803 -0.06359709 0.030667085
000240 a8 6d 16 3d 7f 20 15 bc 9b 86 89 3d be ec fd 3d
       0.03672567 -0.009101986 0.06715127 0.123986706
000250 6f 43 ac 3b 4b f0 8a bc 0c a0 47 bc f8 ea 7d bd
       0.005257062 -0.016960284 -0.012184154 -0.06199166
000260 9a 04 7a bc 0f 42 66 3e 09 28 80 bd 77 41 34 bd
       -0.015259886 0.22486137 -0.06257636 -0.044007745
000270 99 56 9e bd 76 8f 9b bb ea 23 10 bd 8a 68 80 bd
       -0.07731361 -0.0047473265 -0.0351905 -0.06269939
000280 3a 86 54 bc 4b 4f 81 3d 50 38 fa 3c 33 0c 0f 3d
       -0.012971455 0.06313952 0.03054443 0.034923743
000290 e9 12 93 3d 96 56 be 3d 19 88 1a bd 8b c9 80 3e
       0.07181341 0.09293859 -0.03772745 0.25153765
0002a0 d1 97 f6 ba b3 10 e9 3d 3c e1 e4 bd d4 e2 00 3d
       -0.0018813555 0.11380138 -0.111757725 0.03146632
0002b0 8f 8a c1 39 01 ea 41 bd 88 2f 86 3e 19 f6 7b bb
       0.00036915063 -0.047342304 0.26208138 -0.0038446246
0002c0 1f 12 17 3d 4b a5 0c 3d 31 45 0a 3d 56 9c cf bd
       0.036882516 0.034337323 0.033757392 -0.101372406
0002d0 24 3f 48 3d fa 2d 2c 3d 58 27 2c bc 7b 54 24 bc
       0.04888834 0.042036034 -0.010507427 -0.010029907
0002e0 01 d6 43 bc 47 b8 ef 3c 80 ad cb bd f4 1e fa 3d
       -0.011952878 0.029262675 -0.09945202 0.12212935
0002f0 47 8f 73 bd 48 a7 0d 3d 3a a8 00 3d e9 59 ab bd
       -0.05946281 0.03458336 0.031410433 -0.083667584
000300 e1 30 0c 3d 5e 02 9e bc 2b 97 4c 3d d7 16 9e bd
       0.034226302 -0.019288238 0.049948853 -0.077192
000310 f3 a3 38 bd 64 3a aa bb 4b 04 27 3d 0e 43 74 3c
       -0.04507823 -0.005194949 0.04077558 0.014908565
000320 25 bd ac bd 47 69 02 3e 72 c7 bc 3d e1 78 1a bd
       -0.08434514 0.12735473 0.09217729 -0.037712935
000330 96 70 ff bd 6e c2 2b bd dd c2 d3 bd 3d 60 46 bd
       -0.12472646 -0.04193347 -0.103399016 -0.048431624
000340 a5 81 c6 3b 4a a1 32 3d ff e9 0c bc 5c ad fe 3d
       0.0060579353 0.04361085 -0.008600711 0.124354094
000350 2a 1d 6c 3d a5 0c 09 bd 95 87 92 bd 88 46 ab 3d
       0.057645 -0.033459324 -0.071547665 0.08363062
000360 93 32 8c 3c 51 62 32 3d 9d e9 3e bd 6c 8b a3 3d
       0.01711396 0.043550793 -0.04660951 0.07985577
000370 c5 15 d0 bc 27 2a bb 3d c7 14 cb 3d 46 ca 91 bd
       -0.025401006 0.09138899 0.09916072 -0.07118659
000380 0c b7 4a 3c 73 77 90 3d 5b 02 4d bb 20 d7 ec bd
       0.012372743 0.07054033 -0.0031281922 -0.11564469
000390 9d 48 40 3d 4a 02 e2 3d 81 71 01 bc ba d5 9b 3c
       0.04694425 0.11035593 -0.007900597 0.019022811
0003a0 82 01 2d 3e 6c 9a 3d bd 43 e7 fe bb e8 7f 60 3d
       0.16895106 -0.046289846 -0.0077790334 0.05480948
0003b0 e3 d5 95 bd 7a 98 9b 3d 37 5a b8 bd 0b 16 ec 3d
       -0.07316186 0.07597442 -0.09001582 0.11527642
0003c0 33 d5 18 3d 23 39 fb bc 2d 8b e1 bd 02 f9 c3 bd
       0.037312698 -0.030666893 -0.11012874 -0.09568979
0003d0 ec 30 56 3d 2a 88 8a 3c 13 11 2f 3d 0d c8 10 3d
       0.05229275 0.016910631 0.042740893 0.035347033
0003e0 31 b1 ff bb 5d cd bc bc 07 aa 12 3d 9e f0 11 be
       -0.0078031053 -0.023047144 0.035806682 -0.14251944
0003f0 84 92 30 bc 91 00 2f be 18 b1 99 3d 85 ed 5a 3d
       -0.01077712 -0.1709006 0.07504481 0.053449173

network_body._body_endoder.seq_layers.0.bias f4 [128]
000000 0a d6 ed 3b f9 c4 4f 3c b2 a5 ab bb 67 c7 58 3c
       0.0072581815 0.012681239 -0.0052382583 0.013231135
000010 9c ec 6e 3b 3d fa 02 3d 6a 40 5a bb b7 f8 99 3b
       0.0036456948 0.031976927 -0.0033302554 0.0046988386
000020 30 2d 33 3b ff 06 a1 3c 0b bb b1 bb 62 57 96 3c
       0.0027340166 0.019656656 -0.0054239086 0.018352214
000030 23 7a 82 3c eb be 7a 3b fb eb c0 3b 88 f2 d2 3a
       0.01592738 0.0038260769 0.005887506 0.0016094008
000040 06 a8 f8 3a 40 ae a4 bb 93 bf 26 bb fc d1 cf 3c
       0.0018970973 -0.005025655 -0.0025443777 0.025368683
000050 38 54 78 3c 43 54 eb 3b 23 2c 6f bb 6e 46 0e 3c
       0.015156798 0.0071816756 -0.0036494813 0.008683784
000060 74 1b fc bc 3f f2 93 3b 08 c2 78 ba 64 bc 24 3c
       -0.03077481 0.004514962 -0.0009489362 0.010054681
000070 c5 d6 81 3b 4f 5c e4 3a bc 9b 3a 3c 03 8d 2c 3c
       0.00396237 0.001742253 0.011389669 0.010531667
000080 86 90 d4 3b 5e 7d ed 3b 54 0a 0b 3c 17 e4 e5 3b
       0.006486955 0.007247611 0.008486349 0.007015716
000090 82 f0 f1 3c 14 b1 5c bc eb 9d 33 3a 2b 7d 4a 3c
       0.029533628 -0.013469953 0.000685184 0.012358944
0000a0 16 65 9b 3c f3 31 73 bb e9 d3 8a 3b 94 7e 9f 3c
       0.0189691 -0.003710863 0.0042366874 0.019469537
0000b0 ea 24 92 bc 06 d8 d6 bb 20 9e 65 3b 7f bc 50 39
       -0.017839868 -0.0065565137 0.0035036877 0.00019906646
0000c0 06 72 61 3c 8d c1 af 3c 78 59 26 3c fc cd cd 39
       0.013760095 0.021454597 0.010153167 0.00039254117
0000d0 ec ff 63 3c e8 58 58 3c b9 38 81 3c 8d d1 37 3b
       0.013915997 0.013204791 0.015774118 0.0028048486
0000e0 1f be 2e bb a6 84 3f 3c cf 72 e7 3c 5e cd 58 3c
       -0.0026663614 0.011689341 0.028252987 0.013232557
0000f0 95 e7 2f 3c e4 5e cb 3b a5 1c ab 3c fb 6a 84 3c
       0.010736366 0.00620638 0.020887682 0.016164294
000100 9a 28 0d bc fc 22 c3 3c 89 02 9b 3b 2f 20 37 3c
       -0.008615637 0.023820393 0.004730527 0.011177107
000110 95 4a 7e b8 fc 7b 60 3c c1 68 cd 3c 72 a9 22 bb
       -6.062778e-05 0.013701435 0.025074365 -0.0024820236
000120 14 9b 5d 3c 01 59 c1 3b 3d a3 f7 3b 49 31 bc 3c
       0.013525743 0.0059005027 0.0075573013 0.02297272
000130 a2 7d 85 b8 fd 45 11 bd 68 0f 5f 3c d3 ea 13 3b
       -6.365335e-05 -0.035467137 0.013614513 0.0022570386
000140 35 2f bf 3b c2 a8 54 3c 8f af 73 3c f2 74 9f 3c
       0.005834485 0.012979688 0.014873399 0.019464944
000150 46 b3 91 bb eb a4 5c bb 68 b2 9b 3c 23 46 dc 3b
       -0.00444642 -0.0033667635 0.01900597 0.006722228
000160 54 6c 89 3c be 12 db 3b 66 90 a1 3c 5b a8 ad 3c
       0.016775288 0.006685584 0.019722175 0.021198442
000170 e5 90 86 bc 76 06 2f 3c a8 0d 80 3c cf b2 60 3b
       -0.016426513 0.010682693 0.015631512 0.0034286266
000180 f8 1f e7 3c 63 d8 9a 3c a4 da fb bb cc 2c 08 bc
       0.028213486 0.01890201 -0.007685976 -0.008311462
000190 8d ef 4e 3c 09 a5 de 3c 88 05 5c 3c 7d 5e 28 3a
       0.012630356 0.027178304 0.013429053 0.0006422771
0001a0 0f 20 81 3c 83 0e 45 3c 30 45 f8 3b 3e 19 26 ba
       0.015762357 0.012027386 0.007576607 -0.0006336159
0001b0 1d 2a c3 3b 2f 31 69 38 ff 6e 58 3c 98 ca 06 3c
       0.005955948 5.5597335e-05 0.013210057 0.008227013
0001c0 b8 0b 22 3d a3 51 59 3c 9c 4f 29 3c ab a7 e0 3a
       0.039561957 0.013264093 0.010333922 0.0017139813
0001d0 8f c5 75 3c 7a 33 c4 3c 1f fa 07 3c ca 5c 05 3b
       0.015000715 0.023950327 0.00829938 0.0020349496
0001e0 9d 7a c4 bb 1b bd 88 3c 9b 8e a9 3b 04 60 98 3b
       -0.005996062 0.016691735 0.0051744706 0.004650118
0001f0 02 c2 7f 3b 18 b9 bd bc 51 d0 2e 3b 46 03 bd 3b
       0.003902555 -0.023159549 0.002667446 0.0057682125

network_body._body_endoder.seq_layers.2.weight f4 [128, 128]
000000 1e e0 13 be ab 6b 0c 3e bf e6 5e bc 2e f6 ee bc
       -0.14440963 0.13712947 -0.013604819 -0.029170122
000010 82 6d 00 3e 3b a4 1b be ce 51 1f 3e 77 6f 1d 3c
       0.12541774 -0.15199368 0.1555855 0.009609095
000020 b9 ae 6f 3d 46 db bf bd 84 b7 26 be 56 ac a0 3d
       0.058516238 -0.09367995 -0.16280943 0.078453705
000030 2e e3 cc bd 63 d5 92 3c eb 0a 8f bb 5b 67 a1 bd
       -0.100042686 0.017924016 -0.004365315 -0.078810416
000040 9e e6 cc bb 15 a4 f6 bc 3b 41 8d 3d 18 c7 d2 3d
       -0.0062530776 -0.030107537 0.06897207 0.1029188
000050 8e 5a 02 bd 54 44 34 3d b4 77 06 3e 31 f6 24 3d
       -0.03182464 0.044010475 0.131316 0.04027385
000060 c5 6e d2 bc 19 44 a8 bd 13 27 2f 3e 91 75 d6 3d
       -0.025687585 -0.082161136 0.1710475 0.10471643
000070 2a 2c 44 be ae 0c b7 3d 0e fd 15 3d 2d ee be 3c
       -0.19157472 0.08937965 0.036618285 0.02330693
000080 64 16 55 3e 61 85 7e bd 1d 34 bf bc 7f dc 75 bd
       0.20809323 -0.06213892 -0.02334028 -0.060024735
000090 bf 32 38 bd 70 b6 2b 3c 49 59 4d 3c 6e 23 80 3d
       -0.04497027 0.010480508 0.012533494 0.06256758
0000a0 44 1f 77 3d fd 75 bb 3d b7 f3 09 bc c3 e1 6b be
       0.06033255 0.09153364 -0.008419923 -0.2303534
0000b0 50 27 c4 bd a4 25 25 bd 56 b4 f1 3d 0b a8 e4 3b
       -0.09577811 -0.0403191 0.118019745 0.00697804
0000c0 10 8f 80 3e 8d 7e a6 bd 3b f5 6c 3d 39 0d 21 3e
       0.25109148 -0.081296064 0.057851057 0.157277
0000d0 d4 a2 a9 3d b4 70 73 bd a0 84 3c 3d 06 98 ae 3d
       0.0828301 -0.059433654 0.04602492 0.0852509
0000e0 66 4b f9 3c bc 34 b0 bd c4 ca ae bd ea be 27 3e
       0.03043146 -0.08603808 -0.08534768 0.16381422
0000f0 29 61 8c bd 07 46 b9 bd e9 cf 4b be 1b 59 8b 3e
       -0.06854469 -0.0904656 -0.1990353 0.2721642
000100 89 7e 11 be 9d 36 c7 3c fd 6c a1 bd 98 7e e3 bd
       -0.14208426 0.024318034 -0.07882116 -0.1110813
000110 df f1 84 bd 13 97 22 3e 0d 63 10 bd 8f bb 29 3e
       -0.06491446 0.15877943 -0.035250712 0.16575454
000120 59 3a 0b 3e d6 78 f7 bd 0a 54 bb ba ca a6 18 be
       0.13596477 -0.120835945 -0.0014292013 -0.14907375
000130 2e 86 17 bd 5f 5a c8 3d 00 a3 57 3d 8e 71 26 3e
       -0.036993198 0.09782862 0.052645683 0.16254255
000140 1e ca 8a bc a7 b6 40 be ad 0c e7 3c ad af 3e bd
       -0.01694208 -0.18819676 0.028204286 -0.046554256
000150 68 0b d3 3c 6a e2 c1 bc b8 d0 37 be 9b a6 59 3d
       0.025762275 -0.023667533 -0.17950714 0.053137403
000160 c0 5f 83 bc d4 9f 9a 3e 38 b4 b4 3c c6 50 b9 39
       -0.016036868 0.30200064 0.022058591 0.0003534613
000170 07 3e 88 ba fb 2e 75 3a d2 80 8c 3d 2b 76 b8 3c
       -0.0010394462 0.0009353009 0.06860508 0.022517284
000180 d6 33 6e bc 55 89 1f bd f7 c9 5c be c6 0a 9f 3d
       -0.014538726 -0.03894933 -0.21561418 0.07765727
000190 92 6b 20 be 03 90 cf 3d b0 ea 11 3b 36 98 c6 3c
       -0.15666035 0.1013489 0.0022265129 0.024242502
0001a0 2d 0d 9a bd a6 fe 05 be 09 65 f0 bd a1 10 2f ba
       -0.07522044 -0.13085422 -0.11738021 -0.0006678198
0001b0 e0 18 38 3d ce e6 12 be 70 6a f2 3d 61 52 ff bd
       0.044945598 -0.14345858 0.118367076 -0.124668844
0001c0 2a 26 27 3d 52 20 39 3d 47 54 de 3d a3 46 af 3c
       0.04080788 0.04519684 0.108559184 0.021395987
0001d0 89 8c 8b 3c 5d 9f fb 3d f8 03 95 bc bd d5 3f 3e
       0.017034786 0.122862555 -0.018190369 0.18733878
0001e0 1e b8 e5 bd 27 34 be 3d 41 a1 a8 3c 63 02 b0 bd
       -0.11216758 0.09287291 0.020584704 -0.08594205
0001f0 39 91 ff bc b8 57 a2 3c be c1 d0 3c d1 37 11 bc
       -0.031197177 0.019817218 0.025483008 -0.008863405
000200 ea cb af bd 9f 4e 67 bd f9 ab f1 bd 5e 0e 64 3e
       -0.085838154 -0.056471463 -0.11800379 0.22271106
000210 ab 7b 7f be f8 c3 16 bd c0 b6 37 bc 24 d0 dc 3d
       -0.2494952 -0.036807984 -0.011213005 0.10781887
000220 7a 7d 17 3e 55 1d 07 3e 04 62 e7 3d f4 8c 8a 3d
       0.1479396 0.13194783 0.11297992 0.06765166
000230 ba fa e0 bc 88 35 80 3c 87 3c 6f bd 7e 59 1d 3d
       -0.027463306 0.015650526 -0.058407333 0.038415425
000240 1e 51 3f 3e 56 db 1d be 1e 43 f3 3d b4 94 88 bd
       0.18683288 -0.15415701 0.11878036 -0.06668988
000250 66 31 be bd ed 2a 8e 3d 83 32 b5 3c 08 73 aa bd
       -0.09286766 0.06941781 0.022118812 -0.08322722
000260 bc bb cf ba 33 55 a3 3d ff f9 ce bc 5e 4b 3c 3d
       -0.0015848796 0.07975235 -0.025265692 0.045970313
000270 a4 35 8c 3d d2 54 dd 3b 74 21 56 bc 77 b8 33 3d
       0.06846169 0.006754496 -0.013069499 0.04387709
000280 47 85 35 3d 0b 3f 35 be 2c ed 34 bb 6e 7e ed 3d
       0.044316556 -0.1769983 -0.0027607186 0.1159638
000290 0e 28 83 bd 78 f2 ed 3d 7e ab 1b 3d 0d a4 95 3d
       -0.06404124 0.11618513 0.038005345 0.07306681
0002a0 c8 f1 21 bc 8c 84 db ba b0 f3 c3 bc 1d c4 48 be
       -0.009884305 -0.0016747876 -0.02391991 -0.19606061
0002b0 7e b2 d0 3c 58 85 e4 bc 7f a2 58 3d 74 0a bf bd
       0.025475737 -0.027895615 0.052889343 -0.09328166
0002c0 c3 09 0d bd 2d dd 4a bd f9 4c 0c 3e 9b 31 38 3c
       -0.034433138 -0.049527336 0.13701238 0.011242296
0002d0 0e c1 88 3d bb b1 ce 39 16 af 4e bd 72 c3 f9 bc
       0.06677447 0.000394238 -0.050459944 -0.030488703
0002e0 a6 a0 6b bd 08 44 ca bd 85 09 3b 3d 55 76 65 3e
       -0.057526253 -0.09876257 0.045663375 0.22408421
0002f0 b3 c0 b5 3d 73 46 2c 3e 91 27 6f bd 34 0e ce 3d
       0.08874645 0.16823749 -0.058387343 0.10061303
000300 3b 55 77 be 21 77 3f 3d d9 be 56 be 5f d8 72 3d
       -0.24153607 0.04674447 -0.2097124 0.05928838
000310 bb 51 92 3d e8 a5 0f bd f0 30 e5 bd 99 81 29 3d
       0.07144495 -0.03507033 -0.11190975 0.04138336
000320 17 54 0d 3e 11 4e 6b bd fc cc c3 3d 77 6f f8 bd
       0.13801609 -0.057447497 0.09560582 -0.12130635
000330 2c 9c 20 be 99 17 18 3d e7 90 3c 3d 73 7f b0 3c
       -0.15684575 0.03713188 0.046036627 0.021545148
000340 cb 3b 3f bb 6e 7e 10 bd d5 f5 e4 3c 4c 2c b7 3c
       -0.0029179926 -0.035276823 0.027949253 0.02235999
000350 cf a7 f4 3b 76 fb 26 bc 7e 09 12 be 8c 5c 05 bd
       0.0074662934 -0.010191789 -0.14261433 -0.032558963
000360 09 ba 19 3e 68 54 1e bd d2 bb 4f be f0 18 81 bd
       0.15012373 -0.038654715 -0.20286492 -0.063035846
000370 f6 89 15 3d 8c 04 e7 bc 1e 66 13 3e db 0b b5 bd
       0.036508523 -0.02820041 0.14394423 -0.08840152
000380 ad 3f 12 be c1 95 15 3e b9 fb 33 3d 73 23 09 bd
       -0.14282103 0.14607908 0.043941233 -0.033481073
000390 45 82 b0 3d 53 c6 90 bd 6d 4b 78 bc 6b d1 a5 3b
       0.08618597 -0.07069077 -0.015154702 0.005060365
0003a0 0f c1 d5 3d 30 63 0a bd e6 ad 8e 3b bf 66 05 3e
       0.10437214 -0.033786 0.0043542264 0.13027476
0003b0 d5 f1 70 bc 22 f9 09 be f0 a8 bf 3d a5 28 cc 3c
       -0.014706095 -0.13473943 0.09358394 0.024921725
0003c0 88 10 56 bb 03 1d 2b bc f3 33 12 3e 57 94 c0 3d
       -0.0032663662 -0.010443929 0.1427763 0.094032936
0003d0 58 8f 11 3d 0b f9 2f bd a0 35 25 3d f3 3c 80 3d
       0.035537094 -0.042962115 0.040334344 0.06261625
0003e0 aa da 3f be 34 ed 2b bd 8b 49 b4 bd 69 43 f7 bd
       -0.18735757 -0.04197426 -0.0880309 -0.12073404
0003f0 0b 63 1f bd 28 a4 86 bc ad 09 cc 3d cb c1 d9 bd
       -0.038912814 -0.016435698 0.09962783 -0.10632666

network_body._body_endoder.seq_layers.2.bias f4 [128]
000000 df 60 51 3c f8 45 8b 3c b1 3f a0 bb 74 33 0c bb
       0.0127794435 0.017001137 -0.004890405 -0.0021392973
000010 e2 cd d5 ba af c4 1b 3c 39 30 1a bb 45 b6 98 bb
       -0.0016311968 0.009507342 -0.0023527278 -0.0046604
000020 45 b7 0b 3c af be 36 bc b7 16 29 3b 47 d7 a2 bc
       0.008527582 -0.011153861 0.0025800893 -0.019878043
000030 62 a7 bd 3b 1f ae 8b 3c 6e d8 62 3c 08 b7 f7 3b
       0.005787776 0.0170508 0.013845546 0.007559661
000040 e8 0d aa 3c 1e f6 4d 3c be 39 aa 3c e3 05 5c 3c
       0.020758584 0.012570886 0.020779487 0.013429138
000050 52 51 05 3c 03 f0 f7 3c f0 88 9a 3c 17 1a 89 3c
       0.008137064 0.030265814 0.018864125 0.016736073
000060 e8 fb ec 3b 5d 62 11 3c 79 b4 6f 3b a3 e6 7d 3c
       0.007232178 0.008873549 0.0036576076 0.015496883
000070 52 c7 5e 3c 9f 40 af 3c 92 07 10 3c 79 4b fd ba
       0.013597326 0.021393118 0.008790867 -0.0019324861
000080 71 af 01 bb d3 83 72 3b 59 4b 64 3c 7a 2d 79 3c
       -0.001978841 0.0037004843 0.01393398 0.015208596
000090 aa 1f 3f 3b 82 94 33 bb 59 c9 b5 3c b5 ed c5 3c
       0.002916316 -0.002740175 0.022190737 0.0241612
0000a0 15 4c 9d 3c 88 27 5d b8 2f 41 db 3b 0d 03 a7 ba
       0.019201318 -5.2727322e-05 0.00669112 -0.0012741998
0000b0 98 51 e4 3b ef f7 03 3d 5d 26 87 3c 66 44 37 3c
       0.0069677345 0.03221887 0.016497785 0.011185741
0000c0 99 29 b1 3b 29 0b e8 3a d1 e7 10 bb d4 6c 40 3c
       0.00540657 0.0017703521 -0.002211083 0.011744697
0000d0 6f c9 76 3c ec d1 c6 3c 13 cc 0b ba 17 ae 52 3c
       0.015062674 0.02427002 -0.00053328386 0.012858889
0000e0 00 3c 8f 3c 43 23 b3 bb 90 b7 8a 3b 25 8f 66 3c
       0.017484665 -0.00546685 0.004233308 0.014072214
0000f0 93 81 4d 3b fc fa ac bb 48 42 e9 3c b2 3c 6e 3b
       0.003135775 -0.005278943 0.028473988 0.0036352095
000100 9e 65 89 3c cd 0c c6 3c 1b 9a 14 3c 3a 07 c0 3c
       0.016772088 0.024176026 0.009069945 0.023440946
000110 28 69 89 3a 1b 01 1f 3c 1a 57 cd 3a b6 c9 b7 3b
       0.001048361 0.009704853 0.0015666217 0.0056087626
000120 14 af bb 3a 83 dc ab 3c 5e c3 e4 3b a5 4c 61 3c
       0.0014319145 0.020979172 0.0069812974 0.013751184
000130 8c 55 da 3c 21 09 35 3c 54 6f a7 3c 8e 06 6e 3c
       0.02665212 0.01104954 0.020438828 0.01452793
000140 af c7 8b ba ca 22 38 3b cc 80 64 3c f4 12 1c 3c
       -0.0010664369 0.0028096908 0.013946723 0.009526003
000150 4a 67 fd 3c c7 1e 2c 3d b0 ba 3a bc af ed 1f 3c
       0.030933041 0.04202154 -0.011397049 0.009761258
000160 dc 1d bc 3b 99 35 d0 37 2d 74 2d bb e0 15 82 3b
       0.005740864 2.482049e-05 -0.0026466951 0.003969893
000170 88 fd 99 3b a0 41 34 3a 5f 87 0a 3c 09 1c ed 3c
       0.0046994127 0.0006876234 0.008455127 0.028944032
000180 36 1d 2e 3c f9 2f ae 3c df 9f d1 3c ef 38 be 3c
       0.010627082 0.02126311 0.025588928 0.023220507
000190 1f 59 af 3c c3 a6 2a 3c e8 aa 46 3c b8 8f c6 3c
       0.021404801 0.010415736 0.012125708 0.024238452
0001a0 f1 da 18 bc 77 69 78 3c 97 db b0 3c 5a e7 ec b7
       -0.009329543 0.0151618635 0.021589084 -2.8241124e-05
0001b0 e1 12 a2 3c ae 42 8a 3b 9a 8d 5d 3c c1 fc b3 3a
       0.019784393 0.0042193746 0.01352253 0.0013731943
0001c0 67 4f 5e 3c 59 74 43 3c 22 6f dc 3c e0 4d 7b 3b
       0.013568736 0.011929595 0.026908461 0.0038345978
0001d0 d8 c3 0e 3b 3a 2e 8a 3c 06 c1 df 3c a8 e4 3a 3c
       0.0021784212 0.016867746 0.02731372 0.011407055
0001e0 99 d3 8f 3c 0e 6d b3 bb c0 4f 53 3c 3b 17 d1 3c
       0.017556952 -0.005475647 0.012897432 0.025523772
0001f0 59 26 a9 3c f9 a3 8e 3c df c3 da 3b e6 e7 8e bb
       0.020648168 0.017412173 0.0066761817 -0.0043611405

action_model._continuous_distribution.log_sigma f4 [1, 3]
000000 2d 4c 1a bf 5b f3 93 be 31 4f 7e bf
       -0.60272485 -0.28896603 -0.99339586

action_model._continuous_distribution.mu.weight f4 [3, 128]
000000 7b f3 73 3d 60 8c 95 3d 3d bc 09 3c cd 8d da bc
       0.059558373 0.07302165 0.008406696 -0.026678944
000010 35 e7 32 3c fa a3 cb bd 3e be 71 3d b5 bb a6 3c
       0.010919382 -0.099433854 0.05901932 0.020353178
000020 2e 76 31 3d 44 a5 6f 3c 48 83 00 3d 12 c4 ee 3b
       0.043325596 0.014626805 0.0313752 0.007286557
000030 a8 9c 51 3d 9f 3e e8 bd 33 40 17 bd d4 e0 07 3d
       0.05117479 -0.11340069 -0.03692646 0.033173397
000040 b1 84 ca 3c cd 5a 9a 3c 21 9a 87 bd b4 4e cb 3b
       0.024721475 0.018842125 -0.06621195 0.0062044505
000050 1e 8b 28 3d fa 7c cb bc 09 d4 47 bd c8 98 12 bc
       0.041148297 -0.024839867 -0.048786197 -0.008947559
000060 6f c2 3b 3d 8b c7 86 bd 04 14 be bc eb 3a 52 3c
       0.045839723 -0.065810286 -0.023202904 0.01283143
000070 84 aa b9 3d 3f f8 02 bd 0e f0 ba 3d 9c 61 b2 3c
       0.090657264 -0.031975027 0.09127818 0.02177506
000080 2c 7c 33 bd c0 d8 65 bd 17 73 89 bd 3a e7 b2 bd
       -0.04381959 -0.056114912 -0.06711405 -0.08735509
000090 0c cd 4c 3d 23 24 d0 3c ee ca 72 bd 38 da c5 bd
       0.050000235 0.025407856 -0.05927556 -0.096607625
0000a0 5d 40 03 be 52 b6 7c 3c 0b 92 62 3d 89 66 17 ba
       -0.12817521 0.015424328 0.05531506 -0.0005775472
0000b0 67 20 0f 3c 92 34 2a 3d 03 84 af 3d 7d 02 b2 3d
       0.008735753 0.04155404 0.08570101 0.08691881
0000c0 0b 4c b3 3d 8d 43 fe 3b 59 89 54 3d eb 82 a1 bd
       0.087547384 0.0077595175 0.051888797 -0.07886299
0000d0 e2 21 bb bd f9 71 e3 3d fb 40 6f bd 39 7d 79 3d
       -0.09137322 0.11105723 -0.05841158 0.060910437
0000e0 d8 9f 31 3d 8d cc 3c 3d 0f f3 d0 3c da e4 a2 3d
       0.04336533 0.046093512 0.025506524 0.07953806
0000f0 81 fd fa bc 63 f5 6c bd 90 e3 8b bd e9 7a a5 3d
       -0.030638458 -0.057851207 -0.068305135 0.08080084
000100 68 34 ce bd 08 3d 08 bd 3f 0e 54 3d bb f6 a0 bd
       -0.100685894 -0.03326133 0.0517714 -0.0785956
000110 05 a1 2f 3d d6 4b 2d bd c4 9b 35 bd 00 64 0c 3c
       0.04287817 -0.04230865 -0.044338003 0.008568764
000120 9c ee 85 3d a2 cb 04 bd dd 00 61 3a b4 13 5d bd
       0.06539652 -0.032420762 0.00085831975 -0.05397387
000130 20 bb 95 3d 36 73 ba 3d 08 6f 36 3d e0 27 81 bd
       0.07311082 0.09104006 0.04453948 -0.06306434
000140 28 65 7a bb 3e 74 5e 3d 04 4f 8a bd 74 aa a9 3d
       -0.0038207266 0.054310076 -0.06753352 0.082844645
000150 2c 6e 37 bd 39 0e 29 bc c2 79 8b 3c 3b fb ad 3d
       -0.044782802 -0.010318332 0.017025832 0.08495184
000160 49 08 14 bc 9f 97 ab 3b 30 dc 12 bd 08 79 36 bd
       -0.009035178 0.0052365805 -0.03585452 -0.04454902
000170 dc 08 74 3d d8 48 04 3d 7d de 44 3d 4f cb 2e bd
       0.05957876 0.03229603 0.048063744 -0.04267436
000180 4c 89 8f 3c dd 5d b0 3d db 07 90 bd dc 62 c7 bd
       0.017521523 0.08611653 -0.07032748 -0.09735653
000190 13 74 90 bd 6f 7c 4a 3d 55 63 a8 bd 0a d3 8b bd
       -0.070533894 0.049435075 -0.08222071 -0.06827362
0001a0 e9 49 f4 ba 3a 7f 8d bd 63 99 64 3d a6 18 eb 3c
       -0.001863775 -0.06909032 0.055810343 0.028698277
0001b0 48 28 84 3d 9c 0f aa bd 6f ed 4f bd e9 f2 4e 3d
       0.064529955 -0.083037585 -0.050763544 0.050524626
0001c0 44 a3 45 bd bf 3a fb bd 9f cc b5 3d 53 ce 7a bc
       -0.048251405 -0.12267064 0.08876919 -0.015307981
0001d0 5e ee 8b 3d b0 57 84 3c e2 0c e4 bd 15 80 64 bd
       0.06832574 0.016155094 -0.1113527 -0.05578621
0001e0 22 d0 2f 3d 8e 26 05 3d 23 17 9a 3d a8 82 93 3d
       0.0429231 0.03250747 0.07523944 0.07202655
0001f0 fb 67 80 3d 52 b8 3e 3d ef 9c 43 bd 8e cb 60 3d
       0.06269833 0.0465625 -0.047757085 0.054881625
000200 24 54 b6 3c 69 fe 32 bd b4 c3 67 3d 18 59 3e bd
       0.022256918 -0.043699656 0.05658312 -0.046471685
000210 a0 7b 59 3d d9 a9 2b 3c 00 cf b3 3a 01 ea 52 bd
       0.053096414 0.010477507 0.0013718307 -0.051492695
000220 be 4f a7 3d e5 00 2c bd 29 03 1a 3d 99 8f 11 bd
       0.081695065 -0.04199304 0.03760067 -0.035537336
000230 37 2f fa 3a 51 a8 18 bc 87 1f 95 bc 37 ab 80 3d
       0.0019087557 -0.0093174735 -0.01820351 0.06282657
000240 49 71 cb bd dd b1 a8 3c 5f 87 22 bd 78 ff 18 bd
       -0.09933717 0.020592624 -0.03967988 -0.03735301
000250 7b 70 b6 3d 74 9a d1 3d 68 6c e2 bd 34 73 94 3c
       0.08908173 0.10234538 -0.11055833 0.01812134
000260 d9 2c 9b bd 7a f3 34 bd da 5a 85 3b 12 0e 67 3d
       -0.075769134 -0.04417751 0.0040696682 0.056409903
000270 f9 ab 55 3c 74 dc 12 3d b7 10 3d bd 92 d2 12 3d
       0.01304149 0.03585477 -0.04615852 0.035845347
000280 79 e0 31 3d 23 6e 4d bd f7 8c af 3d a2 b2 b8 bd
       0.043426964 -0.050153863 0.08571809 -0.090184465
000290 8e 43 ea 3c e8 23 5b bc 65 49 df bc d4 72 32 3d
       0.028596666 -0.01337526 -0.027256677 0.04356654
0002a0 dc 03 31 3d 1e 0e 1d 3d 3c 94 37 bd cd f1 3b bc
       0.04321657 0.03834354 -0.0448191 -0.011471224
0002b0 0f 5d 6a 3d 72 0d 88 bd e6 85 a2 bc d4 f0 16 bc
       0.057217654 -0.066431895 -0.019839238 -0.009212691
0002c0 d4 86 ac bc 5b be 80 3d 11 4c 22 bc 8a 9f 82 bc
       -0.021060385 0.062863074 -0.009905831 -0.015945215
0002d0 60 68 dd 3d 34 91 9e 3b f0 10 56 bd 46 ec 01 3d
       0.108109236 0.004839087 -0.052262247 0.03171947
0002e0 0b 06 c0 3c 4b f7 c0 3c 37 1b 3a bd ca 35 8a 3d
       0.023440382 0.023555418 -0.04543611 0.06748541
0002f0 a4 54 d6 3c cf f2 b8 3b 6c d9 a4 bd ae 9c 68 bc
       0.026163407 0.0056441794 -0.080492824 -0.014197512
000300 38 18 49 3d 83 cf b5 bd e4 e2 2e 3d 73 bd be bd
       0.049095362 -0.0887747 0.04269685 -0.09313478
000310 c1 b8 18 3d d4 ba 63 3d 6c 32 09 bd c7 ee cd bd
       0.03728557 0.055598095 -0.03349535 -0.10055309
000320 1a 03 cd bb e8 49 bd 3d 97 6d a2 3d e5 ca c3 bd
       -0.0062564733 0.09242612 0.07931059 -0.095601834
000330 38 12 83 3c 97 66 5b 3d f3 32 09 bd 69 12 b7 bc
       0.015999898 0.053564634 -0.033495855 -0.022347646
000340 91 89 2c bc 43 d6 21 3c 3d da 2c 3c 58 6a 21 bd
       -0.010530845 0.009877744 0.010550079 -0.039408058
000350 cd 9e 35 3b c3 fa 88 bc f1 c5 35 bd 8b e0 9b 3c
       0.002771306 -0.016721135 -0.044378225 0.019027969
000360 76 8d d5 3c 46 fe 8b 3c e7 38 13 3b 38 42 82 bd
       0.02606843 0.01708902 0.0022464336 -0.063602865
000370 16 64 ca 3c 11 51 33 3d 3c 44 99 bd 64 47 06 3d
       0.024705928 0.043778483 -0.07483718 0.032782927
000380 d2 33 9f bd ba 39 9b bd 8b ba 6a bd 5e 08 96 3c
       -0.07773556 -0.0757937 -0.057306807 0.018314537
000390 b2 ab 0c 3e 3d 46 c9 bd cc ee 5c bd 73 78 87 3d
       0.13737372 -0.0982785 -0.053938672 0.06614771
0003a0 7e e0 0f 3d 0c 07 69 bc 64 e9 4e 3d 16 7d 97 bd
       0.0351262 -0.0142228715 0.050515547 -0.07396905
0003b0 5a 2a 88 bd 06 76 29 bd 45 a6 ec 3c d7 34 28 bc
       -0.06648703 -0.04137232 0.028887877 -0.010266504
0003c0 c0 da e2 3b 96 62 83 3c 7a f0 6a 3d fa a1 38 bd
       0.0069230497 0.01603822 0.057358243 -0.045076348
0003d0 38 a6 9c bc 79 9d b1 bd 8f 7b 73 bd 92 10 bb 3d
       -0.019122228 -0.08672614 -0.059444007 0.0913402
0003e0 1d a9 a1 3c f3 81 2d 3d 92 45 cd 3c 2d bb 84 3d
       0.01973396 0.042360257 0.025057588 0.064810134
0003f0 a3 03 ba bd c8 71 9f bc 6d 4c 45 bd f9 df 42 bb
       -0.09082725 -0.019463435 -0.04816859 -0.002973555

action_model._continuous_distribution.mu.bias f4 [3]
000000 2b 63 8e 3b 90 b5 f5 3a 4b 2b d7 ba
       0.004345318 0.0018746126 -0.00164161

action_model._discrete_distribution.branches.0.weight f4 [5, 128]
000000 91 9c 22 3c 1d bb 71 3c df 84 c7 3b d0 f3 1d bc
       0.009925024 0.014754084 0.0060888375 -0.009640649
000010 37 18 68 3c 0b 47 fa b9 49 0e dd 3c 8c ff 92 3c
       0.0141659295 -0.00047736647 0.02698435 0.01794412
000020 a7 46 40 bc d9 9a aa 3b 68 8d 0e bd b6 b9 0c 3d
       -0.011735595 0.0052064476 -0.034802824 0.034356795
000030 0b 7b 69 3c 41 e8 2c 3d ea 6a 03 3a 60 fc 3e bc
       0.014250527 0.042213682 0.0005013185 -0.011656851
000040 d5 89 3e 3d b5 76 eb bc 26 7c d8 3c 64 c0 dd 3c
       0.046518166 -0.028743127 0.026426386 0.027069278
000050 df 9f 94 3c 73 2c 08 3d 05 d6 0b bb de 20 f5 3b
       0.018142639 0.033245515 -0.0021337282 0.0074807247
000060 d1 7b b9 3c 34 70 bf bb cd 1a 1b bd 49 e2 9a bd
       0.022642048 -0.005842233 -0.037867356 -0.07562692
000070 a2 c6 13 3c 77 90 a2 bc 70 2d 8b 3c 61 7d 49 bd
       0.009019526 -0.019844277 0.01698944 -0.049191836
000080 88 c4 0a 3b 94 a7 95 bc 4d 76 82 bc 07 1d e1 3c
       0.002117427 -0.018268384 -0.01592555 0.027479662
000090 95 64 cd 3c f2 b9 7f bd 8e 5d df bc 7c 8b 2e 3b
       0.025072375 -0.06243319 -0.02726629 0.0026633432
0000a0 67 59 59 bb 3f 3d 1a bc 59 6e b7 3c 23 aa 1a bd
       -0.003316486 -0.009414016 0.022391485 -0.03775991
0000b0 fd 37 b7 bc 18 5d aa 3d 24 6a 0f 3d 02 76 cb 3c
       -0.022365564 0.083185375 0.035013333 0.024836544
0000c0 54 36 b6 3c fc ea 85 bc cd 21 91 ba 6f 1b ea bb
       0.022242703 -0.0163474 -0.0011072695 -0.0071443836
0000d0 b2 92 05 3d e2 81 03 bc 2b 80 a6 bc 92 b2 fc 3b
       0.032610603 -0.008026572 -0.020324787 0.007711717
0000e0 4b dc 4f bd c2 d6 0f 3c 6c 6c 05 bd c9 0d 12 bd
       -0.050747197 0.00877923 -0.032574102 -0.035657678
0000f0 1c 8e 46 3b 65 8d ea bc 04 65 73 3d bf 0d e4 bc
       0.0030297106 -0.028631875 0.059422508 -0.027838586
000100 d7 b5 93 3c 58 be 0a 3d 08 93 b5 bc 55 26 1c 3d
       0.018031044 0.033872932 -0.022164837 0.038122494
000110 6c 8a 1e bc 47 28 a7 bc 73 fe 04 3d 84 b4 87 3c
       -0.009676557 -0.020404948 0.032469224 0.016565569
000120 57 ac 0b 3c 7c c2 8c bc bc 81 17 bb 83 0f c3 bb
       0.008524976 -0.017182581 -0.00231181 -0.005952777
000130 c6 10 56 3d 9d 13 09 bc 52 7d 0f 3d 78 eb 3b bd
       0.05226209 -0.008366493 0.035031624 -0.045878857
000140 1b 92 0b 3b 15 b8 0e 3d 7d 12 18 bd 89 62 1f bc
       0.0021296802 0.034843523 -0.037127007 -0.009728082
000150 33 30 e6 3c bb a3 33 3d d4 fc 8b 3c ba fc 9e 3c
       0.028099155 0.043857317 0.017088331 0.019407619
000160 3d 71 7f bd fa eb 56 bd 11 3e 44 bc c2 e5 28 bd
       -0.06236385 -0.05247114 -0.011977688 -0.04123474
000170 ca c3 93 bc 49 66 c3 bc 36 f2 3a 3d a3 af 7c bd
       -0.018037695 -0.023852484 0.045641147 -0.061690938
000180 89 e6 a7 3c 93 5c 14 3d 4a 36 d6 3c aa 9d db bb
       0.02049567 0.0362211 0.026148934 -0.0067021446
000190 91 37 14 3c 29 67 9b 3c c4 a1 5d bc 86 9e 54 bd
       0.009046451 0.018970089 -0.013527337 -0.051908992
0001a0 5e d6 45 bb 6e 1c dc bb 25 51 38 bc cd fc ef 3b
       -0.0030187587 -0.0067172563 -0.011249815 0.0073238374
0001b0 55 de 2c 3d 0e 3b ec bb ce 4b 02 bd 02 30 96 bc
       0.04220422 -0.0072091883 -0.031810574 -0.018333439
0001c0 51 0a 25 bd ee 24 68 bc 24 57 8f bb cc 7d 48 bd
       -0.04029304 -0.014168961 -0.0043744016 -0.048948094
0001d0 14 04 b4 3b db 18 77 3d 2d ed ad bc 88 60 a1 bc
       0.00549365 0.06032644 -0.021231258 -0.01969935
0001e0 61 91 3b 3d f6 b3 94 3c a3 0f b4 bc 19 c2 4f bc
       0.04579294 0.018152218 -0.021980112 -0.012680554
0001f0 0f 85 2b 3d 0a cd 1a 3d 94 8f 3c bc a9 bc 07 bc
       0.04187494 0.037793197 -0.011508841 -0.008284726
000200 73 c8 9c 3c 25 48 b5 3c fd 8c ca 3c 79 8c 1b 3c
       0.01913855 0.022129128 0.024725432 0.0094939405
000210 48 89 98 3c 8e 20 c7 3c b1 e9 57 3c 7f 5b a0 bc
       0.018620148 0.024307515 0.013178275 -0.019574879
000220 f5 53 60 3c 1b 3a 82 bc 0e db 41 bc 12 fd c5 bc
       0.013691892 -0.015896847 -0.011832012 -0.024168525
000230 77 83 ad 3c d5 90 c8 3c b6 1c 11 3c b8 70 91 3c
       0.021180851 0.024483124 0.008856943 0.017753944
000240 4e 8d 9f 3c 06 c5 ba bb f3 b3 bb 3c 8f f5 a0 3c
       0.019476559 -0.0056997566 0.022912955 0.019648341
000250 91 a7 0b 3d 0e 16 5d 3d 22 e2 8d 3a eb 06 61 3d
       0.03409535 0.05397611 0.0010824839 0.054938238
000260 98 cd 75 3c 46 6b ca 3b 3d e2 5f bd a6 8c 81 bc
       0.015002631 0.006177339 -0.054659117 -0.015814137
000270 b8 ef 1f 3b 10 83 1d bd 66 06 99 3c 83 4d 8e bb
       0.0024404358 -0.03845507 0.018679809 -0.004342736
000280 76 47 dc 3c 2a 00 74 bb 79 0e b9 3c a8 6c 15 3c
       0.026889544 -0.0037231543 0.022589909 0.009120144
000290 db f5 61 3b a8 26 c7 3c 9c dd 23 bd 66 02 fd 3c
       0.0034478817 0.024310425 -0.040006265 0.030884933
0002a0 60 9e d4 3c 83 69 67 bc e1 1f 62 bc 19 0a 5a bd
       0.025954425 -0.014124277 -0.013801546 -0.053232286
0002b0 a8 6f 9b 3c 67 93 b8 3c 21 77 43 bc 97 a7 00 3c
       0.01897414 0.022531224 -0.011930258 0.0078524565
0002c0 1f aa db bb 38 9a 55 bc 9b b8 4f 3c 6d 92 01 3b
       -0.0067036296 -0.013037257 0.012678291 0.0019771114
0002d0 d1 db 9e 3c f1 f7 e8 3c 6d 80 ed 3a 64 ea 2e bc
       0.019391926 0.02843854 0.0018119939 -0.010676
0002e0 01 e5 16 3d 68 37 e1 3b 18 5e 00 3a 54 f8 39 3d
       0.03683949 0.00687306 0.00048968336 0.04540284
0002f0 e0 74 1b 3d 2a a1 50 38 19 6d 00 bb 8c f7 8c bb
       0.037953258 4.974116e-05 -0.0019596277 -0.004301971
000300 77 0d e4 bb 7c 89 a4 3c 65 86 a8 39 55 39 9b 3c
       -0.006959613 0.020085089 0.0003214359 0.018948236
000310 b5 7a 8a bc d1 21 4b bd 55 f3 17 3d de 47 f8 bb
       -0.016904214 -0.049592797 0.037097294 -0.0075769266
000320 52 56 d5 bb e9 11 8d bc a2 87 6b 3b f1 52 37 bb
       -0.0065105343 -0.017220454 0.0035938998 -0.002797302
000330 b0 88 fb bc 43 60 9c 3c 41 e4 8f bc 78 f7 84 bd
       -0.030704826 0.01908887 -0.017564895 -0.064925134
000340 3f 91 9e 3c 3f 65 96 3c 62 45 8d bd 96 98 56 3c
       0.019356368 0.018358825 -0.06897999 0.013097903
000350 3e ef 7d 3d 2f 70 31 3d f1 68 86 bc 27 17 a0 3c
       0.061995737 0.043319877 -0.016407462 0.01954229
000360 4a f1 7d bc 0c f7 08 bd 6c 59 c5 3a 84 56 89 37
       -0.015499422 -0.033438727 0.0015056557 1.637196e-05
000370 c5 51 ba 3b c3 54 bf 3c b5 dc cf 3b 29 30 6f bd
       0.005686017 0.023355847 0.006343449 -0.05839554
000380 94 26 9a bc 2e ee 6b 3c 58 a1 1c 3d 67 66 24 3d
       -0.018817224 0.014400048 0.038239807 0.04013672
000390 e8 b4 14 3d 5a 14 28 3b 68 cf 13 bd 2c 72 c4 bd
       0.03630534 0.0025646896 -0.03608647 -0.09592089
0003a0 f6 1f 26 bd a6 1b 36 3d ae e9 80 3b ca d6 1d ba
       -0.040557824 0.04445996 0.003934107 -0.0006021081
0003b0 63 fa 06 bc 3e 14 11 bd bf cd ca 39 40 7d 87 39
       -0.008238408 -0.035419695 0.00038681735 0.00025842525
0003c0 ab fa 20 bc e2 f3 c7 3c 91 85 04 3d b5 3d 0a bd
       -0.009825389 0.024408285 0.03235394 -0.033750255
0003d0 85 da 5f 39 3a 66 1d bd f5 94 8c bc 68 9f 50 3d
       0.00021348342 -0.03842757 -0.017160872 0.05093327
0003e0 b7 0c 02 3d 46 61 82 39 a5 6c 37 3d 0a f4 81 3c
       0.031750407 0.00024868007 0.044781346 0.015863437
0003f0 9e 2e c8 3c a3 cc de bc 39 2a b0 3c d5 13 bf 3a
       0.024436291 -0.027197188 0.021504508 0.0014578054

action_model._discrete_distribution.branches.0.bias f4 [5]
000000 e9 96 33 3b 97 a4 b1 3b ee 52 aa bb 2b 45 a9 bb
       0.0027403182 0.005421232 -0.0051978743 -0.005165716
000010 be 9c 25 3c
       0.010108171
