Assets/Brain/Tests/newTestNormalized.onnx (onnx, 185838 bytes, 9 tensors)

network_body._body_endoder.seq_layers.0.weight f4 [128, 211]
000000 79 af 0c bd 6e fa f3 3b 74 25 1a be 93 dd 52 bd
       -0.03434703 0.007445625 -0.1505335 -0.05148084
000010 f8 50 99 3d a0 63 8c bd 85 47 4d 3d 87 c2 69 bd
       0.07486147 -0.068549395 0.050117034 -0.05707028
000020 ed 99 45 bb 6d 52 e8 3d 76 07 e7 3c c2 0a bf 3d
       -0.0030151561 0.113438465 0.0282018 0.09328224
000030 38 dc 89 bd 28 db 80 3c bf 87 9d 3c 70 1b fe bd
       -0.067314565 0.015729502 0.019229768 -0.12407577
000040 47 c8 12 bd 45 24 4f 3d 39 62 d5 bd c0 a4 86 bd
       -0.03583553 0.0505717 -0.10419125 -0.06574392
000050 d0 6e 84 3d 32 80 c6 3d 29 27 2e be 5b 84 0b 3d
       0.06466448 0.0969242 -0.17007126 0.03406177
000060 d5 7e 0a be 3d 92 ff 3a 9f 4c e8 3c c1 17 c3 ba
       -0.13524945 0.0019498538 0.028356848 -0.0014884399
000070 db 3d a9 bd 4d de 59 3e b2 f3 d7 bd 13 8b 28 3c
       -0.08263751 0.21276207 -0.10544528 0.010287064
000080 59 01 6d bd b6 6b 48 3d 69 22 e6 bc 32 f4 e6 bc
       -0.057862613 0.048930846 -0.02809258 -0.028192613
000090 e9 88 2f 3d 8f 77 dc 3d c7 3e 84 bc 02 ae 32 3c
       0.042855177 0.107649915 -0.016143216 0.0109057445
0000a0 7d 6d 1b 3d 96 ce ff 3c b7 b8 1e 3d a2 a7 2b bd
       0.037946213 0.031226438 0.038750377 -0.041907914
0000b0 64 e0 1c 3e 85 d7 3e 3d ee 89 fb 3c 72 11 11 be
       0.15319973 0.046592254 0.030705418 -0.14166811
0000c0 da fc ff 3d c4 fb de bd 3f b3 c7 3c bc 57 4f bd
       0.124993995 -0.10887864 0.024377463 -0.05062078
0000d0 f2 75 c3 bb fa 36 04 bd 1a c2 35 bd 2e b4 4f 3d
       -0.005964988 -0.032278992 -0.044374563 0.050708942
0000e0 e0 e6 83 3b 81 c5 ea bd 29 b6 01 3d df da 8e b9
       0.004025325 -0.11463452 0.031667862 -0.00027247422
0000f0 5b 5b e9 bc 3a 47 ad 3d fb c5 b5 bc 8e da 97 3c
       -0.028485944 0.08460851 -0.022189131 0.018536832
000100 c8 c2 44 bd c9 ca 4a bd de 43 95 3d c7 02 46 be
       -0.04803732 -0.049509797 0.07288335 -0.19336997
000110 85 1d c2 3d 16 30 6b 3d d8 fa f6 3d bb dd ae bd
       0.09478287 0.057418905 0.120595634 -0.085383855
000120 94 1d f5 bd b6 7d b6 bc a1 e3 90 bd 76 0f 58 bc
       -0.11968532 -0.02227674 -0.07074667 -0.01318728
000130 df b6 14 3c d7 8f 2f be ec 91 47 3d af 86 1e 3d
       0.009076803 -0.17144714 0.048723146 0.038702663
000140 5e 3e 1e 3d 97 73 2d be 6b 0f d6 3d 57 66 d5 3c
       0.038633697 -0.16938625 0.104521595 0.026049776
000150 3e cd fb 3d 32 57 12 3d 68 36 28 3e 88 9d 15 be
       0.12295006 0.035727687 0.16427004 -0.14610875
000160 12 f2 eb 3b 0f 27 9b bc 2d f5 19 bd df 50 1b bb
       0.007200488 -0.018939523 -0.037587333 -0.0023699326
000170 9c 43 01 3d be 5f af 3c 2a b9 a6 3d b6 8f 04 be
       0.031558618 0.021407958 0.08140786 -0.12945446
000180 8a 24 bd 3c 41 2c 7f 3d e7 20 1d 3e 5e 63 bb 3d
       0.023088712 0.062298063 0.15344582 0.09149812
000190 3a a0 55 3e e9 68 82 bc 14 97 f8 3d bd 88 cf bd
       0.20861903 -0.015919166 0.12138191 -0.10133503
0001a0 dc 92 74 3c 22 95 9b 3d 68 f6 9b bc 3c 38 b9 3c
       0.014927592 0.07596804 -0.019038394 0.022609822
0001b0 ea 2d 79 3d b7 93 f7 3c d4 1b a6 b8 0f 77 6c bd
       0.060834803 0.030221803 -7.92068e-05 -0.05773073
0001c0 c0 3e 89 3d 33 95 d3 3d a4 1a cc bc 7d 62 d3 bc
       0.06701422 0.10331192 -0.024915047 -0.025803799
0001d0 ca 71 f8 3d c6 ec 93 3c 0c 99 e7 bc c7 4d 20 3d
       0.121310785 0.018057238 -0.02827122 0.039136674
0001e0 f6 79 d9 3c 08 cd 02 bd 54 6c 9f 3d 54 88 21 bd
       0.026547413 -0.031933814 0.07784334 -0.039436653
0001f0 16 46 85 3c 35 82 64 bd e7 1b d6 3d 12 fd 8d bd
       0.016268771 -0.055788238 0.10454541 -0.06933035
000200 10 89 1c 3e 36 6b 01 3e ae b7 ae bb bb 5d f8 bd
       0.1528666 0.12638554 -0.005331955 -0.12127253
000210 0a 84 99 3b 14 99 52 3d 97 86 99 bd 64 92 d6 3d
       0.0046849297 0.051415518 -0.07496374 0.104771405
000220 46 e8 1e 3e 92 5e e7 bd ea 46 85 3d ef ac 44 b9
       0.15518293 -0.11297335 0.065076664 -0.0001875644
000230 e0 43 fb bd 9b 8f 76 3d 96 00 ff 3d 81 72 ee 3d
       -0.122688055 0.060195547 0.12451284 0.11642934
000240 25 76 66 bd c5 0f 76 bd 48 bb 1b bb 6e 28 b3 3d
       -0.056265015 -0.060073633 -0.0023762751 0.08747946
000250 7f 75 8e 3d 8e 68 da 3d d6 c4 f0 3b b4 e4 14 bd
       0.06956004 0.106644735 0.0073476834 -0.03635092
000260 c1 8e 2d 3e d7 25 a5 3b e1 75 46 3d da 42 89 3d
       0.16948988 0.0050399113 0.04845226 0.06702204
000270 c0 ad 2a 3d a2 90 c6 bc 8f 0e fd bd b3 a5 d5 3d
       0.041669607 -0.024238888 -0.123562925 0.10431995
000280 b1 37 8a bd 4c 5c 48 3c e3 18 7e 3d fc 8f 9e 3d
       -0.067489035 0.012229037 0.062035453 0.077423066
000290 08 3f b1 bd 39 a8 f7 bd 16 60 bd 3c 16 06 1c be
       -0.086546004 -0.12092633 0.023117106 -0.15236697
0002a0 cf b9 1c 3d 5f 13 b4 3d c7 bd e2 bd 5f d0 c0 3d
       0.03826314 0.08792757 -0.110713534 0.09414744
0002b0 75 59 2f 3c ce 61 c8 bd ec 8c d6 3d 9c 13 8d 3d
       0.010702481 -0.0978428 0.104760975 0.06888506
0002c0 7b 70 d5 3d 68 2a ff bd 27 1f 9c 3d e6 0d 2b bd
       0.104218446 -0.1245926 0.07623129 -0.0417613
0002d0 12 c9 86 bc 43 45 a7 3d c9 24 37 3c b1 28 32 bd
       -0.0164533 0.081675075 0.011178204 -0.043495838
0002e0 6e 40 62 3d 67 dc 31 3d ca 2e 4c bd fa a2 24 be
       0.055237226 0.043423083 -0.04984931 -0.16077796
0002f0 ef ac 38 bd dc 6a e8 3d 17 b3 8f bc 99 1b 29 3d
       -0.045086797 0.11348507 -0.017541451 0.041286085
000300 15 03 36 bc b8 ec 24 3e 85 89 0f bd 09 e0 59 3d
       -0.011109133 0.16105926 -0.03504326 0.053192172
000310 b8 39 06 3e 80 10 01 be 25 1e 47 3d 12 3f bd bb
       0.13107955 -0.1260395 0.048612732 -0.005775341
000320 b5 bd 44 bd 7c 0f 20 3d 38 ff d8 3d a3 99 60 3b
       -0.04803248 0.039077267 0.10595554 0.0034271262
000330 30 4b 6d bd ce 19 32 bd bf 07 12 be 59 fb 5b 3d
       -0.057933033 -0.04348164 -0.14260767 0.0537065
000340 f3 9f aa 3d fc f3 e9 bd 42 c9 f7 3d 2b 46 d0 bd
       0.08331289 -0.114234895 0.12098934 -0.101696335
000350 11 28 6c 3c 48 f7 d1 3c 33 86 09 bd b3 33 d9 bd
       0.014413849 0.025630608 -0.033575248 -0.10605564
000360 12 65 ce 3d dc 13 0b bd 0b 95 01 3d e3 e4 a2 3c
       0.100778714 -0.033954486 0.03163628 0.019884532
000370 9d a7 d4 bd f2 cb a5 3c 99 3b 18 3d a8 59 ee 3c
       -0.10383532 0.02023885 0.03716621 0.029095486
000380 20 20 c3 3d 4b cf c1 bd 57 d2 81 3c db 35 bd 3a
       0.09527612 -0.09463366 0.015847368 0.0014435606
000390 51 98 a6 bc fe b4 a7 bd 1b c2 b8 3c 58 00 ec bc
       -0.020336302 -0.081888184 0.022553494 -0.028808758
0003a0 8f 4f 19 3c 69 b2 db ba 0a 00 86 bc 9a 9c bf 3c
       0.009357347 -0.0016761544 -0.01635744 0.023390103
0003b0 09 d2 aa bd 4c b1 dd 3d 8f 3b f6 bd d8 37 1b 3c
       -0.08340842 0.10824832 -0.12023079 0.009473763
0003c0 9b 57 00 bc a4 4a a9 3c 40 4c 23 3e 29 d7 e5 3d
       -0.007833387 0.020665474 0.15947056 0.11222679
0003d0 b5 fa 22 3d 43 9c e6 bc 6f e7 03 be 15 e1 74 3d
       0.039789874 -0.028150683 -0.12881254 0.059784967
0003e0 1d ad de bd f6 15 17 be 2d 68 33 3e d8 71 5e 3d
       -0.108728625 -0.14754471 0.17520209 0.05430779
0003f0 2a 12 88 bd f2 96 5a 3c c8 77 cf bd 36 6d 4c 3d
       -0.066440895 0.013341652 -0.10130268 0.04990884

network_body._body_endoder.seq_layers.0.bias f4 [128]
000000 44 6d 8a 3c 49 b9 33 3c cf 29 71 bb c2 65 86 bc
       0.016897805 0.010969468 -0.0036798602 -0.016405944
000010 5c ca 06 bc a9 85 41 3c 3c 17 a6 3c 05 c0 cb 3b
       -0.008226957 0.011811652 0.02027475 0.006217959
000020 db 6d 5c 3c 1a fd 23 bc e0 c6 53 bc dd ce f6 3b
       0.013453926 -0.010009075 -0.012925833 0.0075319842
000030 a5 33 e4 3c 13 b3 27 bc fe b3 90 3b 00 0e 48 3c
       0.027856657 -0.010235566 0.004415988 0.012210369
000040 80 5a 64 3c 7b 6b b9 3c c8 93 4b 3c bb 00 07 3a
       0.0139375925 0.022634258 0.0124253705 0.000514995
000050 2e 13 3f 3a 8b 04 c6 3c 3c 1e a8 3b 5e 84 c8 3c
       0.000728893 0.024172088 0.0051305573 0.02447718
000060 81 79 a8 3a c1 d4 c9 3c c3 4c e2 3a a6 a8 ab 3b
       0.0012853594 0.024637582 0.0017265308 0.0052386103
000070 14 40 82 3c 8f 8c 9c 3b da 08 06 bc 00 89 26 3c
       0.015899695 0.004777498 -0.008180821 0.010164499
000080 a9 bd 45 3c 2a 35 07 3b e4 cb 13 bb a0 a7 fc bc
       0.012069144 0.0020631053 -0.0022551948 -0.030841649
000090 20 44 d9 3c 8c 85 d2 3b 54 d5 89 3b 00 a4 4c 3c
       0.026521742 0.0064246114 0.004206339 0.0124902725
0000a0 9b 47 10 3c b9 92 58 3c 0f 18 a1 3c 1e 9c 69 39
       0.008806135 0.013218575 0.019664792 0.0002227877
0000b0 3f 38 1c 3c a6 2c 87 bc fb 14 81 3c 9f 3e 60 bc
       0.0095348945 -0.016500782 0.015757075 -0.013686805
0000c0 7b 30 55 bd e0 f0 4e 3c c7 d2 02 3b a0 fa 49 38
       -0.052048188 0.012630671 0.001996206 4.8155547e-05
0000d0 f5 4b 9d 3c e0 8c bb 3c dd 4a d5 38 7f e1 db 3a
       0.019201258 0.022894323 0.00010170576 0.0016775577
0000e0 c6 ab c4 3b 5a cb d4 3c 82 a3 3e 3c f7 88 e8 3c
       0.0060019223 0.025975872 0.011635663 0.028385622
0000f0 88 77 08 bc 18 4e 2f 3c c7 c8 0d 3c 8e 9f 8f 3a
       -0.00832928 0.010699771 0.008653826 0.0010957585
000100 02 1b 28 3c 91 9b f1 3b a2 11 c0 3a 74 01 30 bc
       0.010260345 0.0073732813 0.0014653692 -0.010742534
000110 41 73 87 3c 08 9c fe 3c 40 13 9b 3c 8a a4 f7 3c
       0.01653445 0.03108026 0.018930078 0.030229826
000120 22 47 a7 3c 20 0f cc 3b 80 6a f4 3c 5a ff 26 bc
       0.020419661 0.006227389 0.02983594 -0.0101927165
000130 0d 48 45 3c 30 54 7a 3c c3 77 2f 3b f5 63 ae 3c
       0.012041104 0.015278861 0.0026774264 0.021287898
000140 f8 50 c1 3c b3 3c 3f 3c 77 7d 4c bb a4 96 d2 3c
       0.02359818 0.011672187 -0.0031202713 0.025706597
000150 23 4e e8 3b 84 62 c4 39 86 47 fe 3c c8 2c c9 bb
       0.0070893927 0.00037457433 0.031039964 -0.0061393715
000160 0b 6c 0d 3c a1 c1 a1 3c bd ed 6c 3c 9b 5d 03 3c
       0.0086317165 0.01974565 0.014460978 0.008017923
000170 d7 39 31 3a 65 7e 1c 3c 9d 66 93 3c c0 6f e5 ba
       0.0006760633 0.009551619 0.017993266 -0.0017504618
000180 4f 32 82 bb f6 31 a2 3c be f8 de 3c ff a0 cf 3a
       -0.0039732824 0.019799214 0.027218219 0.0015840827
000190 71 62 db 3b 63 fa fd 3a 93 f7 9c bb 16 a6 31 3c
       0.0066950847 0.0019376989 -0.0047902553 0.010842821
0001a0 58 c6 b3 3c 60 94 18 3b 47 43 3c bb 5d 48 9a 3c
       0.021945164 0.0023281798 -0.0028726624 0.018833334
0001b0 3b 6d ca 3c fd 1e ea 3b 10 3c af 3c ae 9c b4 3c
       0.024710288 0.0071448074 0.021390945 0.022047367
0001c0 62 d2 de 3b 2f e6 98 bb 07 c1 ba 3c 8f ba 8d 3b
       0.006799982 -0.004666112 0.02279712 0.004325218
0001d0 26 9b 56 3b 72 26 32 3c 71 b7 00 3d 94 5e 4c 3c
       0.0032746284 0.010873424 0.031424943 0.012473721
0001e0 fc 37 60 3c 3b b6 2f 3c cf c7 60 3c c6 00 6c 3c
       0.013685223 0.0107245995 0.013719513 0.014404481
0001f0 ed 7e fa 3b 07 88 cb 3a 4d a1 2b 3c ad 5a 68 3c
       0.0076445253 0.001552821 0.010475469 0.014181775

network_body._body_endoder.seq_layers.2.weight f4 [128, 128]
000000 d1 7e d8 ba e5 a3 3e 3d ce c3 fd bb 8b be 4d 3d
       -0.0016517286 0.04654302 -0.007744289 0.050230544
000010 31 b9 c7 3d 4c 2b dc bc 4d c7 38 3c 57 ac a0 3e
       0.09752119 -0.026876114 0.011277986 0.31381485
000020 63 d4 6f be 54 d5 88 bc f6 9f 75 bc 5b ac a2 bc
       -0.23420863 -0.016703285 -0.014991751 -0.019857576
000030 0a f7 8b 3d a8 75 b0 3c 41 3c e2 bb 9f a7 2e bd
       0.06834228 0.021540478 -0.0069041555 -0.042640325
000040 39 4d 3e 3d 6d f1 11 be 1b 5b e9 bd 5a 1a 4e bc
       0.046460364 -0.14252253 -0.1139433 -0.012579525
000050 20 cf 72 3c bb e1 0d 3c 7e ab a5 bd b4 84 1e 3e
       0.01481989 0.008659775 -0.0808935 0.1548031
000060 6a 01 71 bd b4 83 50 be 31 c4 e6 3d 33 d3 af bc
       -0.05883924 -0.20362741 0.11267889 -0.021463012
000070 ca 7d f9 3d 7b d6 37 bd 28 70 15 3e 3e d0 90 bd
       0.121821955 -0.04488228 0.14593565 -0.07070969
000080 8f 6f 90 3d 1c 1c 8e 3d 11 c9 9a bc 40 30 86 3e
       0.07052528 0.06938955 -0.018894704 0.26208687
000090 fc 65 15 be c9 64 df 3d ac 95 10 be f9 25 2c be
       -0.14589685 0.10907895 -0.14119595 -0.1681136
0000a0 3e 87 ab bc c0 db 60 bd 00 97 3a 3d 94 eb 80 3d
       -0.020938512 -0.05489707 0.04555416 0.06294933
0000b0 da 7b 8d 3d e2 e7 80 bd 31 c6 16 3d ac bd df 3c
       0.069083884 -0.06294228 0.036810104 0.027312122
0000c0 d4 d6 16 3e 30 70 6c bd b3 23 43 3d 46 af 72 be
       0.14730388 -0.057724178 0.047641467 -0.23699674
0000d0 bb 3b 09 be 81 6d e7 bc 48 79 eb bd ca f7 cc 3d
       -0.13401692 -0.028250458 -0.11497742 0.100081995
0000e0 19 a6 7a 3d f2 36 a7 3d 22 93 32 bd a3 f9 14 be
       0.06119356 0.08164777 -0.043597348 -0.14548354
0000f0 80 5e b8 bd b6 f0 0c 3b a2 1a 13 3e 4a 9c c1 bc
       -0.090023994 0.002150578 0.14365628 -0.023634095
000100 52 d0 a9 3c 7a 6e 08 bd 53 67 c9 3b 30 c4 10 be
       0.020729218 -0.033308484 0.0061463504 -0.1413734
000110 63 b0 e9 bc 20 28 c0 3d 4a d4 66 bd 63 92 63 bc
       -0.02852649 0.09382653 -0.0563548 -0.013889882
000120 8f 43 94 bd 4a 0a a1 bc c1 43 38 3e 78 ff 9d 3d
       -0.07239448 -0.019658227 0.17994596 0.077147424
000130 df 03 42 3c 32 0f 49 bc f0 e3 43 bb b0 35 62 bd
       0.011841743 -0.012271689 -0.00298905 -0.05522698
000140 97 2d 53 3d 85 9c 0b 3e c6 00 8d bc 67 e5 12 3d
       0.05155715 0.13633926 -0.017212283 0.035863306
000150 75 c3 a3 bd f1 f9 83 3d bf 6e 4f be 73 a9 1c 3e
       -0.07996265 0.06444157 -0.2025709 0.15299015
000160 97 17 e4 bc 4d a6 6c bd 62 9c b7 bd 25 98 d0 3d
       -0.02784328 -0.057775784 -0.089653745 0.10185269
000170 02 41 e7 3d 05 d6 67 3d db 1a aa bd 34 8f 4d bd
       0.11291696 0.05660059 -0.083059035 -0.050185397
000180 07 bc 7c bb d4 0f 54 3d d1 30 9e 3d fe 30 ae 3d
       -0.0038564221 0.051772907 0.07724155 0.08505438
000190 93 e5 35 3e 31 3f 4f 3d 10 a2 84 bd ad 42 ed 3c
       0.17763357 0.050597373 -0.064762235 0.028962458
0001a0 a7 90 ac 3c 6a 9f c6 bd e0 6d ba bd 7d a6 52 3d
       0.02106507 -0.096983746 -0.09102988 0.051428307
0001b0 05 8f 37 3d 58 49 8d bd 6e 4e b9 3d f5 6a 53 bd
       0.04481413 -0.06898755 0.090481624 -0.051615674
0001c0 ce 2c d8 3d d9 b2 40 bd 47 ea e5 bd 06 0e 87 bd
       0.10555421 -0.047045562 -0.112263255 -0.06594472
0001d0 5a 09 0f 3e 35 a0 57 3e 39 b3 bf bd 91 5b bc 3d
       0.13968411 0.21057208 -0.09360356 0.091971524
0001e0 53 4c 00 3e 47 98 94 bd e5 83 d4 bd ee 27 18 3d
       0.12529115 -0.07255607 -0.103767194 0.037147455
0001f0 ed fc eb bb 0d 87 87 bc 1e 7c a9 bd 39 b5 a1 bc
       -0.007201782 -0.01654389 -0.082756266 -0.019739734
000200 cf 04 1e bc 56 9c 50 bd da 2d c2 bd 44 72 4c bd
       -0.009644701 -0.050930344 -0.09481402 -0.04991366
000210 cb 1e f2 bb 6c 6a e8 bc 36 82 31 bd a1 9d 2c 3e
       -0.0073889247 -0.028371058 -0.04333707 0.16857006
000220 62 ad 2c bc 13 4c d9 bc a1 cd c1 3d c4 90 a2 3c
       -0.010539385 -0.026525533 0.09463049 0.01984442
000230 1d 25 25 be 54 6c 2e 3e 02 29 6a 3d 9e ff 0a 3e
       -0.16127439 0.17033511 0.057168014 0.13574073
000240 8c 0f 99 3d 22 08 29 bc 38 db 31 3e 30 38 01 be
       0.074736685 -0.01031688 0.17368782 -0.1261909
000250 73 8e f0 3c db d3 36 3e dd 57 23 3d b7 e3 49 3d
       0.0293648 0.17854254 0.039878715 0.04928943
000260 1f af 89 3d 82 67 56 bd df ac 0b 3d c7 1a b2 3d
       0.06722855 -0.052344806 0.03410041 0.086965136
000270 b2 fc b1 bd 1d f7 a0 3d 8a fc 23 be cd 92 4c 3d
       -0.08690776 0.07859633 -0.16014305 0.049944688
000280 be 67 a2 3b 30 f2 09 bd 27 18 38 3c 51 ce 0a 3d
       0.0049562147 -0.033678234 0.011236227 0.033888165
000290 21 80 b8 bc 9d af 52 be f8 5c 01 3e af 45 20 bd
       -0.022522034 -0.20574804 0.12633121 -0.039128955
0002a0 fd b0 06 be 40 83 5f 3e bb c6 c5 bc ae d4 28 3e
       -0.13153453 0.21827412 -0.024142614 0.16487381
0002b0 b1 88 b1 3c 2d 3d 45 3e 6e e3 fe 3d c3 5e b6 3d
       0.021671625 0.19261618 0.124457225 0.08904793
0002c0 73 40 4e 3c 8e 92 57 3e 2d cc 8f 3d b0 ec bd bd
       0.012588608 0.21052 0.07021365 -0.0927366
0002d0 26 5c 30 3b eb 5a 22 3e 25 7e ed bc 01 2c c6 3c
       0.0026910393 0.15854995 -0.028990814 0.024190905
0002e0 ff 0b ab bd ee da 0a bd 04 b5 81 bc 5e 3a bb bc
       -0.083518974 -0.033900194 -0.015833385 -0.02285498
0002f0 e0 af 60 bd e5 c1 e7 3d a3 73 a8 3d 4c 4b 3d 3c
       -0.054855227 0.11316279 0.08225181 0.011553597
000300 4d a8 33 3d 22 42 44 3c 74 e9 da bc a5 fe e8 3d
       0.043861676 0.011978658 -0.026722647 0.113766946
000310 0e 7b 8f bd 4b ff 71 3d 01 88 ca 3d f4 06 28 3c
       -0.07005893 0.059081357 0.09889222 0.010255564
000320 c9 b6 af 3c 0b 55 53 bd 55 59 0d 3e 28 2b 32 bc
       0.021449463 -0.051594775 0.13803609 -0.010874547
000330 55 bd 77 bc 74 65 e5 bd 2f 58 12 bb 49 ae ae 3c
       -0.015120824 -0.11200991 -0.0022330394 0.02132334
000340 ef ad 90 bd eb 64 29 3e 92 05 bc bd 6b 65 f9 bd
       -0.07064425 0.16542403 -0.0918075 -0.12177547
000350 9d df d8 3c f0 f5 10 3e fd b4 8f 3d 6f ef d9 3d
       0.026473815 0.14156318 0.07016943 0.106413715
000360 06 fe 82 3c b7 cb 82 3d 08 ad 46 be 21 49 27 be
       0.015990268 0.06386512 -0.19401944 -0.1633649
000370 15 0b 08 3d aa 4c 50 bd 15 a5 0c bd 68 29 ec bc
       0.033213694 -0.050854363 -0.034337122 -0.028828338
000380 d5 18 0b be e6 8a ba 3d 27 18 39 be 0c 48 76 3d
       -0.13583691 0.09108524 -0.1807562 0.060127303
000390 b8 80 3e 3d 83 09 1b 3e 93 72 16 be a6 fb 12 3d
       0.046509475 0.15140347 -0.14692144 0.035884522
0003a0 40 36 91 3d ea b5 fa bc d0 f3 81 bd 4f 01 6b bd
       0.070904255 -0.030604322 -0.06345332 -0.057374295
0003b0 66 3b dd 3d c7 65 c2 bd 29 53 4b 3d 9d 6f 2d bd
       0.10802345 -0.09492069 0.049639855 -0.04234277
0003c0 8b 94 f8 bc cf 99 1f 3d c8 69 65 3d 71 4f 9a bd
       -0.030344268 0.038965043 0.056009084 -0.075346835
0003d0 e6 75 c3 bc e5 70 7d 3d 56 0e 10 bd 15 3f f3 3d
       -0.02385993 0.061875243 -0.03516992 0.11877266
0003e0 89 af 8c 3b 4f 09 4c 3c 18 d2 12 3e 7e bc 51 3d
       0.0042933864 0.012453391 0.14337957 0.05120515
0003f0 b1 54 e5 3d ee 63 ea bd 37 ce 8b bd 50 e4 d8 bd
       0.11197794 -0.11444841 -0.06826442 -0.10590422

network_body._body_endoder.seq_layers.2.bias f4 [128]
000000 f0 9a 57 3b f8 1a 58 bb 2d ba 50 3c a0 d2 51 3a
       0.0032898746 -0.003297506 0.0127397 0.0008004103
000010 fc aa a7 3b 5d 47 93 3c 2c 61 e0 39 f3 71 72 3c
       0.0051168185 0.017978365 0.00042797008 0.014797675
000020 65 13 b6 bb 90 cc 00 3c c8 f1 13 3c ef 1c 31 bc
       -0.005556511 0.0078612715 0.009029813 -0.010810121
000030 07 84 92 3c 43 79 cc 3b fc e1 fb 3b 33 5e 62 3b
       0.017885221 0.0062400415 0.0076868515 0.003454101
000040 a9 02 25 3c 8c f9 80 3c bc 7e 5a 3c 31 eb 4f bc
       0.010071435 0.015743993 0.01333588 -0.012690351
000050 eb c2 51 bb 5b 56 9a 3c 03 c3 8c 3b b8 89 ef bb
       -0.003200705 0.018840006 0.004295708 -0.0073101185
000060 e7 f8 2d 3c e8 fa f6 3a 47 38 29 3c 8d 8f 6b 3b
       0.010618425 0.0018843086 0.010328359 0.0035943717
000070 3b c8 08 3d af 15 a7 3c c0 cd 0d 3c 74 3f e7 3b
       0.03339408 0.020396082 0.008655012 0.0070571247
000080 25 09 47 bc 90 72 5a 3c 00 df 9b 3c 3c eb 3e 3c
       -0.012148176 0.013332978 0.019027233 0.011652764
000090 a2 68 e4 3b 81 7c 90 3c 6c 2c 7f bb be d1 89 ba
       0.006970481 0.017637493 -0.003893639 -0.0010514779
0000a0 0a ea 42 3c 2a 10 48 3c ac c3 ea 3b 50 60 c0 3c
       0.01189662 0.012210885 0.007164439 0.023483425
0000b0 5b f1 0d 3c 03 c3 a2 3b 60 e8 24 3c 0f 7a c8 3a
       0.008663501 0.004967095 0.010065168 0.0015295165
0000c0 14 b8 3a 3c 15 f8 2e 3c 8c a9 7d 3b 3d 31 6e 3c
       0.011396427 0.010679265 0.0038705794 0.0145381065
0000d0 de de da 3c 74 1a 80 3b e0 f9 72 3c 55 1c ab 3c
       0.0267176 0.0039094035 0.014830083 0.020887533
0000e0 16 70 68 3c 3f 97 1b 3c 98 09 38 3c cc 2c 2b bc
       0.01418688 0.009496509 0.011232756 -0.010447692
0000f0 c2 8a 27 bb c0 96 c7 3c e2 41 86 3b 46 e9 9f 3c
       -0.0025564884 0.024363875 0.0040972093 0.019520413
000100 c2 dd 50 3c e7 91 ef bb 96 13 11 3c 26 62 07 3c
       0.012748184 -0.007311094 0.008854767 0.0082631465
000110 bd 03 15 3b 0f eb 3c 3c d3 ca 66 3c d9 a2 97 3c
       0.0022737824 0.011530652 0.014086443 0.018510269
000120 96 fd f4 ba bd 08 ea bb e1 de 08 bc fc 87 2e 3b
       -0.0018691297 -0.007142155 -0.00835392 0.0026631346
000130 b2 08 fd 3a 48 79 5c 3d 15 77 93 3b 63 56 04 3c
       0.001930496 0.0538266 0.0045002797 0.008077237
000140 a8 45 23 3c 98 93 3b 3c f9 f8 81 3b 28 c4 96 3c
       0.009965338 0.011448763 0.0039664474 0.018404081
000150 64 57 12 3c 7d 5d 9d 3b 8d 05 d8 3b d9 04 b7 3b
       0.008931968 0.0048024044 0.0065924586 0.0055852947
000160 aa aa 1a 3c cb b6 64 3c 8d 03 c1 3c ac 89 92 3b
       0.009440104 0.013959597 0.023561263 0.004471978
000170 49 42 77 3c 6b 50 a8 3c a8 07 f2 3a 76 d0 8d 3c
       0.015091487 0.020546159 0.0018465417 0.017311316
000180 ef 49 7d 3c fa bf 16 3b ae 99 09 3c 33 c4 f2 3b
       0.015459522 0.002300261 0.0083984565 0.0074086427
000190 ef f9 2d 3b c1 81 de 3c ba 41 57 3c 7d ec 73 3c
       0.0026546677 0.02716148 0.013138229 0.014887926
0001a0 21 08 d3 3b a2 da e2 bb e6 6f a5 3c 1e 5b 55 3a
       0.006440178 -0.0069230357 0.020194959 0.00081388827
0001b0 88 b0 f4 3b 45 9e 4a 3c 6c cf 92 3c 32 d4 1b 3c
       0.007467333 0.012366836 0.017921172 0.0095110405
0001c0 39 4e f4 3b 59 80 f6 3a 75 de ad 3c 43 3e d7 3b
       0.007455614 0.0018806561 0.02122424 0.0065687015
0001d0 f2 88 20 3c 66 0b f6 3c a1 2d 1b 3c ac a0 20 3b
       0.009798275 0.030034732 0.009471328 0.002450983
0001e0 ac 6c b0 3b e8 04 98 3c 11 a6 4b 3c 94 39 cf bb
       0.0053840484 0.018557027 0.01242973 -0.0063240025
0001f0 cd 26 86 3b 3a c7 9f ba b1 25 08 3c f8 c8 c1 3c
       0.004093981 -0.0012190111 0.008309768 0.0236554

action_model._continuous_distribution.log_sigma f4 [1, 3]
000000 a4 8c 13 bf 56 6d b3 be 0a 3e 86 bf
       -0.57636476 -0.35044354 -1.0487683

action_model._continuous_distribution.mu.weight f4 [3, 128]
000000 10 41 70 3d 76 1f e2 3c 87 70 de bd a5 29 2f bc
       0.0586558 0.027602892 -0.10861307 -0.010691081
000010 c1 51 86 3c ab be df 3d 79 e1 a5 bd ca 23 dd bc
       0.016396405 0.10925039 -0.08099646 -0.026994605
000020 b1 8d d1 bc 8b dc 49 3d 34 e1 99 bd df 78 42 3c
       -0.025580259 0.04928259 -0.07513657 0.011869638
000030 71 05 e7 3c fb 2d 5a 3d b3 b5 76 bd 9d b3 7b 3b
       0.028200837 0.053266507 -0.060231876 0.0038406618
000040 82 15 61 3c 0e e0 28 3d 2b 43 76 bd 93 46 ed bc
       0.013738038 0.0412293 -0.06012265 -0.028964316
000050 8c 26 40 3c a3 4c b0 bd 28 3e d9 bc 5c bb 55 3c
       0.01172794 -0.08608367 -0.026518896 0.013045158
000060 e3 bd c1 3d 46 25 38 3d 04 19 3f 3d fe 73 bf 3d
       0.09460046 0.04495742 0.046654716 0.09348296
000070 bc e7 cd bd be eb a2 bc 5c b0 2b 3d 2a 64 0f bc
       -0.100539654 -0.019887801 0.041916236 -0.008751908
000080 17 87 13 bd 02 72 22 bd 30 9b a1 bd eb e8 53 bc
       -0.036017504 -0.039659508 -0.07890928 -0.01293395
000090 6f 7b 60 3d 01 35 84 bd a2 6c b4 3c 3c db d6 bc
       0.054805215 -0.06455422 0.022024456 -0.026227586
0000a0 59 ed 9a 3d 73 68 61 bb 50 79 45 3d 91 15 16 bd
       0.07564802 -0.0034394532 0.048211396 -0.03664166
0000b0 c0 20 42 3d 80 7e 6a bc 8a ad 4d bc 9d 30 51 3a
       0.047394514 -0.0143123865 -0.012553582 0.0007979961
0000c0 62 5d da 3d bd f7 7b 3d e2 10 46 bd 9b 90 7e bd
       0.106623426 0.06151556 -0.048355944 -0.062149625
0000d0 dd e6 14 3c 6f ca 7f bd 02 9e 2b bb aa 29 fd bd
       0.009088245 -0.062448915 -0.002618671 -0.123614624
0000e0 8c 3e af bd e3 23 f9 bc f4 48 73 3d e9 90 18 bd
       -0.08556852 -0.03041262 0.059395745 -0.037247572
0000f0 74 82 64 bb 3f 24 78 bd 84 7a 70 3c bb 6f ea 3d
       -0.0034867795 -0.060581442 0.0146776475 0.11447092
000100 d0 7f c3 3d 2f d0 09 bd eb 13 c3 3c 4c 48 dd bb
       0.09545863 -0.033645805 0.023813209 -0.006753003
000110 ad 06 98 3c 4a 09 41 3d 12 56 5e bd c6 b3 b7 bd
       0.01855787 0.047128 -0.0542813 -0.08969836
000120 f1 8e 53 3d 83 af fd 3c ec 29 2c 3d 0b 63 68 3b
       0.05164999 0.03096748 0.042032167 0.0035459425
000130 4c 13 27 3d a4 02 56 bd 17 70 a3 3b 67 b1 10 bd
       0.040789887 -0.052248612 0.0049877274 -0.035325434
000140 e7 b6 0e 3d 95 25 80 3d eb 1e e0 3c 41 63 1c 3d
       0.034842398 0.06257168 0.027358493 0.038180593
000150 62 8f c4 bb 09 d4 5e bc af 6b 57 3c 49 8b d8 3c
       -0.005998538 -0.013600358 0.013148232 0.026433604
000160 dc 98 a5 bd 99 d7 f8 3c 46 23 12 bd a1 6f 14 3c
       -0.08085796 0.030376242 -0.03567817 0.0090598175
000170 15 eb 2b 3d b5 46 9e bd 1e 6b 98 3d 7f 0c 3a 3d
       0.04197224 -0.0772833 0.07442306 0.045422073
000180 76 bf c0 3c 48 e7 62 bd 9d 76 25 bd 9b 7c 35 bc
       0.023528796 -0.05539635 -0.04039632 -0.011077072
000190 47 16 30 3d 44 4a 92 3d 5a 56 a0 3d 03 ee 7e bd
       0.042989995 0.07143071 0.0782897 -0.062238704
0001a0 9b f8 2d bc 61 7b 61 3d 0d 7c 8b 3d df 7c af 3c
       -0.010618354 0.055049304 0.0681077 0.021421848
0001b0 31 dc 26 bd 20 d0 cf 3c 38 da 9d 3d d8 a5 b9 bd
       -0.040737335 0.025367796 0.077076375 -0.09064835
0001c0 8f 83 97 3d ba 75 43 3d b7 8e d6 bb 2f 31 96 bb
       0.0739814 0.047719695 -0.0065477747 -0.0045835
0001d0 b1 69 b7 bd 75 af 95 3d db e2 a9 3d 2c ea d5 bd
       -0.08955706 0.073088564 0.08295222 -0.10445055
0001e0 0f 10 37 bd 3e 5d 50 bd d3 6c 93 bd b1 4f 16 bd
       -0.04469305 -0.050870173 -0.07198491 -0.036697093
0001f0 f8 b5 9d bc 48 92 0f bd 7d a2 a3 3d 25 1e a8 bd
       -0.019251809 -0.035051614 0.079899766 -0.082088746
000200 e0 dc 36 bc 16 f4 09 bd 47 d2 4b 3c 0c 69 8f 3d
       -0.011161059 -0.033680044 0.012440271 0.07002458
000210 22 54 91 bd 51 61 4a bd fa 62 dd 3b e1 dd 9a 3d
       -0.07096125 -0.049409214 0.0067561837 0.07561851
000220 41 18 8b 3b b3 14 86 3d 54 4f d5 bc cc cb d3 3c
       0.0042448347 0.06546917 -0.026038803 0.025854014
000230 56 d7 ce bd 5b 3c 61 3d ed c8 03 bd 60 89 4d bd
       -0.10099666 0.0549892 -0.03217404 -0.05017984
000240 39 d3 75 3d 84 83 96 3d 12 c6 80 3b e7 62 c4 bc
       0.06001589 0.07349303 0.003929862 -0.023972942
000250 e6 6f 42 3c 19 f7 1f bc 62 97 18 bd 7c e3 9e 3c
       0.011867499 -0.0097635025 -0.037253745 0.019395582
000260 00 2a 9c 3c e6 7e e2 bc f5 8f a5 3d 66 7c 1f bc
       0.019062996 -0.0276484 0.08084098 -0.009734249
000270 79 49 97 bc 08 81 b0 bd dc f9 93 bd a0 9d a3 3d
       -0.018467652 -0.08618361 -0.07225391 0.07989049
000280 9b 1c 3e bc a1 0a cf bc 81 4b 3c bd aa 01 c9 3d
       -0.0116035 -0.025273623 -0.045970444 0.098147705
000290 b7 aa 48 3d ca d8 c1 3d de 69 34 3d 8d f1 06 3d
       0.04899093 0.09465177 0.044046275 0.032945205
0002a0 16 b2 83 3c f7 57 f2 bc 9a 7a 09 3d 05 f8 ad 3d
       0.016076129 -0.02958296 0.033564188 0.084945716
0002b0 06 36 2a bb 78 78 39 bd 82 52 df 3d 24 95 b3 3c
       -0.0025972142 -0.045280904 0.10904409 0.021921702
0002c0 fe 0e 97 bc 77 21 5c 3d cd 23 d1 bc fd 56 c3 bb
       -0.018439766 0.053742852 -0.025529766 -0.0059612975
0002d0 4e 1c 3a bc da f4 7e bd 9a 50 ea bd 44 7d a4 bc
       -0.011359287 -0.062245227 -0.11441155 -0.020079263
0002e0 4e be 5b 3d ce 41 f2 bb 86 f8 de 3d 04 46 35 bb
       0.053648286 -0.0073930984 0.10887246 -0.002766014
0002f0 70 ef 85 bc 20 33 d4 3c c8 5e 7c bd 5d 04 53 3c
       -0.016349524 0.025903285 -0.061613828 0.012879458
000300 02 53 b0 3c d4 3c 09 3d 50 0f 6f 3d 3e fc 47 3c
       0.021523956 0.033505276 0.058364213 0.012206135
000310 63 1c 12 bd 00 0a 66 bd c1 62 26 3b 0a af e6 bc
       -0.035671603 -0.05616188 0.0025388452 -0.028159637
000320 2c 56 af bc 3e 3c 31 bd 66 a3 c2 3c 50 00 57 3d
       -0.021403395 -0.043270342 0.023759555 0.052490532
000330 c4 43 97 bd c5 d4 30 3c f1 17 92 3d d0 8f c2 3c
       -0.07385972 0.010792916 0.07133473 0.023750216
000340 f8 2d 1d 3c a5 56 10 3a b7 f6 6f bd 57 a2 3c 3d
       0.009593479 0.0005506075 -0.058584895 0.046053257
000350 72 cc a3 3d 9b b5 01 3d 55 e5 8a bd d6 a3 e5 bc
       0.07997979 0.031667333 -0.06782023 -0.028032225
000360 7b f1 b6 bb fa 76 6b bd a6 8d b7 bc c4 4e d3 3d
       -0.005582986 -0.05748651 -0.02240641 0.10317758
000370 a0 40 98 bd 14 c8 29 3d 8c 5c 5d bd 7e 1b 5a bd
       -0.07434201 0.041450575 -0.054043338 -0.053248875
000380 c2 b7 78 3d e0 a3 a6 bc 28 d5 28 bd 9b a6 a0 bd
       0.06072212 -0.020341814 -0.041218907 -0.078442775
000390 7e 5a 9b 3d 0f e3 c0 bb 88 9a cb bc da db 4e bc
       0.075856194 -0.0058864425 -0.02485396 -0.012625659
0003a0 4f f8 c9 3c 41 cb e3 3b 74 c1 8a 3d de f9 21 bd
       0.024654536 0.00695172 0.067751795 -0.039544933
0003b0 18 4d b7 3d f5 bd cc bc 63 3c 33 bd 4d a9 c7 bd
       0.08950251 -0.024992922 -0.04375876 -0.097490884
0003c0 48 1c a7 3c 41 98 49 3c 71 84 97 bd 43 9a 5d 3d
       0.020399228 0.012304367 -0.07398308 0.054102194
0003d0 c3 11 83 3d 74 5f 82 bd 7a 62 f7 bb 1c cb 11 3d
       0.06399872 -0.063658625 -0.007549581 0.03559409
0003e0 17 3c d4 bc d7 19 b6 3d f7 59 20 bd 6c 76 c4 bc
       -0.02590756 0.08891647 -0.039148297 -0.02398225
0003f0 85 f2 73 3c 26 53 66 bd 30 53 b0 bc 12 59 33 bd
       0.014889364 -0.05623164 -0.021524042 -0.043786116

action_model._continuous_distribution.mu.bias f4 [3]
000000 76 55 9a 3b 4c b7 17 ba 22 4a a5 ba
       0.004709895 -0.0005787506 -0.0012610594

action_model._discrete_distribution.branches.0.weight f4 [5, 128]
000000 fe 1d 4f 3c 4c 29 48 bc eb 50 d8 bc 61 fd dd 3b
       0.012641428 -0.012216877 -0.026405772 0.00677459
000010 9d e9 01 3d 7d 6f 04 3d 0a db e5 3c 47 d7 68 3d
       0.03171693 0.032332886 0.028058548 0.05684593
000020 fa 67 0b 3c 93 29 0a bc 60 78 51 3b 88 b2 df bc
       0.008508677 -0.008432764 0.0031962618 -0.02730681
000030 6a 64 11 bc 5b 40 90 3b e5 1a a1 bc 80 fc 52 bb
       -0.008874038 0.004402203 -0.019666145 -0.0032193959
000040 da 37 ab 3a 88 75 8a 3c 68 6d 80 bc 7d 02 ad 3c
       0.001306291 0.016901746 -0.015677169 0.02111935
000050 fb 60 bb bc 85 ea cb bc 90 b0 f6 ba 49 6d ea bc
       -0.022873392 -0.024892101 -0.001882093 -0.028616564
000060 db 68 f3 3c f3 23 88 3b c3 2f 0f 3d f5 c5 1b 3d
       0.029713085 0.004154676 0.03495766 0.038030583
000070 d2 0f 58 bd 39 fb b0 3c 3b e6 84 bc 58 02 aa 3c
       -0.052749462 0.021604167 -0.016223064 0.02075307
000080 78 58 13 bc ee fa d4 bb 5b 3a 28 3d 57 8d d4 bc
       -0.008993261 -0.0064996397 0.041071277 -0.025946302
000090 71 0c d6 3c ac e7 21 3c ab 82 47 bc a5 46 eb bc
       0.02612898 0.009881895 -0.01217715 -0.02872021
0000a0 06 dd 8d 3c 62 dc 28 3d 13 09 99 3b 84 7d 00 3d
       0.017317306 0.0412258 0.004670271 0.0313697
0000b0 ae a1 fb 3c 80 24 da ba e5 fc 58 3c d2 b8 d6 bc
       0.030716743 -0.0016642958 0.0132438885 -0.026211176
0000c0 90 63 bb 3c fd a0 8f bc 5e 98 fe bc 06 af e0 bc
       0.022874624 -0.01753282 -0.031078514 -0.027427208
0000d0 60 05 c9 3c d4 4d 5b 3c b5 7e a4 3c 2c 3a c1 3c
       0.024538696 0.013385255 0.02007995 0.023587309
0000e0 0d 5c 09 bc b6 b7 2a bd 57 c7 30 3c 0e c0 16 3a
       -0.008383763 -0.041679107 0.010789714 0.0005750664
0000f0 c4 2d 59 bc 3a cc 44 bd a0 3b c6 bc 93 ed d9 3c
       -0.01325554 -0.048046328 -0.024198353 0.026602542
000100 2c 68 f2 3c 3c ae 0f 3d 35 74 15 3d d4 7a 41 bd
       0.029590689 0.035078272 0.036487777 -0.04723628
000110 43 c6 63 3c 27 3d 94 3c a4 e3 c8 bc e1 5c 43 bc
       0.01390225 0.018095566 -0.02452261 -0.0119239995
000120 92 37 53 bc cb 13 98 ba 09 ff 7e 3b ea d4 8e 3c
       -0.012891667 -0.0011602578 0.0038909337 0.01743551
000130 4a af 39 3b 09 6e 30 bd 83 41 96 3b de 6d 1c 3d
       0.002833324 -0.043073688 0.0045854463 0.038190715
000140 38 36 a4 3b 99 33 b5 3c 6f b8 6e 3b 7d 34 58 3d
       0.005011346 0.02211933 0.003642585 0.05278443
000150 ea 02 5b bc b7 20 21 3a 7e 72 b1 3c 02 8e ae 3c
       -0.013367394 0.00061465375 0.02166104 0.021307949
000160 39 a3 08 3d 71 00 2d bd 2b 9d 28 bd 0c 1c 5c 3c
       0.033358786 -0.04223675 -0.041165512 0.013434421
000170 7e 2d 01 bd d3 93 49 3c 16 50 c1 3c 9a 6f 87 bc
       -0.031537525 0.01230331 0.023597758 -0.016532708
000180 42 0b f8 3c 93 29 d2 3c b6 3c a6 bc b1 df 06 3d
       0.030278806 0.02565459 -0.020292621 0.032928172
000190 30 c6 da 3c 27 ef 07 3d b2 cc 35 3c 27 9f 30 bd
       0.026705831 0.033187058 0.011096166 -0.04312053
0001a0 b1 5c 55 bb 6a bf 92 3c dd 1e 2f 3d a5 2c e1 bb
       -0.003255647 0.017913539 0.042754043 -0.006871777
0001b0 3f cb b6 3c fe d7 74 3d 57 6b 53 3c 04 13 2b 3c
       0.022313712 0.0597763 0.01290401 0.010441545
0001c0 86 8c d8 3c 83 d3 55 3c b8 74 75 bc 31 96 46 bc
       0.026434194 0.013050917 -0.014981441 -0.012120769
0001d0 af af c3 3c ce 16 ec 3c e5 fb fd 3c 35 2f f6 3b
       0.023887483 0.028819468 0.031003902 0.0075129517
0001e0 da 8a 0f 3d 54 b2 10 bd 1a 1e 10 3d 97 8e 09 3c
       0.03504453 -0.035326317 0.035184957 0.0083958125
0001f0 ce 53 98 3d 12 27 9d bc 8d a8 01 3d 70 75 65 3c
       0.074378595 -0.01918367 0.031654883 0.01400505
000200 ed e7 65 3c b1 f5 04 bd ec f8 73 bb 59 a4 d6 bc
       0.014032346 -0.032460872 -0.0037227226 -0.026201414
000210 b9 81 30 3d 4b e6 61 3d 32 16 cb 3c 67 28 0d 3d
       0.043092463 0.055151265 0.024790857 0.03446236
000220 cb 13 bd 3c 71 a3 86 bc 4d 75 5e 3c 2b ec 31 bd
       0.023080727 -0.016435357 0.013577771 -0.043438118
000230 d1 b3 1d 3c 18 1a bd bc 75 ac 16 3c 8a 98 03 3c
       0.009625391 -0.023083732 0.00919639 0.008031974
000240 48 f7 4e bd af b7 6b bc 5e 5f 30 bd fe 29 9c bc
       -0.050528795 -0.014387055 -0.0430597 -0.019062992
000250 e1 44 16 bc 4e a0 f8 bc 57 21 9c 39 6a a4 07 bd
       -0.009171695 -0.030349877 0.0002977948 -0.03311578
000260 26 f8 5b bb e8 e1 c9 3c 38 9e 00 3d d6 61 bb 3c
       -0.0033564656 0.024643853 0.03140089 0.0228738
000270 b5 a5 e9 bc 5a 03 50 3d d5 f8 0e bc 85 48 2f ba
       -0.028521398 0.050784446 -0.008726318 -0.00066865265
000280 a8 30 59 3b b9 38 b9 bc 6d 51 b7 3c 45 03 0d bd
       0.0033140574 -0.022610055 0.022377694 -0.034426946
000290 09 00 a8 bc be 30 8c bb 1f 35 96 bb 94 d0 12 bd
       -0.02050783 -0.0042782715 -0.0045839692 -0.035843447
0002a0 f1 ae ac bc 57 9c fc 3c be 32 91 3c 90 14 f3 3c
       -0.021079512 0.030836267 0.017724391 0.02967289
0002b0 2f 6a 5d 3a 9d 7d 02 bc e4 e2 1e 3d aa aa 2b bd
       0.00084463035 -0.007964519 0.0387906 -0.041910805
0002c0 6f 25 78 3d 7f 67 d2 bc ae 00 eb bc 11 6e 64 bd
       0.060582574 -0.025684116 -0.028686848 -0.05576903
0002d0 e8 72 74 3d 2e 58 c2 3c 89 5b b1 3c b4 eb 95 bb
       0.059679896 0.023723688 0.021650093 -0.004575217
0002e0 4b 2d 8b 3b f4 1e 57 bd 82 a4 2a 3c 55 24 0d bb
       0.0042473427 -0.052519754 0.010415198 -0.0021536548
0002f0 22 a7 ee 39 ff b5 0b bd 04 e5 4f 3a 85 09 46 bb
       0.0004551942 -0.034109112 0.00079305493 -0.0030218076
000300 ba 2e 97 3a 3c cf e6 3c d6 43 c4 bc e7 5e 80 bd
       0.0011534311 0.028174989 -0.023958128 -0.06268101
000310 c0 a6 f7 bc 4b b9 20 3c 56 d3 de bc 3a 35 54 bc
       -0.03023088 0.009809802 -0.027200382 -0.012952143
000320 6b 99 22 bc d8 63 29 3c 30 a1 9f ba 4a f9 ee bc
       -0.009924273 0.010338746 -0.0012178775 -0.029171605
000330 47 2d 9d bb b4 a5 45 bd 95 fa fe bc e3 e0 1b 3c
       -0.0047966572 -0.04825373 -0.031125346 0.009514066
000340 a6 8e 11 bc 7f e9 0f 3d 39 1e 34 3d 92 ec 01 3d
       -0.008884108 0.03513479 0.043974135 0.03171975
000350 62 ab 15 bd ad 02 77 bd 40 ea 58 3d e8 2e 37 3c
       -0.036540397 -0.060305286 0.052957773 0.011180617
000360 35 50 ef 3c 0f 2e d4 bc 0b 5a 1d bd 41 5f 98 3c
       0.02921305 -0.025900869 -0.03841595 0.018600108
000370 a5 d0 de 3c 95 60 f9 3b c5 07 81 3c 22 07 1b 3c
       0.027199099 0.0076103904 0.015750775 0.00946215
000380 bf 76 30 bb 96 d7 22 3d e7 96 0c bd 20 dd 0e 3d
       -0.0026926247 0.03975638 -0.0343236 0.03487885
000390 b0 ea 04 3d a0 6b 36 3d 05 4c f2 bb a3 9f 0d bd
       0.032450378 0.044536233 -0.007394316 -0.03457607
0003a0 ba 27 29 bd d4 27 49 bb dd 71 ea ba 1c 93 11 bd
       -0.04129765 -0.0030693905 -0.0017886717 -0.035540685
0003b0 54 69 93 3c ef 33 8b 3c a0 72 10 3b dc 02 07 3d
       0.01799456 0.016992537 0.0022040978 0.03296171
0003c0 b9 60 c4 3c 86 eb 0f bb 76 4e ef 3c 4a 0b 10 bb
       0.023971902 -0.0021960451 0.029212218 -0.0021979385
0003d0 6a de 35 bb 8b ce 3e 3d fe cc 63 3b 8c 01 cc 3c
       -0.0027750977 0.046583693 0.0034759636 0.024903081
0003e0 1b fe 90 3c 57 3a 0b bd d1 5f 56 3d 88 30 26 3d
       0.017699292 -0.033991184 0.05233747 0.040573627
0003f0 29 47 96 3b 57 0e aa 3c 3e 86 ad bc 87 e3 e8 3c
       0.0045861197 0.02075879 -0.021182176 0.028428806

action_model._discrete_distribution.branches.0.bias f4 [5]
000000 cd f3 79 bb a1 9e cb bc 4d f7 1e 3c bc c2 2a 3c
       -0.0038139701 -0.024855914 0.009702516 0.010422405
000010 9d fb 82 3c
       0.01598912
