Assets/Brain/Tests/newTest 1.onnx (onnx, 185838 bytes, 9 tensors)

network_body._body_endoder.seq_layers.0.weight f4 [128, 211]
000000 02 f4 62 bc 0f 7b e4 bd 3d 6f c5 bd 33 84 e0 3d
       -0.013852121 -0.11156284 -0.09640358 0.10962715
000010 0d d4 9e 3b 9d 89 1b 3e 04 47 50 3e 34 fc 56 be
       0.0048470558 0.15189214 0.2033959 -0.20994645
000020 51 34 c8 bc f3 68 9c bc e0 99 e3 bd a6 71 68 3d
       -0.024439009 -0.019093012 -0.11113334 0.05674901
000030 fb 27 6a 3d d0 f4 13 be ee d6 b7 3c 37 d4 cd bd
       0.057167035 -0.14448857 0.022441354 -0.100502424
000040 f7 87 85 bd 30 1b 03 3c d2 74 66 bd 33 5d 57 3d
       -0.06520074 0.0080020875 -0.056263752 0.052579116
000050 a2 ce 2e 3e 51 f1 58 3b 99 d3 14 be ca dc 1c 3d
       0.17071012 0.003310282 -0.14533843 0.0382965
000060 2c 21 9e bc 3f 21 36 bd cd db 81 3d 57 73 23 be
       -0.019302927 -0.0444653 0.06340752 -0.15961967
000070 ff ff 9c bc 66 c7 4e bd 51 e8 56 bd 12 a9 5b 3d
       -0.019165037 -0.05048313 -0.052467648 0.053628035
000080 0a a8 3a bd e7 39 65 3b 24 26 0d 3d c4 7c 03 3d
       -0.04557041 0.003497714 0.0344602 0.032101408
000090 a6 0a 30 3c 6c b7 4d 3c 7b cc 22 bd f8 bf de bc
       0.010744726 0.012555938 -0.03974579 -0.027191147
0000a0 f4 74 de 3d 44 d2 dd 3d 8c b0 d2 3d 7e 72 c4 3d
       0.10862151 0.108311206 0.1028758 0.0959215
0000b0 e8 ef ff bc ff dd 19 3e 36 2b 22 3d c7 d3 02 be
       -0.031242326 0.15026091 0.03959199 -0.12776099
0000c0 50 ca f0 bc c8 cd ed bd 5d 8d 55 3d 86 e7 93 bc
       -0.029393345 -0.11611515 0.052136768 -0.018054735
0000d0 e9 84 cd 3c 5f 7b cf 3d 29 73 3a be b9 8c 12 3c
       0.02508779 0.10130953 -0.18207993 0.008944684
0000e0 c9 3c 8f 3d 7b fd 3c bb 06 2a d1 bc 90 5c 65 3c
       0.06994016 -0.002883761 -0.025532734 0.013999119
0000f0 69 bd 0a bd b9 0d d8 bc b1 53 3f 3d 04 49 84 3d
       -0.03387204 -0.026373731 0.046710674 0.06459239
000100 22 b0 ca 3d a5 58 74 bd 7f 00 18 3e 4d 34 5a be
       0.09896876 -0.05965485 0.14843939 -0.21309014
000110 5a 02 a6 3c b4 84 21 3d 6b d2 3a 3d 81 61 7f 3d
       0.020264793 0.039433196 0.045610826 0.062348846
000120 4c c5 79 3e ac 12 ed bc 4d de 8d 3d 22 e1 ba 3c
       0.24391669 -0.028939568 0.06927166 0.02281243
000130 cf e6 c0 bd 7d e8 3f 3d 28 ab 87 ba 6d 82 8b bd
       -0.09419023 0.046852577 -0.0010350691 -0.06811986
000140 34 fd 35 3d 3c 81 19 3d db d5 ee 3d 93 62 8f bd
       0.044430926 0.037476763 0.116618834 -0.070012234
000150 c7 61 19 b9 d8 10 dd 3c d3 0b 19 3d 80 77 87 ba
       -0.00014627642 0.02698557 0.037364792 -0.0010335296
000160 b7 01 a9 3d 3d ed 50 bc 3d 41 db bd 61 3b 11 3d
       0.0825228 -0.0127518745 -0.107058026 0.03545702
000170 38 95 90 3d f3 3a 02 be 0a 40 1e 3d ae 14 b0 3c
       0.07059711 -0.127178 0.03863529 0.021494236
000180 0a 34 dc bd 20 fe 66 3e 9e e0 7c 3c 69 18 c8 3c
       -0.10752113 0.22557878 0.015434412 0.024425702
000190 b7 69 f3 3c 3f 58 d8 3c ab 93 17 be 49 15 43 bd
       0.029713495 0.026409267 -0.14802425 -0.04762772
0001a0 20 34 0d 3d c1 da e5 bc a6 a6 f2 bd 80 bc 0e 3e
       0.03447354 -0.028058412 -0.11848192 0.13939095
0001b0 bd 73 9b bd 97 81 1d be 77 cb 34 3d 88 90 88 3d
       -0.07590435 -0.15381466 0.04413935 0.06668192
0001c0 2f b8 2b bd 0e 2c 1b bd 2c dc 4b bd d6 d9 5a 3d
       -0.041923698 -0.03788381 -0.04977052 0.0534304
0001d0 a5 39 1f bd c7 a5 b0 bc 68 e1 d8 3d 7e 0e 12 bd
       -0.038873333 -0.021563424 0.10589868 -0.035658352
0001e0 ec e7 4d bd ba 84 13 3d d4 a6 14 be c2 21 29 3a
       -0.050270006 0.03601525 -0.14516765 0.00064518687
0001f0 2b 87 25 3e 1a 17 d2 3d af cf ab 3b 0f bf c9 bd
       0.16164844 0.102583125 0.0052432637 -0.09850895
000200 0c fc c4 bb 8f 26 05 bd da 1d 9c 3d e6 a2 25 bc
       -0.0060114916 -0.032507475 0.07622881 -0.010109639
000210 df 1a 75 be 9d 73 8c 3d cb 31 db 3d 93 0c 04 3e
       -0.23936032 0.06857989 0.10702857 0.12895422
000220 80 5d 9a 3d a9 07 33 3d 6b 45 f9 3c cd b7 e9 3c
       0.07537365 0.043708477 0.030428609 0.028530026
000230 d8 ef 6a 3d 7d 6e 05 3e 00 5d a6 bd b4 73 ec bd
       0.05735764 0.13030429 -0.08123207 -0.11545506
000240 dc 43 b1 3d 6f 86 81 3c 93 26 19 be 98 e9 03 3d
       0.08655521 0.015811173 -0.14956121 0.032205194
000250 1d 5c 50 bd 20 86 b3 3b 46 b0 bc bd 5f ab 68 3d
       -0.050869096 0.0054786354 -0.09213309 0.056804057
000260 c1 91 ed b8 ec dd 45 3d 71 a7 90 3c c5 e3 61 3d
       -0.000113281894 0.048307344 0.017657967 0.05514886
000270 3c 59 10 bb 0a 26 05 bd c8 6a 85 3c ab ef 41 bc
       -0.0022025844 -0.03250698 0.016286269 -0.011836926
000280 17 60 0f be 14 8a 9c ba b5 70 b9 bd cd c8 9d bd
       -0.14001499 -0.0011943006 -0.090547 -0.07704315
000290 e2 65 ac 39 7a c1 40 3c 85 df da bd c2 20 19 3a
       0.00032882305 0.011764878 -0.10687164 0.0005841368
0002a0 eb 21 63 bd 2a 74 46 3d ec c5 6d 3d ad 60 92 bd
       -0.05545227 0.048450626 0.05805008 -0.07147346
0002b0 94 91 c2 3d fe f3 10 bd 32 6d 9b 3c ea 46 93 3d
       0.09500423 -0.03538894 0.018972967 0.0719126
0002c0 61 27 74 3d 93 8e a4 3d 9e 1f f3 3d f0 61 41 3d
       0.059607867 0.080350064 0.11871265 0.04721254
0002d0 c1 9f da 3b 80 6e 87 bd 8f e9 9c bd cc eb e8 bc
       0.006671876 -0.06612873 -0.07661735 -0.02843275
0002e0 6d a6 25 3d cd 98 cb bd f2 ce 92 bd 2b 4a 99 bd
       0.04044192 -0.09941254 -0.07168378 -0.074848495
0002f0 b3 79 34 bd cc 7b 0a 3d a5 c5 a4 bd bb a0 c6 3c
       -0.044061374 0.03380947 -0.0804551 0.024246564
000300 dc 7c e3 3c f4 3f 94 3d 65 0b 9e bc 33 2c 58 3d
       0.027769499 0.072387606 -0.019292543 0.052776527
000310 ff b3 13 bd 25 4b 88 bd 7b 16 df ba 6b 54 25 bd
       -0.03606033 -0.06654958 -0.001702025 -0.04036371
000320 ed c0 7d 3d ed 87 ee 3d 44 6b a2 bd c7 92 30 bd
       0.061951566 0.116470195 -0.079306155 -0.043108728
000330 17 c6 2f 3d 34 a1 d7 3b e0 71 a0 bd e1 a9 54 bd
       0.042913523 0.006580496 -0.0783422 -0.05191982
000340 cb c3 09 3e ca ad 6b 3e 3e 28 06 bb 2e 89 27 bd
       0.13453595 0.23015514 -0.0020470764 -0.04090231
000350 ad 88 d4 3d db 49 75 bd 0e fc 46 3a ae 7c 48 3e
       0.10377631 -0.059884887 0.00075906597 0.19578812
000360 8f 3c cc bd 0e 13 ef 3d 61 87 ff bc 38 f2 01 3d
       -0.09972488 0.11673556 -0.031192483 0.03172514
000370 7a bf d0 3d 7b bb f5 bc e5 9d 90 bc 64 4f 35 be
       0.10192771 -0.029996624 -0.017653415 -0.17706066
000380 ed 63 8f bd b2 60 18 bc b1 7c ac 3d 61 6b 95 3d
       -0.07001481 -0.009300398 0.084222205 0.072958715
000390 43 e1 87 bd e3 60 45 3d 07 c7 05 bd 11 ab 96 3d
       -0.06634762 0.0481881 -0.03266051 0.07356847
0003a0 35 78 fa 3c 59 de bc bd 8b 6d ac 3d 83 ed 94 3d
       0.030574897 -0.09222097 0.08419331 0.07271864
0003b0 ec 9f ee 3c ff e8 1c 3c 7f ed 42 be bc d4 64 3d
       0.029128991 0.009577035 -0.1903591 0.05586694
0003c0 4e 17 96 3c 3c 01 f3 bc b4 dc 89 3c b3 33 f8 3a
       0.01832166 -0.029663675 0.016828872 0.0018936306
0003d0 57 b8 a0 bc 44 bd 0d 3e d1 26 86 3d d3 22 0a 3e
       -0.01961915 0.1384173 0.065503724 0.13489847
0003e0 cb 53 84 be 60 17 6f bd 68 c0 12 bc aa 15 5d 3d
       -0.2584518 -0.0583719 -0.008957006 0.05397574
0003f0 9b db 63 3a b1 e9 04 bd d6 ed 54 3c c3 b6 15 bd
       0.00086920866 -0.032449428 0.012996158 -0.03655125

network_body._body_endoder.seq_layers.0.bias f4 [128]
000000 1e e8 fe 3b 28 99 da 3c de 5a 36 3b 72 bf d1 3b
       0.0077791354 0.026684359 0.0027825157 0.006400996
000010 bd 10 c0 3c 72 d9 9e 3c ab 73 dc 3b 20 3b 9d 3c
       0.023445481 0.019390795 0.006727656 0.019193232
000020 21 1b ad 39 2e 06 05 3c 89 e9 15 bb 5c 35 b3 3b
       0.00033017344 0.008119149 -0.0022874794 0.0054690074
000030 b2 4b 8b 3c f4 d4 d3 3c 79 84 8c 3c 52 6d 15 3c
       0.017003868 0.02585838 0.017153012 0.009120302
000040 a2 d2 60 3c ac ef 78 3c c9 0a b7 3c 09 a1 a4 3c
       0.013722094 0.015193861 0.02234401 0.020096319
000050 83 87 8f 3c 4e a3 62 3c 50 77 34 3b 98 c5 a0 3c
       0.017520672 0.01383288 0.0027536936 0.01962547
000060 2c 8d 8f 3b 4d 58 b2 3c e1 d0 c0 3c e7 54 c5 bc
       0.0043808427 0.02177062 0.023537101 -0.024088336
000070 ce be d5 3c 5c 8c 47 3c 53 d2 30 3d d6 60 83 3c
       0.02609196 0.01217946 0.04316933 0.016037386
000080 10 cf af 3b d9 b7 41 3a d2 5d 8e 3c b9 45 44 3c
       0.00536526 0.0007389761 0.017378721 0.011979514
000090 c3 01 98 3c b7 08 4c 3c 8a dd 02 3d 60 e1 47 bb
       0.018555528 0.01245325 0.031949557 -0.0030499324
0000a0 3a f7 22 bb 83 12 a8 3b 6f e5 f4 3c 81 a3 f6 3a
       -0.0024866597 0.00512916 0.029894559 0.0018817039
0000b0 19 c7 11 bb 61 4e 07 3c 6f e3 16 3d 91 e6 91 3c
       -0.0022243916 0.008258433 0.03683799 0.017810138
0000c0 1a 14 02 ba 6e 68 11 3d e7 08 8e 3c a1 3a b9 3b
       -0.0004962102 0.035499983 0.01733823 0.005652741
0000d0 95 61 28 3c ab 41 b3 38 2b fa c9 3c 1f e1 43 3c
       0.010277172 8.547617e-05 0.024655422 0.0119555285
0000e0 e2 7f ce ba e0 7e 8a 3c ed 1b 1d 3b 01 73 12 bc
       -0.0015754665 0.016906202 0.0023972944 -0.008938552
0000f0 cf b2 0d 3d 63 da f7 bb ae 66 3c 3b 2b a6 df 3b
       0.034594353 -0.0075638755 0.0028747725 0.0068252287
000100 74 16 a5 3c af 17 71 bb e0 91 7c 3c 7c ed 5e 3b
       0.020152308 -0.0036787798 0.015415639 0.0034016063
000110 01 6d 2e ba d6 0e 14 3c 72 e8 b1 3c 89 3c b7 3c
       -0.0006653816 0.00903674 0.021717284 0.022367733
000120 00 de ac 3c 91 78 b5 3c da 7f 98 3c 30 ea 50 3a
       0.021101952 0.022152217 0.018615652 0.0007969467
000130 fc ce a9 3c d6 f8 73 3c 6f 32 51 3c 3a 94 27 3c
       0.02072858 0.01489087 0.012768372 0.010228211
000140 42 d9 fa 3c c0 3e 66 3c 14 ed 84 3c 71 e2 ce 3c
       0.030621175 0.014053047 0.016226329 0.02525446
000150 44 33 df 3a 26 27 8c 3a e3 d1 f1 3b 01 a3 f4 3c
       0.0017028828 0.001069282 0.007379757 0.029862883
000160 fe e9 3d 3c b5 fd f1 3b c2 c2 0f b9 d5 f9 57 3c
       0.011591433 0.0073849806 -0.00013710096 0.013182123
000170 2e 94 dd 3b 3d 65 a6 3c fd 2e 07 3c 0d 07 9c 3c
       0.006762049 0.020311946 0.008250949 0.01904633
000180 7c 42 db 3c b3 6d 3b 39 4a b7 10 3d 24 c1 9b 3c
       0.0267651 0.00017874576 0.035331048 0.019012995
000190 98 35 f6 3a 29 9a d6 3c 09 1d 83 3c 18 a0 e3 3c
       0.0018784283 0.026196556 0.016005056 0.0277863
0001a0 80 c0 3d 3c 3a d8 8d 3c 40 b6 3a bb 9c d1 b0 3c
       0.01158154 0.017315019 -0.0028489977 0.021584325
0001b0 b0 f8 77 3c f2 11 1e 3d 05 1e 32 3c 2d 33 e6 3b
       0.015134975 0.038591333 0.010871415 0.0070251436
0001c0 ac b5 9b 3c 6e fc c9 bb 8d ad 47 3c f4 7d a4 3c
       0.019007526 -0.006164125 0.012187374 0.02007959
0001d0 41 3e d4 3c fc a2 01 3d 9b 7f c2 3c 16 8c cf 3c
       0.025908591 0.031649575 0.023742488 0.025335353
0001e0 7e 68 0c bc 3d de 11 3d a7 3e 0a 3c e7 aa 40 bc
       -0.008569835 0.035612334 0.008437789 -0.011759496
0001f0 59 2a 03 bb 64 27 b5 3c bc c6 80 3b cf 84 c7 3b
       -0.0020014255 0.02211351 0.003929941 0.00608883

network_body._body_endoder.seq_layers.2.weight f4 [128, 128]
000000 c5 5b b0 bc bb 99 bf 3d e5 22 bf bc ba b7 6e bd
       -0.021528134 0.09355494 -0.023332069 -0.058280684
000010 da a4 71 be 71 5e 4e bd 43 b1 6c bb a8 6d e8 3d
       -0.23598042 -0.050383035 -0.0036116398 0.1134904
000020 64 c1 4c bd 4a af 24 3d f3 c1 87 3b eb e6 fd 3c
       -0.04998912 0.04020623 0.0041429936 0.0309939
000030 1d 24 92 3e 2b b2 c7 bc ed 41 a8 3d 53 b6 40 3c
       0.28543177 -0.02437695 0.08215699 0.0117622195
000040 8a f8 b0 bd 1c f2 e1 bb a7 9e 23 3d 22 43 af 3d
       -0.08641155 -0.0068953168 0.039946225 0.085577264
000050 c9 b7 14 3d c6 38 ec 3c 18 69 92 3d 6e cd ae bc
       0.036308084 0.028835665 0.07148951 -0.02133819
000060 2d 65 0c bd d4 0d 11 be d8 a8 b2 bc 29 cc 20 be
       -0.034276176 -0.14165431 -0.021809027 -0.15702881
000070 c2 11 03 3d 00 f9 4f bc 52 25 34 be 44 cd 8b 3d
       0.031999357 -0.012693644 -0.17592362 0.06826261
000080 cf e7 3a 3d 73 3d a9 3d 63 7f 4c 3e f8 3c 7e bd
       0.045631226 0.08263674 0.19970469 -0.062069863
000090 54 ff 92 bc 00 f4 bc bd 3b 81 9e 3d d9 3f 6a 3d
       -0.017944016 -0.09226227 0.077394925 0.057189796
0000a0 7d 3a 04 be ae 6e 1d 3e 6d 3d 20 3d 7e fc b0 bd
       -0.12912937 0.15374252 0.03912108 -0.08641909
0000b0 ac b3 e6 bc f2 90 08 3d 2a 73 1d 3e 17 4e 80 bd
       -0.028161846 0.033341356 0.15375963 -0.062648945
0000c0 e7 71 d5 3d ce ca de 3c cb 7c ca 3d 2f 5b 7d 3c
       0.10422116 0.027196314 0.098870836 0.015463634
0000d0 99 a8 3e bd 4f 1f 19 bd b4 5c e6 3c 0e 76 91 be
       -0.046547506 -0.037383374 0.028120376 -0.2841038
0000e0 e1 57 ac 3b 87 62 fd 3d 41 78 66 be cf ab 10 be
       0.0052594994 0.12372308 -0.2250681 -0.1412804
0000f0 cc 04 af bd c9 56 f3 bd 10 12 d4 3c 0c b9 34 3d
       -0.08545837 -0.11881787 0.02588752 0.044121787
000100 8c 28 58 3c ee 99 da 3c 28 6c 19 3d 12 61 a4 bd
       0.013193261 0.026684728 0.03745666 -0.08026327
000110 e6 d4 06 bd d6 57 50 bd 52 76 c3 bc ff c8 08 3e
       -0.03291788 -0.050865017 -0.02386013 0.13357924
000120 5c 4a 0d be 47 2e f1 3a 0f 0c 1f 3e 6d 1f 43 be
       -0.13797897 0.0018400633 0.15531944 -0.19054957
000130 99 d6 44 3c 0d 33 e9 3d 9c ac 21 bd 16 b2 ad 3d
       0.012014055 0.1138669 -0.039471254 0.08481233
000140 82 7b 07 be 1b 43 05 bd 54 a5 70 be 6b 05 32 3e
       -0.13230708 -0.0325347 -0.23500568 0.1738488
000150 17 5c 45 bd 48 a9 43 3c e4 a6 31 be be 41 b4 3d
       -0.048183527 0.011942215 -0.1734882 0.08801602
000160 e6 20 ae 3d 09 d4 7c bd f0 74 d3 bd 20 ec 0f 3a
       0.08502369 -0.06172565 -0.103250384 0.00054902025
000170 22 05 91 bd a4 2c 1c 3c e6 f3 e9 bb f0 ba d6 3d
       -0.07081057 0.0095321275 -0.0071396707 0.10484874
000180 b4 25 3f 3e 1a e8 65 3d f6 53 21 3d 4c a5 78 3d
       0.18666726 0.056129552 0.039386712 0.060704514
000190 b3 6e 87 bd a7 77 18 3d 7e 85 2c bc 80 e1 21 3d
       -0.06612911 0.037223484 -0.010529874 0.039521694
0001a0 11 a5 c8 3d 39 40 d1 ba 14 ae 4f 3d 26 8c 21 3e
       0.09797109 -0.0015964574 0.050703123 0.15776119
0001b0 c3 35 8f bd 86 9c 18 3e 51 2b 32 3e f6 4b 7c bc
       -0.06992676 0.14903459 0.17399336 -0.01539897
0001c0 9d 07 f2 3d 5c c3 29 bd 4e e1 f4 bc e1 c8 c8 bb
       0.11817858 -0.041446075 -0.02989259 -0.0061274623
0001d0 ef 35 27 3e 3b fe 6d bd 7d 92 0e 3c 88 af 18 3e
       0.16329168 -0.05810378 0.008701918 0.1491071
0001e0 1f 2b bb bd fb f1 54 3d 78 15 6a 3d 69 43 3e 3e
       -0.09139084 0.051988583 0.05714938 0.18580402
0001f0 f6 84 d5 bd cb 3c d0 3a 78 91 6d 3d a1 25 a5 3d
       -0.10425751 0.0015887258 0.058000058 0.08063818
000200 c3 58 0b ba 92 7b a1 be 44 9d 8b bd a8 a8 ab bd
       -0.0005315656 -0.3153959 -0.068171054 -0.08381778
000210 63 5e bb bc 47 e9 d4 bb fe 1e ea bc 3d 6a 3d 3d
       -0.022872156 -0.0064975354 -0.028579231 0.046243895
000220 bf 7f 54 3c 1a 13 8a bd 64 19 34 3d 66 2d 77 be
       0.01296991 -0.067419246 0.043969527 -0.24138412
000230 51 e3 9f bb 78 80 39 be fc a1 24 3e c0 7f ae 3d
       -0.004879393 -0.18115413 0.16077417 0.0852046
000240 ac 9f b0 bc 1f 2c ac 3d f5 19 84 bc 20 a5 01 be
       -0.021560512 0.08406853 -0.016125659 -0.12660646
000250 6a 0e a0 3d 83 99 41 bc 52 f4 42 bc 95 6b 8b bc
       0.07815249 -0.011816385 -0.011899071 -0.017019073
000260 3d 08 09 bd 23 f9 d3 bd 6e 85 ef bc 47 e2 84 3c
       -0.033455122 -0.103502534 -0.029238429 0.016221179
000270 be d6 91 bd cc ce 25 bd b7 73 10 3e 23 0e 46 bd
       -0.07121037 -0.04048042 0.14106642 -0.048353326
000280 34 57 3f bd a3 96 3a bd 01 a4 7e 3d 81 ce 47 be
       -0.046714023 -0.045553815 0.062168125 -0.19512369
000290 f0 2d 7c be 01 d0 00 3d 5b 5a b3 bc 2a 27 e4 bd
       -0.24626899 0.031448368 -0.02189367 -0.111402825
0002a0 8f 53 7d 3d 84 41 c8 bd be ba 89 bd d8 36 48 3d
       0.061847266 -0.09778121 -0.06725071 0.048880428
0002b0 eb 91 df 3d 39 db a1 3d 74 85 10 be 0c d2 bb bd
       0.109165035 0.079031415 -0.14113408 -0.09170923
0002c0 49 b7 53 bd b3 d3 02 3d bc 08 20 be 4e 20 c8 3c
       -0.051688466 0.031940173 -0.15628332 0.024429467
0002d0 26 a7 1b be 21 16 3c 3d 2a ff 11 bd 90 04 5e 3e
       -0.15200481 0.04591954 -0.035643734 0.21681428
0002e0 ae 19 0c be ee 51 27 3e 0d 6e a8 3d 2a 01 b7 bd
       -0.13681671 0.16339847 0.082241155 -0.08935769
0002f0 0d 6a db bc cc 84 12 3e 8e 70 2c 3e 47 6f 7a bd
       -0.026783967 0.1430847 0.16839811 -0.06114128
000300 a3 f0 35 3d 0e c5 f7 3b d7 25 cb bd 51 8f 60 3d
       0.044418942 0.0075613325 -0.09919327 0.054824177
000310 14 70 be 3b 12 e4 04 be 4d 5d 53 3d 08 c7 2e 3d
       0.0058117006 -0.12977627 0.05160265 0.04267028
000320 a6 6e 21 3e 1b ea fe bd 5b af dd 3d db 77 87 3c
       0.15764865 -0.12446996 0.10824462 0.016536644
000330 a2 39 36 3c ec 3a 89 bd 77 18 24 be 62 53 e3 bd
       0.011122139 -0.067006916 -0.16024958 -0.110998884
000340 75 47 11 be b5 8a 12 bd 4b 0f fd bb ff a0 36 bc
       -0.14187415 -0.035776813 -0.0077227703 -0.011146783
000350 24 b9 f5 3c 0a 18 84 bd 37 5b 9f bd bc c0 e7 bc
       0.029995508 -0.064498976 -0.0778107 -0.028290145
000360 a7 d3 9e bd 81 6c 3d 3e 85 79 32 3d 66 74 01 be
       -0.07755213 0.18498422 0.04357292 -0.12642059
000370 6b 6e 96 bd b6 f1 61 bc df 83 b5 bd 5f 70 cf 3c
       -0.07345279 -0.013790539 -0.08863043 0.025322137
000380 3b 69 2b 3d 39 66 24 bd 7f dc 9a bd 7e 47 2d 3d
       0.041848402 -0.04013655 -0.075615875 0.04230451
000390 1e 60 a1 3c 71 33 5a bd 76 54 9c 3d e1 81 0a 3d
       0.019699153 -0.053271715 0.07633297 0.03381527
0003a0 4e 67 16 3e 98 b5 10 3e 5d e6 d3 3c ad 50 bc bd
       0.14687845 0.14131773 0.025866682 -0.09195075
0003b0 0d 0c 2f 3e b0 79 eb 3d dd 7f 9f bd ac e3 d0 3d
       0.17094441 0.114978194 -0.0778806 0.10199675
0003c0 5a 21 bf 3d 2c fa 46 bd 09 b3 46 3d 06 c7 98 bd
       0.09332533 -0.048578426 0.048510585 -0.07459836
0003d0 1c 67 cd 3d 34 3f 5a 3d 37 71 37 3e df 14 37 bd
       0.10029432 0.05328293 0.17914282 -0.04469764
0003e0 4a 5b 3f 3b 3d f2 b9 3d 11 f6 6d be 43 0d 3c bd
       0.00291987 0.090794064 -0.23238398 -0.045911085
0003f0 eb 04 82 bc d8 3e 0d 3e 18 d2 a5 bb f8 2d ea bd
       -0.015871486 0.13793504 -0.0050604455 -0.11434549

network_body._body_endoder.seq_layers.2.bias f4 [128]
000000 f8 52 c1 3c 7f ca ac 3c 1a a6 89 3c 6b 49 b6 3c
       0.023599133 0.021092651 0.016802836 0.022251805
000010 27 63 5d 3c 29 8d c7 3c 2e 8c 1d 3d a5 94 b6 3c
       0.013512409 0.024359303 0.038463764 0.022287676
000020 0f 9f 73 3c 90 56 81 3c 86 78 80 3c 71 e4 46 ba
       0.0148694655 0.015788347 0.01568247 -0.0007587141
000030 8c a7 96 3c 6b 4d 93 3b bb cc 75 3c 21 81 8d 3c
       0.01839044 0.004495313 0.015002425 0.017273488
000040 81 8b 63 3c 85 d5 6b 3c d9 1d 64 3c fb 68 54 3c
       0.013888241 0.014394169 0.013923132 0.012964482
000050 cb 04 68 3b 15 26 b4 3c 1c 88 2e 3c fa 69 72 3c
       0.0035403247 0.021990815 0.010652568 0.014795775
000060 6c ae 71 3c 57 41 1f 3d 52 fa 89 3c c6 bc 9e 3b
       0.014751058 0.038880672 0.016842995 0.004844281
000070 c5 a2 be 3c 9e 30 02 3d fd 7b 99 3c a9 49 9b 3c
       0.023270974 0.031784646 0.01873588 0.018956022
000080 21 7e 76 3b f4 fc 76 3c 33 46 23 3c 81 d0 2d 3b
       0.00376118 0.015074957 0.009965467 0.0026521983
000090 f0 ba 84 3c eb 89 c9 3b 12 43 d6 3c a7 eb 58 3c
       0.01620242 0.0061504743 0.026155028 0.013239778
0000a0 7e 71 cf 3c ef 8d ef 3c 11 e4 81 38 31 cf 8f 3c
       0.025322672 0.029242484 6.19368e-05 0.017554851
0000b0 31 e1 77 3c 0a e9 99 3c 22 af 6a 3c 73 a2 76 3c
       0.015129373 0.01878788 0.0143239815 0.015053379
0000c0 b1 2a 74 3c c0 e1 9e 3c cb 97 9c 3c 90 a3 63 3c
       0.014902757 0.019394755 0.01911535 0.013893977
0000d0 7c 3a 04 3b 3e a8 ba 3c 25 52 2a 3c f3 86 79 3c
       0.002017646 0.022785302 0.010395561 0.015229928
0000e0 e9 e6 c6 3c ce 5b 27 3b a5 6c fc 3b 3d d1 ff 3c
       0.024280028 0.0025536898 0.007703381 0.031227702
0000f0 70 7b 1f 3c a5 2f 30 3c 5b fe c2 bb 9b 45 e4 3b
       0.00973402 0.010753547 -0.0059507317 0.0069663054
000100 35 6e c4 3c b3 e0 2a 3c 62 c8 e0 3c 4b 8f 28 3c
       0.023978332 0.010429549 0.0274393 0.01028807
000110 2a 43 83 3c 23 5a 98 3c 6c fc 9a 3c 94 d3 87 3c
       0.016023237 0.018597668 0.018919192 0.01658038
000120 15 d9 07 3c 60 cd 99 3c 6a f9 75 3c 6c 4e c7 3c
       0.0082915025 0.018774688 0.015013078 0.024329387
000130 1c 0e 28 3c ca 46 b1 3c cf 2f 70 3c 74 9f 5f bb
       0.01025727 0.0216402 0.014659836 -0.003412214
000140 52 35 91 3c 5d 43 e0 3c 40 25 72 3c 8f 9c fa 3b
       0.01772562 0.027375871 0.014779389 0.007648058
000150 17 95 3d 3c d7 18 a2 3b 1e 7d ad 3c 94 d1 11 3d
       0.01157119 0.004946809 0.021177825 0.03560026
000160 2f 8e b0 3c d9 f8 6d 3b 67 e5 9a bb 16 7a b1 3c
       0.021552173 0.0036311655 -0.004727054 0.02166466
000170 ab 5f 18 3c 4d 41 f6 3c 7f c1 be 3c 25 df 99 3b
       0.009300153 0.030060435 0.023285626 0.0046957904
000180 1d 7a 2a ba 21 27 f6 3c 63 1f da 3c 55 1b 92 3a
       -0.00065031816 0.030047955 0.026626294 0.0011147062
000190 cc 33 62 3c 70 70 52 bb d9 0c f7 bc 30 87 2e 3c
       0.013806295 -0.0032110475 -0.030157493 0.010652348
0001a0 0e b9 09 3c 93 91 fc 3b f8 b0 90 3c 84 70 bc 3c
       0.008405937 0.0077077835 0.01766251 0.02300287
0001b0 dd 45 a3 3c 2e 53 2c 3c e8 b4 d9 3c 3f ff 48 3b
       0.019930774 0.010517878 0.02657552 0.0030669717
0001c0 84 1d d6 3c bd 05 27 3c d7 3d cd 3c a0 7b 29 3c
       0.026137121 0.010194239 0.025053902 0.010344416
0001d0 44 d5 52 3c 2f f3 ef 3c 80 bf 19 3c 6b 0a d9 3c
       0.012868229 0.029290764 0.009384036 0.026494225
0001e0 1a bb 95 3b 83 a8 c6 3c 47 10 80 3c bd 94 fb 3b
       0.0045694234 0.024250275 0.015632762 0.007677643
0001f0 62 93 df 3c 9a 65 59 3c bb d7 ee bb ac d9 eb 3c
       0.027291957 0.013268853 -0.0072889007 0.028790317

action_model._continuous_distribution.log_sigma f4 [1, 3]
000000 3e 8f 31 be 4a 53 91 be d3 ec 50 bf
       -0.17339799 -0.28383857 -0.81611365

action_model._continuous_distribution.mu.weight f4 [3, 128]
000000 57 72 9a 3d 98 84 ca bd 1d 84 e8 bc 87 6e c5 bd
       0.0754134 -0.098885715 -0.028383309 -0.09640222
000010 ae 03 d3 b9 f2 7a c8 bd ae 0e d9 3c 20 f8 83 bd
       -0.00040247798 -0.09789075 0.026496258 -0.064438105
000020 e3 2f 1a bd 1f 65 51 3c fa 09 0d bd 9c fc 41 bd
       -0.037643325 0.012780457 -0.034433343 -0.047360048
000030 d0 49 82 3d f9 c2 7f 3c b7 45 8f 3d ac 73 85 3d
       0.06361735 0.01561045 0.06995719 0.06516203
000040 6b 70 fc 3c ad 81 0a bd 82 0c ae 3d 77 00 94 3d
       0.030815324 -0.033815075 0.084984794 0.07226651
000050 bd eb 93 3a 45 a7 d1 3c 90 17 8d bd 69 78 c6 bb
       0.0011285465 0.025592456 -0.0688926 -0.0060568345
000060 a6 32 9e bd 3b 9d 46 bc da 4d 07 3d 9c d4 23 bd
       -0.07724504 -0.012122448 0.03303323 -0.039997682
000070 ff c6 8a 3d e3 d6 2f bd e1 84 60 3d 7a f4 66 bd
       0.06776237 -0.04292954 0.054814223 -0.056385495
000080 ea 16 3e bd 88 ac 46 3c 0b d3 8e bd 0a 26 33 3d
       -0.04640857 0.012126096 -0.06973847 0.04373745
000090 f1 91 09 bd 8f fd 5d bd 70 e1 dc 3b b2 09 ee bc
       -0.033586446 -0.05419689 0.0067407414 -0.029057357
0000a0 6f a8 3c bd 02 13 93 bd ff a8 8e bb 8a 38 d9 bc
       -0.04605907 -0.0718136 -0.004353642 -0.026516218
0000b0 a3 67 28 bd 16 9a 9c 3d 66 31 64 3c af 33 c0 bd
       -0.04111446 0.07646577 0.013927793 -0.09384858
0000c0 6f f5 7e 3d 31 5f 2b 3c eb 8f af 3d 92 6d 33 bd
       0.062245782 0.010459707 0.08572372 -0.043805666
0000d0 cb 28 96 bc 9a fe 03 be 6e 04 a2 3c 9f 13 1b bd
       -0.018329998 -0.12890092 0.019777503 -0.03786051
0000e0 32 57 8a 3d 00 f1 db bb 08 fe 32 3d 5e 5c 55 bc
       0.067549124 -0.006712079 0.043699294 -0.01302251
0000f0 e2 a7 0b 3d b8 1e 0c 3d 9f 46 bb bc 92 33 7c bd
       0.034095652 0.034208983 -0.022860823 -0.06157262
000100 be d6 c3 3d 0c 5a cd bc e8 d2 6f 3d 47 1d 4d 3d
       0.09562443 -0.025067352 0.058550745 0.05007675
000110 2a a9 8e bc 2e 45 c5 bd 34 93 cb 3d f5 44 5e 3d
       -0.017414648 -0.096323356 0.09940186 0.05426498
000120 d7 3c 0d 3b 64 66 be 3c 30 0e aa 3c 85 09 f5 bd
       0.0021551156 0.023242183 0.020758718 -0.11964706
000130 d8 60 85 bc 43 aa 9d 3d 40 89 8c bd 48 45 46 3c
       -0.01628153 0.076984905 -0.06862116 0.012101479
000140 7d 40 46 bd e7 f4 72 bd 63 e9 3b bc 38 16 f1 bc
       -0.048401345 -0.05931559 -0.011469218 -0.02942954
000150 68 96 a3 3c bc 9c 84 3d f4 9c 30 3c eb 8a 62 3d
       0.01996918 0.06475207 0.010779608 0.055308264
000160 ff b6 c5 3c fb ac 0b 3d bb 4d a1 bd 4b 90 95 3d
       0.02413511 0.034100514 -0.07876154 0.07302912
000170 c1 b5 0c bd 81 d8 c1 bd 6b 3b d4 bd 9c 93 4c bd
       -0.03435302 -0.09465123 -0.103628956 -0.04994546
000180 24 e0 bd bd 47 c0 b5 bd 76 d8 5c 3d e6 95 c6 3c
       -0.09271267 -0.088745646 0.05391737 0.024241399
000190 b5 a5 91 bd 6f 29 b0 bc ab 5f c2 bc 28 65 83 bd
       -0.07111684 -0.021504132 -0.023727259 -0.064157784
0001a0 66 ca ba 3b e0 9c 3d bd 6a 5a b8 bc 27 be fd 3c
       0.0057003973 -0.046292186 -0.02250405 0.03097446
0001b0 c7 93 66 3d 11 af 9b bd c5 2c 87 bc 08 86 cb bb
       0.056293275 -0.07601751 -0.01650084 -0.006211046
0001c0 2d 08 e7 bd 7f de 8b bd 42 b5 33 3d 3f b8 ed bb
       -0.11280856 -0.06829547 0.043874033 -0.00725463
0001d0 37 21 41 3d e9 53 87 bd df 3a 05 3c eb 35 b4 3d
       0.047150817 -0.066078015 0.008131712 0.087993465
0001e0 2a 2e 58 bd 2e ab 31 bc 73 5b 2b 3d 20 f8 51 3d
       -0.0527784 -0.010844035 0.04183526 0.05126202
0001f0 b6 88 d5 3c 55 25 0d bc 98 12 e1 bc 58 af eb bd
       0.026066165 -0.008614858 -0.027474687 -0.115080535
000200 ca 8d 1b 3c 15 3d e1 3c d2 e6 8a 3d c9 f2 1e bc
       0.009494254 0.027494946 0.06782307 -0.009701439
000210 0c 91 42 bd b9 9b 7a bc 55 43 58 bd 41 fa 49 bd
       -0.04750161 -0.015295916 -0.052798588 -0.049310926
000220 5c 44 92 bd ad d2 8e 3d ba b4 36 bd 92 4f 42 bd
       -0.07141945 0.06973777 -0.044605948 -0.047439165
000230 a2 10 85 3d 47 e2 d4 3b 91 b8 b5 bd 63 6b c2 bc
       0.06497313 0.006496701 -0.08873094 -0.023732847
000240 0f b1 76 3d 44 07 61 3d 0d f3 8d 3d 7a cf 64 bd
       0.06022745 0.05493857 0.06931124 -0.055861928
000250 02 1f 6d ba 77 35 99 3d 9f af 9a bb c7 29 7d bd
       -0.0009045453 0.07480901 -0.0047206427 -0.06180742
000260 c9 6b d3 bc eb 27 23 bd 84 dd df 3d 2a cb df bc
       -0.025808232 -0.03983299 0.109309226 -0.027318556
000270 4c 9f 1e bd 06 59 ce bc 89 3c 21 bd e0 ab 83 3d
       -0.038726136 -0.025188934 -0.03936437 0.06429267
000280 1d c5 84 3d a5 d2 b3 3d c2 4a d3 bc ab df 27 ba
       0.06482909 0.08780412 -0.025792483 -0.00064038736
000290 ec 3d 1b bd ae 5f 72 3c b7 75 9e bd 3a 81 8d bd
       -0.03790085 0.01479332 -0.07737296 -0.06909414
0002a0 71 a1 bf bd ee f0 4d 3c 35 1b 8d 3c d8 fb f6 bd
       -0.093569644 0.012569649 0.017224887 -0.12059754
0002b0 ac d1 81 3d 40 65 65 3d 88 57 94 bd ee 02 65 ba
       0.0633882 0.056004763 -0.07243258 -0.00087360933
0002c0 03 04 b9 3a b2 d9 da bc bd 5a 65 bd 54 b8 1c 3d
       0.0014115575 -0.026715133 -0.055994738 0.038261726
0002d0 ae 2f 65 ba 44 e1 0b 3d bc 1a 17 3d 81 53 b4 3d
       -0.00087427616 0.034150377 0.03689073 0.088049896
0002e0 0e de b6 bc aa 14 de bc f6 34 50 bd 78 04 b7 bc
       -0.02232268 -0.027109463 -0.050831757 -0.022340998
0002f0 30 1e 42 3d ff bc 49 3d a6 dd 3b 3c f3 de a5 ba
       0.04739207 0.049252506 0.011466419 -0.0012654945
000300 3c 81 96 3c 59 61 68 bd 33 27 2e 3c f7 50 ab 3d
       0.01837217 -0.056733463 0.010629463 0.08365052
000310 9b 27 e9 bd af 74 0c 3c 45 6f 58 bc af af 5d 3c
       -0.11384507 0.008572741 -0.0132101225 0.013530656
000320 5a cc 16 3c 4a 51 98 3d 13 99 40 bd b2 9e 9f bd
       0.009203995 0.0743738 -0.047020983 -0.077939406
000330 ea 09 b6 bc eb d9 ee 3b ee 86 76 3d 1c 86 7b 3c
       -0.022221524 0.0072891614 0.060187273 0.015351798
000340 2e bc ba 3c f4 e1 87 bd 17 7e 16 3d fc 90 52 bd
       0.02279481 -0.06634894 0.036741342 -0.0514078
000350 1b 1d 65 bc 14 34 76 3c cb 98 ac bd 4c 3d c0 bc
       -0.01398399 0.015027065 -0.084275804 -0.023466729
000360 e4 58 27 3c 89 8c b3 3c c2 ac 65 bd 28 ec f3 3c
       0.010214064 0.021917598 -0.056072958 0.029775694
000370 61 18 93 bd ba 20 a9 bc 53 fe 5b bd 61 b0 e4 3c
       -0.07182384 -0.020645488 -0.05370934 0.027916135
000380 5c 10 05 3d 27 9b 63 bb 8f 5a b6 bd 03 d9 6b 3c
       0.032486305 -0.003472993 -0.089039914 0.014395001
000390 7d ab 30 bd b7 f7 05 bd d1 18 4a bc a4 81 02 3d
       -0.043132294 -0.032706942 -0.012335018 0.031861916
0003a0 69 59 89 3c 32 6f 87 3d 6c 87 88 bd 71 c1 fe bc
       0.016766267 0.06613006 -0.06666455 -0.0310981
0003b0 1d 71 36 3d 18 62 9b 3c db a3 c1 bd a6 2b 77 3d
       0.044541467 0.018967673 -0.09455081 0.06034436
0003c0 78 6c 47 bc ca 20 0e 3d e0 34 65 3d da 35 43 bc
       -0.012171857 0.03469924 0.05595863 -0.011914695
0003d0 ef f3 4c bd 59 d3 fa bc 29 fc 8b 3d 9e 82 48 bd
       -0.05003732 -0.030618357 0.06835205 -0.04895269
0003e0 f1 5c 4b 3d fe 7c 12 3d 86 ff 71 bd c7 92 25 3d
       0.049649183 0.035763733 -0.059081577 0.04042318
0003f0 b9 ea cd bd db b9 a4 3d a7 77 98 3c 5d 28 98 bc
       -0.100545354 0.080432616 0.018611742 -0.018573934

action_model._continuous_distribution.mu.bias f4 [3]
000000 31 fc 80 3b fa 78 12 3a f4 72 a1 bb
       0.0039363136 0.0005587485 -0.0049270336

action_model._discrete_distribution.branches.0.weight f4 [5, 128]
000000 14 63 00 3d 0a 61 4c 3c 0e 83 b5 bc 0f a6 37 bc
       0.03134449 0.012474308 -0.022157218 -0.011209025
000010 9c 67 86 3b 18 71 84 3c 6d de 2b 3d d8 d9 be 3b
       0.0041017067 0.016167209 0.04196017 0.005824309
000020 1a bb 32 3d ea 95 e0 ba 80 7d 94 3c d5 4e ef bb
       0.043635465 -0.0017134522 0.01812625 -0.0073030987
000030 7e f4 a6 3c 9c 41 9b 3c 43 9b 49 3d 8f ae 00 3d
       0.020380255 0.018952183 0.049220335 0.031416472
000040 ae 91 6f 3c 25 ec 51 3b e1 07 e9 3c 1c 9e 14 3d
       0.014622135 0.0032031622 0.02844614 0.036283597
000050 93 58 5a 3c de 41 aa 3b 87 4f 7d 3b d1 79 13 3d
       0.013326782 0.0051958403 0.0038652138 0.036004845
000060 7f fc 84 3c eb 67 19 bd 84 8d c6 3b 0f 79 b3 3c
       0.01623368 -0.03745262 0.0060593504 0.021908311
000070 ac c7 06 3d 2b 5b 69 3d 03 3a 36 3c fe a5 97 3c
       0.032905266 0.05697171 0.0111222295 0.018511768
000080 8f a6 01 3d bd f5 e5 3c f9 6e 90 3c 89 c1 60 3c
       0.031652983 0.028071279 0.01763104 0.013718017
000090 e8 73 00 3d 39 c4 53 bd 3b 29 04 3d 9b 88 31 3c
       0.031360537 -0.051700804 0.032265883 0.010835792
0000a0 26 ad 32 3d 61 52 db bc 10 a3 25 bd 02 a4 ae 3c
       0.04362216 -0.02677268 -0.04043871 0.02131844
0000b0 dc 25 7e bb cd 9e a1 3c d8 12 41 3d e3 3c d1 3c
       -0.003877989 0.019729042 0.04713711 0.025541728
0000c0 5c e0 a9 3c ce 71 74 bd 4b 52 1d 3d d3 06 48 3d
       0.020736866 -0.059678845 0.03840856 0.048834633
0000d0 22 48 84 bc 4c 3d dd 3a 41 89 27 bd 13 bf 88 bb
       -0.016147677 0.001687923 -0.04090238 -0.0041731684
0000e0 df 74 fc 3c 26 8f d1 bc a3 55 94 3b ba ac 5a bd
       0.030817447 -0.025580954 0.0045268103 -0.05338738
0000f0 57 d9 02 3b d1 c6 c9 bb 0d 89 63 3c 2e e2 4e 3c
       0.001996597 -0.006157734 0.013887656 0.012627168
000100 0e 5a 26 bc 4f 1e d1 3b cf c3 55 bc 77 66 4d 3c
       -0.010153307 0.006381787 -0.013047173 0.012536637
000110 97 cb 40 3d 9d b0 c9 3c 38 6d 0f 3b cd 03 4a bc
       0.04706916 0.024620349 0.0021885168 -0.012330008
000120 34 30 16 3d 83 13 6f bc a6 b8 77 3c d5 26 1c bd
       0.036667064 -0.014592054 0.015119707 -0.03812297
000130 01 38 9d 3a 53 b9 88 bb cf 31 cc bb f3 9c 14 3d
       0.001199484 -0.004172483 -0.0062315236 0.03628249
000140 b1 6e ce 3c 22 7a a8 3b c6 7f 08 bc 35 fa 16 3d
       0.025199266 0.0051415125 -0.008331245 0.03685971
000150 18 75 e4 3c dc ca f0 3c 6d 4f 32 3d fb 16 51 bc
       0.027887866 0.029393606 0.043532778 -0.012761827
000160 1d 4a 0e bd 59 9f 6c 3c a7 e0 40 bd 41 d5 ae bc
       -0.03473865 0.014442288 -0.047089245 -0.021341922
000170 49 15 41 3d 78 09 91 3c fc 95 3f 3d ef ee 6c 3b
       0.04713944 0.01770471 0.046773896 0.0036153158
000180 a2 ff a8 3a 94 9c a1 bc 1d 68 3a 3d 2e 02 93 bc
       0.0012893567 -0.019727983 0.045509446 -0.017945375
000190 99 2a b4 3c 64 15 b5 3c 02 0b 1b 3b e4 08 df bc
       0.021992968 0.022104926 0.0023657684 -0.027225919
0001a0 b0 b5 1a 3d 6c 26 96 bb cd d6 40 3d 89 cc 50 3c
       0.037770927 -0.004582217 0.04707985 0.0127440775
0001b0 cc f2 ab 3c a5 41 0b 39 ee b2 f8 3c 66 3c 8d 3b
       0.020989798 0.00013280527 0.030358758 0.0043101786
0001c0 97 f9 08 bd 8d 86 06 3d 50 06 f0 bc dc f4 b7 bc
       -0.033441152 0.03284316 -0.029299885 -0.022455625
0001d0 fd e8 04 3d dc 0a 14 bd b3 1a 39 bc 49 22 1f 3d
       0.032448757 -0.03614317 -0.0112978695 0.038851056
0001e0 84 46 14 3a ce d3 3e bd dd bf 5b bc 00 c6 99 ba
       0.00056562596 -0.04658871 -0.013412443 -0.0011731982
0001f0 ec cc 6f 3d ae 19 ab 3c 9c 31 1a bb 7c 63 c6 bc
       0.058545038 0.020886268 -0.0023528105 -0.02421736
000200 3f e4 d4 3c aa d4 a8 3c d5 94 3b 3c 00 a7 a8 bb
       0.025987742 0.020609219 0.011449059 -0.005146861
000210 c7 96 45 bb a2 53 7b 3d d5 77 5d 3d 98 b4 12 3d
       -0.0030149685 0.061359055 0.05406936 0.03581676
000220 18 d0 e1 3c 31 45 03 3c b9 48 d0 3c b5 ea 9f bc
       0.027565047 0.008012102 0.025425302 -0.019521097
000230 e5 3e 16 3d 11 12 50 3c f3 d8 52 3d af 11 00 3d
       0.036681075 0.01269962 0.05147643 0.031266864
000240 a9 38 21 3d 8d db 67 bc b3 81 2c 3d 2d a3 03 3b
       0.039360676 -0.014151466 0.04211588 0.0020086274
000250 92 87 49 3c c8 21 13 3c 13 96 3f 3c be 70 6d 3c
       0.012300389 0.008980222 0.011693495 0.014492212
000260 ca 34 7d 3c 02 c2 85 bd 84 bf 3c 3b 27 a7 02 3d
       0.01545448 -0.06531145 0.0028800676 0.03189769
000270 92 4c a5 3b 63 4e 81 3d f0 cf 98 bc 28 1e bc 3c
       0.0050445283 0.06313779 -0.01865384 0.022963598
000280 52 b0 10 3c a0 8c 45 bb 77 91 7c 3c e3 5e 03 3d
       0.008831101 -0.0030143633 0.015415541 0.032072913
000290 07 f7 50 3c c2 2f a1 bc 09 10 25 3d 19 82 7f 3c
       0.012754208 -0.019676093 0.040298495 0.015594983
0002a0 3f b4 f2 3c e3 0f f7 bc 12 9f 8f bc 43 6a 68 b9
       0.029626964 -0.030158943 -0.017531905 -0.0002216483
0002b0 27 6f bd bc 16 a5 1a 3b 3c f7 09 3d 51 49 16 3d
       -0.02312429 0.0023596934 0.033683047 0.036691014
0002c0 a8 02 2c 3c ef d3 8d bd 6e 36 04 3c 58 ea 29 3d
       0.01049868 -0.06925189 0.008069618 0.041483253
0002d0 d5 98 13 3c ce d2 d8 3c 59 21 1f bd a4 c4 c7 3c
       0.009008606 0.026467707 -0.038850162 0.024385758
0002e0 8a 78 de 3c f1 a2 cf bc a7 2c 1e 3c 60 ab 34 bd
       0.027157087 -0.025346251 0.009654201 -0.04410875
0002f0 db c1 bd 3c 55 4c e9 ba 88 d0 30 3c ea a0 c0 3c
       0.023163727 -0.0017799238 0.010791905 0.02351423
000300 09 a5 6f 3c e4 28 b0 3c 29 2c a7 3c 77 22 50 bb
       0.01462675 0.021503873 0.0204068 -0.0031758824
000310 6d 38 e8 3c 4f 93 e0 3c d6 df 34 3c 05 cd f0 bc
       0.028347218 0.027413992 0.011039695 -0.029394636
000320 c0 79 de 3c 6d 64 80 bb 2e df 68 3c 61 71 e0 bc
       0.027157664 -0.0039182217 0.014213366 -0.027397813
000330 5a 28 c6 bc 3d 65 dd bb 29 56 2d 3c c4 11 30 bc
       -0.024189163 -0.0067564533 0.010579624 -0.010746423
000340 e4 ea f2 3c a6 1c 05 3d 58 8a fa 3c af 75 48 3c
       0.02965302 0.032498024 0.030583546 0.012235089
000350 56 69 69 3c da e9 17 3b 1f e3 07 3d 6d 23 bd bc
       0.014246305 0.0023180158 0.033175584 -0.023088181
000360 83 17 30 bd e3 ac 4f 3c 1d 9c 0e bd 93 6f 02 bc
       -0.042991173 0.012675497 -0.03481685 -0.007961172
000370 04 55 e0 39 f0 6d e3 bc c2 00 76 3d 09 be 20 3d
       0.0004278795 -0.027762383 0.060059316 0.03924373
000380 72 ab 93 3c 79 36 80 bd 86 f3 55 3c 30 a2 77 bc
       0.018026087 -0.0626039 0.013058549 -0.015114352
000390 42 27 10 3c 2f 16 9b 3c a9 ce 72 3b eb fc 00 bd
       0.008798422 0.018931476 0.0037049449 -0.0314912
0003a0 76 70 cf 3c e9 ff 62 3c 20 3d d2 3c 1d aa 62 bc
       0.02532218 0.013854959 0.025663912 -0.0138345035
0003b0 65 8a e6 3c 98 53 ae bc a9 1f 97 3c f8 b6 3a 3d
       0.028142164 -0.021280095 0.018447714 0.04558465
0003c0 79 8c d7 bb 72 5f 4d 3d dc fb 6f bb d7 f5 06 bd
       -0.006578025 0.050139852 -0.0036618626 -0.032949295
0003d0 ac 33 6a 3a 6e a9 02 bd 86 12 72 bb f2 bc b4 3c
       0.00089340913 -0.031899862 -0.003693731 0.022062752
0003e0 a8 84 52 3d c0 95 a7 bd 54 40 fb bc 2f d6 e8 3b
       0.051396042 -0.081828594 -0.030670322 0.007105611
0003f0 7f ee 43 3d 87 e1 e2 3c c9 b4 15 bb 26 ec f6 3a
       0.04783487 0.02769543 -0.0022843352 0.0018838688

action_model._discrete_distribution.branches.0.bias f4 [5]
000000 2e 67 1c 3c 19 a5 07 3c 32 64 3b 3b f4 98 78 bb
       0.009546084 0.008279108 0.0028593657 -0.0037932964
000010 da 32 68 bc
       -0.01417228
