Assets/Brain/Tests/Pronto2.onnx (onnx, 110572 bytes, 9 tensors)

network_body._body_endoder.seq_layers.0.weight f4 [128, 64]
000000 de 19 26 bc 6c 8c 24 bd cd db 70 bd f9 54 29 3e
       -0.010138003 -0.04017298 -0.05880337 0.16536321
000010 88 ec 3b bd 37 38 9d be d2 d0 45 3e f8 68 05 be
       -0.04587987 -0.3070695 0.1931794 -0.13028324
000020 40 10 0f 3e 9c 74 2d 3e d3 cf 0b be 8f be 01 3e
       0.13971043 0.16939014 -0.13653497 0.12670349
000030 c5 ef 2a 3e bb 67 67 be 8f 01 31 be 57 fd 47 be
       0.16693027 -0.22598164 -0.17285751 -0.19530235
000040 53 48 5a bd 0a fe 03 be 73 46 06 3e 8a b0 e2 bd
       -0.05329163 -0.12889877 0.13112812 -0.110688284
000050 b1 3f 09 bd b9 ad c9 bc 4b 22 b2 3e 05 30 08 3e
       -0.033508006 -0.02461897 0.34791788 0.13299568
000060 fe 56 14 be 9f 9b ad be db 00 dc bd 97 4f ba 3d
       -0.1448631 -0.33907792 -0.10742351 0.09097212
000070 3f 80 f2 3b d8 96 2e 3c df fe 6c bc ac 2f 52 be
       0.007400542 0.010656081 -0.014465063 -0.20525998
000080 8d 25 31 3e e9 7b 8e bd 70 fb 63 3e a4 af 0b 3e
       0.1729948 -0.06957228 0.22263885 0.1364122
000090 ed 75 9e 3d e5 4e 01 bd 11 34 b5 bd 75 be c5 3c
       0.07737336 -0.03156938 -0.088478215 0.024138669
0000a0 b8 60 37 be 46 b1 75 3e 26 88 9f bc 2d 54 13 be
       -0.17907989 0.23993406 -0.0194741 -0.1438758
0000b0 fd 14 dc bc 9a d1 1d be d7 f0 71 bd c3 a5 48 3e
       -0.026865477 -0.15411988 -0.059067573 0.19594483
0000c0 20 b9 b8 3d 0d 6f da 3d 83 f6 2f 3e 72 0d c2 3d
       0.09019685 0.106657125 0.1718388 0.09475221
0000d0 5b 89 9e 3d 12 36 e1 bd 75 22 83 3d 9b a4 34 3d
       0.07741042 -0.10996641 0.064030565 0.044102293
0000e0 f6 db 4d be 38 fc 52 be c4 e4 07 3e 91 14 bd bc
       -0.2010344 -0.20604026 0.13270861 -0.023081096
0000f0 35 d3 aa bd e4 82 e6 3d 4c 78 4f bd 32 24 09 3e
       -0.08341066 0.11255434 -0.050651833 0.13392714
000100 94 31 29 3e 41 18 87 bd 9a 9a 9c bd f8 ef c0 3d
       0.16522819 -0.06596423 -0.076466754 0.094207704
000110 2b 66 5b 3e f7 24 89 bd 92 b5 e2 3d 8d 67 0d be
       0.21425693 -0.066965036 0.11069788 -0.13809033
000120 27 9b a4 3e 7b f7 22 be da 7b 62 3d bd 06 2d bd
       0.32149622 -0.15914719 0.055293895 -0.042242754
000130 31 ee cb 3d e7 a2 ff bb 80 fd 49 3e 2c dc 37 bd
       0.09957541 -0.007801402 0.19725609 -0.044887707
000140 04 94 fe 3d b0 9d 9b 3d 31 58 c3 bd f4 1e e5 3d
       0.124305755 0.07598436 -0.095383056 0.111875445
000150 b8 a9 56 3c 98 89 5a bd a0 85 04 3e 7f 3e df bd
       0.013101988 -0.053353876 0.12941599 -0.10900592
000160 c4 8e 57 3d 3b 08 13 be b1 58 02 3d c0 df 00 3d
       0.052626386 -0.14358608 0.031822864 0.031463385
000170 2a 86 8b bc 71 17 72 be a7 33 ed b9 22 99 a4 bd
       -0.017031748 -0.23641755 -0.00045242647 -0.0803702
000180 3b ff f9 3d da 99 b4 3d 99 f8 22 be 01 9e 09 be
       0.122068845 0.08818407 -0.15915145 -0.1343918
000190 20 5c 12 3e 55 41 9e 3b 3f 2f 99 bd 21 64 08 3d
       0.14292955 0.0048295655 -0.074797146 0.033298615
0001a0 0e c2 91 3c e0 f7 26 3e fc a5 a8 3d f6 15 24 bd
       0.017792728 0.16305494 0.08234784 -0.040060006
0001b0 e7 ee 22 3d d4 3d e5 bd 09 06 fb bd f5 98 7e 3e
       0.039778616 -0.111934334 -0.122570105 0.24863036
0001c0 65 7c c1 3d bc e6 44 3e f3 c6 a9 bd 32 15 d1 3d
       0.094475545 0.19228643 -0.082899 0.10209121
0001d0 d0 75 66 3d 69 c2 29 3e 74 ba 33 3e cd ed 6f 3e
       0.0562647 0.16578068 0.17551595 0.23430558
0001e0 58 5a d9 3d 45 ce 35 be 46 e8 ba bd 42 95 59 bd
       0.10612935 -0.17754467 -0.09126334 -0.05312086
0001f0 e9 eb d2 3d 6d b0 ab bb 1f 39 bc 3d a9 c2 c6 3d
       0.102989025 -0.0052395375 0.091905825 0.09705097
000200 a1 73 d8 3d a9 55 54 bd 5f 53 46 3e 8e 29 ac 3d
       0.105689295 -0.051839504 0.19367741 0.084063634
000210 ef f0 9a bd 5b 24 86 3d 4a bc 29 be de b7 4e 3c
       -0.07565486 0.06549903 -0.16575733 0.01261708
000220 d4 0d bc 3d 57 b4 a6 bd b2 cf 94 3e 27 cd 83 bd
       0.09182325 -0.08139866 0.2906471 -0.06435614
000230 58 01 ad 3c c5 da 80 bd 73 42 93 bd 84 99 24 bd
       0.021118805 -0.06291727 -0.071904086 -0.040185466
000240 8d 6a ba 3d d2 61 9d bd aa d2 72 be fb b9 d2 3b
       0.09102354 -0.07684673 -0.23713174 0.006430862
000250 3d ab 57 3d 4c df d8 bd 13 52 87 3e d6 78 25 3e
       0.05265354 -0.105894655 0.26429805 0.16159377
000260 06 7b 4c be 13 d2 8f bd bd 17 35 be c8 e7 86 be
       -0.19968805 -0.0702249 -0.17684837 -0.2634871
000270 b7 03 35 3e 63 7f 3e be 0c df 12 be db 5c d0 3d
       0.17677198 -0.18603282 -0.14342898 0.10173961
000280 80 40 fa 3c 76 13 6e be b8 75 41 3d 72 98 a7 bd
       0.030548334 -0.23249611 0.047231406 -0.081833735
000290 ce 4b 1d 3c 6c fd d7 3d 9e 58 06 bc 5f 0d b4 bd
       0.009600593 0.10546383 -0.008199839 -0.08791613
0002a0 e5 07 21 3e 1f 3d 2d 3c 2d 02 86 3b 87 ba 04 bc
       0.15725668 0.010573654 0.004089615 -0.008101112
0002b0 1b 69 8c 3d bb 87 2f be a9 8a 50 bd 85 f3 2c 3e
       0.06855985 -0.17141621 -0.050913487 0.1688977
0002c0 32 7e da bd 51 6b ef 3c 31 c2 0b 3c 82 f7 ac 3c
       -0.10668601 0.029225977 0.008530186 0.021114115
0002d0 af a1 42 3d 53 fd de bd 2f da ec bc 4b be 5e 3e
       0.047517475 -0.108881615 -0.028912632 0.21752279
0002e0 45 43 75 3d 5a a4 b4 3d c3 64 7e 3c 0d fb cd bd
       0.059878606 0.0882041 0.015526953 -0.1005765
0002f0 af a5 52 bc fd c4 4c be d6 42 f5 bc 70 8d ef bd
       -0.012856885 -0.1999702 -0.029939096 -0.11696899
000300 fa 86 14 bd a9 b7 4f bd 88 7c a3 3d f8 83 93 bd
       -0.036261536 -0.05071226 0.07982737 -0.072029054
000310 6c bd 6b be 25 1e c3 3e 5e ed d6 3d 34 a0 cd be
       -0.23021477 0.38108936 0.10494493 -0.40161288
000320 8d 33 3b 3e 0b 35 e0 3d 62 8d c8 bc 16 74 07 3e
       0.18281384 0.10947617 -0.02448148 0.13227877
000330 99 f6 a3 bd e9 ca 9e bd 65 e6 a8 bc 8c 73 6b 3e
       -0.08006019 -0.07753546 -0.020617673 0.22993296
000340 c7 24 48 3d fe f1 52 3e d8 a0 e1 3d ee 99 25 be
       0.0488632 0.20600125 0.11017007 -0.16172001
000350 b1 d4 95 bd 45 9a ad 3d e8 3b 91 3e 8e 3e 85 bc
       -0.07315958 0.0847669 0.28366017 -0.01626518
000360 c2 ef 84 3d 93 16 2d bd 4b 4f cd 3d d0 aa c9 bd
       0.06491043 -0.042257857 0.100248896 -0.09847033
000370 c0 ec b7 3d cf c2 81 3b 06 67 c0 3d 8b a7 89 bd
       0.08980703 0.0039599906 0.0939465 -0.067214094
000380 8c 81 f9 3d 46 ab 1e be 32 75 d7 3d 5e eb 1c bd
       0.12182912 -0.15495023 0.105204 -0.0383104
000390 b3 f1 eb bc 91 49 a5 bd 8d e9 20 bc c1 d0 1f bd
       -0.028801775 -0.08070672 -0.009821308 -0.039017443
0003a0 62 f6 c4 bc b3 d7 06 be e7 c6 0d be bd ce 0f 3e
       -0.024043266 -0.1316822 -0.13845406 0.14043708
0003b0 75 63 d4 3d d7 30 18 be e3 2d ca bd 75 d4 32 3c
       0.103705324 -0.14862381 -0.098720334 0.0109149115
0003c0 14 75 a5 bb 1f 73 87 be bc c4 18 bd 61 82 9e 3d
       -0.005049357 -0.26455018 -0.037296996 0.077397116
0003d0 81 58 ab bc 75 44 ac 3d 5f 9f 17 3e b0 5a 3a 3d
       -0.020916225 0.08411495 0.14806889 0.045496643
0003e0 27 ac 2d be 1c 81 98 be 40 85 01 3d f5 d7 51 bd
       -0.16960202 -0.29786003 0.031621218 -0.051231343
0003f0 b0 0e e0 3c a2 fa 87 bd 12 ef 18 3d 8b c6 c1 bd
       0.027350754 -0.06639601 0.03733737 -0.09461697

network_body._body_endoder.seq_layers.0.bias f4 [128]
000000 fe 9a bc 3c 31 8e 89 3c f2 65 ad ba b2 e3 65 3c
       0.023023125 0.016791435 -0.0013229235 0.014031338
000010 c4 b4 88 3c 8b 26 d8 3c 9e 92 32 3d d3 9b 45 3c
       0.016687758 0.026385566 0.043596856 0.012061077
000020 23 e6 b6 3c af 92 bf 3c 78 1f c6 3c db 00 57 ba
       0.022326535 0.023385374 0.024184927 -0.00082017266
000030 83 b9 cf 3b bd 8a f3 3c 1b 2a 2e 3d 3e 0b 88 3a
       0.0063392534 0.029729242 0.042520624 0.0010379327
000040 35 ec ce bc c3 fe b2 bc ab 29 b1 3c a2 2b 82 3b
       -0.025259117 -0.021849995 0.021626314 0.0039724866
000050 96 26 9c 3c b4 76 33 3b 5c 85 f1 3c cc 71 d4 3c
       0.019061368 0.0027383985 0.029482536 0.025933169
000060 b0 fc 53 3b fe 4b d0 3c c3 6d b7 3c bf 78 06 bc
       0.0032346658 0.02542686 0.022391206 -0.008207499
000070 e4 27 96 3c 3f 8e 93 3c 18 88 13 3c da 9a dc 3b
       0.018329568 0.018012164 0.009004615 0.006732327
000080 56 90 a5 bc 81 da c1 3c ec ad 4d bb 21 55 d4 3c
       -0.020210426 0.023663761 -0.0031384183 0.025919499
000090 02 a5 1c 3c c5 08 1d 3d 6b 78 ba 3c 5b cf 63 3c
       0.009560825 0.03833844 0.022762498 0.013904418
0000a0 4b cf 6d 3c 99 2a 0b 3d a6 cd 5b 3c f0 40 d7 bb
       0.0145147545 0.03397617 0.01341573 -0.0065690205
0000b0 0f 5f 93 bb 47 2e ed bc c6 9b 24 3c 2b ff 91 3c
       -0.004497416 -0.02895273 0.010046905 0.017821869
0000c0 99 04 a4 3c a8 df 00 3d 8d f0 d3 3c bf fa 0c 3d
       0.020021724 0.031463295 0.02587154 0.034418818
0000d0 c4 b3 2d 3d b4 4a bd 3c e5 d1 08 3b 5e 0b 1c 3b
       0.042407766 0.02310691 0.002087706 0.0023810486
0000e0 f3 57 72 3c dd fb 83 3c a6 5e 16 3d 91 72 39 3c
       0.014791477 0.016111309 0.036711358 0.011318819
0000f0 c5 00 c7 bc f5 f9 53 3c b4 e1 f1 3c 2b f9 d4 3c
       -0.02429236 0.012938012 0.029526569 0.025997719
000100 75 73 0a 3d 47 9f c3 bb 44 ea 06 3d 20 b8 71 bb
       0.033801515 -0.005969915 0.032938257 -0.0036883429
000110 41 fa 07 3d 4b 19 9b 3c 3c e4 31 bc a8 04 cc 3a
       0.033197645 0.018932959 -0.010857638 0.0015565353
000120 cf d2 cd 3b 22 6f 49 39 89 67 9e 3c 63 0f 0b 3d
       0.006281234 0.00019210254 0.019336479 0.03395022
000130 b0 01 7a 3c ac 09 2b 3c 1d 11 09 bc 12 b7 88 3b
       0.015259191 0.010439318 -0.0083658965 0.0041722143
000140 ec 88 32 3c fb 95 30 bb 19 43 99 bc 7e 21 f3 3c
       0.0108969025 -0.0026944864 -0.018708752 0.029679056
000150 23 6b 12 3d f0 12 a9 3b 56 a3 8a 3c 5a 8e be 3c
       0.035746705 0.005159728 0.016923588 0.023261238
000160 64 f9 30 bd b4 bb 69 3b b9 3d a4 3b 6a 62 a7 3c
       -0.043206587 0.0035664858 0.0050122407 0.02043267
000170 a0 b7 df 3c 8d f4 84 3d c5 fe 48 3c b3 b0 60 3c
       0.027309239 0.06491957 0.012267773 0.013714003
000180 63 91 c3 ba 3e b7 81 3c 98 12 2d 3d ea c0 3d 3c
       -0.0014920648 0.015834447 0.04225406 0.011581639
000190 47 a5 e0 3c 7e e6 25 3d 29 d5 54 3c c3 41 a5 3c
       0.02742256 0.040503018 0.0129902745 0.02017296
0001a0 5b d1 74 3c 14 f3 8b 3c 3c fd 61 3c a4 4a 8b 3b
       0.014942492 0.017083682 0.013793286 0.004250841
0001b0 12 96 33 3d 3e 06 98 3c 6d 0b 83 3c f4 ad 96 3b
       0.04384429 0.018557664 0.01599666 0.0045983735
0001c0 63 3f 99 3c 01 7d 8e 3c 81 04 55 bc 49 97 0a bb
       0.018706983 0.01739359 -0.013001562 -0.0021147302
0001d0 b8 90 b3 3b 34 04 44 3d 97 96 fa 39 80 05 6f 3a
       0.0054798983 0.04785557 0.00047795914 0.0009117946
0001e0 a0 ce 15 3c 98 72 a6 3c d6 04 26 3a 43 82 44 3d
       0.0091435015 0.020318314 0.0006333118 0.04797579
0001f0 8f 55 c8 3c 4d 58 1d 3c b9 01 bb 3c 94 70 df 3c
       0.02445486 0.009603572 0.02282797 0.027275361

network_body._body_endoder.seq_layers.2.weight f4 [128, 128]
000000 8b a0 a8 3d c1 ed fb bd ef 03 6d bc 52 00 40 bd
       0.08233746 -0.12301207 -0.01446627 -0.046875305
000010 fe 00 ee bc bb 0e b1 bc ad 75 42 bd 72 41 8a 3b
       -0.029053207 -0.02161347 -0.047475506 0.0042192275
000020 5b 4f 65 3d 34 2b 51 3e 9e 80 32 be 1f aa fe 3d
       0.055983882 0.20426637 -0.17431876 0.12434792
000030 bf 0a d0 3d 3d 1c 40 bd ed e6 1b 3c b5 e7 e0 3d
       0.101583 -0.04690193 0.009515506 0.109816946
000040 6c 33 fb 3d 57 ed 80 3c 2b b2 35 bd dd f4 5f 3d
       0.12265667 0.015738172 -0.044359367 0.05467688
000050 15 15 fd bd 69 f0 b8 bd d3 e7 63 3c b1 01 00 be
       -0.12357537 -0.090302296 0.013910252 -0.12500645
000060 78 82 2a bd 97 bd 1a be 18 bf ed bd 9f 22 71 3d
       -0.04162833 -0.15111385 -0.11608714 0.058870908
000070 4e 4a 8b bb b0 79 93 bb e6 80 da bd cf 35 94 3c
       -0.004250801 -0.0045005903 -0.10669117 0.018092064
000080 87 f9 74 be 2c 42 85 bc 11 f2 66 bc 24 de b1 bd
       -0.23923312 -0.016266905 -0.014095799 -0.08684948
000090 13 d6 25 3d 65 a9 7b 3d 7d 67 e8 bd f4 3a f3 3d
       0.04048736 0.061440844 -0.11347864 0.11876479
0000a0 91 4a 73 bd ea ff cc bc 57 2d 36 bc ac f4 dc bc
       -0.059397284 -0.025024373 -0.011119208 -0.026972137
0000b0 d6 14 02 be 2b a8 8f 3d ac ba 01 bc ab 39 3d be
       -0.12703261 0.07014497 -0.007918041 -0.1847903
0000c0 06 95 04 3e 6d 2c fd bc 7a 7f b3 3c 9b d1 02 3d
       0.12947473 -0.030904973 0.021911371 0.031938177
0000d0 e6 04 13 bd c6 eb 8f 3d be 78 3f be 69 c2 c3 bc
       -0.035893343 0.07027392 -0.18698403 -0.023896413
0000e0 49 d1 12 be 67 ce ca 3d e9 e3 18 be 93 f2 f3 3d
       -0.14337648 0.099026494 -0.14930691 0.11911502
0000f0 5d 7f 29 3d 8e 82 18 3e 90 50 07 be d8 f1 2a 3e
       0.04138123 0.14893553 -0.13214326 0.16693819
000100 ec 8e 86 3d d6 06 ca bc fb 1c 49 be 53 23 fe bd
       0.06570229 -0.024661463 -0.19639961 -0.12409081
000110 41 b8 e2 3c 70 44 ef bd 05 3f 46 bc 5b 15 8f 3d
       0.02767575 -0.11682975 -0.012099986 0.06986495
000120 40 b3 a4 3c 16 c1 a4 3c 1e c2 10 3e ba df 4e be
       0.020105004 0.020111602 0.1413655 -0.20202532
000130 a7 bf ea 3d c0 ac b6 3c 24 c2 fe bc 78 7a fc bd
       0.11462336 0.02229917 -0.031098433 -0.123280466
000140 3c d6 fb bd 12 8c 04 3e e0 84 17 3d 0c ae 8d bc
       -0.12296721 0.12944058 0.036991954 -0.017294906
000150 d2 19 5d 3d 4c 06 04 3e 51 22 e8 bd 90 58 e9 bd
       0.053979702 0.12893027 -0.1133467 -0.11393845
000160 07 f6 33 3d 50 58 8d 3d d5 af a7 bd c1 63 1a 3d
       0.0439358 0.0690161 -0.08187834 0.03769279
000170 b5 c4 09 3e c1 b3 ba bd 19 eb 8c bd 42 85 1d 3d
       0.13453944 -0.091163166 -0.06880779 0.038457163
000180 3c 0f 18 bd 19 c2 83 bd 2a 22 1e bd 96 83 d5 3d
       -0.037123904 -0.064335056 -0.0386068 0.10425489
000190 d2 8d f8 3d 48 a2 ae 3d 09 5e bd bd 2b 0d 28 be
       0.12136425 0.085270464 -0.092464514 -0.16411273
0001a0 cb 62 cb bc da 5c 1c bb e4 f5 8e bd 9a 9c 9f 3c
       -0.024827382 -0.0023859055 -0.06980494 0.019483853
0001b0 a4 5a 33 3d a4 df 43 be 0c 7e 91 3d a5 7c 5a 3e
       0.043787614 -0.19128281 0.0710412 0.2133661
0001c0 e5 39 86 bc f4 86 c6 3d c4 80 9d 3c af 80 6c bd
       -0.016385028 0.09693709 0.01922644 -0.05773991
0001d0 41 49 2f 3e a6 d7 0a bd 92 ef 07 be e4 dd 4d bd
       0.17117788 -0.033897065 -0.13274983 -0.05026044
0001e0 d2 ad 3a 3e eb 4e 42 bd 46 20 12 bc a2 d9 e8 3d
       0.1823037 -0.047438543 -0.008918827 0.11369635
0001f0 52 9c 59 3d 06 35 a6 3d 08 b4 78 3d 81 99 1e 3e
       0.053127594 0.08115582 0.060718566 0.15488245
000200 51 bc 3c 3d b5 ba 85 3d f1 35 a3 3c 90 4e d7 3d
       0.04607803 0.06529752 0.019923182 0.105130315
000210 26 d9 e4 bd f2 3d 05 be 1c 42 60 3d b7 62 7a 3c
       -0.1117423 -0.13011912 0.054750547 0.0152823245
000220 59 ec 2c bd 05 0b 8d 3d 28 60 45 3e 6c ea 0e 3e
       -0.042217586 0.068868674 0.19274962 0.13956612
000230 31 f1 b7 bb 30 16 3a bd 7f 6d cd 3c 71 47 f9 bd
       -0.005613469 -0.045431316 0.025076626 -0.121718295
000240 0b bf 44 be ad be fe bd c7 21 0a be 92 14 ca 3d
       -0.19213502 -0.12438712 -0.13489448 0.09867205
000250 95 60 f6 bb b9 8e 03 3a 70 ad 9f 3d 87 f3 a0 3c
       -0.0075188377 0.0005018521 0.077967525 0.019647373
000260 fb ed 16 bd a9 a6 88 3d 09 cc cd bb da 4f 09 3e
       -0.03684805 0.06672413 -0.0062804264 0.13409367
000270 35 24 dc 3d 17 38 4d 3c ef 1d 0c be 99 6b 7b 3d
       0.107490934 0.01252558 -0.13683294 0.06138191
000280 0a aa aa bd a3 04 12 3e 69 64 02 3e ce 7a 35 bd
       -0.083332136 0.14259581 0.12733616 -0.04430657
000290 89 7f 4c bd 64 f8 e2 bd 03 d3 db bc 04 08 b0 bd
       -0.049926315 -0.11082533 -0.026834017 -0.08595279
0002a0 d1 c9 ed bd 97 e9 1c be 0c 42 0b bc a0 db e2 bc
       -0.11610759 -0.15323482 -0.0084996335 -0.027692616
0002b0 99 23 69 bb 32 44 8c 3d 94 29 37 bd ab 2f 4f 3c
       -0.0035574196 0.06848945 -0.044717386 0.012645642
0002c0 a0 09 04 bd f9 7a d3 bc 81 a0 60 3c b4 90 a6 3d
       -0.03223574 -0.025815474 0.013710142 0.08133069
0002d0 df 7c 01 be 4e f0 35 3e a4 38 59 3e a4 d0 aa 3a
       -0.12645291 0.1776745 0.21213013 0.001303215
0002e0 d9 64 32 ba 7a ba c1 3d 6b d9 48 3d d3 6a 3f bd
       -0.00068051886 0.09459396 0.04903547 -0.046732735
0002f0 8a c4 b0 3d 10 82 68 3d 54 64 b5 3c 19 6c f2 bc
       0.08631237 0.056764662 0.022142567 -0.02959256
000300 20 ed d2 3b 1c 1a f0 ba 1d 57 0c bd 9e 4d 71 ba
       0.006436959 -0.0018318328 -0.034262765 -0.0009204986
000310 f5 e0 0e be 9a 27 63 bd e6 66 3f 3d e3 7e 15 3e
       -0.13953002 -0.05545769 0.04672899 0.14599185
000320 5b 60 9b 3e 27 74 9a bd ec d0 0d 3e fb 39 9b bb
       0.3034695 -0.075416856 0.13849229 -0.0047371364
000330 be c1 9e 3d 80 e9 88 bd f9 1f e1 bd 72 f9 01 3b
       0.07751797 -0.066851616 -0.109924264 0.001983252
000340 95 8c 61 bc f6 bd fc bc f1 85 a5 3c 75 cd bb 3d
       -0.0137664275 -0.0308523 0.02020547 0.09170047
000350 ba 52 a3 3c 78 79 e6 bc 55 2e 9d bb c9 d8 3f 3e
       0.019936908 -0.028134093 -0.004796783 0.1873504
000360 2c 95 e4 bc 7c 12 95 3d 9e c2 9e bc a3 d9 82 bb
       -0.027903162 0.07278916 -0.01937991 -0.0039932295
000370 4b 71 b0 3d 2f 21 fa bc 8b 29 43 bd db ab 59 be
       0.08615359 -0.030533401 -0.04764704 -0.21256964
000380 00 c0 c3 3d ed aa c6 3d 04 ca c9 bc c8 da 44 bd
       0.095581055 0.0970057 -0.024632461 -0.04806021
000390 c8 86 55 3d 0c 92 f7 3d 19 29 85 3d a7 89 b8 bd
       0.05213049 0.12088403 0.065019794 -0.0901063
0003a0 fc 38 e5 3d 8c 3a 36 3d 42 6c 6c bd 75 b6 fc bd
       0.111925095 0.04448943 -0.05772043 -0.123394884
0003b0 f2 1c cf 3d aa 41 ae bd b1 ad 9f bd 5f e8 64 bd
       0.10112943 -0.08508618 -0.07796801 -0.05588567
0003c0 1e 75 68 3d 6f 9c 15 be 78 77 49 be 1c 90 31 3d
       0.056752317 -0.14610456 -0.1967448 0.043350324
0003d0 6f 02 bb bd d6 ce 18 3e 6a 2b 88 bd 0a 2e a4 bc
       -0.091313235 0.14922652 -0.066489056 -0.020041484
0003e0 84 88 bc 3d a8 38 2d 3e 2a 18 89 3d a6 e8 b3 bc
       0.09205726 0.16916144 0.06694062 -0.021961521
0003f0 63 5b f9 3d 65 57 e1 3a 0f 53 97 3d aa 19 7a bd
       0.12175634 0.0017192183 0.07388889 -0.06105963

network_body._body_endoder.seq_layers.2.bias f4 [128]
000000 9c 38 f0 bb 81 6b 7e 3c 1b 45 48 3c 98 65 d6 3c
       -0.007330967 0.015528561 0.012223507 0.02617149
000010 70 47 3e 3c 54 57 b0 3b b8 b1 c2 3c 50 68 51 3a
       0.011613712 0.005381504 0.023766384 0.0007988261
000020 e7 f3 ba 3c 0a 13 19 3b 8f 53 4e 3c 88 c4 25 3b
       0.02282138 0.0023357295 0.012593164 0.0025294144
000030 85 56 b2 3c 12 f1 68 3c d5 55 9b 3b 05 77 02 3c
       0.021769771 0.014217632 0.0047404566 0.007962947
000040 f4 6b 32 3c 93 dd 56 bb 21 6b 94 bb 6e 80 69 3c
       0.010889996 -0.0032785877 -0.0045293723 0.014251811
000050 3c 1d 05 bb c0 0b e1 3b 4a f0 22 3c 5c e8 ab 3c
       -0.0020311614 0.006867856 0.009944985 0.020984821
000060 93 23 55 3c 99 55 8a 3c 22 26 4d bc 54 38 d4 3c
       0.01300897 0.01688652 -0.012521299 0.025905766
000070 5d 2c 63 3c b7 a3 02 3d 75 3d cd 3b 32 6e b0 3c
       0.0138655575 0.031894412 0.0062634298 0.02153692
000080 e3 99 a1 3c 06 20 85 3c 8a ce 94 3c 3b a9 89 3c
       0.0197267 0.016250622 0.018164892 0.016804328
000090 65 14 8f 3c f3 be 64 ba 40 0a f5 3c 90 74 ad 3c
       0.01746578 -0.00087259634 0.029912114 0.021173745
0000a0 89 c2 10 bc e8 6e 55 3b 8c c1 c3 3b 61 b6 6d bc
       -0.008835443 0.0032567326 0.0059740003 -0.014508815
0000b0 c7 5e 53 3c 2b dd 48 3d 01 65 c6 3c 4f 7b 2e 3c
       0.012901015 0.049039047 0.024218084 0.010649516
0000c0 aa 1d 9a 3a 9d 21 00 3d 2b 7f 5c 3c ed 9a 73 3c
       0.0011758108 0.031282056 0.013458054 0.01486848
0000d0 07 c2 06 3d 9a 85 09 3d d9 4b d3 3b c1 4c 83 3a
       0.032899883 0.033574678 0.0064482507 0.0010017381
0000e0 58 d2 b5 3c 45 7e ab 3c 15 26 19 3c a4 eb 64 ba
       0.022195026 0.020934233 0.009347458 -0.0008732623
0000f0 da ae 0b 3c cb eb 56 3c dc 0f 1b bb ae ef 7c 3c
       0.008525575 0.013117741 -0.0023660576 0.015438003
000100 69 ef 71 3c 91 ad 83 3c e3 e4 05 3c 4b 9d e9 3c
       0.0147665525 0.016073974 0.008172247 0.028517386
000110 19 1d cb 3c 77 85 08 3c 2a 85 59 3c bf 72 7c 3c
       0.024794148 0.008332602 0.013276378 0.015408217
000120 25 da fe 3b 5f 2e a8 3c 9c 5e 8e bc fe 20 a6 3c
       0.0077774697 0.020529924 -0.017379098 0.020279404
000130 71 7b 98 b9 5e c0 90 39 33 a8 d8 3c dc 84 8f 3c
       -0.0002908367 0.00027609145 0.026447391 0.017519407
000140 47 f4 c5 3c 8d f5 fc bb 8c 79 98 3c 93 cf 87 bc
       0.024164332 -0.0077197016 0.018612646 -0.016578471
000150 4e b8 41 3c 3e d1 02 3c 38 0a 29 3d c4 cc fe 3b
       0.011823727 0.007984458 0.04126951 0.007775875
000160 44 be ff 3c ce 2b 5b 3b 68 ee 80 3c fa 42 15 3c
       0.031218655 0.0033442858 0.015738681 0.009110207
000170 4e 32 1b 3d f4 be a7 3c a3 2d eb 3b f4 46 bf 3b
       0.03788977 0.020476796 0.007177071 0.0058373157
000180 49 cd 9c 3b 5e bb b5 3a dc 7e 4a b9 14 0b 88 3c
       0.004785214 0.0013865044 -0.0001931148 0.016606845
000190 86 9b 13 3c a7 48 19 3d c8 b3 7e bb 03 3f dd 3b
       0.009009248 0.037422802 -0.0038864482 0.0067518963
0001a0 7d b9 9b 3c ce 5a 98 3b f8 c6 91 3c a7 9f 62 3b
       0.019009346 0.0046494966 0.017795071 0.0034580023
0001b0 f2 ca 69 3c 5b c5 21 3c 75 70 33 3c cb db 0b 3b
       0.014269577 0.009873713 0.010952105 0.0021340724
0001c0 e6 8d 92 3a 33 43 0d 3c f8 80 03 bc e9 a8 b5 3c
       0.0011181205 0.008621979 -0.008026354 0.02217527
0001d0 fe e7 a2 3c 33 fa dc 3b 6b 91 bd 3c cc ca f8 3b
       0.019886013 0.0067436933 0.02314063 0.0075925346
0001e0 be c5 2c 3c 1c a6 77 3c 08 07 27 3d 15 2b f2 3b
       0.010545192 0.015115287 0.04077819 0.0073903897
0001f0 ee 7d 2d bc 5f 4e 35 3c 51 1d a3 3c 83 1e 1e 3d
       -0.010589106 0.011066048 0.01991144 0.038603317

action_model._continuous_distribution.log_sigma f4 [1, 3]
000000 8b fc fe bc 3d 65 69 bd 49 8b f5 bd
       -0.031126281 -0.056981314 -0.11989457

action_model._continuous_distribution.mu.weight f4 [3, 128]
000000 2c 22 12 3d ac 34 2e 3d 43 ac 48 3c 30 84 15 3d
       0.03567712 0.0425307 0.012248102 0.036503017
000010 20 d3 0a 3d 92 38 59 3c c8 dc 71 bd 94 b1 1a 3d
       0.03389275 0.013258116 -0.059048444 0.037767008
000020 27 52 a3 3d 09 5b 08 bd cf e9 59 bd 37 99 dd bc
       0.07974654 -0.033289943 -0.053201493 -0.027050598
000030 5c 0a ca bd ca f6 6f bc b1 c2 f0 bc b8 b2 02 3d
       -0.09865257 -0.014646241 -0.029389711 0.03190872
000040 9c 51 95 bd 69 a2 a1 bb f2 9f 85 3c a9 c7 42 3d
       -0.072909564 -0.004932691 0.01631162 0.047553692
000050 cc d1 1a bd 89 51 16 bd e5 9b df 3c d4 1d 34 3d
       -0.037797734 -0.03669885 0.027296016 0.04397376
000060 f7 1d 76 3d 5f 75 8d 3d a6 ca 7b 3c d2 64 23 3d
       0.06008717 0.069071524 0.015368139 0.03989107
000070 8d c2 b6 3c 94 80 86 3d c8 b9 4d bd 64 fc 9f bd
       0.022309566 0.06567493 -0.050226003 -0.078118116
000080 ea eb 77 3d da 2e 4b 3b 7a 8a a5 3d 1a ca 5b 3c
       0.06052772 0.0031003268 0.08083053 0.013414884
000090 06 35 65 bd e8 07 9b bc 0e 5e bd bc b5 cf 08 3c
       -0.05595877 -0.018924668 -0.023116138 0.008350302
0000a0 6f d8 88 bc 51 d1 27 bd 37 42 96 3d c8 22 5b bc
       -0.016704766 -0.040971104 0.07336848 -0.013374992
0000b0 48 d0 21 3b 0e eb a0 3d 02 bc c9 bd 22 62 81 3d
       0.0024690796 0.07857333 -0.09850313 0.063175455
0000c0 03 2b c7 3b 2f ee ad bd 87 15 0a bc b4 24 8b bc
       0.0060781254 -0.084926955 -0.008427984 -0.016985275
0000d0 5e 78 99 3d c1 48 21 3d 34 00 c7 3b 4f 27 b7 3b
       0.07493661 0.039376024 0.0060730223 0.0055894027
0000e0 68 56 a1 3d 29 2e 27 bd ae ac 91 bc ea 9a f4 bb
       0.07877809 -0.040815506 -0.017782535 -0.0074647563
0000f0 cf 27 69 3d 44 5f 86 3d 76 81 16 3d 12 19 3a bd
       0.05692273 0.06561139 0.036744557 -0.045434065
000100 7d 5d 47 3d 29 cf 42 bd 35 03 c6 3b 9e 47 71 3d
       0.04867314 -0.047560845 0.006042863 0.05890619
000110 03 56 c3 bd 48 b9 35 3d 29 e4 73 bd 24 3a 5a bd
       -0.0953789 0.04436615 -0.059543762 -0.053278103
000120 84 a5 e7 3c 02 55 aa bd c5 be 8f 3c 70 eb 6f 3d
       0.028277166 -0.08316995 0.01754702 0.05857414
000130 4f 6e 59 3a 3a 95 36 3c 7f c2 5d bd 35 9c eb bc
       0.00082943303 0.011143977 -0.054140564 -0.028761009
000140 3d b3 df 3c 3b 1a 03 3c 5f 31 8e 3d 95 36 ad bc
       0.027307147 0.008001859 0.069430105 -0.02114419
000150 86 eb 86 bd 63 71 77 3d 6d 10 af bd 45 46 64 3d
       -0.06587891 0.06041087 -0.08548055 0.055731077
000160 99 c6 88 bd ad 9f 26 3d af 1b 5e bc 23 87 af 3c
       -0.066785045 0.040679622 -0.013556405 0.021426743
000170 6d 40 b6 bd 36 fb 75 bd 7b 55 8a 37 22 44 2a 3d
       -0.08899007 -0.060054027 1.6490687e-05 0.041568883
000180 89 49 41 3c 09 25 9b 3b f0 0b 08 3d 8a 5b 6e bd
       0.011797317 0.0047346395 0.03321451 -0.058192767
000190 40 0b cb 3c 7c dc 8d bd 3a c2 15 bd 26 e1 b9 bc
       0.024785638 -0.0692682 -0.036562182 -0.022690367
0001a0 6d 25 93 bd 01 0a d3 3c c1 df 21 bc 4a dd 4c bd
       -0.07184873 0.025761606 -0.009880007 -0.050015725
0001b0 c3 57 40 bd 28 64 1b bd fb b3 36 3d 6d 6e 26 3d
       -0.046958696 -0.037937313 0.044605237 0.040632654
0001c0 6b ff 91 3b bd 8b 31 3c 11 aa 0c bb d1 2d 65 3d
       0.004455497 0.010836539 -0.0021463672 0.055951897
0001d0 cd 0c 1e 3d 38 0a 37 bd 05 ff a1 3d 61 a3 8b bd
       0.038586427 -0.04468748 0.07909969 -0.068182714
0001e0 5e 16 9e ba 4b da 7f 3d 0d 93 6e bd f3 e1 b3 3c
       -0.0012061109 0.06246404 -0.058245707 0.021958327
0001f0 75 d7 7f 3b 21 1a 24 3d aa a1 0b 3d 2a e8 05 bd
       0.0039038335 0.04006398 0.03408972 -0.032692112
000200 89 da 2c bc 1a af 92 bd 30 5b 3e bd 62 c1 47 bd
       -0.01055015 -0.07162304 -0.046473682 -0.04876841
000210 d9 68 2b bd 01 23 d5 bc 1d f3 73 3b 11 ad 7e 3a
       -0.041848037 -0.026017668 0.0037223764 0.000971512
000220 16 52 0a bc 05 e9 eb bc 08 5c 3a 3c 98 91 90 bd
       -0.008442422 -0.028797636 0.011374481 -0.0705902
000230 61 bb 37 3d ac 0d 81 bd aa 19 3f bd e5 43 d7 3c
       0.044856433 -0.06301436 -0.046655335 0.026277492
000240 60 8b 33 bd bc f3 83 bd ea af 6d 3c e1 87 fd 3b
       -0.04383409 -0.06442973 0.014507273 0.0077371453
000250 72 d5 3f bd 6f 25 3f bd 36 ed 9b bd fc f9 3a 3d
       -0.046834417 -0.04666656 -0.07613604 0.04564856
000260 d7 fe 09 bd 3f 8f 1c 3c c0 49 9d ba 74 36 4b 3d
       -0.0336903 0.009555637 -0.0012000129 0.049612477
000270 dc 6c 87 3d 70 3a 01 bc 38 9e 3f bc 91 e3 83 3c
       0.0661256 -0.007887468 -0.011695437 0.016099723
000280 ab d7 51 3d ea 3e 4d 3d 79 54 08 bd 47 b2 7a 3d
       0.051231068 0.050108828 -0.033283684 0.061205175
000290 8e 1f 1a 3d 69 ba 18 bc 68 50 c2 3d 1b 45 40 3d
       0.03762775 -0.009321787 0.094879925 0.046940904
0002a0 a8 65 7a bc f9 08 63 ba 67 ad d8 bb 26 7b b9 bb
       -0.015283026 -0.00086607 -0.006612468 -0.0056604324
0002b0 da 8a 8e 3d af 70 da 3c 2a f3 b5 bc 45 5d 08 3d
       0.069600776 0.02666506 -0.022210676 0.033292074
0002c0 ce bf e4 3c f8 e5 e5 3c 9b d4 da 3c fc 61 80 bc
       0.02792349 0.02806376 0.026712706 -0.015671723
0002d0 4d a0 0c bb 5a 57 04 3d 4c 0a 7d 3c 19 41 30 3a
       -0.0021457851 0.032309867 0.0154443495 0.00067235675
0002e0 67 77 ef 3c 39 a9 10 bc ca f8 01 bd 52 61 00 3d
       0.02923174 -0.008829408 -0.031731404 0.031342812
0002f0 6f 71 65 bd b9 e3 93 3c 51 12 04 bd cd ee 4b 3d
       -0.05601638 0.018052923 -0.03224403 0.049788285
000300 78 66 94 bd d5 82 a7 bd a2 dd 29 3d 3d fb 25 bd
       -0.07246107 -0.08179251 0.04147113 -0.040522803
000310 e0 66 6a bc d2 10 95 bd 76 bd c1 bc 77 22 6a 3c
       -0.014306754 -0.07278599 -0.023649912 0.014290444
000320 8d fc f4 3b 21 ec ed 3c 01 64 ff bc 3d 50 2a 3d
       0.0074763955 0.02904326 -0.031175615 0.041580427
000330 cb 36 33 3d cd cb 3a bd f8 0a 41 3d 0c 7b 0c bd
       0.043753427 -0.045604516 0.0471296 -0.034297034
000340 da 03 72 3d 48 a5 70 bd bf 99 a0 bd 27 e6 c0 bc
       0.059085704 -0.058751374 -0.07841825 -0.023547245
000350 97 6a de 3c 7b 24 64 3c 33 c6 01 bc b3 13 ab bc
       0.027150435 0.013924713 -0.0079207895 -0.020883417
000360 67 68 62 3d fe d5 3a bb 14 e9 cf bc 89 58 08 3c
       0.055275347 -0.0028508897 -0.025379695 0.00832189
000370 58 34 f9 bc ed 8d 99 3d 83 da 82 3c 32 ad ae bb
       -0.030420467 0.07497773 0.015973335 -0.005330705
000380 2d d1 66 bd 05 8c cc bc 89 1e 80 bc 0d 63 87 3c
       -0.05635183 -0.02496911 -0.01563956 0.016526723
000390 ee 1a b8 bd f2 e7 e8 3b a2 52 e4 bc 92 af 75 bc
       -0.089895114 0.007107728 -0.027871434 -0.0149954725
0003a0 46 ff d5 bc ba 0f 27 bd df 35 22 bd 8f 24 45 bd
       -0.0261227 -0.040786482 -0.039602157 -0.048130568
0003b0 09 48 0e 3d 88 ed 75 bc 02 b5 15 bd 6a 46 25 bd
       0.034736667 -0.015010245 -0.036549576 -0.040350355
0003c0 6f 99 79 3c 80 11 6a bd b7 9f 16 bd fd 35 a7 3c
       0.015234335 -0.057145596 -0.03677341 0.020411486
0003d0 0c 08 dd bc 3a 42 87 3c 49 10 51 3c d0 30 84 bb
       -0.026981376 0.016511071 0.01276023 -0.004034139
0003e0 12 0c 25 3d f1 17 b0 3c 72 22 35 bc 68 97 b4 3c
       0.040294714 0.021495791 -0.011055576 0.022044852
0003f0 76 7f 2a ba 17 8b 01 3d 91 55 75 3d 0a 88 bd bc
       -0.00065039785 0.031626787 0.059896056 -0.023136158

action_model._continuous_distribution.mu.bias f4 [3]
000000 ed 06 fe b7 b0 2c d2 3b 85 2c 29 bc
       -3.0282385e-05 0.0064140186 -0.010325556

action_model._discrete_distribution.branches.0.weight f4 [5, 128]
000000 d7 31 36 bc 31 02 87 3c 29 53 a1 3c 07 48 fe 3c
       -0.011120281 0.016480537 0.019692974 0.031040205
000010 f3 0a 01 3d bb 0f cb 3c 7d ce 58 3c c4 39 49 3c
       0.031504583 0.024787774 0.013232824 0.012281839
000020 47 b2 be 3c 1b 65 ce bb 36 5b 92 bc 2f ed 45 3c
       0.023278369 -0.006298674 -0.017865758 0.012080475
000030 e1 7d 8e bc 8d 35 4a 3b a5 53 67 3b 0d b3 a8 3a
       -0.017394008 0.0030854673 0.0035297659 0.0012870744
000040 84 8a 81 3c 43 2c 01 3c 58 96 cf ba 54 61 19 bc
       0.01581312 0.007884088 -0.0015837653 -0.009361584
000050 46 f1 9d 3c 10 82 b8 3c ae a6 82 3c ba b9 86 3c
       0.019280087 0.022522956 0.01594862 0.016445983
000060 5c 41 ba bb c2 a0 96 3c a3 92 96 3c 0c 00 be 3c
       -0.005684061 0.018387202 0.018380469 0.023193382
000070 0a 8f 84 bc 40 91 14 3c b0 9f 0b 3d 85 85 84 bc
       -0.016181488 0.009067833 0.034087837 -0.016176948
000080 e5 8c 2c 3c e3 43 c3 3c 3a 0d 5d 3c b1 ed 46 bc
       0.010531639 0.023836082 0.013491923 -0.012141631
000090 8a 9f d9 bb dd 99 86 3c 74 cc b4 3b f1 4f 08 3c
       -0.006641333 0.01643079 0.005517537 0.008319841
0000a0 3a 53 72 3a 82 39 81 3c 50 86 67 3c 0d 70 de ba
       0.0009243969 0.015774492 0.014131144 -0.001697065
0000b0 2e 0a c1 bb 03 91 cf 3c 79 39 27 3d 49 82 12 3d
       -0.005891106 0.025337702 0.040826295 0.03576878
0000c0 e3 22 14 3c 1d 15 7e bb 7b b0 88 3c 6f 3c 8a 3c
       0.009041521 -0.0038769909 0.016685715 0.01687452
0000d0 09 73 aa 3b 2c 32 bd ba e1 77 18 bc ca cd b3 ba
       0.0052017015 -0.0014434508 -0.009305925 -0.0013717946
0000e0 0b a3 c0 3a da 9e 4f bc 93 a1 23 3b ba e6 88 3c
       0.0014697028 -0.0126721505 0.0024968132 0.016711581
0000f0 26 3b ed 3c fe 6a b3 3b 4c 9a 03 3c 80 a8 56 3b
       0.028958868 0.005475401 0.008032393 0.0032754242
000100 cb 7f e5 39 54 0f 2c 3c 93 88 b4 3c 48 00 95 3b
       0.00043773497 0.010501701 0.02203778 0.0045471527
000110 b1 9c 41 3c 1c 48 8c 3c 57 f0 79 bc d5 61 b1 3c
       0.011817143 0.017124228 -0.015255055 0.021653095
000120 74 ff 87 39 af 23 97 bc b4 02 7f bb 6d 87 c6 3a
       0.00025939534 -0.018449632 -0.0038911523 0.0015146561
000130 25 d9 a2 3b 9a a9 48 3c e2 8e e7 bc cc 49 5a 3b
       0.0049697333 0.012247467 -0.028266374 0.0033308147
000140 59 77 b2 3c e7 0c 9e bb e8 06 5a b9 42 6c 17 bc
       0.021785425 -0.0048233154 -0.00020792673 -0.009242119
000150 c3 80 9b bc af 21 65 bb 1d a6 df 3c 99 c8 9a 3c
       -0.018982297 -0.0034962704 0.027300889 0.01889448
000160 ad 13 3b 3c 4a 2b 30 3c 94 7e 64 3c 9c 06 58 3c
       0.011418265 0.010752508 0.013946194 0.01318517
000170 13 e8 02 3c 7a fe 14 bb 73 4f b5 3b b9 c0 5e 3b
       0.007989901 -0.0022734688 0.0055331527 0.0033989383
000180 2d d7 a1 3c 10 95 75 3c 2a 0a 1a 3c 74 67 7b 3b
       0.019755924 0.014989153 0.009401837 0.0038361223
000190 d7 ff 29 3c 4e b1 8c 3b 24 8e 80 bb 6f e0 c1 bb
       0.010375938 0.0042935973 -0.0039231945 -0.005916647
0001a0 91 e5 28 ba 23 14 06 3d ff 1e 0e 3c 8c 74 75 3c
       -0.00064428995 0.032734048 0.008674382 0.0149814
0001b0 ff b5 85 bc 2e 27 87 3c bb 25 34 bc 8d 19 a3 3c
       -0.016322134 0.016498175 -0.010995324 0.019909644
0001c0 4e 76 37 3c 65 14 ce 3c 6c 48 04 bc 39 54 21 bb
       0.01119764 0.02515621 -0.008073907 -0.002461685
0001d0 ec 4d f9 3c bc 42 8f bc d7 92 05 3d 71 60 c0 bc
       0.030432664 -0.017487876 0.03261074 -0.023483487
0001e0 c3 70 43 3c b8 3c ed 3b 77 58 8a 3c 90 83 fb 3c
       0.01192874 0.0072399043 0.016887886 0.030702382
0001f0 e7 15 2a 3c 60 d8 ad bb 27 50 20 bb 46 60 fc bb
       0.0103811985 -0.005305335 -0.0024461837 -0.0077019064
000200 19 25 bd bc 16 1f 35 bc 69 fe b9 ba a8 cb 7a 3c
       -0.023088979 -0.011054775 -0.00141902 0.0153073445
000210 d6 86 dc bb ad 8a 15 3d d8 fd ce ba d5 4f 12 bc
       -0.006729941 0.036509205 -0.0015792204 -0.008930166
000220 05 81 a4 3c f0 b1 14 3c f2 d6 09 bd 4f 80 25 bc
       0.020081053 0.009075627 -0.033652253 -0.010101392
000230 e0 c5 6b bc 2e 7f 43 3c c8 02 08 bd e9 bd 7b bb
       -0.014390439 0.0119321775 -0.033205777 -0.0038412756
000240 3f fb 96 bc a8 ff 6b 3c 02 db 53 3b 2c 6b 0d 3c
       -0.01843035 0.014404215 0.0032326584 0.008631509
000250 88 66 89 3c 25 4d ea bc a4 f6 c4 bb 3c f9 39 bb
       0.016772524 -0.028601239 -0.006010847 -0.0028377315
000260 6b d5 15 3a 2b 70 af 3b c9 2a e7 bb 1e 5e 64 3c
       0.00057157007 0.0053539476 -0.007054661 0.013938455
000270 5a 34 50 3c 5f dc d5 3c 06 9f 27 3b b4 1c 13 bd
       0.012707794 0.026106058 0.0025576963 -0.035916045
000280 03 0b 58 3c 53 49 b6 bc 05 4b 36 3c ad 5a 4f bc
       0.013186219 -0.02225176 0.0111262845 -0.012655896
000290 4f a5 96 3c 9f 58 1e 3a 9b 15 03 bc 1d 27 90 3c
       0.018389372 0.0006040427 -0.008000757 0.017596776
0002a0 9a 59 72 bc 1b 89 f1 3c 62 e0 71 3b a1 0c 27 3c
       -0.0147918705 0.029484322 0.0036907424 0.010195882
0002b0 be 65 88 bc fd 52 a6 3c 9f 55 dd ba f7 58 ac bb
       -0.016650077 0.020303244 -0.0016886479 -0.005259629
0002c0 c2 18 0e 3c 07 1e c4 bb 1c 74 b5 3c 6f bb e1 3c
       0.008672895 -0.005985025 0.022150092 0.027555196
0002d0 53 26 94 ba e3 18 9a bb 12 82 e4 3c f0 64 cc 3b
       -0.0011302925 -0.0047026738 0.027894054 0.0062376186
0002e0 b4 6b db 3a 1d c3 d7 bc b1 e8 35 3b 34 0e 76 bb
       0.0016740472 -0.026338154 0.0027757103 -0.0037545087
0002f0 ec b3 a6 3a 74 77 2f bc cb 6e 9a bc 07 11 f9 bc
       0.0012718416 -0.010709632 -0.018851658 -0.030403627
000300 d7 26 12 bc 1e 4c af bc 4a f0 82 bc c9 79 a3 bc
       -0.008920393 -0.0213986 -0.01598372 -0.019955533
000310 1e bd d4 bb 45 f5 97 bb 29 4a 89 3b d6 b5 65 bc
       -0.006492271 -0.0046373927 0.004189749 -0.014020404
000320 cb c7 4a 3d 8c 06 e5 3c e4 20 af 3b 27 6f 07 bb
       0.049506944 0.027957223 0.005344497 -0.0020665617
000330 91 33 d2 bc 22 fe ce bc 53 15 f3 bc b7 10 e7 3c
       -0.025659354 -0.025267664 -0.029673254 0.028206212
000340 7e 36 f2 3c 82 ca 7b 3c 60 c5 1b 3c 4b dc ae 3a
       0.029567 0.015368106 0.009507507 0.0013340799
000350 c6 48 82 ba e0 ac 9f bc 19 5b e6 bc 1c e7 4e bc
       -0.0009939901 -0.019491613 -0.02811961 -0.012628343
000360 22 c6 a0 bc 97 06 5b 3a c1 7a b1 bc 15 1c 7e bc
       -0.019625727 0.0008355169 -0.021664979 -0.015509625
000370 16 63 b5 bc 06 0b 74 3c 77 80 47 3c 39 3f 87 3c
       -0.022141974 0.014895206 0.0121766245 0.01650964
000380 bd d1 0e 37 eb 77 6c bc ef 72 18 3a a5 80 98 bc
       8.512693e-06 -0.014432888 0.0005815466 -0.01861603
000390 b3 55 60 bb 62 63 09 bb 1a d7 03 bd 64 96 45 3b
       -0.0034230768 -0.0020963778 -0.03218756 0.0030149454
0003a0 35 d6 96 bb 6d b0 48 bb d7 fd 91 bb 36 ca af bc
       -0.004603172 -0.0030622736 -0.004455309 -0.021458726
0003b0 03 37 d0 bc de bb ee 3b 0a db 1c bb d4 f3 36 3b
       -0.025416857 0.007285579 -0.0023934268 0.002791633
0003c0 fc 19 3c 3c 16 b7 13 bd 24 d3 d0 3a 78 73 22 3c
       0.0114808045 -0.036063276 0.0015932065 0.009915225
0003d0 90 34 5a bc 10 7d ad bc 0d 1e c3 3c a3 a2 04 bc
       -0.013318196 -0.021177799 0.02381804 -0.008095416
0003e0 2a 2e d6 bb 23 f3 96 3c 5e ff 11 3d fc eb 50 39
       -0.006536265 0.018426483 0.035643928 0.00019924337
0003f0 39 96 91 3a 22 58 56 bc 92 8a 33 bb 5a 14 33 3b
       0.0011107392 -0.013082536 -0.0027395827 0.0027325363

action_model._discrete_distribution.branches.0.bias f4 [5]
000000 52 45 aa 3b 60 6f 90 bb 9c 09 f2 bb 81 d3 be bb
       0.005196252 -0.004407808 -0.0073863994 -0.005823553
000010 02 18 4b 3c
       0.012395861
