Assets/Brain/Tests/Pronto.onnx (onnx, 136172 bytes, 9 tensors)

network_body._body_endoder.seq_layers.0.weight f4 [128, 114]
000000 9a 65 29 3e cf ef 02 be 44 40 a6 bd 37 5d 19 3d
       0.16542664 -0.12786792 -0.081177264 0.037442412
000010 47 7e d0 3d ea fa de 3c cc c9 55 bc c6 0a b9 bc
       0.101803355 0.027219255 -0.0130486 -0.022588145
000020 be f4 8f 3d 63 ba 72 bd 73 86 f1 bc d1 10 bb 3b
       0.07029103 -0.059259783 -0.029483056 0.005708792
000030 04 f2 6b 3e 5d f8 38 bd a6 ab 4d 3d 5d 82 8b 3d
       0.2304154 -0.045158733 0.050212525 0.06811974
000040 ee b3 79 bd 64 1c 1f be d5 57 af bd da 7c 18 bd
       -0.06096261 -0.15538174 -0.085616745 -0.037228443
000050 cd d4 0f 3c f6 0b 08 be 02 47 02 3e 30 a5 77 bd
       0.008778763 -0.13285813 0.127224 -0.06046027
000060 98 82 51 be b7 98 bb 3c 81 f5 22 bd 8d d0 5a 3e
       -0.20459974 0.022899969 -0.039784912 0.21368618
000070 0b d3 91 bd e3 10 a3 bc 8b 7e 29 be 2e c5 1e be
       -0.071203314 -0.019905513 -0.16552179 -0.15504906
000080 e6 09 39 3d 7e 01 e4 3d 24 8d 6b 3d 51 37 15 be
       0.045175456 0.11133097 0.05750765 -0.14571883
000090 a8 67 fe 3d 9d 58 b5 3c fa b9 e0 3d ae 8c 3c 3d
       0.124221146 0.02213698 0.10972972 0.0460326
0000a0 52 e3 da 3d cd 37 32 bc 2e 11 f7 3d bf b8 cb 3d
       0.10687889 -0.010877562 0.12063824 0.09947347
0000b0 ed 19 6e 3d 73 dc 4a bd ba f7 94 3d 3c fa 2e bd
       0.058130194 -0.049526643 0.072738126 -0.04271911
0000c0 28 10 74 bd 5f aa 06 3e a9 fb 57 3e d4 97 82 bd
       -0.05958572 0.13150929 0.21092094 -0.06376615
0000d0 77 fd 59 bc 24 ec 72 bd 1b e1 0d 3d 7e ab d7 3d
       -0.01330506 -0.059307232 0.034638505 0.105307564
0000e0 ff 28 a0 3d 0a 44 54 bd a4 e5 0d bc 7b 7a 01 3e
       0.078203194 -0.0518227 -0.008660708 0.12644379
0000f0 a0 31 55 3b c2 e5 28 3d 03 21 80 3d a5 a6 96 bc
       0.00325308 0.04123474 0.062562965 -0.01839001
000100 1b bc 1d 3d 88 6b ca 3d 9d 35 be 3d 23 17 48 3e
       0.03850947 0.09883791 0.0928757 0.19540076
000110 78 83 cc bc 35 d6 54 3d fd a0 2d bd cd ee 73 3d
       -0.024965033 0.051962096 -0.04238986 0.05955391
000120 c2 45 3e be 27 04 73 3e 4a 94 8f 3d d1 ce 60 bd
       -0.18581298 0.23732053 0.07010706 -0.054884735
000130 7b c4 a5 bd 66 1e 47 3d 3a 3f 52 bd 99 19 a2 bc
       -0.08094116 0.048612975 -0.05132983 -0.019787597
000140 9b c5 df 3d 07 b1 0b 3d 61 e1 1d 3d ad 5e e4 bd
       0.10926362 0.034104373 0.038545016 -0.111508705
000150 20 a9 3b 3d b3 d7 85 3a e1 dd c0 bd 18 d2 f0 3d
       0.045815587 0.0010211378 -0.0941732 0.11758822
000160 ef d5 dd bc 5d 7a 29 3e b8 d2 61 3e cd 68 5e 3c
       -0.02707955 0.16550584 0.22053039 0.013574791
000170 9b 4e e2 bb 0d 07 61 3c 8d 5c 09 be 06 90 b1 3d
       -0.006906343 0.013734591 -0.13414212 0.086700484
000180 7b b1 7c bb cf 95 27 3d 58 99 22 bd 64 b2 54 3e
       -0.0038557935 0.040914353 -0.03969702 0.20771176
000190 22 86 79 3d 5f e3 b8 3c eb db c8 bd d1 1e 1d 3c
       0.060918935 0.022569356 -0.09807571 0.009589867
0001a0 93 f1 7d 3e 03 f8 d6 3c c7 69 1f 3e 87 7c 1d 3c
       0.24799185 0.026241308 0.15567695 0.009612209
0001b0 e8 31 c1 3d 69 13 d0 3d c5 a1 12 3e fd ea a4 bd
       0.09433347 0.10159952 0.14319523 -0.08052633
0001c0 6d e4 bf bd a0 f0 72 3c a1 24 81 3c 5e 5d 8d bd
       -0.09369741 0.014827877 0.015764536 -0.06902574
0001d0 ce c4 44 3e 41 b0 60 bd 73 bc da 3d dc 40 0d 3e
       0.192157 -0.05485559 0.10680475 0.13794273
0001e0 4c 23 2e 3d 80 e8 ff 3d 15 f1 26 be 53 f8 69 bd
       0.04251413 0.12495518 -0.16302903 -0.057121586
0001f0 c3 6a 39 bc c6 80 95 3d 7e a8 18 3e 50 35 9b bd
       -0.011316958 0.07299952 0.14908025 -0.07578528
000200 8d fc 8e bd 83 00 61 bd 4d fe 91 bb 54 e5 1a 3d
       -0.06981764 -0.05493213 -0.004455364 0.03781636
000210 3b 40 00 bd 8e c7 03 3e 04 6b 8d bc 5b 32 18 be
       -0.031311255 0.12869093 -0.017262943 -0.14862959
000220 42 72 05 3d 41 c1 73 3d 58 ea ea bc 01 34 e9 bc
       0.032579668 0.059510473 -0.028676197 -0.02846718
000230 5b 6a 85 3c 9e 14 fe bd c4 04 04 bd e3 d2 c7 3d
       0.016286066 -0.12406276 -0.032231107 0.0975702
000240 50 a8 95 bc 85 c9 02 bd 6b 05 b4 3e 49 46 8c bd
       -0.018268734 -0.031930465 0.35160384 -0.06849343
000250 ef 81 87 3c a1 22 82 3c 20 fc bc 3d 7d c5 80 bd
       0.01654145 0.015885653 0.092277765 -0.06287668
000260 94 35 d4 3c 3b ca 80 3d 0e db 14 3c 42 4e 2c be
       0.025904454 0.062885724 0.00908543 -0.16826728
000270 e6 34 a7 3e fc c9 2b be 60 96 c9 bb ed 82 e6 bd
       0.32657546 -0.1677627 -0.0061519593 -0.11255441
000280 a1 b5 c9 bb 8d f0 23 3e fe 15 d1 bb 6e a7 8c 3d
       -0.006155685 0.16009732 -0.0063807955 0.06867872
000290 83 20 3c 3c 60 fc dd bd fd fd b0 bd 08 bf 09 3d
       0.011482361 -0.10839152 -0.086421944 0.033629447
0002a0 42 39 6c bd 11 6b 12 bc bf 0c c0 bd 28 4a c2 3c
       -0.057671793 -0.008936659 -0.09377431 0.023717001
0002b0 80 69 36 3e d9 e7 1b 3d cc 47 e3 3d 98 12 0c bd
       0.17813683 0.038062904 0.110976785 -0.03419742
0002c0 b9 14 c3 3c 5a 04 ab 3d a8 c0 12 bc c7 fa bb bd
       0.023813592 0.08350439 -0.008957066 -0.09178691
0002d0 1f 2c 3f be 78 89 ac bc 73 bf 81 3d f8 69 b6 3d
       -0.18669175 -0.021061644 0.06335344 0.08906931
0002e0 a0 45 02 3e d4 7f 00 3e ab c3 9c 3d d0 fa 2f 3e
       0.12721872 0.12548763 0.07654508 0.17185521
0002f0 f1 ed 26 3e 6d 58 2e 3d 9b 4d 85 bd 4b da 9b 3c
       0.16301705 0.0425648 -0.06508943 0.019024989
000300 ed cc 53 bc 29 31 a8 3d 9c 37 26 39 86 15 fa bc
       -0.012927276 0.082125016 0.0001585171 -0.030527841
000310 cb 9c d8 bc 8e 51 83 3c 6e 58 50 3d a1 ce 30 3d
       -0.026441952 0.0160301 0.050865583 0.043165807
000320 45 73 31 be b7 9a aa bd 08 28 b2 bd 8e 9a cd bd
       -0.17329128 -0.08330291 -0.086990416 -0.100392446
000330 53 9e 22 be d6 b0 25 3e 1a 11 69 be b9 01 43 be
       -0.15880708 0.16180739 -0.2276043 -0.19043626
000340 84 92 57 3d ee 8f 24 3d 44 92 d6 3c 09 1d 3b 3d
       0.052629963 0.040176325 0.026192792 0.045681987
000350 ae 30 85 3c 59 00 e0 3d c4 18 0b 3e 4e 5b 47 3e
       0.016258564 0.10937566 0.13583666 0.19468424
000360 ef c2 ac bd 74 3b 28 3c 8c 24 30 3e 35 12 51 3e
       -0.08435618 0.010268081 0.17201442 0.20417102
000370 88 41 dc bd 24 68 05 be bb 77 39 3d 82 40 66 3e
       -0.107546866 -0.13028008 0.0452802 0.22485545
000380 d0 c5 22 3e 2b 94 4f 3d 2d d2 09 3c f5 da 81 3d
       0.15895772 0.050678413 0.008411926 0.06340591
000390 98 96 7e bd ac a5 62 3d b4 6a 90 3d d8 e0 eb bb
       -0.062155336 0.05533378 0.07051602 -0.0071984343
0003a0 aa 5a 7c 3d fc 79 88 3c 73 57 9d 3d d8 59 e0 bc
       0.0616099 0.01665973 0.07682695 -0.02738659
0003b0 0a 92 6f bd e9 40 38 b6 eb 34 a8 3d 6b 14 ce bc
       -0.058488883 -2.745592e-06 0.08213218 -0.02515622
0003c0 d0 d4 24 be 90 53 bd 3c ab 51 d7 bd 94 9d 3f bd
       -0.16096807 0.023111135 -0.10513624 -0.046781138
0003d0 1b 75 b6 3d 40 2d 25 3b 9d 6f 00 be 38 aa a3 3d
       0.08909055 0.0025203973 -0.12542577 0.07991451
0003e0 23 ab a3 3c 6a e8 44 bb fb 44 0d be e7 21 5f 3e
       0.019979065 -0.0030045756 -0.13795845 0.21790276
0003f0 5b 17 11 3e 7f f6 18 be 81 98 c1 3c 46 39 f7 bc
       0.14169066 -0.14937781 0.02363229 -0.030178677

network_body._body_endoder.seq_layers.0.bias f4 [128]
000000 aa 1f 03 bb 4a 5e d9 3c 64 87 6f 3c 51 eb 1b bc
       -0.0020007887 0.026534218 0.014619682 -0.009516553
000010 2c 04 58 3c 93 f8 b6 3c da 8e 83 bc 88 ba 81 3c
       0.013184588 0.022335326 -0.016059328 0.015836015
000020 79 05 84 3c 6f 47 af 3c 3c 83 d1 3c 6a 56 04 3d
       0.01611589 0.021396367 0.025575273 0.032308973
000030 07 6e 77 3b 2f ec 35 bc 02 06 22 3c 73 ab 27 3c
       0.003775479 -0.011103674 0.009889128 0.010233748
000040 f2 3b a8 3c b4 b9 15 3c 7b f4 16 bc 04 6f 0c 3d
       0.020536397 0.009138513 -0.009213562 0.03428556
000050 9a db 11 3d 4a 2e 84 3c 12 1d 45 3d ec 37 b6 bc
       0.03560982 0.016135354 0.048123427 -0.022243463
000060 9e ec 12 3c 0f 0e 3e 3c e9 21 91 3c c0 a0 03 3b
       0.008967547 0.0116000315 0.017716365 0.0020084828
000070 aa 6f 29 3c c0 0b e8 3c 9d ef 0e bc 5a 2c e3 3c
       0.010341564 0.028325915 -0.00872412 0.02773111
000080 7e e9 ca 3c 1e a6 93 bc f2 83 e5 3b 38 61 8b bc
       0.02476954 -0.018023547 0.0070042545 -0.017014131
000090 83 12 89 3c b3 bd 27 3b bd 6b 25 3c 87 39 ab 3a
       0.01673246 0.0025595247 0.010096488 0.0013063409
0000a0 5f c3 20 3c 06 14 20 3a e2 11 02 3c f3 4a 2d 3c
       0.009812205 0.00061064993 0.007938834 0.010576951
0000b0 07 9b d1 3c 11 1c 8b 3b 6c 97 de 3c 56 bc ae 3c
       0.025586618 0.004245289 0.027171813 0.02133004
0000c0 76 16 d7 bb 2b 29 8a 3c 10 e7 07 3d 1b 4b 31 3d
       -0.006563957 0.016865334 0.033179343 0.043284517
0000d0 80 49 86 3c e4 d3 93 3a 5d 8c 9c 3b 66 d3 94 3c
       0.01639247 0.0011278358 0.004777475 0.018167209
0000e0 12 dd b8 3b f6 a4 a9 3b 85 42 96 3c 20 e1 aa bb
       0.005641588 0.0051771356 0.018342266 -0.0052148253
0000f0 54 71 1c 3b 04 a5 e5 3c 3c dc dc 3c 6f 5c be 3c
       0.002387126 0.028032787 0.026960485 0.023237435
000100 2f 8c cf 3c 49 9d 2d 3d 1e 7d cc 3c 3a 71 60 3c
       0.0253354 0.042386327 0.024962004 0.01369887
000110 e8 52 e3 3c 68 8d ea bb 5f ec 76 3d b1 21 5f 3c
       0.027749494 -0.00715797 0.060284015 0.0136188725
000120 4b ee b0 3a b9 3b de 3b 2f 62 61 3c 79 a6 a6 3c
       0.0013498751 0.006782022 0.013756319 0.020343052
000130 16 e2 93 3c cf 1c 25 bc 9a da 14 3c 66 8f f1 3c
       0.018052142 -0.010077669 0.009085322 0.029487323
000140 fd 2b 05 3d c2 17 cd 3c 80 55 ca 3c 68 48 92 3b
       0.032512654 0.025035743 0.024698973 0.004464198
000150 34 47 e4 3c 34 6b 8f 3c 48 19 22 3c 77 ad 4d 3b
       0.027865984 0.017507173 0.009893723 0.003138391
000160 41 1e ed 3c c8 d7 57 3c c4 6c dc ba 4e 93 5d 3c
       0.02894509 0.013174005 -0.0016817083 0.01352389
000170 60 f5 cc 3c 3f 51 08 3c 8c ea 93 3c e3 45 45 3c
       0.025019348 0.008320152 0.018056177 0.012040588
000180 13 39 d7 bc 95 9e 04 bd ff ab 11 3b 95 fc 9e 3b
       -0.026272332 -0.032377798 0.0022227762 0.0048518875
000190 80 18 62 3c c3 2c 38 3c a9 8c ca 3b bc f8 66 3b
       0.013799787 0.011241141 0.006181319 0.0035243472
0001a0 1c 9d d6 bb 17 3b d5 bc ed 12 05 3c ee fc e1 bb
       -0.0065494906 -0.026029153 0.008122188 -0.0068966066
0001b0 37 45 c0 3c 8f f5 56 3c 84 41 e8 3c d0 cd 66 3b
       0.023470504 0.013120069 0.028351553 0.0035217889
0001c0 ad 55 86 3c 9d a8 73 3c fb 49 33 3c f0 9a 8a 3c
       0.016398275 0.0148717435 0.010942931 0.016919583
0001d0 4e d0 27 bc ff 7a df 3c f4 d0 1e 3c a9 46 87 bc
       -0.010242535 0.027280329 0.009693373 -0.016513186
0001e0 1f ee fd ba e5 0d b9 3c 05 98 99 bc c7 41 04 3d
       -0.0019373334 0.022589633 -0.018749246 0.032289293
0001f0 77 c6 1a 3c 9a 64 74 ba 0f 53 b4 3b 4d f7 ff bb
       0.009446732 -0.0009322852 0.0055030654 -0.007811463

network_body._body_endoder.seq_layers.2.weight f4 [128, 128]
000000 4a 93 dc bd 36 01 c1 bd e6 66 ec bd ac 44 a8 bd
       -0.10770281 -0.09424059 -0.11543064 -0.08216223
000010 f6 44 7e 3e 7a 6f 79 3e 7b 64 76 be 15 0a cb bd
       0.24830994 0.24358931 -0.24061768 -0.09914032
000020 b3 f7 de 3b 84 31 6a bd 72 86 14 bd 84 17 b1 3d
       0.0068044304 -0.057176128 -0.03626103 0.086470634
000030 ea 62 9e 3d ad a1 a1 bc bd 0b 93 3d 54 51 f3 3d
       0.0773371 -0.019730413 0.07179973 0.118807465
000040 1b 87 0b bd 85 f7 dc 3d 3f 8b 46 3d 0b 3d 36 3e
       -0.034064393 0.10789398 0.04847264 0.17796724
000050 6f 4a b6 3d b5 eb ab 3d 91 c7 23 bd 50 5c 7b bd
       0.08900916 0.08394567 -0.039985243 -0.061367333
000060 34 45 25 be cb 92 1c 3d 20 5a 22 3d 74 3a 13 bd
       -0.1613968 0.03822593 0.03963673 -0.035944417
000070 04 d2 20 be e2 cc 80 3e 0c ca 16 bc 65 b8 a5 bd
       -0.15705115 0.25156313 -0.009203445 -0.08091811
000080 77 54 4a bd 84 a5 27 bd e5 01 ac ba 81 c9 13 3e
       -0.04939696 -0.040929332 -0.0013123123 0.14432336
000090 63 a3 24 3d 47 c9 ab bc a9 de 8f be 4e 0c d0 bd
       0.04019488 -0.02097 -0.28099564 -0.10158597
0000a0 29 1a bc bc 87 56 6e bd e3 db 0f be c7 b3 c5 3d
       -0.022961693 -0.058187988 -0.14048724 0.096534304
0000b0 8c 5a 26 bd 58 1a ab bd 7d 23 34 bd 1d a6 b2 3b
       -0.040613696 -0.08354634 -0.043979157 0.005451931
0000c0 8e c5 30 3d da 34 c1 bd eb 9c 85 3d 8c 2f c6 3d
       0.043157153 -0.09433909 0.0652407 0.096770376
0000d0 4b 9e 90 3d 02 cd 5d bc 3b 5c 8e 3c 7a 5c 94 bd
       0.07061442 -0.013537647 0.017377963 -0.07244201
0000e0 aa 7b 58 3d e2 9a 09 be 96 d0 84 bd 80 fc fa bd
       0.05285231 -0.1343799 -0.06485097 -0.12255192
0000f0 4f b1 c4 3d 8d c8 69 3d 1c 43 9f 3d ab 79 1d bd
       0.096041314 0.057076026 0.07776472 -0.03844611
000100 a4 bc 5a 3e ef 11 ea 3d a6 5d 48 3c 88 f5 17 3d
       0.21361023 0.11429202 0.012229359 0.03709939
000110 e4 02 89 3d 61 09 bf bc 8e b8 5c 3d 79 63 c2 3c
       0.066900045 -0.023319902 0.053886943 0.023729073
000120 c4 8a de bd 66 bf a1 3d 8b 2a 0b 3e 6a e9 5a 3e
       -0.10866311 0.078978345 0.13590448 0.21378103
000130 cf 26 6b 3d cb 71 25 be 7a fa c3 bd a7 2e f6 bd
       0.057410058 -0.1615669 -0.09569259 -0.12020617
000140 44 c1 ce bd b4 b2 db bc ff 64 84 3d 5b 99 b9 3c
       -0.10095456 -0.02681861 0.06464576 0.022656133
000150 aa a7 1b 3d ab 8b 73 be 9c b2 56 3d 85 32 e0 3d
       0.038001694 -0.23783748 0.05241643 0.10947136
000160 69 26 82 3c eb 04 78 bd b5 73 f5 bc 27 ea c7 3c
       0.015887456 -0.060551565 -0.0299624 0.024403645
000170 8e 41 35 3e a5 6d 23 3d 37 4c 53 3d 5f f7 8e 3d
       0.17700788 0.039899487 0.051586356 0.06980776
000180 af 39 aa 3b 6b d5 71 3d e4 01 a1 3d 87 53 37 be
       0.0051948647 0.05904142 0.07861689 -0.17902957
000190 3d 17 c0 bd f0 bc 39 3c 02 52 75 bd cc bf 0b bd
       -0.09379432 0.01133655 -0.059892662 -0.03411846
0001a0 47 44 92 bd 56 8d f0 bb 14 93 2f 3d f4 1e 27 be
       -0.07141929 -0.0073410673 0.042864874 -0.16320401
0001b0 21 29 3f bc 8a df ef ba d7 66 57 bd 13 fe 07 be
       -0.011667521 -0.0018300873 -0.05258831 -0.13280515
0001c0 f8 a4 a2 bd 78 e7 48 bc 99 cc a5 3c 20 cc 8b bd
       -0.079416215 -0.012262218 0.020239161 -0.06826043
0001d0 34 7c 1e bc 8f b3 65 be 1a 6c a7 bc 6f 96 00 3e
       -0.009673167 -0.22431777 -0.020437289 0.12557386
0001e0 1f f3 1f bd 54 4f 74 3c 9e 5e 8d bb 62 8c e3 3d
       -0.039050218 0.014911491 -0.0043142578 0.1111076
0001f0 0e b6 a3 bc 92 97 39 be cd a7 27 bb be b0 e5 3c
       -0.019984271 -0.18124226 -0.0025582195 0.028038379
000200 06 1a 71 bc 24 74 be 3c e8 f0 c1 bd 2a a5 c5 bd
       -0.014715677 0.02324874 -0.09469777 -0.09650643
000210 fd 5c 45 bd 00 bb 65 3d c4 37 b6 3d 79 50 d1 bd
       -0.048184384 0.05608654 0.08897355 -0.10220427
000220 c0 9b c3 3d ad 4e 39 bd ff 43 36 bd d2 f9 d2 3c
       0.09551191 -0.045241047 -0.04449844 0.02575389
000230 88 94 61 3c 93 4c ac bd 44 77 df bc f9 dc 5e 3d
       0.013768323 -0.08413043 -0.02727855 0.054409955
000240 b4 30 13 be 69 a0 2c 3a 35 38 22 38 ec e3 7f 3c
       -0.14374048 0.0006585182 3.8676157e-05 0.015618306
000250 b2 4e 60 ba 7b 05 cf bd 33 9c e1 bd 4f 3a bf 3d
       -0.00085566484 -0.10108467 -0.11016121 0.09337293
000260 5b 61 9a 3d b0 e8 5b 3d 3d db 3d 3d f9 84 45 3e
       0.075381 0.053688705 0.04635166 0.19289006
000270 87 ac c4 bd 77 ac d3 bd da 32 f9 bd a1 b2 18 3e
       -0.096032195 -0.103356294 -0.12167902 0.14911892
000280 30 c4 18 be 07 9d bd bd d1 2e 68 3e 04 98 fc 3c
       -0.1491859 -0.09258466 0.22674109 0.030834205
000290 49 4b 6e 3c 7e 8b d9 3c 9c 71 ad bd 50 e1 8c bd
       0.014544317 0.026555773 -0.08468935 -0.068789124
0002a0 5e 51 8a 3d 09 13 ce bd 33 69 16 3d 4c d8 29 bd
       0.06753801 -0.100622244 0.03672142 -0.041466042
0002b0 ad cd 73 3e dd ff 95 bd fb cd 9b bd c8 fb fc bd
       0.23808928 -0.07324193 -0.07607647 -0.12352711
0002c0 f6 de 6f bc 35 b8 ba bd 75 3a 4d bd 4c b3 08 bd
       -0.01464056 -0.09117166 -0.050104577 -0.033374116
0002d0 68 0f 25 3e 6f a3 7d bd 67 e3 69 bd 51 56 8f bd
       0.16119158 -0.06192344 -0.057101633 -0.069988854
0002e0 72 29 fe 3d a9 fc 8b 3d 2f da a9 bc bb 40 95 3d
       0.12410249 0.068353005 -0.02073392 0.07287737
0002f0 47 bd 1e 3e 08 57 8a bd 91 41 a1 bd e6 be db bc
       0.15501891 -0.06754881 -0.07873834 -0.026824426
000300 1d 33 bb 3c 18 02 e0 bd ef 91 94 bd 7c 3b 41 bc
       0.022851521 -0.10937899 -0.07254397 -0.011793967
000310 99 33 5f bd 3b 05 11 be eb e7 26 be 9f 48 f1 3b
       -0.054492567 -0.14162152 -0.16299407 0.0073633934
000320 de 3d 84 be b2 a1 cd bc 76 5d 10 be 16 c9 88 bd
       -0.2582845 -0.025101516 -0.14098153 -0.06678979
000330 ac 61 55 bc cd c3 39 3d be d0 8d 3d 5a 4a b5 bd
       -0.013023775 0.045352746 0.0692458 -0.08852072
000340 a9 e8 15 be 5a 62 8d 3d 00 4a fa 3a 1b e1 e6 3d
       -0.14639534 0.06903525 0.001909554 0.11273404
000350 29 37 ae bd 46 1f 38 3e 17 4b 01 3d e6 05 b7 bd
       -0.08506615 0.1798068 0.031565752 -0.08936672
000360 f6 54 c4 bd 15 58 b3 3a b9 6d dc bd d4 70 14 3e
       -0.095865175 0.0013682867 -0.107631154 0.14496166
000370 33 44 93 3d 94 01 16 be f6 4d 65 3d c2 e1 62 3d
       0.07190742 -0.1464904 0.055982552 0.05539108
000380 08 6b b2 bc 5b d5 d2 3c 0f c0 a6 3d a2 09 73 bd
       -0.021779552 0.025736501 0.08142101 -0.05933536
000390 f1 63 81 3c d9 5c 89 3d 39 2a 4b 3c a3 99 23 be
       0.015794726 0.067071624 0.012400203 -0.15976577
0003a0 10 bb 28 be 69 f2 e8 bd 54 1b b2 3c db 2b ef 3c
       -0.16477609 -0.11374361 0.021741547 0.029195717
0003b0 e1 3e 87 3d 60 eb 97 bd 61 02 49 3e f8 4e ac bd
       0.0660379 -0.07417941 0.19629814 -0.084134996
0003c0 bf ee d3 3d b4 2b cc 3d a5 70 ff bc a2 97 22 3e
       0.103482716 0.09969273 -0.031181643 0.15878156
0003d0 fa b0 b8 3d 3f 15 da 3d b9 6c 8d bb 17 7b 02 be
       0.090181306 0.106485836 -0.0043159393 -0.12742268
0003e0 96 6a 4e bd 10 ca 1c bd ce 04 c3 bd 4a 5f 35 bc
       -0.050394617 -0.03827864 -0.09522401 -0.011070082
0003f0 9c 55 cb bd 66 3f 13 3c d0 45 b1 bd a8 5a 34 bc
       -0.09928438 0.008987283 -0.08655894 -0.011007942

network_body._body_endoder.seq_layers.2.bias f4 [128]
000000 44 8e 23 3d b1 b5 fb ba dd 20 ed 3c 20 f9 58 3c
       0.039930597 -0.0019203929 0.028946334 0.01324299
000010 5b 71 a3 3c 84 56 14 3c 41 36 b4 bb b9 5a a3 3c
       0.019951513 0.00905383 -0.0054996316 0.01994072
000020 54 3a 90 3b 19 e6 8f 3c c6 90 19 3c bc 07 43 3b
       0.0044014845 0.017565774 0.009372896 0.0029759249
000030 9c 4a 54 3c 78 ed 9a 3b 57 1a a5 3c 58 9d 55 3c
       0.012957241 0.0047280155 0.020154161 0.013038002
000040 91 2a c0 3c 21 c1 55 3b 8e 8b 23 3c 5b 79 00 3c
       0.023457797 0.0032616335 0.009982003 0.007841433
000050 c5 1c 26 3c ac d6 a2 3b 28 f9 dd 3b a7 a1 69 3c
       0.010138695 0.0049694385 0.0067740865 0.014259732
000060 09 25 c6 3c 74 9b 88 3c 92 50 22 3d 5b 81 3e 3b
       0.024187582 0.016675688 0.03962762 0.00290688
000070 8a e0 4f 3c 37 d2 14 3b 6c 41 8f 3c 0e d9 0f 3d
       0.012687812 0.0022708306 0.01748725 0.03511911
000080 3f 00 91 3b 5b ac 1e bc a6 f0 81 3c a8 5a b3 bb
       0.004425078 -0.009684647 0.01586182 -0.0054734536
000090 9c 7d aa 3c a5 24 94 bb 23 28 80 3c f7 9a 04 3d
       0.020811848 -0.00452097 0.015644139 0.03237435
0000a0 fe 72 a8 b9 6a 60 78 3c 4c f3 d2 3b ee 2a bc 3c
       -0.00032129133 0.015159706 0.0064376947 0.02296969
0000b0 94 ee 81 3c 9a dc 9b 3c d1 4f 95 ba 67 1c 10 3c
       0.015860833 0.01902609 -0.0011391585 0.008795834
0000c0 e2 76 62 3a d3 7c 0a 3a fa 8d 5c 3c 83 54 61 3c
       0.0008638931 0.00052828825 0.013461584 0.013753059
0000d0 22 5e 83 3c 6f f3 9f 3c 70 db a8 3c 84 cf bd 3c
       0.016036097 0.019525258 0.020612448 0.02317024
0000e0 60 62 6b bb f1 15 1a 3c 70 26 2c 3b cd 46 63 3c
       -0.003591679 0.009404645 0.0026268028 0.013871861
0000f0 c7 69 cf 3b a4 82 03 3b 46 c7 16 3b ac 3c 18 bb
       0.0063297483 0.0020066882 0.002300696 -0.0023229523
000100 49 e2 b3 3c 33 db 75 3c 24 3d 54 bb aa c5 19 3c
       0.021958487 0.015005874 -0.0032385075 0.009385506
000110 5e e9 41 3c 5d 84 67 3c 48 b6 79 3c bc 6b 8f 3b
       0.011835424 0.014130679 0.015241213 0.0043768566
000120 87 ca 07 3c b4 41 61 3b 75 13 0e 3c d0 46 67 3c
       0.008288032 0.0034371438 0.008671631 0.014116004
000130 b0 ae c8 bb 67 6f 43 3c 91 93 bd 3c 7b 97 a5 3c
       -0.00612434 0.011928416 0.023141654 0.020213833
000140 45 7e 83 3b 49 13 fe 3b c3 19 aa 3c 41 49 c4 3b
       0.0040128552 0.007753764 0.020764237 0.005990178
000150 bb 9c 57 3c 55 3a a7 3c 61 03 c6 3c f8 e2 c5 39
       0.013159926 0.020413557 0.024171533 0.00037743873
000160 d0 81 64 3c 6d 58 cf 3c 86 d8 c4 bb 16 51 52 3c
       0.013946965 0.02531072 -0.006007257 0.012836715
000170 c3 9a 07 3b 62 4c 16 3c cb 16 b6 3b 40 f1 1c 3c
       0.002069161 0.0091734845 0.0055569164 0.009579003
000180 60 60 37 3c 24 f8 a9 3b 7f b4 7d 3c bd da 96 3c
       0.011192411 0.0051870514 0.015484928 0.01841485
000190 73 b0 c8 3c d0 59 e1 3c 80 a4 2d 3c 9b 5a 79 3b
       0.0244982 0.027508646 0.010598302 0.003804839
0001a0 90 d7 76 3c 6f fa 89 3c 2c f3 d2 3b 0f 4b 17 3c
       0.015066043 0.016843049 0.0064376798 0.009234204
0001b0 6a 63 2f bc 23 1a 2f 3c d6 4b 91 3c 24 b6 9d 3c
       -0.0107048545 0.010687384 0.017736357 0.01925189
0001c0 09 68 36 3c 6f 76 29 3c df f4 44 3c 1c 8f a2 3b
       0.011133202 0.010343178 0.012021272 0.0049609076
0001d0 f0 df d5 3c 96 e4 9a 3c 37 a8 b3 b9 e5 11 92 3c
       0.026107758 0.018907826 -0.0003426687 0.017830798
0001e0 31 a6 f8 3b 42 26 84 3c b8 1f 73 3c db 32 77 bb
       0.007588171 0.016131524 0.014839105 -0.0037719521
0001f0 10 69 dc 3b 5e d7 27 bb 06 5b 92 3c f5 87 cf 3c
       0.0067263916 -0.0025610547 0.017865669 0.025333384

action_model._continuous_distribution.log_sigma f4 [1, 3]
000000 10 54 31 bd b6 9c f9 bc 78 00 0c be
       -0.04329306 -0.030470233 -0.13672054

action_model._continuous_distribution.mu.weight f4 [3, 128]
000000 ec 3a be bd bb b6 53 3d 75 10 01 be dd be d8 bc
       -0.09288582 0.051687937 -0.12603934 -0.026458198
000010 10 f9 ed 3c fc a7 30 3d ed 66 2a 3c b2 37 19 bd
       0.029049426 0.043128952 0.010400516 -0.03740663
000020 8e 68 bf 3d 49 65 cc 3d 38 df 64 bd a8 01 a4 bb
       0.09346114 0.09980256 -0.05587694 -0.0050050803
000030 e5 d7 b6 3d 9c fe 04 3c b5 ce 76 bd 0d e0 a5 bd
       0.08927897 0.008117344 -0.060255725 -0.08099375
000040 cf af 55 bd fd 2d 21 3d dd ed 3c bb e3 d7 48 3d
       -0.052169617 0.0393505 -0.00288283 0.04903401
000050 d0 e9 dd 3a 8d 37 78 bc a7 d3 8a 3c 70 4e 9f bd
       0.0016930643 -0.015149963 0.016946627 -0.07778633
000060 71 6e 99 3c 31 1b 53 bb 00 62 79 bc 33 aa 2e 39
       0.01872942 -0.0032212252 -0.015221119 0.00016657337
000070 92 a7 70 bd 42 f7 71 3d ee 41 80 3d c3 cd be bd
       -0.058753558 0.059073694 0.06262575 -0.0931659
000080 d4 28 47 3d a0 ec de bb b4 ae 4c bc 11 5b 05 bd
       0.04862292 -0.0068031102 -0.012492824 -0.03255755
000090 11 ec 83 3d dc 3f 4c 3c 92 83 b5 bd cb a2 b4 bd
       0.064415105 0.012466397 -0.08862986 -0.08820113
0000a0 97 f7 9b 3c 90 ed 30 bd 16 81 6e 3d 9b 54 6a 3d
       0.019038958 -0.043195307 0.058228575 0.057209592
0000b0 f8 b9 58 3d 00 e5 6a bd 3d 7d 13 bd e9 cb 9c 3d
       0.05291173 -0.057347298 -0.03600811 0.0765608
0000c0 97 35 c7 3c 74 8d 7e 3c 9c f8 56 3d d7 4f 14 3d
       0.024317546 0.015536655 0.052483186 0.036208954
0000d0 1e 35 74 bd b8 91 53 bd f3 7b c2 bd 5f 14 34 3d
       -0.05962097 -0.05165264 -0.09496298 0.04396474
0000e0 06 59 66 3d d1 65 9c 3c e4 87 bf 3c a4 fa b3 bc
       0.056237243 0.019091519 0.023380227 -0.0219701
0000f0 41 94 5f 3d 17 28 0c 3d 40 c3 27 bc b1 35 1b 3d
       0.054584745 0.03421792 -0.010239422 0.037893
000100 bd dc 71 3b fe 89 a1 bc 7e 67 53 3d d1 5d b5 3c
       0.0036905252 -0.01971912 0.05161237 0.022139462
000110 0c 5a 31 3c 22 24 d0 3d 75 7d 92 3d 43 18 ee 3a
       0.0108246915 0.10163142 0.07152835 0.001816519
000120 d3 b6 03 bd cd 05 81 bd 15 db 5c bd bc 86 89 3d
       -0.032156777 -0.062999345 -0.05391987 0.06715152
000130 9d 1d bb bc 4f c9 b6 3d 33 32 8e bd 26 70 86 bd
       -0.02284127 0.08925115 -0.069431685 -0.06564359
000140 e3 b6 03 3c 28 9b 16 bc 8c fd eb bd a7 99 e8 3c
       0.008039209 -0.009192266 -0.115229696 0.02839358
000150 60 f5 a7 3d 08 a3 0f 3d e5 e3 ae bd 9c 5c 06 bd
       0.082010984 0.035067588 -0.08539561 -0.032803163
000160 84 df 90 3c da 65 82 bd 1e 28 80 bc b3 85 e8 3d
       0.017684706 -0.06367083 -0.01564413 0.11353626
000170 4d 5e 15 3d 74 4b 5f bd 16 61 6a bd 56 5f 21 3b
       0.036466885 -0.054515317 -0.057221495 0.0024623475
000180 84 4e 40 3d f3 30 20 3b 03 e9 59 3d 18 eb 42 bd
       0.04694988 0.0024443239 0.053200733 -0.047587484
000190 43 36 5d bc 41 82 0d 3d a1 99 51 3d 1f 90 26 39
       -0.0135017065 0.034548048 0.051171903 0.00015884683
0001a0 5d d5 3c bd ce c6 af bd 4e 10 1b 3d fc 24 94 3c
       -0.046101917 -0.08582841 0.037857346 0.018084042
0001b0 f6 06 99 bc 04 d9 72 3c 56 d2 f9 3c d8 8d 25 3d
       -0.018680077 0.014822248 0.030495804 0.040418476
0001c0 25 b7 aa 3d aa 15 8d bd 1e 54 81 bc d2 f6 74 bd
       0.08335713 -0.06888898 -0.01578718 -0.0598057
0001d0 68 24 13 3d dc a7 7d 3d fd e2 98 bc 0b ee d0 bc
       0.03592339 0.06192766 -0.018662924 -0.025504133
0001e0 f2 90 dc 3c 2f 41 2f 3d 69 36 fd 3b 41 53 3e 3d
       0.026924584 0.042786773 0.0077274335 0.046466116
0001f0 3d 38 29 3d 26 52 44 bd 54 52 c8 3a 9a 55 8b bd
       0.0413134 -0.047929905 0.0015283325 -0.068034366
000200 d9 38 3b 3d 72 c2 e9 3b 94 cc 59 bc ac a3 80 3d
       0.04570851 0.0071337754 -0.013293404 0.06281218
000210 c9 92 b6 bd 2c e2 86 3c 86 ab 10 3d 1a 00 26 bd
       -0.08914716 0.016465269 0.035319827 -0.04052744
000220 1c 52 06 bd f6 bb 25 3d 2c c1 07 bd 19 2d d9 3c
       -0.03279315 0.040462457 -0.033143207 0.026510762
000230 42 52 11 bd 5e 16 00 bd f8 04 49 3d 18 33 e5 3b
       -0.035478838 -0.03127133 0.049077004 0.0069946162
000240 62 be f2 bc 2f 35 c9 bb 29 fe 1e 3c 2f a1 94 3d
       -0.029631797 -0.006140373 0.009704151 0.07257306
000250 a5 d2 37 bd 68 2e b8 bc 00 bd 5b bd e3 f2 aa b9
       -0.04487862 -0.022483066 -0.05364704 -0.00032605891
000260 81 8d 0a 3c 75 3c 83 bd 5b b3 84 bd 01 2e 42 bd
       0.008456589 -0.06408016 -0.06479522 -0.047407154
000270 7e a5 54 bd 92 be 8c 3c af 4a 74 ba bf ea 85 ba
       -0.05191564 0.017180715 -0.000931899 -0.0010217055
000280 33 8e 4b 3d fb 6a 00 bd d4 a3 84 3d bb 08 b1 3c
       0.04969616 -0.031352025 0.0647656 0.021610608
000290 31 33 66 3d 55 3d 2d 3d 0e ef 52 bc 56 35 55 3d
       0.056201164 0.04229482 -0.012874378 0.05205282
0002a0 88 da 76 3d 71 be b3 bb b2 c9 d1 bb ac 32 57 3d
       0.060267 -0.005485349 -0.006402218 0.05253856
0002b0 95 c7 c0 bb cc 25 52 3d 3c 35 93 bc d1 d1 c9 bc
       -0.005883167 0.051305577 -0.01796972 -0.024636181
0002c0 84 24 1b 3c ef d1 12 bd 57 a1 1d 3d e5 22 7e 3d
       0.009469155 -0.03584474 0.038483944 0.062044997
0002d0 a8 50 2e 3b 4d 43 61 3d 8c 1a 37 3c c3 12 94 bd
       0.0026598368 0.054995824 0.011175763 -0.07230141
0002e0 8e 3d 1b 3c 3e c7 57 bd 81 39 e7 3a 7b c9 a1 bd
       0.009475125 -0.052680247 0.0017641039 -0.078997575
0002f0 45 8d 26 bc 6f 17 b6 3c 56 44 46 bd a5 4c 16 3c
       -0.010165517 0.02222797 -0.048405014 0.009173547
000300 70 1e d2 bd c7 1c b9 bd 00 88 82 bc 7e 72 25 3d
       -0.10259712 -0.09038692 -0.01593399 0.04039239
000310 6d 79 93 3c 65 b6 cd 3c a8 43 01 3c e4 da 37 3d
       0.018002236 0.025111387 0.007889666 0.044886485
000320 89 8c 09 bd ff b5 ee 3a 76 56 4f bd 64 bd 16 3b
       -0.03358129 0.0018212198 -0.050619565 0.002300107
000330 e5 b6 1d bd a0 7c 7e 3b 47 b3 0c bd d9 9f 8a 3d
       -0.0385045 0.0038831607 -0.03435066 0.0676877
000340 fd e9 49 3d 19 81 9b 3d a1 7b 93 bb 5d 92 73 bd
       0.049295414 0.07592983 -0.0045008217 -0.059465755
000350 e6 21 61 bc 1b f6 8b bc 43 59 8b 3c e5 3e cd 3c
       -0.013740992 -0.017085126 0.017010337 0.025054405
000360 f6 57 27 bd 9f 69 83 3d e5 ab 13 3d 30 e6 2e 3c
       -0.04085537 0.0641663 0.036052603 0.010674998
000370 d6 29 d9 3c 5b 6d 9f bc 9e de bb 3c 88 a0 48 bd
       0.026509207 -0.019461324 0.0229333 -0.04898122
000380 2d d9 b7 3c 3d da 82 3d 29 37 3f bd f5 33 57 3d
       0.022442425 0.06389282 -0.046683464 0.052539784
000390 27 dc 2d 3c 09 76 8e bc 3b 84 d5 3c fb 43 47 bd
       0.01061157 -0.017390268 0.026064029 -0.048648816
0003a0 aa d8 1e bd ea 37 80 bc 09 0e 3f 3d bc b3 2f 3d
       -0.038780846 -0.015651662 0.046644244 0.042896017
0003b0 de 6d 01 bd f3 e1 da 3c f7 8b 4e 3c be d3 85 bd
       -0.03159892 0.02671907 0.012606612 -0.06534527
0003c0 8e 0f 3f bd b5 cb 31 3c c2 57 76 3b d8 5a a1 3d
       -0.046645693 0.01085179 0.0037588929 0.07878655
0003d0 e7 53 fd bc a7 cc 6d 3d 30 de d2 3c ff 77 18 3d
       -0.030923797 0.0580565 0.025740713 0.037223812
0003e0 a2 30 ae bc 13 d0 74 3c 2b ee 86 bd c2 c5 11 3d
       -0.021263424 0.014942187 -0.06588396 0.035588987
0003f0 eb e1 23 ba 78 f4 d8 3a 97 1a 98 bd df e8 df 3b
       -0.0006251621 0.001655235 -0.074269466 0.0068331803

action_model._continuous_distribution.mu.bias f4 [3]
000000 0c 20 85 bb 43 f6 90 39 61 2b 3f bb
       -0.004062658 0.000276493 -0.0029170143

action_model._discrete_distribution.branches.0.weight f4 [5, 128]
000000 dd 31 f4 3c 73 a0 c1 3c 6c 4a 88 3b 62 e6 83 3c
       0.029808933 0.023636078 0.0041592624 0.016101066
000010 7a 5a c3 bc 1f 9e a7 3b 72 7e 5e ba 06 42 00 3c
       -0.023846854 0.005115285 -0.000848747 0.007828241
000020 aa 2c cd 3c e3 5c 32 3c 2f d1 14 3c e4 8e ed 3a
       0.025045712 0.010886404 0.009083076 0.001812425
000030 83 d9 2e 3b b6 a4 ed 3a ee 7b 57 3c 41 f5 a6 3b
       0.002667994 0.0018130753 0.013152106 0.0050951545
000040 61 b5 2e bc 42 c6 2a 3c ac d3 af bc b0 1e 08 bc
       -0.010663361 0.010423245 -0.021463238 -0.008308098
000050 3f 2f 89 bc 8e 4d 84 bc 2c 41 89 ba cc 97 24 3c
       -0.016746162 -0.016150262 -0.0010471693 0.010045957
000060 7e 08 e2 bc 23 a5 61 bc 11 74 af bc 9b f7 4a bc
       -0.02759194 -0.013772282 -0.02141765 -0.012388135
000070 a3 05 b3 b9 63 4e 50 3c 3d 96 6e bc ac ff 83 3c
       -0.0003414574 0.012714001 -0.014562187 0.016113125
000080 d2 59 10 3c 91 57 a8 bb 73 d8 79 3c e7 d0 a9 3c
       0.008810477 -0.005137392 0.015249359 0.020729495
000090 ab ae 3c ba 6c 3f 43 3c c4 35 ef 3b a2 18 0e 3c
       -0.00071976584 0.011916976 0.0073001105 0.008672865
0000a0 de 18 4f bb fd 41 61 3c 04 58 e1 bb 6b a3 a5 3c
       -0.0031600515 0.013748643 -0.0068769474 0.020219525
0000b0 de 26 43 3c 73 51 c0 3a 5b 40 61 3c a4 71 5a 3c
       0.011911122 0.0014672711 0.013748254 0.013332758
0000c0 e3 b1 eb bc 3c 4a 80 3c b0 d9 12 3d a6 38 3d 3d
       -0.028771346 0.015660398 0.035852134 0.046196602
0000d0 8d 09 ba bc 26 03 fc 3c ac 52 db ba ab a0 0d 3d
       -0.022709632 0.03076322 -0.0016733012 0.034577053
0000e0 f2 ab 13 3c e6 15 1b 3a cf 5f 03 3d c1 33 8f bb
       0.009013163 0.0005916044 0.032073792 -0.004370183
0000f0 4a 49 db 3c 6e 5a 49 3c 3b b7 56 bb 39 85 84 3c
       0.026768345 0.0122896265 -0.0032763022 0.016176807
000100 53 45 d1 bc fc 6d 33 bc b4 7f 6a 3c 7a 66 ba 3b
       -0.025545752 -0.010951515 0.014312673 0.0056884857
000110 8a e1 2f 3c c2 1d 91 3c 3e 56 36 3c 6f a9 c0 3c
       0.010734925 0.017714385 0.01112896 0.023518292
000120 ad 92 80 bc 6d e1 82 bb cb b5 53 bc e8 7c 8a 3c
       -0.01569494 -0.003994158 -0.012921761 0.016905263
000130 32 5a f6 3b a7 2b 0b 3d d3 24 da 3a 6f b7 ea 3b
       0.0075180763 0.033977177 0.0016643055 0.0071629803
000140 89 da a8 3c 81 3e 28 bc e1 e8 89 ba b1 e4 00 bd
       0.020612018 -0.010268808 -0.0010521674 -0.031468097
000150 1d 7a de 3a 0c 52 a1 3a 31 40 58 3c 39 6c 8a 3c
       0.0016973648 0.0012307777 0.013198898 0.016897308
000160 1e ab c8 39 fc 9d e7 3c 28 39 22 3c e8 95 c5 3b
       0.00038274465 0.028273575 0.009901322 0.006029833
000170 fc ff 52 3c 8d 78 c9 bb 7f 71 ce bb ef 14 f4 bc
       0.012878414 -0.006148404 -0.006300151 -0.029795138
000180 22 24 21 3b d7 08 b4 3c fc 59 d6 bb 4f 42 be bc
       0.0024588187 0.021976871 -0.0065414887 -0.023224978
000190 7e c7 ad 3c a2 0b ed bc 0b 19 4e 3c 1b a7 e6 bc
       0.02121329 -0.028936211 0.012579213 -0.028155854
0001a0 a9 84 d1 3c 9a d1 0d bc 81 84 cc 3c ef f0 b8 3c
       0.025575953 -0.00865593 0.024965527 0.022575824
0001b0 bb ac bc 3b f8 fa de bb 64 0a 6c 3c df e9 54 bd
       0.0057578958 -0.00680482 0.014406774 -0.05198085
0001c0 3f ad 95 3b 07 b1 8a 3c eb d4 9c bc 20 93 29 bc
       0.0045677717 0.016930116 -0.019144496 -0.010350019
0001d0 33 e2 1c bd 0a ac cf 3c 6a 1a 45 3c 74 ed eb 3b
       -0.038301658 0.02535059 0.012030223 0.0071999375
0001e0 79 48 19 3c 27 06 bc bc 0a 10 02 bd 73 a7 f6 3c
       0.009355658 -0.022952152 -0.031753577 0.030109143
0001f0 a9 1c 41 ba b7 f2 03 3d fc 9e 06 bd e9 d0 97 3c
       -0.00073666364 0.032213893 -0.032866463 0.018532233
000200 7e b9 2c bc fe 2a 1a bd a0 af 6e bc 3d 3b 64 bc
       -0.010542272 -0.037638657 -0.014568239 -0.013930139
000210 07 7b 66 3c 1c 4d 53 bc 3e 32 dc bc c4 b4 26 3c
       0.014067418 -0.012896802 -0.026879426 0.010174934
000220 5e bb 44 bc a6 08 77 3c b4 d4 5e 3c 4f 6c 46 3a
       -0.012007562 0.015077746 0.013600517 0.000756924
000230 5d dc 55 bc 10 fb 43 bc fb a4 9e 3c 09 fd 08 3c
       -0.013053027 -0.011961713 0.019365778 0.0083611095
000240 d3 d8 82 bc 0e 37 ad bc 34 a4 f3 b8 83 51 7a 3a
       -0.01597253 -0.021144416 -0.00011617728 0.00095488894
000250 55 a2 71 3c da 54 a6 bc 49 bb 1d bc b8 9c 1e bc
       0.014748176 -0.020304132 -0.009627172 -0.009680919
000260 4d aa 92 3c 8a e6 76 bc a7 5a 17 3c 65 f8 e5 3b
       0.017903471 -0.015069613 0.009237922 0.0070181363
000270 0b 1a 53 3c 14 e2 9b bc e4 47 0b ba 85 09 e3 bb
       0.012884627 -0.0190287 -0.0005313142 -0.006928625
000280 60 45 62 3b 0d 3a d6 bb c3 3a 06 3d f0 1e 01 bd
       0.0034526214 -0.006537682 0.032770883 -0.031523645
000290 0c 97 23 3d c0 e0 94 bc bb 32 5c bc 39 92 8a 3c
       0.03993897 -0.018173575 -0.013439829 0.016915428
0002a0 33 b7 31 3c 1a 8c c5 bc a4 4d 1d 3b 62 8f 29 3b
       0.010846901 -0.024114657 0.0024002576 0.0025872816
0002b0 93 0e e9 3c 75 e5 c4 3c 9c 15 8d bc 12 62 b0 bc
       0.028449332 0.024035195 -0.017222218 -0.021531139
0002c0 1e 9b 35 3c c7 8c 76 bc af 77 7c 3c 08 e5 05 3d
       0.011084346 -0.015048212 0.015409394 0.032689124
0002d0 46 24 c2 3c f7 40 03 3d 91 dd 2c bc 20 e8 aa ba
       0.023698937 0.032044377 -0.010550872 -0.0013039149
0002e0 d8 0b 47 bd d1 97 2e 3c 13 d8 e6 bb 3c 96 63 bb
       -0.04859528 0.010656313 -0.007044801 -0.0034726998
0002f0 3e 24 da bc ec 23 a7 bc ac 33 96 bb d5 5b d8 bc
       -0.02662861 -0.020402871 -0.0045837965 -0.026410976
000300 8d 23 78 bb 0e 81 b0 bb df bf 60 bc 8a d6 8c bc
       -0.0037862987 -0.0053864783 -0.013717621 -0.017192144
000310 77 ce 0b bc 18 3d 81 bc 78 6d 86 bb 0d e4 0b bc
       -0.008533112 -0.015776202 -0.004102405 -0.008538258
000320 51 ab 24 3d 88 df b1 bc c9 5e c1 bc 1b c7 2c 38
       0.040202443 -0.021713033 -0.023604767 4.1193427e-05
000330 04 55 8f bc ff ea 07 bd 8d ed b3 bb 4f 34 56 ba
       -0.017496593 -0.033183094 -0.0054909647 -0.0008171247
000340 43 be c4 3b a3 ae 9d 3c b9 44 7b 3c 5b 0a 07 bc
       0.0060041263 0.019248312 0.015336209 -0.008242215
000350 05 76 e4 bb b2 4b a5 3c a3 ea 09 3d 6e 2c 01 bc
       -0.006972077 0.020177696 0.033671033 -0.007884128
000360 a6 f2 a7 3c 8a 58 96 3b a6 fc 3f bb 59 af d7 3c
       0.020501446 0.0045881914 -0.0029294877 0.02632873
000370 55 bd 91 bc eb 87 2d 3c 2f 18 c1 3b ba 06 a4 bc
       -0.017790476 0.010591487 0.0058927755 -0.020022739
000380 ea 7b 38 3c f8 96 2c 3c 46 21 22 3c 8a 1a 1f 3c
       0.011260012 0.010534041 0.009895628 0.009710917
000390 c8 a8 22 3d 2a 93 e1 3c e3 4a 87 3b 4d a9 81 3c
       0.039711744 0.027535994 0.0041288002 0.0158278
0003a0 56 af b2 3c e9 4e da bb 41 c2 50 bc 45 32 58 3c
       0.021812122 -0.006662239 -0.012741626 0.013195579
0003b0 21 48 3e 3c 7f 53 ca 3c 2f db 48 38 c8 dc 02 3c
       0.011613877 0.024698017 4.7887846e-05 0.007987209
0003c0 39 56 c6 bc fb 8e 74 bc 5c e8 c0 bc fa 88 17 3b
       -0.024211036 -0.014926667 -0.023548298 0.0023122416
0003d0 2f ef 15 bc e7 12 14 bb a2 7f 11 bd b5 fc c5 bc
       -0.009151264 -0.0022594274 -0.03552211 -0.024168352
0003e0 ca 25 07 bc 6b b9 d1 3c 5b 8d b9 bb 2a 0b 5f bc
       -0.008248756 0.02560111 -0.005662603 -0.013613502
0003f0 fd 25 36 3b 4d 17 d9 bc 25 85 aa bc 34 1d 5c bb
       0.002779364 -0.026500368 -0.020815441 -0.0033586742

action_model._discrete_distribution.branches.0.bias f4 [5]
000000 b0 be 45 bb 13 20 a5 3b 8f 07 77 bb 67 39 bf ba
       -0.0030173473 0.005039224 -0.0037693714 -0.0014589251
000010 8e 7f b3 3b
       0.005477852
