Assets/Brain/Tests/TestNew750k.onnx (onnx, 136172 bytes, 9 tensors)

network_body._body_endoder.seq_layers.0.weight f4 [128, 114]
00000000: 2305 1a3e 2564 f73d 402b 1e3c 7aaa 4a3d
00000010: 29a6 bcbd eea7 763d e802 24bb 29fd 5cbe
00000020: 41dc 903d 6987 153e 6dbf 3c3d 9782 dc3d
00000030: 1e80 5ebd 2f7d 2cbd a658 8d3c cf22 113e
00000040: 5398 1a3e 79f5 923d 94ee cdbd b981 bf3d
00000050: aa60 48bc 2c1a 0fbd 0ce7 053e 4f10 17bd
00000060: caf0 5e3d 0611 d63d dcd3 543c 1cd3 1f3d
00000070: df0d 0d3e e7b4 62bb 40ac 573c f562 e1bd
00000080: dffe fc3d ef6e 9dbc eec6 2bbe 1ed1 193b
00000090: ef11 ee3d 3bce 61bd 9040 19be dca2 943d
000000a0: b9c5 6fbc e0f6 5f3e 980d de3d 5dba 47be
000000b0: 814b 9d3d ba26 fbba 7645 733d 3f0a 5fbd
000000c0: 5b3b 813d a2c3 08bd 277d 33be 8636 773d
000000d0: ed7f 17bd f9a3 733b a381 7c3c e673 653d
000000e0: dfb6 bcbd 1bd1 4dbd d139 d93d cc24 883d
000000f0: af2e 4fbc ac30 61be b033 91be 1989 e73d
00000100: 55f8 febc 821d d1bd 3bbc 893c 598c 853d
00000110: 893b fabc 322a 88bc dd1c e13c e6e9 06bd
00000120: 6262 193d 54bb 9bbc 6e41 42bd 37e3 b3bd
00000130: 0d02 603d a6d4 2e3e 088b b7bd ba02 ef3d
00000140: b5f4 e03d cee6 673d 5016 303e b0f5 28bd
00000150: 333c 93bd c404 babc 5963 6bbd e657 0bbe
00000160: be6d 823c ad8d fa3d afac d4bd 2ef4 a73d
00000170: 1e15 533e 5856 80be be24 693e 9c0d 41bd
00000180: b7cf c1bd 413b 593d 1967 5cbd 2748 613c
00000190: 06db 1fbe 047a b2bd 6cce b4bc e58c 55bd
000001a0: a146 233c 1f00 68bd 8102 1dbe b5e4 e7bd
000001b0: 61af 313d f6fd 24bd 672a fcbc 0fed 2d3d
000001c0: 27f0 76bd 81fc d6bd 7df4 11bc 5ad9 673b
000001d0: b66a 0abe b5f2 423c 04f9 94bd cbbb d6bd
000001e0: 04f4 46bd a3c3 44bd e731 0f3d 9d0e 75bc
000001f0: 8983 81bd 0450 e9bd c2c2 54bd 6261 8e3d
00000200: 0214 153d 0425 b4bc 0400 75bd 52a7 473c
00000210: c0ec 083e f9e3 693d 82c2 423a af03 58bc
00000220: 8c97 92be bf59 d2bc b8d8 b93c b967 9d3d
00000230: e799 1ebd 34c4 2d3e ba83 aabd fb51 49bd
00000240: c531 93bb 6b19 39be 5989 2bbe f125 e4bd
00000250: f57a c8bc b681 11bc 9a04 5bbe aa9b 44be
00000260: 18d5 6bbd 3211 da3c 64e9 5bbc ef0b 10be
00000270: 4ada 133d 686b f23c 62d4 853c b801 13be
00000280: 66e4 5ebd 15c6 383d cfab 7b3d 29b7 bebd
00000290: 804b 30bd 2d90 313e 0e16 00bd 0860 593d
000002a0: 3937 f33d 7b3b a93b 4b10 393e 5ec9 363d
000002b0: d589 253e 5d72 16be 7835 fcbd a89c 91bd
000002c0: 0ad5 bd3c 3fad 963d decb d33b 4356 9f3d
000002d0: cc4c 86bd b4c5 b9bd a1bb 9b3c af64 43be
000002e0: 5018 b03c 38a9 d7bd beba 2f3c 2b43 31be
000002f0: 760c 63be 66e0 aa3c ae07 d2bd cf43 023e
00000300: e0b9 d23d daa0 b3bd 032e 013d aeeb 54bc
00000310: 1627 a2bd c93d d13d a618 21bd bb7b a83d
00000320: ec43 c73b 5217 44bd 3512 ff3c 641f 08be
00000330: 567f e9bd 1002 19be be1f 3a3d f358 833d
00000340: a74e 52be 9e2d 5dbd 1d41 dd3d 87e9 34bd
00000350: aebc 17bd d59b 0c3e 2d39 99bd eac5 cbbd
00000360: 712c f0bd a4de 21be 458d 413d 2c6c f83d
00000370: 609e dd3d b2c4 2b3c 25ba e83c 8652 2a3d
00000380: 8e1f b1bc ee5c 8abd ac35 063d 5cdc e13d
00000390: b66a 2fbe fc0c 1e3d 53ad 493d 74c8 acbb
000003a0: 42f9 6a3d bc47 443c 649c 87bd a741 9abc
000003b0: 8eaf 823d 29d1 2b3e db6e ab3d 9278 113c
000003c0: 55a4 68bd 8b59 a1bd 0a22 16be 6f47 453d
000003d0: 77bf 97bd e71c 0b3e 45db e9bb dfff cc3c
000003e0: c6dd 30bd 513c a13c 761b d1bc 229d acbc
000003f0: 8dcd 1fbe 1cd4 653e a9f3 903b 9f06 ebbd
0.15041022 0.12079648 0.009653866 0.049478985 -0.0921138 0.060218744 -0.0025026146 -0.21580948
0.0707326 0.14602436 0.046080995 0.107670955 -0.0543214 -0.042111572 0.017254185 0.14173435
0.1509717 0.071757264 -0.10055271 0.093509145 -0.012230078 -0.03493707 0.13076419 -0.036880787
0.054428853 0.10452466 0.012989964 0.03901969 0.13774823 -0.003459269 0.013163626 -0.11005203
0.123533 -0.019217936 -0.16775104 0.002347059 0.11624514 -0.055128317 -0.14966035 0.072576255
-0.014634543 0.21871519 0.108424366 -0.19504686 0.07680417 -0.0019161322 0.059392415 -0.05445313
0.06310149 -0.033389695 -0.1752821 0.060354732 -0.036987234 0.0037176593 0.015411767 0.056018732
-0.092145674 -0.050248247 0.10606731 0.066476434 -0.012645408 -0.21991223 -0.28359747 0.11305446
-0.031124273 -0.10210706 0.016813388 0.0652091 -0.030545967 -0.016621683 0.027479583 -0.032937907
0.03744734 -0.019010223 -0.04742568 -0.08783572 0.054689456 0.17073306 -0.08962065 0.11670442
0.10984174 0.056616597 0.17196012 -0.04124993 -0.071892165 -0.02270735 -0.057467792 -0.1360775
0.01592147 0.12234054 -0.10384499 0.082008705 0.20613524 -0.25065875 0.22767922 -0.04713212
-0.094634466 0.053035025 -0.05380926 0.013750113 -0.15610895 -0.08714679 -0.022071086 -0.05213632
0.00996557 -0.05664074 -0.15332986 -0.11322919 0.043380145 -0.04028126 -0.030781938 0.042462405
-0.06028762 -0.1049738 -0.008908388 0.0035377354 -0.1351727 0.011898686 -0.072740585 -0.104850374
-0.048572555 -0.048038136 0.0349597 -0.014957097 -0.063239165 -0.11392215 -0.051943548 0.06952168
0.036396034 -0.021990307 -0.059814468 0.012185888 0.13371563 0.057102177 0.00074294966 -0.013184472
-0.28631246 -0.02567756 0.022686347 0.07685799 -0.03872099 0.16969377 -0.08325906 -0.04915045
-0.004492017 -0.18076102 -0.16751613 -0.11140049 -0.024472693 -0.008881023 -0.21388474 -0.19200006
-0.05757627 0.026619527 -0.013422344 -0.14067052 0.03609685 0.02959223 0.016336624 -0.14356124
-0.054417036 0.04511078 0.061443146 -0.09312279 -0.043040752 0.17340155 -0.031271033 0.0530701
0.11875767 0.0051645613 0.18072622 0.044625632 0.1616586 -0.14692064 -0.12314886 -0.07109958
0.023172874 0.07357263 0.006463512 0.07780125 -0.065576166 -0.09070912 0.019010367 -0.19081376
0.021495968 -0.10530323 0.010725675 -0.17310779 -0.22172722 0.020858955 -0.10255371 0.1272118
0.10289359 -0.087709144 0.03153802 -0.012995644 -0.07917611 0.10216863 -0.039330147 0.08226725
0.006081095 -0.047873802 0.031136611 -0.13293225 -0.114012405 -0.14942193 0.045440428 0.0641345
-0.20537816 -0.053998582 0.10803435 -0.04416802 -0.037045173 0.1373132 -0.074816085 -0.099498585
-0.117272265 -0.15807587 0.047253866 0.12130007 0.10821223 0.010483908 0.028409073 0.041582607
-0.021621492 -0.06756006 0.03276603 0.11028358 -0.1713055 0.0385866 0.04923756 -0.0052729193
0.057366617 0.011979993 -0.06621626 -0.018830134 0.06381141 0.16779007 0.083707534 0.008878844
-0.056797344 -0.07878407 -0.14661422 0.048163828 -0.07409566 0.13585244 -0.0071367347 0.025024353
-0.04318025 0.019682081 -0.02552579 -0.02107102 -0.15605755 0.22444195 0.004423578 -0.11475872

network_body._body_endoder.seq_layers.0.bias f4 [128]
00000000: 2f12 123b 9359 5bbc 9ed1 283c 4f25 4fbb
00000010: c760 80bb c656 c93c 0708 b8bb 9a13 8c3c
00000020: 2041 8a3c 18c7 d13b 5984 dd3c 36a8 173c
00000030: 3868 133c e3d7 2ebb 236e 193c fc22 543c
00000040: 79f3 bb3c 33fb 2b3c 851b eebc 8eb2 81bc
00000050: 7ada 2d3b 536c 5d3c 96c9 133b 4ebd 633c
00000060: ae3f 973b 55dd b03c 691f 423c 8fc1 65bb
00000070: a897 1b3c 431e 21bc 5f5b ad3c c961 893c
00000080: fb0c 293c 12a7 6c3b b3fa 0b3d 5fe7 cd3a
00000090: 30e5 ec3a 4ecb 393c 8c48 4b3b b287 1d3c
000000a0: 52b5 a63c 777c 903c f19d 8d3c 4a5d e43b
000000b0: 14e5 4e3b d5a4 453c 81f5 6b3a 1c8f 043d
000000c0: 7896 ce3c f4eb 30bb f0b5 c43c 554f 963c
000000d0: 9b90 9c3c bb3a 213c 9785 03bc eafd 1d3c
000000e0: afa9 c5bb 18e7 3b3b ad22 30ba 23ec f53b
000000f0: e5b6 2e3c c6aa 41ba 9b0b d83b e29a ff3b
00000100: 583e d83c 4a18 17bc b501 8e3c bdd0 9e3c
00000110: bdca 0c3d bf40 f63b 733f c03c f2e5 263b
00000120: d522 f8bb 0238 b6bb 2d3e a83c b3ef 753c
00000130: 10e1 533c 1b95 973c 3874 9f3c a137 393c
00000140: 470d 803c 22bb 8f3c 3582 e03c c27a 50bc
00000150: 01b9 a43a 858d 4bbb 6b8b 213c 6ccb 30bc
00000160: 8a56 13bc 210e 81ba 1db4 483b 5602 303c
00000170: e452 2d3c b722 953c 3903 f63b 5996 ef3c
00000180: 9aa5 f3bb 5fce 493c 555a a53c 298b 89bb
00000190: 6b09 12bd f048 273c 86b9 473a 3e02 0fbc
000001a0: 52b2 e83c ba33 e93b bc26 073a 531e ee3c
000001b0: 56bf ed3c be74 873c 8599 a9ba 6bfe a5bc
000001c0: e724 22bc 9ed4 fdbb a3de 863c 7839 13bc
000001d0: f84a e93b 1a09 0d3c 0a9d 223c 53e9 3b3c
000001e0: f93c ceba 0a0f cb3b e5d7 303c b92d 9c3b
000001f0: 52fb ef3c 7652 d639 a7f1 203c 33de 713c
0.002228867 -0.013388055 0.010303883 -0.003160793 -0.0039177868 0.02457751 -0.0056161913 0.01709919
0.016876757 0.0064019077 0.027040647 0.009256413 0.008997016 -0.0026678971 0.009364638 0.012947794
0.022943245 0.010496902 -0.029065857 -0.015832212 0.0026527927 0.013514596 0.0022550575 0.013900114
0.0046157455 0.021589914 0.011848309 -0.0035057997 0.009496607 -0.009833875 0.021161733 0.01677026
0.010318036 0.0036110324 0.034174632 0.0015709213 0.0018073674 0.0113399755 0.0031018583 0.009614872
0.020350132 0.017637474 0.017287226 0.0069691287 0.0031569647 0.012063225 0.00090011215 0.032363042
0.025218233 -0.0026996108 0.024012536 0.018348375 0.019111922 0.009840663 -0.008027456 0.009643057
-0.0060321908 0.0028671678 -0.0006719034 0.0075049563 0.010663723 -0.0007387813 0.0065931804 0.007800446
0.026396915 -0.0092221 0.017334798 0.019386644 0.034373034 0.0075150426 0.023467755 0.0025466648
-0.0075725117 -0.005560876 0.02053746 0.015010762 0.012932077 0.018503716 0.019464597 0.011304767
0.015631331 0.017545287 0.027405838 -0.01272458 0.0012567342 -0.0031059694 0.0098599 -0.010790687
-0.0089928005 -0.000984613 0.0030624934 0.010742744 0.010578845 0.01820503 0.0075077084 0.029246496
-0.0074355127 0.012317269 0.020184675 -0.0041974974 -0.035653513 0.010210261 0.00076188927 -0.008728562
0.028405342 0.007116762 0.0005155613 0.029067194 0.0290219 0.01653516 -0.0012939429 -0.020262918
-0.0098964935 -0.007746293 0.016463583 -0.00898587 0.0071195327 0.008608127 0.009925136 0.011469203
-0.0015734724 0.006196861 0.010793661 0.0047661928 0.029294644 0.000408787 0.009823239 0.014762449

network_body._body_endoder.seq_layers.2.weight f4 [128, 128]
00000000: d63f 2b3d b766 48bd 14be 2bbd 53b2 b2bd
00000010: a361 20bd 91d8 a6bd e46e 8f3b 808d 7a3d
00000020: fef2 283c 87ca 54bc 9bea 12bd 8f2e 65bc
00000030: 336f 02be 2932 2c3e c95c cf3d 2419 013e
00000040: 9906 c53c 1b09 2abd b7a5 983d 271e 93bd
00000050: 97c5 1bbd 5150 4fbd 9d3c 17be 946a 95bd
00000060: 625d 793d 00cc 1fbe 64da afbd 7514 69bd
00000070: 22a2 cabc f7ce cebc 5c42 a33c 17f4 f2bc
00000080: fec7 0a3d ee27 373e 1f28 3b3e a5da 223e
00000090: 3478 fa3c afad afbd bf53 4f3d ef2a 043e
000000a0: beb6 c93c fcce 223e 262a d63d fe1c 8a3d
000000b0: 320d dc3c 5ce7 6a3c 1e6e 043e e2c6 19be
000000c0: c1cd c4bc 0169 2ebd fe82 983d d6a7 7c3d
000000d0: a365 ba3c 02f4 ee3b 0520 a7bd e1a3 50bd
000000e0: b37f fabd fbff 173c b189 b13c 0447 213e
000000f0: 7f9c 813d d84f 09bd 8544 c63b 6a78 3a3d
00000100: b67b 14be 515f 4f3a 0c24 d9bd bd2c d0bc
00000110: 70df a43d c834 2f3e fad2 cb3b f623 683d
00000120: c5d0 0b3e 54c0 493c c743 cebd 9437 23bd
00000130: 2ad6 d33c f677 c0bb 7a9f 853d b285 0b3d
00000140: 1068 aabd a7ae 96bc 1580 193b 73d0 fbbd
00000150: 53dc f5bc b04b ba3d c0df 0fbc 172b 52bc
00000160: 6da8 ddbd bc78 42bd c8b4 b83c ab90 e33d
00000170: 6ef2 c2bd 71b6 c8bd f452 d93d bba0 96bd
00000180: a619 57bd ab8d 9a3b 4b86 0dbd 0d9f 13be
00000190: 8a92 533c d082 0b3d a630 24be 8efb 93bc
000001a0: 2c8b 7dbc db1b debc ac47 a63d 3f4b d4bc
000001b0: bbdd 993e d4fe 173d 3799 d0bc cc8e 35be
000001c0: 3ff4 ce3c c43a 6cbc e98c a9bd 8e0a 9f3b
000001d0: e1e0 21bb 5d86 22bd fcb9 4e3d 3441 13be
000001e0: f561 d6bb 37ad ec3b d064 b8bc cd14 0fbe
000001f0: 475f 20be 3824 763d 7028 f2bd 757f 0f3e
00000200: 5f5f dc3b ae83 353d b5c5 e03c ebbe 9abd
00000210: 707c 173e 2c4d 98bb 0773 26be 1e14 3f3e
00000220: 3981 b53d 287c 39bb 9289 e53c b505 acbd
00000230: 27c7 f9bc f370 d63d 8a90 79bb 18b9 78bd
00000240: 47f3 41be fd72 11bd 0d1f a43d abd3 8bbd
00000250: 06e2 1e3e a026 71bb a976 7fbc 11ed 9b3d
00000260: 551c 033c c6f7 55bd 15fd 5c3d 8dc7 acbd
00000270: dd44 bdbd 1b4d d63c 693d 0abd c8a9 5d3e
00000280: 1dea febc e02d 093e df32 663c d45e c93d
00000290: 8b25 12be 2aa2 01be 7c1e 6ebb ef49 3a3c
000002a0: e1e8 953d 4408 4ebc 8548 f1bc 6738 babd
000002b0: 8433 8d3d bd24 9f3d 79de 7e3d 6e29 213e
000002c0: 2976 8dbd 93f6 003e adf7 0abd 9e4e c7bc
000002d0: 5365 1ebd cdc7 8a3d 6d08 5abb 4f58 9a3c
000002e0: 1dee 46bd 5cb6 64bd d112 163e 27a0 4c3d
000002f0: 65da a93d a1fa 853d 8432 d8bd c9a3 ccbc
00000300: 1dd6 263e a26d a8bc 801e a8bc 5fbe 5fbe
00000310: 6ff7 ef3b cb10 ddbd 1ec0 4b3d cb93 4cbc
00000320: c6b0 cdbd 2a39 6c3d 3be3 b0bd 5383 963d
00000330: c431 f53d 2ecc 1e3e d9b3 d93c 1b63 04be
00000340: 487a eb3d 2bab d43d 3b66 543d 491d 863d
00000350: 1565 0cbe fa71 b1bd 3265 7d3d 5eb5 843d
00000360: 8121 03be b23b 673c bd11 2f3c 8c4c 083e
00000370: 833d 7c3c 413e fa3d 43df a1bd f8b9 a43d
00000380: e810 9b3d fa7f 5c3e e421 8dbd 1fa7 373e
00000390: f1a6 5b3d 0f46 b9bd 81f1 2fbd 41d0 46bd
000003a0: c162 803d a4a7 19be 7f72 933d b37e 5a3d
000003b0: dc9f afbd 65b9 a5bc 4ddb 5c3c ecb0 f0bc
000003c0: a86e b4bd 4658 923d f1bb 9abd aefc e53d
000003d0: 9406 82bd f9ef 133d a8c3 493c f3d4 9ebd
000003e0: ed8d fb3c a493 4e3d 6baa f6bc 4e19 bd3d
000003f0: 6205 28bd fed9 793c b8e0 b13a 95aa ae3c
0.041808926 -0.04892608 -0.04192932 -0.08725419 -0.039155614 -0.081467755 0.004377233 0.0611701
0.01031184 -0.012987739 -0.03586827 -0.013988151 -0.12737732 0.1681601 0.10125119 0.12607247
0.024050998 -0.04151259 0.074534826 -0.071834855 -0.038030233 -0.050613705 -0.14769216 -0.07295719
0.060880072 -0.15605164 -0.085865766 -0.056904275 -0.024735514 -0.025245173 0.019929104 -0.029657407
0.033882134 0.17886326 0.18277024 0.15903719 0.030574895 -0.085780494 0.050616976 0.12907003
0.024623271 0.15899271 0.10457258 0.06743811 0.02686176 0.014337387 0.12932631 -0.15017274
-0.024023892 -0.04258061 0.0744686 0.0616835 0.022753542 0.0072922716 -0.08160404 -0.050937537
-0.12231388 0.009277339 0.021672102 0.15749747 0.063286774 -0.03352341 0.0060506486 0.045524992
-0.14500317 0.00079106266 -0.106025785 -0.025411958 0.0805043 0.17109978 0.0062202187 0.05667492
0.13653858 0.012313921 -0.10071521 -0.039847925 0.025858957 -0.0058736755 0.06524558 0.03406305
-0.083206296 -0.018393828 0.002342229 -0.12295618 -0.030012285 0.090964675 -0.0087813735 -0.012827656
-0.1082314 -0.047478423 0.02254714 0.111115776 -0.09518896 -0.09800423 0.10611525 -0.07354876
-0.052514695 0.004716595 -0.0345519 -0.14416142 0.012913356 0.0340603 -0.16034183 -0.018064287
-0.015475076 -0.027112892 0.08119139 -0.025914786 0.3005198 0.037108257 -0.025463684 -0.17730254
0.02526295 -0.014418308 -0.082788296 0.004853553 -0.0024700689 -0.03967892 0.050470337 -0.14380342
-0.006542439 0.0072227973 -0.022509009 -0.13972779 -0.15661345 0.060093135 -0.11824119 0.14013465
0.0067252363 0.044315033 0.027438024 -0.07555946 0.14793563 -0.0046478715 -0.16254817 0.18660018
0.08862538 -0.0028302763 0.0280197 -0.08399526 -0.030490471 0.10470762 -0.0038080537 -0.060723394
-0.18940459 -0.035510052 0.08013735 -0.06827482 0.15515909 -0.0036796704 -0.015592256 0.07613576
0.00800236 -0.05223825 0.053952295 -0.08436499 -0.0924165 0.026159814 -0.03374997 0.21646798
-0.031117493 0.13396406 0.014050215 0.0983254 -0.14272134 -0.12659517 -0.0036334088 0.011370166
0.07319809 -0.012575213 -0.029453525 -0.09092789 0.068945915 0.07770679 0.062223885 0.1573846
-0.06907303 0.1259406 -0.03392761 -0.02432948 -0.03867085 0.0677639 -0.0033269182 0.018840937
-0.048566926 -0.055837974 0.14655615 0.04995742 0.082936086 0.06541944 -0.1055651 -0.024980443
0.16292615 -0.02056009 -0.020522356 -0.21849965 0.0073231976 -0.10794219 0.049743764 -0.012486408
-0.100434825 0.057671703 -0.08637091 0.07349267 0.11972383 0.15507576 0.026575016 -0.1292843
0.11497933 0.1038421 0.051855307 0.065485545 -0.13710435 -0.086643174 0.061864085 0.064799055
-0.1280575 0.014113354 0.0106853815 0.1331045 0.015395525 0.12218905 -0.07903912 0.08043283
0.07571584 0.21533194 -0.0689123 0.17934845 0.053626005 -0.09046566 -0.042954925 -0.04853845
0.06268836 -0.15005356 0.07199573 0.053343486 -0.08575413 -0.020230005 0.01348002 -0.029381238
-0.088101685 0.07145743 -0.07555378 0.112298355 -0.06348911 0.036117528 0.0123147145 -0.077554606
0.030707324 0.05043377 -0.030110558 0.09233342 -0.04102076 0.015249727 0.0013571 0.021321574

network_body._body_endoder.seq_layers.2.bias f4 [128]
00000000: 2ef5 323c 7803 3b3b 3c91 863b b9f6 d03a
00000010: 3242 e13b 533d 923b 7f55 383c 7b1a 2c3c
00000020: cca6 473c 87e5 d03c 52f7 143c fcb6 ad3c
00000030: ad80 943c 4e67 b03c 93f0 403b d63f 5d3c
00000040: e1ab 69bb 10be cd3a dcb1 103c 7e84 403a
00000050: 6f6e 003c 201c 1d3c 7a3e 863c 05e7 823c
00000060: 2628 c63c 2863 433c e98a 1d3c a845 813c
00000070: ea91 013b 0706 693c 7c94 023c ad72 3abc
00000080: 1952 af3c 10e0 41bc 2267 6cbb 47f1 29bc
00000090: 22f3 513c d2aa e138 9280 d13b 0df4 463c
000000a0: 9c8d c3b9 4b11 393c 2402 90ba 6cfa fe3b
000000b0: 2deb 1e3c 8a3d 903b 7238 373c f655 633c
000000c0: 4b5d 8d3c 10c5 753b 1fb8 5dba cbda 6b3b
000000d0: 7e30 283c dd47 c1ba 3c79 b63a a509 0d3c
000000e0: cb8e 633b 7c65 5f3c ed71 033c b1d5 313c
000000f0: cbfc 11bd e1fb 53b8 5b6c 623c 8656 07b8
00000100: e4f2 f939 fc74 acbb 18fe 623b dfb4 063c
00000110: 12e0 98bb e23a 043a ba16 79ba 7087 883b
00000120: 6e1f 273b 525e 873c 42ef 99ba 7100 233b
00000130: a80c 7a3b 4302 d93a 7d84 fc3b 2712 06ba
00000140: a6fa df3b aa8d 903c 0e9c bdbb ccf6 603c
00000150: 4a54 c4bb 8c88 ee3b dc7e b83b 29a0 e43a
00000160: 4e78 0a3c 9e7f 913b c72b 083a 7f23 b8bb
00000170: 043d 913c 713d 1cbb f974 c73b a0d1 843c
00000180: 4d77 33bc 1073 1d3c 9976 463c 2bb6 2e3c
00000190: e8a3 803b 57aa 833b 0e79 8d3c e8de 7c3c
000001a0: b087 963c 3a1d dd3b abdb 2b3b e1db bb3b
000001b0: 0937 1e3c f625 293c 3a09 66bb 295b 453b
000001c0: 1dfc 763b 3bfa 943c 6657 8e3b 9140 7bbb
000001d0: 7e6c b13b eea0 c13c 462e 073b ea59 583b
000001e0: 25b8 103c d4c6 623c 081a 313c b34e 103c
000001f0: 6234 ba3b 27b1 133b 610a 3a3c a8b6 363c
0.010922713 0.0028536003 0.0041066688 0.001594267 0.006874346 0.004462877 0.011250853 0.01050436
0.012185764 0.025500072 0.009092169 0.021205418 0.018127764 0.021533635 0.0029440268 0.013503989
-0.0035655426 0.0015696902 0.0088314675 0.00073439616 0.007838829 0.009589225 0.016387213 0.0159793
0.024189066 0.011925496 0.009615638 0.015780285 0.001977081 0.014222628 0.007969972 -0.01137988
0.021401452 -0.011833206 -0.0036072214 -0.010372466 0.012814315 0.00010760654 0.0063935006 0.012143147
-0.00037298806 0.011295627 -0.0010986966 0.0077813175 0.009699625 0.0044018673 0.011182891 0.013875475
0.0172564 0.0037501492 -0.0008457917 0.0035988565 0.010265468 -0.0014746148 0.0013921629 0.0086082565
0.0034722562 0.013635036 0.0080227675 0.010854171 -0.035641473 -5.05409e-05 0.013819779 -3.226709e-05
0.0004767395 -0.005262969 0.0034636315 0.008221834 -0.004665383 0.00050441746 -0.0009501983 0.004166536
0.0025500911 0.016524468 -0.0011744278 0.002487209 0.0038154516 0.001655646 0.0077062235 -0.0005114399
0.0068352995 0.017645676 -0.0057864254 0.013730716 -0.0059914934 0.0072794612 0.005630357 0.0017442751
0.008451534 0.004440262 0.00051945116 -0.005619466 0.01772929 -0.0023840333 0.0060869423 0.016213238
-0.0109537365 0.009609953 0.012113237 0.010663549 0.003925789 0.004018109 0.017269637 0.015434004
0.018375248 0.006747869 0.0026223462 0.0057329987 0.009656676 0.010323992 -0.0035100714 0.003011415
0.0037686892 0.018185725 0.004343915 -0.0038338045 0.0054145446 0.023636308 0.0020626946 0.0033012577
0.008832966 0.01384135 0.010809429 0.008807826 0.005682514 0.002253601 0.011355014 0.011151947

action_model._continuous_distribution.log_sigma f4 [1, 3]
00000000: 2af8 72bc 8b53 a3bc 698b 3cbc
-0.014829675 -0.019937297 -0.011507847

action_model._continuous_distribution.mu.weight f4 [3, 128]
00000000: 373e 9a3c 262c 38bc d18b bfbc 5a82 57bd
00000010: 0f6e 2abc 6e78 ccbb 02f7 84bd 55a4 033d
00000020: 3450 403c f18e 75bc af76 84bc 47f0 3f3d
00000030: 47f6 2fbb 4525 24bd f0df 4f3d 010b 41bd
00000040: b56f 093d 6803 0b3d f776 00bd 8c21 eb3c
00000050: e23f 01bd d963 29bd eeed e9bb 42c3 12bd
00000060: a108 29b9 95dc 50bd c9f3 373c 2b35 0a3d
00000070: 930d 5e3c bee2 21bd 42be 1cbd d35d 1a3c
00000080: 46ed a2bc 97a8 483c 5891 763c 7fce f93a
00000090: 2281 32bd 82b6 553c b75a 2dbd a41e 15bc
000000a0: c6f3 c83b 87a8 42bd 90ce 753b 1561 a73b
000000b0: 6b2c 0a3d 520d e7bc b862 a0bc e3ac 0abc
000000c0: 46fc e13c 60a5 fa3c d6b6 443d 9c96 883c
000000d0: c0e0 f7bc 5bcc ebbb b5e3 fcbb 763e 1b3d
000000e0: 06fc 8d3c 5277 7cbd 9d05 b2bc 1834 6bbd
000000f0: 20f0 7dbb 178e 463c d505 283d 063d e73c
00000100: f0cb dbbb 112c 12bd 6bb8 5dbb a84c 1bbd
00000110: 0508 00bd 9dcf b6bc 91dc 9bbc 5a3a febc
00000120: 35bb 91bb 0274 f7bb 34f2 253d d5f0 e2bc
00000130: b64f d839 9386 4439 b079 a43b 0f26 5c3b
00000140: e381 da3b a6f9 323d f704 443c 01d0 66bc
00000150: 826f a0ba 2a78 5fbb 7f09 273d 71f8 853d
00000160: 8fc3 2cbd 8f9d 12bc c7b5 03bb 719b 253b
00000170: 264c b5bc ccdb 083d 84e3 f03c 79f9 c73c
00000180: ca95 49bb c59c 03bd 1963 53bd 1c0f 0f3c
00000190: 93c7 d03b c0d7 0f3d 38c8 2ebd fd44 bebb
000001a0: a471 42bd a1df 18bc 86d0 273c 9ab9 03bd
000001b0: 7156 983c da91 38bd 3819 71bc 9ea9 ed3c
000001c0: 225b acbc 9089 bdbc 930a cdbc 3d78 de3c
000001d0: 7438 dcbb 0ce9 32bd a017 5d3c f9b0 383b
000001e0: 542b ab3c 1b9a 85bd 5420 9cbb 4a02 073d
000001f0: b6b2 8a3d aa5e 323c 8bb4 883c 4c6a 5e3b
00000200: 09f8 c33c d3c8 2f3d 2fb6 5b3c a80e 35bd
00000210: 70e6 4a3c 2702 3fbd ef39 4d38 381a 543d
00000220: a8a8 2c3d bf14 3d3d b525 babc a37a 81ba
00000230: b174 953d 0f1a 53bb e0f6 b13c 40de 713d
00000240: b8fb b93c f41a 243d 5da6 6fbc 7432 833c
00000250: d3d5 de3c 5610 223c f2c5 5dbd 42ca 15bc
00000260: cd12 9ebc 02e7 253c d89a 4bbd 55c1 a6bc
00000270: b1fd 103c a192 e23c bfae 923c 78cf 11bb
00000280: 6428 953c 1914 5abb de14 ae3b 8f93 0abd
00000290: e321 8abb f987 e8bc cdaa 653c 9c22 bcbc
000002a0: 4e02 62bd 4ba2 083c bef1 5b3d 0c0d 65bc
000002b0: 56fe d4ba 9e66 05bd f816 233d 0ebd 4fbb
000002c0: 6582 b0bc 590f 34bd 6062 2bbc bc5a cfbc
000002d0: 1472 753d 3c29 083d 2924 d7bc 3f5c a4bc
000002e0: 7549 23bd 5a60 ed3b 44da d23c 22c9 88bc
000002f0: 4c53 5dbc 06c8 d23c 3918 be3c d63c f6bc
00000300: 0071 c23b 8765 6c3c 3c91 183d 4789 ec3b
00000310: a694 b63c 99ae 85bd 6683 853c 3b01 bcba
00000320: 4bde e3bc 0524 00bd 0aa6 ba3b 0da2 71bc
00000330: da84 b0bb 22e0 743b eedf 46bd 4d27 a3bc
00000340: 1f30 8dbd b728 943c 073a 02bd 7ea5 eebc
00000350: 2ab5 913b 6cfe 0cbd a5e8 bebb 46d4 723c
00000360: f864 bcbc fa89 1cbc 843a abbc cf4b 94bc
00000370: 1227 1dbd 16e9 cabc 72fd ee3b d51c 30bc
00000380: 0973 9cbc 2463 093c 212e bb3c bf6a 3d3d
00000390: 750f ddbc 9941 37bc ee74 0e3d b1c1 6b3d
000003a0: fa08 1d3d 746c 37bd 61e3 a13b 6d9d 1dbc
000003b0: 1290 053d 4f70 73bc 6b47 1fbc a728 66bc
000003c0: 2416 03bd 89db fcbc b0ff 59bd 4f0f 0dbd
000003d0: 74ca 83bd 365d 9c3c 5f7e 6f3c f5b7 4c3c
000003e0: f1b0 473d c81a 603c e29f 9b39 af5b 683d
000003f0: 8720 423d c4dc 533c 195a 14bd ba7e 3b3d
0.018828494 -0.011240995 -0.0233821 -0.052614547 -0.010402217 -0.0062399423 -0.064924255 0.03213914
0.011737872 -0.014987693 -0.016169874 0.046860006 -0.0026849674 -0.040074605 0.050750673 -0.047129635
0.033553798 0.033938795 -0.031363454 0.02870252 -0.031555064 -0.041354988 -0.007138959 -0.035830744
-0.0001612031 -0.050991613 0.0112275565 0.03374211 0.013553041 -0.03952288 -0.03826738 0.0094217835
-0.019888531 0.012247226 0.015049301 0.0019058733 -0.043580182 0.013044002 -0.04232284 -0.009101544
0.0061325757 -0.047524 0.0037507154 0.0051080086 0.033733767 -0.028204594 -0.019578323 -0.008464071
0.027586114 0.030596435 0.04802593 0.016673379 -0.030258536 -0.007195992 -0.0077175745 0.037901364
0.017332088 -0.06163723 -0.021731192 -0.057422727 -0.0038747862 0.012118838 0.041021187 0.02822734
-0.006707661 -0.035686556 -0.0033831846 -0.037914902 -0.031257648 -0.022315795 -0.019026073 -0.031033684
-0.0044473656 -0.007551671 0.040514186 -0.027702728 0.0004125812 0.0001874215 0.005019389 0.003359202
0.0066683157 0.043695115 0.011964074 -0.014087678 -0.0012240263 -0.0034098723 0.04078054 0.06541527
-0.042178687 -0.008948698 -0.0020097361 0.0025269652 -0.022131037 0.03341274 0.029405363 0.02441095
-0.0030759447 -0.03213193 -0.05160818 0.00873163 0.0063714474 0.035117865 -0.042671412 -0.005806564
-0.047471657 -0.009330661 0.010242587 -0.032159425 0.018595906 -0.04506097 -0.014715485 0.029011544
-0.02103955 -0.023136884 -0.025029456 0.027156943 -0.006720597 -0.043679282 0.013494402 0.0028181656
0.020894684 -0.06523534 -0.004764596 0.032961167 0.06772368 0.0108868275 0.016687652 0.003393787
0.023921983 0.04291613 0.013410135 -0.04420343 0.012384042 -0.046632912 4.8929764e-05 0.051782817
0.04215303 0.046162363 -0.022723058 -0.0009878468 0.07297648 -0.0032211577 0.021724164 0.059049845
0.022703037 0.040064767 -0.014627066 0.016015269 0.027201569 0.00989159 -0.054143853 -0.00914246
-0.019296074 0.010125877 -0.049708217 -0.02035586 0.008849547 0.027657809 0.017905591 -0.0022248905
0.018207736 -0.003327614 0.005312546 -0.03383213 -0.0042154654 -0.02838515 0.014017773 -0.022965722
-0.05517798 0.008339475 0.05369734 -0.013980161 -0.0016250114 -0.032568567 0.039816827 -0.0031698379
-0.021546552 -0.04395995 -0.010460466 -0.02531182 0.059923247 0.03324245 -0.02626236 -0.020063518
-0.039864976 0.007244152 0.025738843 -0.01669747 -0.013508629 0.025730144 0.02320491 -0.030058306
0.005933881 0.014428503 0.03724788 0.007218513 0.022287678 -0.065274425 0.016298007 -0.0014343628
-0.027815958 -0.03128435 0.005696063 -0.014748109 -0.005386931 0.003736504 -0.0485534 -0.019916201
-0.06893944 0.01808582 -0.03179362 -0.029131647 0.0044466453 -0.034422323 -0.0058260732 0.014821118
-0.022997364 -0.009554381 -0.020901926 -0.018102555 -0.03836734 -0.024769347 0.0072933966 -0.010749062
-0.019097822 0.008385453 0.022849144 0.04624438 -0.02698491 -0.011185073 0.03477948 0.057557765
0.03833864 -0.044781163 0.0049404358 -0.009620053 0.0326081 -0.014858319 -0.009721617 -0.014047778
-0.032003537 -0.030866401 -0.05322236 -0.034438428 -0.06435099 0.019087415 0.014617532 0.012495031
0.04875273 0.01367826 0.00029683026 0.05672806 0.0473943 0.012931053 -0.036218736 0.045775153

action_model._continuous_distribution.mu.bias f4 [3]
00000000: d734 2bbb 231c 623b c66e 013c
-0.0026124024 0.0034501634 0.007899946

action_model._discrete_distribution.branches.0.weight f4 [5, 128]
00000000: 5af2 453b d2ba 09bc 8509 003c d15b acbb
00000010: d272 003c bf18 dd3b 9dce 19bb 540a 48bc
00000020: 3779 6bbb ce84 a83c 4728 133c 8d9b 8d3c
00000030: 6c05 af3b 816d 693c a6cc 7c3b 0c4f e53b
00000040: 4aed 893c 4022 0cbc 4002 8abc 8b47 0a3b
00000050: d271 cbbc 4e41 a3bc ddf8 29bc 8550 323c
00000060: 8f7a 153a 1035 143c a5e0 0cbc 9648 643c
00000070: c8ce 443c c4ca 153a f800 80bc 6cf5 c139
00000080: b858 f6bb 50a9 78bc 6043 523a 07c6 1d3b
00000090: 04fd 6cbc e760 173c b674 c23b 3e9e 62bb
000000a0: 9db0 84bb 014f 74bc 9d8a 79bc 2113 05bc
000000b0: 5c23 0a3c 3be3 31bc 470b c9bb afc5 83bc
000000c0: 5e83 ea3c ea5b 333b 9ea0 78bb f8ee d03c
000000d0: be50 8ebc 5e83 2b3b cbc7 72bb 199e 9d3b
000000e0: e7a6 0cbb 54cf 33bc 03be c4bc 49e0 82bb
000000f0: 7f3a 7c3b fd79 d63b 0fa0 943b 751f eebb
00000100: e9f7 cabb e0a0 223c ff8b 06bc 7d09 5cbc
00000110: 031e f4bb 3df3 033c 91dc 9fbc d002 4cba
00000120: 6c68 803b fd7b f83b b98b d63b 3f3f 243b
00000130: 6408 b5bb 4b3a 2cbb b594 f93c 98cf 5d3c
00000140: e0c7 0a3b 11d4 173c 6613 253c 6d58 bfbb
00000150: fff6 b63b a6ac 07bc b8c0 a03b 9d0a ad3c
00000160: 3251 5ab8 dc9b 42bb 624a 933c e649 ba3c
00000170: 2082 6039 0d09 063d 194b 803c f9ef d43a
00000180: 724d 453c 6b31 2b39 a772 d9ba 9149 4fba
00000190: e76d 36bc 9f80 013c 8944 cf39 da9d 07bc
000001a0: c4d2 a9bc 97fd a6bb 674f b5bb b0f1 29bb
000001b0: c5fc 3abb 803b 99bc 076b b0bb 1461 f93b
000001c0: b982 12bc 582a 7f3b f63f 5b3c aafc da3b
000001d0: c5cd 5a3c 05be f2bc 8697 833c e067 863b
000001e0: 5c0e 7f3c fd5b 263c 0bba 6b3b 2f3c f9bb
000001f0: db42 ff3a 71f5 69bc bf1c 1237 03b8 42bc
00000200: 7e54 8dbc b2bf 26bb fdc4 793b 7391 48bc
00000210: 0855 2cbc b951 44bc f1ad 41bc 8eca 053d
00000220: 966f e0bc 3c2a 203c 841a bd3c 1fa2 2abc
00000230: 4369 d0ba e4d7 e43a 31ec babc 4405 b3bb
00000240: e08e d93c d943 55bc d638 83ba d373 32bc
00000250: 1a02 9dbb 8a6a 55bb 4267 ed3b 6ef0 853c
00000260: 459f a2bb b629 513b 7f5d e3ba bc8c b43c
00000270: f383 1d3d 37b8 5b3c 8c8b a33a 22e9 083b
00000280: 6740 383d 975f 48ba 9de0 eb3c a7d1 8e3a
00000290: 0cb4 3cbc b2d5 483c aadb 03bc f467 f3bb
000002a0: 8981 27bb ca82 0dbc fca1 753c 75cb 673c
000002b0: 7c23 9ebc 338d f7bb f053 15bb 4377 08bd
000002c0: 9ed9 c5bb 7230 38bc ab9e c3bc bd47 babb
000002d0: e44e 5b3c f67f 65b9 283e cdbc 10f3 063d
000002e0: d36e c1bc ac8b d7bc d198 f83c 4da4 85b8
000002f0: bb87 063c b013 d2bc 5064 523c 8e83 31bc
00000300: c5c6 3d3a 3533 b7bb 07cb c03c 0ba2 be3c
00000310: 6d45 3a3c f924 3dbc 82e5 163c 954b 083c
00000320: 80d7 163c 1003 8bbb 53f4 07bc 6218 71bc
00000330: dd15 ac3c 4c8c 0fbc aea2 0b3c e540 623c
00000340: e3c9 5cbc faff 833c 39a7 8e3c 9e25 96bc
00000350: 94f5 7e3b 981f 0fbc 8cd5 573b f30c 79bc
00000360: 4eb2 093c f0fe 4dbb e71b 253b e65d f63b
00000370: 2deb 23bb a046 243b 61fb e83c 7cfd 8c3c
00000380: 6271 a2bb c198 1dba 3cb0 dfba a349 50bb
00000390: 0915 dbbb f5fe 32bc 6ec7 08bc acd5 053d
000003a0: 3f02 4bbc 6510 e639 8076 89bb 3fbb 893b
000003b0: d1f7 1e3c feb5 933c c543 503b 37da b6bb
000003c0: 23c5 353b bdc7 853c 6ba3 97bc 8454 fdbb
000003d0: 71a2 913a d3a6 8b3c 38f9 d23a 89d0 683c
000003e0: af6a 8bbc c37d 0abd dfdb f53b 9170 cc3c
000003f0: f5b8 d13c 9c82 9c3c 1310 793c dffa 283c
0.0030204267 -0.008406358 0.00781477 -0.005259969 0.007839875 0.0067473347 -0.0023469098 -0.012209494
-0.0035930404 0.020571139 0.008981771 0.017286086 0.0053412225 0.014247299 0.0038574128 0.0069979485
0.016836781 -0.008553088 -0.016846776 0.0021099772 -0.024834547 -0.0199286 -0.010374275 0.010883455
0.00057021616 0.009045854 -0.008598481 0.013933321 0.012012191 0.00057141134 -0.015625462 0.00036994682
-0.0075179003 -0.015177086 0.0008020904 0.0024074332 -0.0144646205 0.009239412 0.005934323 -0.0034579183
-0.0040493743 -0.014911414 -0.015230802 -0.0081222365 0.008431282 -0.010857399 -0.0061353776 -0.016085474
0.028627094 0.0027368017 -0.0037937532 0.025504574 -0.017372485 0.002617083 -0.0037045355 0.0048101065
-0.0021461786 -0.010974724 -0.024016386 -0.003994022 0.0038487015 0.006545304 0.004535682 -0.0072669336
-0.006194104 0.009926051 -0.008212089 -0.013429997 -0.0074498667 0.008053598 -0.019514354 -0.00077824015
0.003918698 0.00758314 0.006547418 0.0025062112 -0.005524682 -0.0026279863 0.030466417 0.013538264
0.0021176264 0.009266869 0.010075426 -0.0058393986 0.0055836434 -0.008280909 0.0049057864 0.021123225
-5.205087e-05 -0.002969495 0.017979804 0.022740316 0.0002141078 0.032723475 0.01566081 0.0016245834
0.01204239 0.0001632624 -0.0016589955 -0.00079073856 -0.011134601 0.007904201 0.0003953318 -0.008277381
-0.020730384 -0.0050961482 -0.005533147 -0.002593141 -0.002853201 -0.01870513 -0.0053838524 0.0076104496
-0.0089422995 0.003893515 0.013381949 0.006682952 0.013354723 -0.029631624 0.016063463 0.0041017383
0.015567388 0.010153768 0.0035969045 -0.0076060514 0.001947488 -0.014279709 8.708971e-06 -0.011884692
-0.017252203 -0.002544385 0.00381118 -0.012241709 -0.01051832 -0.011982375 -0.011821256 0.032663874
-0.027396958 0.009775694 0.023083933 -0.010414629 -0.0015900511 0.001745936 -0.022817703 -0.005463274
0.026557386 -0.013016664 -0.0010011445 -0.010891872 -0.0047915103 -0.0032564723 0.0072449753 0.016349997
-0.004962834 0.003191573 -0.001734659 0.022039764 0.038455915 0.013410619 0.0012477501 0.002089091
0.044983294 -0.00076436385 0.028793627 0.0010896222 -0.011517536 0.01225798 -0.008047977 -0.0074281637
-0.0025559387 -0.00863714 0.014992233 0.014147629 -0.01930403 -0.007554674 -0.0022785626 -0.03331686
-0.006037905 -0.011242019 -0.02387937 -0.0056848214 0.013385508 -0.00021886811 -0.025054052 0.032946646
-0.023612415 -0.026311718 0.030346306 -6.3725376e-05 0.008211072 -0.025644153 0.012841299 -0.010834588
0.0007239397 -0.005590821 0.023534311 0.023270627 0.011369091 -0.0115444595 0.009209992 0.008318801
0.009206653 -0.0042423084 -0.0082979975 -0.014715286 0.021006519 -0.008761477 0.008522673 0.013809417
-0.013475868 0.01611327 0.017413722 -0.018328484 0.00389037 -0.00873556 0.003293368 -0.015200841
0.008404328 -0.0031432472 0.0025193633 0.007518518 -0.0025012002 0.002506651 0.02844018 0.017210715
-0.004957364 -0.0006011837 -0.0017066072 -0.0031782172 -0.006685857 -0.010925044 -0.008348329 0.032674477
-0.012390672 0.00043881233 -0.0041950345 0.0042032297 0.009702639 0.018031117 0.0031778675 -0.0055802125
0.002773591 0.016330594 -0.018510541 -0.0077310223 0.0011111033 0.017047321 0.0016096001 0.014209875
-0.017018644 -0.033811342 0.0075030173 0.02495602 0.02560089 0.019105248 0.015201586 0.010313719

action_model._discrete_distribution.branches.0.bias f4 [5]
00000000: 5c46 0fba 9787 99bb 61c0 5dbc 2c66 cd3b
00000010: 0caa 213c
-0.00054655015 -0.004685353 -0.013534636 0.0062682834 0.0098672025
