Assets/Brain/Tests/Test1kk.onnx (onnx, 136172 bytes, 9 tensors)

network_body._body_endoder.seq_layers.0.weight f4 [128, 114]
0	0x3dc1ff17	0.09472483
1	0xbdb2ba87	-0.087269835
2	0xbc3696d0	-0.011144355
3	0x3cca2787	0.024677051
4	0x3d586a05	0.052835483
5	0xbe174747	-0.14773284
6	0x3d6bcfa8	0.057571083
7	0x3d0195d0	0.031637013
8	0xbd3e4bcd	-0.046459008
9	0x3dfff887	0.12498575
10	0x3a77dcec	0.0009455222
11	0x3ddbe500	0.10737038
12	0xbc967f14	-0.018371142
13	0xbc8155e7	-0.015788032
14	0xbd24cd52	-0.04023487
15	0x3c978a0a	0.01849844
16	0xbd013187	-0.031541374
17	0xbe6742a6	-0.22584018
18	0x3e2a1b63	0.1661201
19	0xbc8d41f0	-0.017243356
20	0xbded867b	-0.11597916
21	0x3c8a28ce	0.01686516
22	0x3e202686	0.15639696
23	0xbdaf951a	-0.08573361
24	0xbc930d3c	-0.017950647
25	0xbdcd58ad	-0.10026679
26	0xbca523dc	-0.0201587
27	0x3cdefeed	0.027221167
28	0x3d9b2116	0.0757467
29	0x3d842078	0.064515054
30	0x3bbd0860	0.0057688206
31	0xbd4ee110	-0.050507605
32	0x3dd461e0	0.10370231
33	0x3a999008	0.0011715898
34	0xbdfa2865	-0.12214736
35	0x3e0a61eb	0.13513915
36	0x3c1add44	0.009452168
37	0x3cfce338	0.030870065
38	0x3d92fb66	0.07176857
39	0xbc77822d	-0.01510672
40	0x3dcd2b3e	0.100180134
41	0x3de5679b	0.11201402
42	0x3d1b089b	0.037850004
43	0xbbe86b57	-0.007092874
44	0x3e015809	0.12631239
45	0x3cd23089	0.025657909
46	0x3d8dd223	0.06924846
47	0xbc4ef5be	-0.012631832
48	0xbbde186a	-0.0067778127
49	0xbdf19da4	-0.11797646
50	0x3c66fd9c	0.014098551
51	0x3c3776ff	0.0111978045
52	0x3d990e2c	0.07473406
53	0x3e0212b9	0.12702455
54	0xbe0ba989	-0.13638891
55	0x3d594920	0.053048253
56	0xbaa2e178	-0.0012426814
57	0x3dbded18	0.09273738
58	0x3d0961a5	0.033540387
59	0x3e25f259	0.1620573
60	0x3d93e983	0.07222273
61	0xbe09ce3c	-0.13457578
62	0x3d9c1efe	0.07623099
63	0xbda3b566	-0.079935834
64	0x3d4151d2	0.04719717
65	0x3c1b997f	0.009497046
66	0x3daab513	0.083353184
67	0x3caeb9c7	0.02132882
68	0x3dc746e5	0.09730319
69	0x3db49abd	0.088185765
70	0xbd15e0e9	-0.036591444
71	0x3d0d5cc9	0.034512315
72	0x3e3837d5	0.17990048
73	0x3cf1a819	0.0294991
74	0xbdf20149	-0.118166514
75	0xbbd3db4d	-0.0064653517
76	0xbdaa669e	-0.08320354
77	0xbe656101	-0.22400285
78	0x3d36b70f	0.044608172
79	0x3da839ec	0.08214173
80	0xbc158573	-0.009126055
81	0xbd0ae663	-0.03391112
82	0x3e14224c	0.14466208
83	0x3bf3abe9	0.007436265
84	0x3d9c90e4	0.07644823
85	0xbc930e38	-0.017951116
86	0xbccae5ff	-0.024767874
87	0x3c98778a	0.018611688
88	0xbd5456b7	-0.05184051
89	0x3c9c9216	0.019112628
90	0x3d6de418	0.058078855
91	0x3e141866	0.14462432
92	0x3d1b588a	0.037926234
93	0xbe4b244a	-0.19838062
94	0xbd95fcfb	-0.07323643
95	0xbd88c72a	-0.066786125
96	0x3e09b7e5	0.13449056
97	0xbde24a8e	-0.110493764
98	0xbdcf84a1	-0.10132719
99	0xbc906696	-0.017627042
100	0x3c85f061	0.016349973
101	0xbde76a92	-0.112996235
102	0xbd884f13	-0.06655707
103	0xbc54bc6c	-0.012984376
104	0x3dfb0610	0.12257016
105	0xbc1f2bdf	-0.0097150495
106	0x3e1425d0	0.1446755
107	0xbd3d4b1b	-0.046214204
108	0xbcf3002c	-0.029663168
109	0x3c4c92d8	0.012486182
110	0x3d9e4e5b	0.07729789
111	0x3e07bb4e	0.13255045
112	0xbd3c3936	-0.045952998
113	0x3d60ffb8	0.054931372
114	0x3e2ee39a	0.1707901
115	0x3d6fb58c	0.058522746
116	0xbdd9f1cb	-0.106418215
117	0xbda6a5a4	-0.08137062
118	0x3e29ad6c	0.16570061
119	0x3d2dd19c	0.042436227
120	0x3dc2dc29	0.095146485
121	0xbdb77aa3	-0.08958938
122	0xbdee4eeb	-0.11636146
123	0xbd1bb7a5	-0.038016934
124	0xbdf94a04	-0.121723205
125	0xbd0c6901	-0.034279827
126	0xbd675ed0	-0.056486905
127	0x3e0ab57a	0.1354579
128	0x3e0bba3a	0.13645259
129	0x3bf31054	0.007417718
130	0xbdb0d57a	-0.086344674
131	0xbdb4b6a3	-0.08823898
132	0xbd510471	-0.051029626
133	0x3deb8290	0.11499512
134	0xbda01c8a	-0.078179434
135	0x3d23da8b	0.04000334
136	0xbe883efe	-0.2661056
137	0x3d0b0d74	0.033948377
138	0xbcebe98f	-0.028797893
139	0x3d8836c3	0.0665107
140	0x3d9c0529	0.07618172
141	0x3b1d74c6	0.0024025901
142	0xbc69c90f	-0.0142691275
143	0x3cd57a27	0.026059223
144	0xbd849eb5	-0.064755835
145	0xbd5f6b95	-0.054545958
146	0xbd9fcda7	-0.07802897
147	0xbc27305d	-0.010204402
148	0xbe7e57c6	-0.2483817
149	0xbd87d408	-0.066322386
150	0x3e803f40	0.25048256
151	0xbbabd720	-0.0052441508
152	0xbd5398b9	-0.05165932
153	0x39c7188d	0.0003797453
154	0x3d145a07	0.03621867
155	0x3dccec6e	0.10006033
156	0x3e0f5d0c	0.14000338
157	0xbd8baea7	-0.06820422
158	0xbc7fc660	-0.015611261
159	0x3dacbe4a	0.08434732
160	0xbce2433c	-0.02761995
161	0x3d62ccd5	0.055371124
162	0x3d116033	0.035492133
163	0x3d9708c8	0.07374722
164	0x3dee14ba	0.11625047
165	0x3ccc8f6e	0.024970736
166	0x3bfb8d6b	0.0076767704
167	0x3dfcf83d	0.12352035
168	0xbd4aa88b	-0.04947714
169	0x3d2b99bd	0.041894663
170	0x3dd65be9	0.10466749
171	0x3ba695b9	0.0050837663
172	0xbde72727	-0.112867646
173	0x3d3189fc	0.043344483
174	0xbdebdde0	-0.11516929
175	0x3d8ca0a0	0.06866574
176	0x3ddada5e	0.106861815
177	0xbc6dd974	-0.014517177
178	0x3d9e2dd5	0.077235855
179	0xbe361fa3	-0.17785506
180	0x3d40bc59	0.047054622
181	0xbe09324e	-0.13398096
182	0xbcc5e12e	-0.024155226
183	0x3df427f3	0.11921682
184	0x3d8499c5	0.06474642
185	0x3e33e52c	0.17567891
186	0x3e0445c0	0.12917233
187	0xbcf03f55	-0.029327074
188	0xbde50bc4	-0.11183885
189	0xbd60ded0	-0.05489999
190	0x3e666172	0.2249811
191	0x3c0956c4	0.008382503
192	0xbdb120e7	-0.08648854
193	0xbb6475b8	-0.0034860205
194	0x3e18fa5a	0.14939252
195	0x3db695e0	0.08915305
196	0x3e0ac10a	0.13550201
197	0xbd308d4d	-0.043103505
198	0xbe585a84	-0.21128279
199	0xbdb92884	-0.09040931
200	0xbd857efd	-0.06518362
201	0xbe5c7c02	-0.2153168
202	0xbb1883aa	-0.0023271837
203	0x3dde5bab	0.10857328
204	0xbd622694	-0.055212572
205	0xb9fc09a6	-0.00048072374
206	0x3d8795a4	0.066203386
207	0xbd74a8c2	-0.059731252
208	0x3d3e120b	0.046403926
209	0x3d89109b	0.0669262
210	0xbe031a4f	-0.12803005
211	0xbb4fc453	-0.0031702712
212	0xbdcf2026	-0.10113554
213	0xbdf61be4	-0.120170385
214	0x3ca35e16	0.019942325
215	0xbce1f419	-0.027582215
216	0xbdbd6091	-0.09246934
217	0xbd9617bf	-0.07328748
218	0xbd3df2dc	-0.046374187
219	0xbe187bd3	-0.14890985
220	0xbc088395	-0.008332153
221	0xbe15c980	-0.14627647
222	0xbd937750	-0.072004914
223	0x3c0cee99	0.008601808
224	0x3e23a5b7	0.15981184
225	0xbd9f302c	-0.0777286
226	0x3d34b6e0	0.044119716
227	0xbe225033	-0.15850906
228	0x3e3113db	0.1729273
229	0x3d4e6878	0.050392598
230	0xbc21ddfc	-0.009879585
231	0xbd2a7170	-0.04161209
232	0x3d07c28c	0.03314452
233	0xbc84a7bf	-0.016193269
234	0xbc134c12	-0.008990305
235	0x3e0a4322	0.13502172
236	0x3c84187b	0.016124954
237	0x3d5ffb15	0.05468281
238	0xbd0e3e2b	-0.034727257
239	0x3d8e1ad7	0.06938713
240	0xbd6e3a3e	-0.058161013
241	0xbde43c2d	-0.1114429
242	0xbcf6f646	-0.03014673
243	0x3dad49f2	0.084613696
244	0x3d9401fa	0.072269395
245	0xbdb8afda	-0.09017916
246	0xbdfca3a9	-0.12335903
247	0x3dfde50a	0.12397201
248	0xbd3cedb8	-0.046125144
249	0xbc85ce4a	-0.016333718
250	0x3e3987e5	0.18118246
251	0xbdd7d3d9	-0.105384536
252	0xbd37591a	-0.04476271
253	0x3d926fa7	0.07150202
254	0xbd7c9d69	-0.061673556
255	0x3d7cf9dd	0.061761726

network_body._body_endoder.seq_layers.0.bias f4 [128]
0	0x3c646aa0	0.013941437
1	0x3b7d69db	0.003866783
2	0x3c02b694	0.0079781
3	0x3c2b5a74	0.010458577
4	0x3b8f2887	0.004368845
5	0x3c4b2a89	0.012400278
6	0x3cb2fddb	0.021849563
7	0x3c90b535	0.017664531
8	0x3c06bacb	0.008223246
9	0x3b10a529	0.00220711
10	0x3ba7f972	0.0051261717
11	0x3c7d84d8	0.015473567
12	0xbb83a073	-0.00401693
13	0x3c752803	0.014963153
14	0x3c8b2563	0.0169856
15	0xbba10cfd	-0.0049148784
16	0x3a0e3230	0.00054243486
17	0x3c5e76fc	0.013578173
18	0x3c650cd2	0.013980107
19	0x3c1ddaf4	0.009634722
20	0xbbdf4efb	-0.006814835
21	0x3c7d7805	0.015470509
22	0x3b3f5de9	0.0029200262
23	0xbc8a643a	-0.016893495
24	0x3c52c6e6	0.012864804
25	0x3d0a3a38	0.033746928
26	0xbc2b5df7	-0.010459415
27	0x3b206615	0.0024474908
28	0x3cb39a4a	0.021924157
29	0x3bebdb07	0.007197741
30	0x3cadf6e3	0.021235889
31	0x3d0f9068	0.035049826
32	0x3c7f15bb	0.015569146
33	0x3cd8faaa	0.026486713
34	0xbc24650c	-0.010033857
35	0xbc290ba2	-0.010317715
36	0x3c333902	0.010938885
37	0x3c2e5de3	0.0106425015
38	0x3ccc28f4	0.024921872
39	0xbb96d14c	-0.004602587
40	0x3c13def9	0.009025329
41	0x3c9c7c05	0.019102106
42	0x3d3e1824	0.04640974
43	0x3c973eff	0.018462656
44	0xbba149e1	-0.004922137
45	0x3c95b4b4	0.018274643
46	0x3c5d587e	0.013509868
47	0x3c62c90e	0.0138418805
48	0xbc09bda4	-0.00840703
49	0xb9f6783c	-0.00047010358
50	0x3c25173c	0.01007634
51	0x3c426269	0.011864283
52	0x3c5d7f1c	0.013519075
53	0x3cc76dab	0.024344286
54	0x3c1ef2df	0.00970146
55	0x3c81c90d	0.015842939
56	0x3ca8f26b	0.020623406
57	0x3ca51776	0.020152789
58	0x3c887ae2	0.016660158
59	0x3cb9d4a0	0.022684395
60	0x3c459b5d	0.012060967
61	0x3c87a857	0.016559763
62	0x3c0fc65e	0.008775322
63	0xbb7b4393	-0.0038339838
64	0x3c9c86cc	0.019107245
65	0xbc0f8c3d	-0.008761463
66	0x3b72f1d7	0.0037070417
67	0x39f133a3	0.00046005574
68	0x3cf9c745	0.030490527
69	0x3cc08a37	0.023503406
70	0x3ca3edcb	0.02001085
71	0x3ce72d43	0.028219825
72	0xbbc86a2b	-0.006116172
73	0x3c7c5790	0.015401736
74	0x3cbf14b9	0.023325311
75	0x3c30a093	0.010780471
76	0x3b67bee7	0.003536159
77	0x3be4b0b8	0.0069790743
78	0x3c86fcf7	0.016478045
79	0x3cfcc430	0.030855268
80	0xbc5576e3	-0.013028833
81	0x3c2f6efd	0.010707614
82	0x3ca01770	0.019542426
83	0xbcdbc702	-0.026828293
84	0x3cdc199b	0.026867678
85	0x3bef4cb9	0.007302847
86	0x3d3800e7	0.044922736
87	0x3bd90313	0.006622681
88	0x3ccc864f	0.024966387
89	0xbba00082	-0.004882873
90	0x3c44a190	0.01200141
91	0x3d02e16b	0.031953257
92	0x3ca5a7f2	0.020221684
93	0x3cbbba38	0.022915944
94	0x3ca13d2e	0.019682493
95	0x39bd115b	0.0003606182
96	0xbbce50de	-0.006296261
97	0x3cc512e6	0.024056863
98	0x3be25b91	0.006907888
99	0x3c02a508	0.007973917
100	0x3c203007	0.009777076
101	0x3c04ee04	0.008113388
102	0x3ccd04e2	0.025026742
103	0x3c0e9ce4	0.008704398
104	0xbcf22840	-0.029560208
105	0x3cbc102c	0.02295693
106	0xbcebc0d1	-0.028778465
107	0x3ae95fd0	0.0017805044
108	0x3c8505a6	0.016238045
109	0x3c08e96e	0.008356435
110	0x3c144098	0.0090486035
111	0x3ce85240	0.028359532
112	0x3a1dd698	0.00060210517
113	0x3cdd2dbf	0.026999352
114	0x3c50b886	0.012739306
115	0x3c31a2bb	0.010842021
116	0x3c43c4ec	0.011948805
117	0x3c26171f	0.010137348
118	0x3ba1a7c9	0.0049333316
119	0x3c963459	0.018335508
120	0x39115969	0.00013861585
121	0x3c4ce24a	0.012505123
122	0xbc4d1578	-0.012517326
123	0x3d0bafa9	0.03410307
124	0x3ccada74	0.02476237
125	0x3c41fe9f	0.011840492
126	0xbc0a56f1	-0.00844358
127	0xbc1d19d9	-0.009588682

network_body._body_endoder.seq_layers.2.weight f4 [128, 128]
0	0xbd9e2a3d	-0.077229
1	0xbb88fa44	-0.0041802246
2	0x3cad841b	0.021181157
3	0x3d2467d1	0.04013807
4	0xbc5ed4c0	-0.013600528
5	0xbd09cdec	-0.033643648
6	0xbd26bd7e	-0.040708058
7	0x3dd6134c	0.10452899
8	0xbdf63d0a	-0.12023361
9	0x3db9b560	0.09067798
10	0x3e84e5c4	0.25956547
11	0xbdbd433a	-0.09241338
12	0xbd1b1469	-0.03786126
13	0xbd9f1ed3	-0.07769551
14	0x3e2b6145	0.16736324
15	0xbdb24b44	-0.08705762
16	0xbd81959a	-0.06327362
17	0x3dcc9124	0.09988621
18	0x3e003702	0.12520984
19	0xbd3b5504	-0.045735374
20	0xbe8113f5	-0.25210539
21	0x3d5b5730	0.053549945
22	0x3dfdb2b5	0.12387601
23	0x3d1bf926	0.038079403
24	0xbd5ee469	-0.054417048
25	0x3c04f376	0.008114686
26	0xbd14a82f	-0.036293205
27	0x3e19856e	0.14992306
28	0xbd25637e	-0.040378086
29	0x3cea28b8	0.02858387
30	0xbdd1ce48	-0.10244423
31	0x3e4b1cda	0.19835225
32	0x3da55c2c	0.08074221
33	0xbddce8d7	-0.10786598
34	0xbdc88ba6	-0.09792261
35	0x3d93fccf	0.07225954
36	0xbd553ced	-0.052060056
37	0xbcd77164	-0.026299186
38	0xbe4f2185	-0.2022763
39	0x3c4a1a8c	0.012335431
40	0x3e1182e9	0.14210095
41	0xbe0b03b4	-0.13575631
42	0xbe7d0d18	-0.24712026
43	0x3d03b340	0.032153368
44	0x3dbf5b04	0.09343532
45	0xbc4413cb	-0.01196761
46	0x3c1f6bba	0.009730274
47	0x3d015533	0.031575393
48	0x3d777e46	0.060423158
49	0x3babb3b7	0.0052399295
50	0x3e4607d0	0.19338918
51	0xbe262769	-0.16225971
52	0x3db1e964	0.08687094
53	0xbd6bddc5	-0.057584543
54	0x3e7975eb	0.24361388
55	0x3d8ffcca	0.070306376
56	0xbca592c2	-0.020211581
57	0x3e5532e2	0.20820192
58	0xbe114977	-0.14188181
59	0x3d04f7d9	0.03246293
60	0x3c270f3a	0.010196501
61	0x3d93911d	0.072054125
62	0x3dff4b41	0.124655254
63	0x3d3e438e	0.046451144
64	0xbd5d7406	-0.054065727
65	0xbdce985c	-0.10087654
66	0xbddfb9de	-0.10924123
67	0x3da464f6	0.08027069
68	0xbd9f35ed	-0.077739574
69	0xbdd66531	-0.104685195
70	0x3d845957	0.06462353
71	0xbcdceef8	-0.026969418
72	0x3cb3c3d6	0.021943968
73	0x3e2e9f47	0.17052947
74	0xbd8dcd22	-0.069238916
75	0x3e43b693	0.19112615
76	0x3c1d4c1d	0.009600666
77	0x3d857adc	0.06517574
78	0xbd93c744	-0.07215741
79	0x3db3ca34	0.087788016
80	0xbdb07ad0	-0.086171746
81	0x3d6b4781	0.05744124
82	0xbe532eb9	-0.20623292
83	0xbe761dda	-0.24034825
84	0x3d3e80bf	0.0465095
85	0xbdb0393b	-0.08604666
86	0xbd84707a	-0.06466766
87	0x3dd64c44	0.10463765
88	0xbd53070c	-0.051520392
89	0xbdba88b2	-0.09108104
90	0xbe373290	-0.17890382
91	0xbdfcbd7f	-0.12340831
92	0x3dd36da4	0.10323647
93	0x3dcc238a	0.09967716
94	0x3e15c4ef	0.14625905
95	0xbd453f05	-0.048155803
96	0x3dc8545c	0.09781715
97	0x3decc45d	0.11560891
98	0x3d6b1389	0.057391677
99	0x3d769a15	0.060205538
100	0x3e0d5b39	0.1380433
101	0xbe150de3	-0.14556079
102	0x3d9ee8f3	0.07759275
103	0xbe045bbc	-0.12925619
104	0xbd96d57c	-0.07364938
105	0xbc572369	-0.013131001
106	0xbbbed033	-0.005823159
107	0x3b599849	0.0033202341
108	0x3cf5f763	0.03002519
109	0xbe4568af	-0.19278215
110	0x3c9b0dd7	0.018927498
111	0xbd23f5d3	-0.040029358
112	0x3db948da	0.090470985
113	0x3dac9aeb	0.08427986
114	0x3ce81cb5	0.028334001
115	0xbd435415	-0.04768761
116	0x3cd37f9b	0.025817683
117	0xbd39083e	-0.045173876
118	0x3d98a149	0.07452638
119	0x3e0a6502	0.13515094
120	0xbd3544f0	-0.044255197
121	0xbd7a66a5	-0.061133046
122	0xbc568ce7	-0.013095117
123	0x3da1da70	0.07902992
124	0x3d540056	0.051758133
125	0x3e44ee59	0.19231547
126	0x3d4415d7	0.04787239
127	0xbb5b5509	-0.0033467433
128	0xbded57e0	-0.115890265
129	0x3d342d7a	0.043988682
130	0x3e297633	0.16548996
131	0x3e2ebce6	0.17064247
132	0x3dcec239	0.10095639
133	0x3b5741da	0.0032845647
134	0xbd7886ae	-0.060675316
135	0x3cee3f9d	0.029083068
136	0xbbf65a50	-0.0075180903
137	0xbc3fc1f2	-0.011703955
138	0x3e07c3f2	0.13258341
139	0xbce824ce	-0.028337862
140	0x3bc4d3d3	0.0060066967
141	0x3df6cb02	0.120504394
142	0x3de7bd47	0.11315399
143	0x3d1d749d	0.03844129
144	0xbcda6bf0	-0.026662797
145	0x3d9652be	0.073400006
146	0xbd7c0c29	-0.061535034
147	0x3df16a1b	0.11787816
148	0xbd16b298	-0.036791414
149	0x3a90cdc7	0.0011047655
150	0xbe204e0e	-0.15654776
151	0x3e285b60	0.16441107
152	0xbda46987	-0.0802794
153	0x3db06d2c	0.08614573
154	0x3d3321d1	0.04373342
155	0x3cda0fa3	0.026618784
156	0x3de698ac	0.112595886
157	0x3e80db46	0.25167292
158	0xbd5a6e3f	-0.053327795
159	0xbd5afceb	-0.053463858
160	0xbd65cd45	-0.056103963
161	0x3c8237c3	0.01589573
162	0x3c2c3b2e	0.010512156
163	0x3cf6454e	0.030062344
164	0xbdb6aae4	-0.089193135
165	0xbdb67507	-0.0890904
166	0xbe09cb4b	-0.13456456
167	0xbd74141a	-0.059589483
168	0xbd895846	-0.0670629
169	0x3dc22ee8	0.09481603
170	0x3d0b3683	0.033987533
171	0xbe031dc9	-0.12804331
172	0x3d424c58	0.04743609
173	0x3cd13eb8	0.025542602
174	0xbd89f953	-0.06737008
175	0xbcdcc05c	-0.026947193
176	0xbdaebd8e	-0.085322484
177	0xbce85b94	-0.02836398
178	0xbc3b1c95	-0.011420389
179	0xbda1fff2	-0.07910146
180	0x3d34222e	0.04397791
181	0x3d7b4c7b	0.061352234
182	0xbe00a772	-0.12563875
183	0x3d28398a	0.0410705
184	0xbce7ee3e	-0.028311845
185	0xbe0a9501	-0.13533403
186	0xbe04cb23	-0.12968116
187	0xbdca6ba5	-0.09883813
188	0xbd400916	-0.046883665
189	0xbc50a712	-0.012735145
190	0xbda5d4c1	-0.0809722
191	0x3cdaa215	0.026688615
192	0x3d63461b	0.05548678
193	0x3ca9229b	0.020646384
194	0x3d9069f4	0.07051459
195	0xbe15015a	-0.14551297
196	0xbe2bb8bf	-0.16769694
197	0xbdcda358	-0.10040921
198	0x3dbf6f16	0.0934736
199	0x3ce3059c	0.027712636
200	0xbdfe9456	-0.124306366
201	0xbc152250	-0.009102419
202	0x3d0902c0	0.03344989
203	0x3dafdf76	0.08587544
204	0xbc7bf09f	-0.015377193
205	0xbd571ab4	-0.0525157
206	0xbb0ec823	-0.0021786771
207	0x3d84018b	0.06445607
208	0xbcc58816	-0.024112742
209	0xbd5660d2	-0.05233843
210	0xbcd89e05	-0.026442537
211	0xba8e05c5	-0.001083546
212	0x3e29b6ed	0.16573687
213	0x3e1976bb	0.14986698
214	0xbd12618c	-0.03573756
215	0x3d83fd2b	0.06444772
216	0xbd3ef9fb	-0.04662512
217	0xbda521af	-0.08063065
218	0xbd31086b	-0.04322092
219	0xbc2a15ea	-0.010381201
220	0x3dfebbba	0.1243815
221	0x3dcf134f	0.10111105
222	0x3d06953d	0.03285717
223	0xbe8abbd6	-0.27096432
224	0xbd14fa9a	-0.036371805
225	0xbe54b211	-0.20771052
226	0x3dc7e23b	0.09759947
227	0x3c8ef9cd	0.017453099
228	0xbd472163	-0.048615824
229	0xbca86eb4	-0.0205606
230	0xbd12504d	-0.035721112
231	0x3ce36494	0.02775792
232	0xbd0225f0	-0.03177446
233	0xbccedc93	-0.025251662
234	0xbe2147df	-0.15750073
235	0xbcd33dd7	-0.025786323
236	0x3de725aa	0.11286481
237	0xbc426527	-0.011864937
238	0xbd19449d	-0.03741895
239	0x3d650ae5	0.055918593
240	0xbcf57217	-0.029961629
241	0xbd938499	-0.07203025
242	0xbc53f48a	-0.012936721
243	0xbd8dd022	-0.06924464
244	0xbdb7a6db	-0.08967372
245	0xbd30e56b	-0.04318754
246	0xbc91fcd3	-0.017820751
247	0x3ddf80b9	0.10913224
248	0xbcb5dc1c	-0.022199683
249	0x3ce15b22	0.027509276
250	0xbda64863	-0.081192754
251	0x3daa8eb2	0.08327998
252	0x3de7961f	0.1130793
253	0xbe1b17e2	-0.1514583
254	0xbd7db22f	-0.061937507
255	0xbd872608	-0.06599051

network_body._body_endoder.seq_layers.2.bias f4 [128]
0	0x3b9783bf	0.0046238597
1	0x3be547a4	0.0069970656
2	0x3bd72340	0.0065654814
3	0x3bf11c28	0.007358093
4	0x3b45ab96	0.0030162088
5	0x3c824f9c	0.015907101
6	0x3cc05759	0.02347915
7	0x3c1868b0	0.009302303
8	0x3cc6762c	0.02422627
9	0x3c0e2e28	0.008677997
10	0xbb409fbb	-0.0029392082
11	0x3c419931	0.011816309
12	0x3c436288	0.011925347
13	0x3b6e7d58	0.0036390629
14	0x3c4e3199	0.012585067
15	0x3d1b0c74	0.037853673
16	0x3c7d7097	0.015468738
17	0x3c954960	0.018223464
18	0x3bb89d87	0.005634013
19	0x3c222255	0.009895881
20	0x3b6ca02f	0.003610622
21	0x3bb0c7e9	0.005394925
22	0xbb2287d3	-0.0024800196
23	0x3c95b5aa	0.0182751
24	0x3c3b5c48	0.011435576
25	0x3bfb4b6d	0.0076689036
26	0xb895a856	-7.136229e-05
27	0x3bacb239	0.0052702692
28	0x3c6ec98c	0.01457442
29	0x3c87d48a	0.016580839
30	0x3ba6550b	0.005076056
31	0x3cb6f904	0.022335537
32	0x3d0e8daf	0.03480309
33	0x3c142fcc	0.009044599
34	0x3c387484	0.011258248
35	0x3c4c31f6	0.0124630835
36	0x3b5b4a81	0.0033461156
37	0x3c77d78d	0.015127075
38	0x3ca63af6	0.020291787
39	0x3c36b5ee	0.011151774
40	0x3b6e860f	0.0036395823
41	0x3c20692c	0.0097907
42	0x3c8a7b6a	0.016904552
43	0x3c11a83a	0.008890206
44	0x3c475c6a	0.012168029
45	0x3bac7ba1	0.005263761
46	0x3c6237d7	0.013807259
47	0x3bb3fbe7	0.0054926756
48	0xb9f61dcc	-0.00046942977
49	0x3c2f8abb	0.010714228
50	0x3c47d544	0.012196843
51	0xbb2ff54c	-0.002684909
52	0x3c0fc4b2	0.008774923
53	0x3bbf5273	0.005838686
54	0x3ca8ae95	0.02059106
55	0x3c3ab181	0.011394859
56	0x3c3c945b	0.01150998
57	0x3c30310e	0.010753883
58	0x3c3d235b	0.011544074
59	0x3cb6e267	0.022324754
60	0x3c3048ab	0.010759513
61	0xbad73c14	-0.0016421103
62	0x3c125e71	0.008933649
63	0x3c1d960c	0.0096182935
64	0x3c337ec6	0.010955518
65	0x3c6c6128	0.014427461
66	0x3c7fcf20	0.015613347
67	0x3c00891a	0.007845188
68	0xbb67dc24	-0.0035379017
69	0x3c422dc9	0.011851736
70	0xbbec599a	-0.00721283
71	0x3cc6ee61	0.02428359
72	0x3c26ac24	0.010172877
73	0x3bae6180	0.0053216815
74	0x3cbadf69	0.022811608
75	0x3b5a3d99	0.0033300875
76	0x3c635040	0.013874114
77	0x38bfaebf	9.140139e-05
78	0x3c90cfbc	0.01767718
79	0x3c9a1588	0.018809095
80	0x3c8114a6	0.015756916
81	0x3c76ad80	0.015056014
82	0x3bc66e0d	0.0060555995
83	0x3a9ad04c	0.0011811345
84	0x3bc9c71f	0.0061577703
85	0x3ca7c331	0.020478817
86	0x3b9b7d37	0.0047451514
87	0x3bb0021c	0.005371345
88	0x3c40d56b	0.011769633
89	0x3b59a48d	0.0033209652
90	0x3c75d4f1	0.0150043825
91	0x3b2c732c	0.0026313765
92	0x3a107309	0.00055103056
93	0x3c6d408d	0.014480722
94	0x3c514f02	0.012775185
95	0x3c47f941	0.012205423
96	0x3c8335f8	0.016016945
97	0x3bac8ee1	0.005266056
98	0x3bffe283	0.0078089847
99	0x3bc6d8d7	0.00606833
100	0x3b382955	0.0028100808
101	0x3b9c7734	0.0047749523
102	0x3c2e0ae7	0.0106227165
103	0x3b256ef8	0.0025243144
104	0x3c725a88	0.014792092
105	0x3c3db9f0	0.0115799755
106	0x3bdf8007	0.006820682
107	0x3d2337ac	0.039848015
108	0x3cc638a4	0.02419693
109	0x3c259cca	0.010108182
110	0x3bd30296	0.0064395173
111	0x3ba97e39	0.0051725176
112	0xbc03226d	-0.008003813
113	0x3c95ab2d	0.0182701
114	0x3c998369	0.018739419
115	0x3b2fcf3b	0.00268264
116	0x3b8afd3d	0.004241614
117	0x3c502d39	0.012706094
118	0x3c56c48a	0.013108382
119	0x3c2c2c65	0.010508631
120	0x3c145a54	0.009054739
121	0x3c2ec9ae	0.010668201
122	0x3bf88a23	0.0075848266
123	0x3d047770	0.032340467
124	0x3cc288a2	0.023746792
125	0x3ca6c492	0.020357404
126	0x3b701a64	0.0036636824
127	0x3c8fc00a	0.017547626

action_model._continuous_distribution.log_sigma f4 [1, 3]
0	0xbd845e1d	-0.06463263
1	0xbd012610	-0.03153044
2	0xbddaaf77	-0.106779985

action_model._continuous_distribution.mu.weight f4 [3, 128]
0	0x3d7d0e30	0.06178111
1	0xbbea7310	-0.00715483
2	0x3d54fb1b	0.051997285
3	0x3c9f266f	0.019427506
4	0xbcdfaf6d	-0.02730533
5	0x3daef9b6	0.08543722
6	0x3c977b0f	0.018491296
7	0x3d78b5ae	0.06072014
8	0x3d4af492	0.049549647
9	0xbda5b45c	-0.080910414
10	0xbc622a79	-0.013804072
11	0x3ca17b4b	0.019712111
12	0xbd2fe239	-0.042940352
13	0x39a7a317	0.00031974234
14	0xbbf9baea	-0.007621159
15	0xbd615d27	-0.055020478
16	0x3c8dae6f	0.01729509
17	0xbd83fe76	-0.06445019
18	0x3cbd6e27	0.023123814
19	0xbd2de5b2	-0.042455383
20	0x3d00932c	0.031390354
21	0xbc51e3cd	-0.01281066
22	0xbbffe1ae	-0.0078088855
23	0xbd0c04a5	-0.034184117
24	0xba65dbda	-0.0008768417
25	0xbcefc9b4	-0.029270984
26	0xbb56b672	-0.0032762554
27	0xbc3521b8	-0.011055402
28	0xbc0ec58e	-0.008714093
29	0xbd1fa041	-0.03897119
30	0x3cfeb5d0	0.031092554
31	0xbd841db3	-0.06450977
32	0xbc2a57a5	-0.010396873
33	0xbcec457b	-0.028841725
34	0x3d7f861d	0.06238376
35	0x3d5a490a	0.05329231
36	0xbd2b0b96	-0.041759096
37	0xbda42120	-0.080141306
38	0xbd22fbe1	-0.03979099
39	0xbcfe6e4d	-0.031058455
40	0xbb656101	-0.0035000446
41	0xbd1f7451	-0.038929287
42	0x3ca937a1	0.020656409
43	0x3d0e9655	0.034811337
44	0xbcd7a22b	-0.026322445
45	0xbbda8547	-0.00666872
46	0xbcccf486	-0.025018942
47	0x3bcdb6d5	0.006277899
48	0xbc8a00f3	-0.016846156
49	0x3cec28a1	0.028827967
50	0x3d563713	0.052298617
51	0x3d34c507	0.044133212
52	0xbd397fae	-0.04528778
53	0x3c0694d2	0.008214192
54	0xbd6b751a	-0.057484724
55	0xbc5a8fe8	-0.013339974
56	0xbd16cb1f	-0.036814805
57	0xbade89cc	-0.0016978323
58	0xbd5eee1e	-0.054426305
59	0xbd8d077e	-0.06886195
60	0x3ce5be75	0.028044919
61	0x3cd98a9d	0.026555354
62	0xbc772e5b	-0.015086736
63	0xbc912e4e	-0.017722275
64	0xbc77cd40	-0.015124619
65	0xbd495083	-0.049149048
66	0xbd91c625	-0.07117871
67	0x3d5ba348	0.053622514
68	0xbc43158a	-0.011906991
69	0x3d142d07	0.036175754
70	0xbc871908	-0.016491428
71	0x3bb922bb	0.005649892
72	0xbbfa30de	-0.00763522
73	0x3d29cac8	0.041453153
74	0xbcbeabd8	-0.0232753
75	0x3cf2bdbc	0.029631488
76	0xbcc35b2c	-0.023847185
77	0xbd202a92	-0.0391031
78	0x3d83eace	0.0644127
79	0xbd1023d5	-0.035190422
80	0x3c5afcec	0.013365965
81	0xbd22c954	-0.039742783
82	0xbd3ecc60	-0.046581626
83	0x3d517b5f	0.051143046
84	0x3ce5f1f8	0.028069481
85	0x3c3188ea	0.0108358655
86	0xbd24ce0d	-0.040235568
87	0x3c21d076	0.009876361
88	0x3acc6e8c	0.001559691
89	0x3cda9e93	0.026686942
90	0xbdb88cc5	-0.09011225
91	0x3a09ada5	0.00052520103
92	0xbcfa7e23	-0.030577725
93	0xbc637ea1	-0.013885171
94	0x3c90a1fd	0.017655367
95	0xbd77ff23	-0.06054605
96	0xbdc06b4a	-0.09395464
97	0x3d6f43fd	0.058414448
98	0x3d0746a2	0.033026345
99	0xbc819193	-0.015816486
100	0x3c9410f2	0.018074486
101	0xbd2cefbd	-0.04222082
102	0x3d071654	0.032980278
103	0x3ba9b2a9	0.0051787687
104	0x3d2bde73	0.04196019
105	0xbd33235f	-0.043734904
106	0x3c410f07	0.011783368
107	0x3db0b825	0.08628873
108	0xbcdb03fc	-0.026735298
109	0x3c2f4bba	0.010699207
110	0xbd52dec0	-0.051481962
111	0xbca47fe8	-0.020080522
112	0x3c4a31ed	0.012341005
113	0xbce487ab	-0.027896723
114	0xbd6e59b1	-0.058191005
115	0x3c43ce2c	0.011951011
116	0x3a9ef663	0.0012127872
117	0xbd8421d2	-0.06451763
118	0xbcc66fb8	-0.024223194
119	0x3c7c744a	0.015408585
120	0x3d818827	0.06324797
121	0xbcbbce2a	-0.022925455
122	0xbcdda4ff	-0.027056215
123	0x3d3dbed4	0.046324566
124	0xbbe474b1	-0.0069719185
125	0xbda7ccfc	-0.081933945
126	0x3c862ea4	0.016379662
127	0x3d825ead	0.06365714
128	0x3ca49097	0.020088477
129	0xbcdb5a24	-0.02677638
130	0x3cbd4b32	0.023107145
131	0x3d2759dd	0.040857185
132	0x3c8d579a	0.017253686
133	0x3d3fd2ba	0.046831824
134	0x3d01123e	0.031511538
135	0x3cf48086	0.029846441
136	0x3cf00367	0.029298497
137	0xbc9c3a77	-0.019070847
138	0x3bae2aa2	0.005315141
139	0xbd5717c7	-0.05251291
140	0xbbdd34f7	-0.0067506987
141	0xbbfe9be2	-0.0077700475
142	0x3c8ec3b4	0.017427303
143	0xbcda617a	-0.026657809
144	0xbd0cab9e	-0.034343354
145	0xbc63fb41	-0.013914884
146	0xbd6b457e	-0.05743932
147	0x3d41bf91	0.047301833
148	0xbd073caf	-0.033016857
149	0xbcd83fca	-0.026397604
150	0x3c9cbd12	0.019133125
151	0x3a3dabd0	0.000723538
152	0x3d0ade37	0.033903327
153	0xbd0edcef	-0.034878667
154	0xbc227ed9	-0.009917938
155	0x3c40e58d	0.011773479
156	0x3dcb5399	0.09928054
157	0xbd5c56d3	-0.05379374
158	0xbd43e8aa	-0.047829308
159	0xbcf2b40a	-0.029626865
160	0xbd23d235	-0.03999539
161	0x3da70eb1	0.08157099
162	0xbd1c1a0e	-0.038110785
163	0x3d291bd7	0.041286316
164	0x3ad35edc	0.0016126293
165	0xbd229cc8	-0.0397003
166	0x3d20d10b	0.03926186
167	0xbb413120	-0.0029478744
168	0x3b58f6bb	0.0033106047
169	0xbcb7f520	-0.022455752
170	0x3d761054	0.060074165
171	0xbd1c4b9d	-0.038158048
172	0x3d87cfb9	0.06631417
173	0x3cf9aa78	0.030476794
174	0xbb81086d	-0.003937772
175	0x3c92f43e	0.01793873
176	0xbc97f381	-0.018548729
177	0xbcf94e05	-0.03043271
178	0x3d5d6cd9	0.054058883
179	0xbbc40f43	-0.0059832647
180	0x3d762ca0	0.06010115
181	0xbc79f14e	-0.015255285
182	0xbd53ed4e	-0.051739983
183	0xbd283220	-0.041063428
184	0x3cd20f6c	0.02564212
185	0x3d6ea3a8	0.058261544
186	0x3cbc714a	0.02300324
187	0xbd88d5d0	-0.066814065
188	0x3d34d4ba	0.044148184
189	0xbce9ec4e	-0.028555062
190	0xbd294131	-0.041321937
191	0xbd46202c	-0.048370525
192	0xbd0e1a1e	-0.034692876
193	0xbb36693e	-0.0027833725
194	0xbc809a48	-0.015698567
195	0x3c39fb0a	0.011351356
196	0x3c74ef29	0.014949598
197	0x3cb335c2	0.02187622
198	0x3d13607e	0.035980694
199	0x3d2c1a26	0.042017125
200	0x3c27d82f	0.010244413
201	0xbd0d4b44	-0.034495607
202	0x3d8577b4	0.06516972
203	0xbc5636c2	-0.013074579
204	0x3c195021	0.009357483
205	0xbc8aca56	-0.016942184
206	0xbbb39987	-0.0054809484
207	0x3d74c375	0.059756715
208	0xbce7920b	-0.02826788
209	0x3b550645	0.0032504958
210	0xbb9077eb	-0.0044088266
211	0xba6ef455	-0.0009115388
212	0x3cdc9420	0.0269261
213	0xbd16b325	-0.03679194
214	0xbc071f14	-0.008247156
215	0xbc08e77d	-0.008355972
216	0x3d2eda74	0.042688802
217	0x3c2ab3a7	0.010418809
218	0xbca1747e	-0.019708868
219	0x3bb3af78	0.005483564
220	0x3ccad3b0	0.024759144
221	0x3c869f42	0.016433362
222	0x3cd19918	0.025585696
223	0x3cdd089d	0.026981646
224	0x3b80b561	0.003927872
225	0x3ca1c1a3	0.019745653
226	0xbc842407	-0.01613046
227	0x3c6a595b	0.014303531
228	0x3d1f1fca	0.038848676
229	0x3cca0288	0.02465941
230	0xbd6b3edc	-0.057432994
231	0xbd25d1de	-0.040483348
232	0xbd4f0725	-0.050543923
233	0xbcc8ef3a	-0.024528135
234	0x3c8476ef	0.016169993
235	0xbc7a40d4	-0.015274245
236	0x3d65b65c	0.056082115
237	0xbd04b486	-0.032398723
238	0x3c39fcf0	0.011351809
239	0x3c561a1e	0.01306775
240	0xbc40d0e8	-0.011768557
241	0xbd865fbc	-0.06561229
242	0x3d1e7261	0.0386833
243	0xbd380019	-0.044921968
244	0xbc93450f	-0.017977266
245	0x3c068b87	0.008211977
246	0x3c61f419	0.013791108
247	0x3d366a8b	0.0445352
248	0x3d0a5dfa	0.03378103
249	0x3d3fbe0b	0.0468121
250	0x3dad126f	0.084507816
251	0xbd95164d	-0.07279644
252	0x3b5de237	0.0033856758
253	0xbd1f3528	-0.038869053
254	0x3cc772e6	0.02434678
255	0xbcb58092	-0.022156034

action_model._continuous_distribution.mu.bias f4 [3]
0	0x39be0ee4	0.00036250718
1	0x3a2c9ec0	0.0006584935
2	0xbabc25a1	-0.0014354476

action_model._discrete_distribution.branches.0.weight f4 [5, 128]
0	0x3bbbd220	0.005731836
1	0xbb97cf3f	-0.00463286
2	0xbc41652d	-0.011803907
3	0xbbf57fdc	-0.0074920487
4	0xbbdb94de	-0.006701096
5	0xbbb24701	-0.005440593
6	0x3adbf000	0.00167799
7	0xba962bd7	-0.0011457157
8	0x3b7eda7d	0.0038887553
9	0x3ca4bd51	0.020109804
10	0xbc8ea974	-0.017414786
11	0xbc9a6034	-0.018844701
12	0xbd08c450	-0.033390343
13	0xbc2adc8e	-0.010428561
14	0xbc9cba64	-0.019131847
15	0xb91eb465	-0.00015135256
16	0x3c2c8504	0.01052976
17	0xbbb90621	-0.0056464826
18	0xbc175a5a	-0.00923785
19	0x3b0f0685	0.0021823954
20	0x3bd1fa7f	0.0064080353
21	0xbb953922	-0.00455393
22	0x3bdda1b0	0.0067636594
23	0xbc410ca0	-0.011782795
24	0xbb853874	-0.0040655676
25	0x3afcd599	0.0019289731
26	0xbc07f7fc	-0.00829887
27	0x3b8665cd	0.004101491
28	0xbc6ac563	-0.014329287
29	0xbb293c2b	-0.0025823216
30	0x3b5f1e98	0.0034045335
31	0xbb43c62e	-0.0029872763
32	0x3b235ba7	0.0024926455
33	0xbcad51e1	-0.021157207
34	0x3ced29f7	0.028950674
35	0x3bbfc239	0.0058520106
36	0xbc1c4674	-0.009538282
37	0xbc2daa08	-0.010599621
38	0x3c7085fa	0.01468038
39	0xbc58f2f7	-0.013241521
40	0x3b0d1c01	0.0021531584
41	0xbc542b9c	-0.01294985
42	0xbc607d0f	-0.013701691
43	0xbb923eac	-0.0044630375
44	0xbc6e4dab	-0.014544885
45	0x3cc802ae	0.02441534
46	0x3b1ada7a	0.0023628757
47	0x3c65c983	0.014025095
48	0x3b90b12c	0.004415652
49	0xbb7086d2	-0.0036701453
50	0xbb259d6a	-0.0025270828
51	0xbb94d960	-0.0045425147
52	0x3c7089c0	0.01468128
53	0xbc662944	-0.014047924
54	0xbc2d0892	-0.010561125
55	0x3c4b21ba	0.012398178
56	0x3ac1c893	0.0014784507
57	0xbba36552	-0.0049864436
58	0xbc38ba60	-0.011274904
59	0xbce17276	-0.0275204
60	0xba9f0f33	-0.0012135267
61	0xbaf3a629	-0.0018588948
62	0x3c77a9df	0.015116184
63	0xbc57a97d	-0.013162968
64	0x3b7457c4	0.0037283758
65	0x3bc33df0	0.0059583113
66	0xbcf9c039	-0.030487167
67	0xbc0a5c0a	-0.008444795
68	0xbb9b2ef4	-0.004735822
69	0xbc854eba	-0.016272891
70	0x3cc90375	0.024537781
71	0xbc9a3a20	-0.018826544
72	0x3b6f8216	0.0036546043
73	0x3a83fef0	0.0010070484
74	0xbc754ef6	-0.014972439
75	0xbccfe05f	-0.025375543
76	0x388f64d2	6.8375506e-05
77	0xbc9b6ef2	-0.018973801
78	0x3ae5e31b	0.0017538996
79	0xbc6b28e4	-0.014353011
80	0x3b2939fa	0.002582191
81	0x3b53944d	0.003228444
82	0xbc3a3be3	-0.011366817
83	0xbc1fefa9	-0.009761729
84	0xbb5cf10a	-0.0033713006
85	0xbc18b697	-0.009320877
86	0x3b0c8a57	0.0021444762
87	0xbbd86f6f	-0.006605081
88	0x3ac4c537	0.0015012388
89	0xbc01ee2f	-0.007930323
90	0xbc916bc8	-0.01775159
91	0xbc5189b7	-0.012789181
92	0x3bddaba9	0.0067648483
93	0x3b8b218f	0.004245944
94	0xbb55c9b4	-0.0032621445
95	0xbb92eb62	-0.004483626
96	0xbc3ea2e5	-0.011635517
97	0x3bcbf37f	0.0062240954
98	0xbcfdfdb3	-0.031004762
99	0xbcc868e3	-0.024464076
100	0xbbe3210f	-0.006931431
101	0x3a6b1112	0.0008967082
102	0x3b0f75a7	0.0021890195
103	0x3c5cfc2f	0.01348786
104	0x3b163e2c	0.002292524
105	0xbc90b054	-0.017662205
106	0x3be19bb4	0.0068850163
107	0xbc0db3b3	-0.008648801
108	0xbc9f2a35	-0.019429306
109	0x3c3d2044	0.011543337
110	0x3bf369ef	0.0074283998
111	0x3a41ae3a	0.00073883275
112	0x3cd4b4b3	0.02596507
113	0x3ba19cd5	0.004932026
114	0xbc43a57f	-0.011941313
115	0x3972484f	0.00023105856
116	0xbceef4a0	-0.02916938
117	0xbbc5cae6	-0.0060361503
118	0xbc240ef6	-0.010013333
119	0xb95e832e	-0.00021220438
120	0x3c4d68a8	0.012537159
121	0xbc44d996	-0.012014767
122	0xbb42126e	-0.0029613036
123	0xbb9c2225	-0.0047648125
124	0xbb3da962	-0.0028940071
125	0x3a3373a8	0.0006845542
126	0x3b8f8e28	0.00438096
127	0x3c3a598f	0.0113738915
128	0xbbd927f4	-0.0066270772
129	0x3b4152f4	0.0029498907
130	0xbab1e790	-0.0013573039
131	0xbabf8468	-0.0014611604
132	0x3bd39ef1	0.0064581563
133	0x3aa47eaa	0.0012549956
134	0x3b7d5de1	0.0038660693
135	0x3c1b67fe	0.009485243
136	0xbb0fc1d2	-0.0021935594
137	0x3b22ddbc	0.0024851402
138	0xbb1aa3fc	-0.0023596277
139	0xbd011116	-0.031510435
140	0x3d0becff	0.034161564
141	0x3b421c21	0.0029618817
142	0xbbd17547	-0.0063921544
143	0x3c20b1bc	0.009808
144	0xbc44c83e	-0.012010632
145	0x3c8d918c	0.017281316
146	0xbcb7ca4e	-0.022435334
147	0x3cba76ed	0.022761786
148	0xbc7181d6	-0.014740428
149	0x3cef4fa6	0.029212784
150	0xbbaf3edb	-0.005348069
151	0x3b8a1a54	0.0042145643
152	0x3cb54c99	0.022131251
153	0xbb7f6dd0	-0.0038975365
154	0x3c2e7508	0.01064802
155	0x3bc4564b	0.0059917322
156	0x3c95574d	0.018230105
157	0x3abfc006	0.0014629371
158	0xbc6b6d55	-0.0143693285
159	0xbbe52542	-0.006992967
160	0xbca61f29	-0.02027853
161	0x3c461dee	0.012092097
162	0xbcc10c2c	-0.023565374
163	0x3c0fc338	0.008774571
164	0x3c90e8a6	0.01768906
165	0x3c9c925d	0.01911276
166	0x3b37e7df	0.002806179
167	0xbca0f5bc	-0.019648425
168	0xbbf42549	-0.007450734
169	0x3a83aa8a	0.0010045331
170	0x3c74fe86	0.014953261
171	0x3c16905e	0.009189693
172	0xbc486b7b	-0.012232657
173	0x3cd7a359	0.026323007
174	0x3be9492c	0.0071193185
175	0x3b8e1ea0	0.004337147
176	0x3baeddcb	0.0053364984
177	0xbb8ef3ef	-0.0043625752
178	0x3c93cb2b	0.018041214
179	0x3cba610c	0.022751354
180	0x3c4113d2	0.011784511
181	0xbb653def	-0.0034979542
182	0x3c6dcdb7	0.014514378
183	0x3b8e282a	0.004338284
184	0x3c3f5cfe	0.011679886
185	0x3b551aca	0.0032517188
186	0x3c8108f8	0.015751347
187	0x3c47f924	0.012205396
188	0x3bf0d6c9	0.007349823
189	0xbb4b26e6	-0.0030998527
190	0xbc1ee9f1	-0.009699331
191	0x3c6024e9	0.013680675
192	0x3c0696b2	0.0082146395
193	0xbc44606b	-0.011985878
194	0x3c6ac17e	0.014328359
195	0x3c5b7bd4	0.013396222
196	0x3b0dd840	0.0021643788
197	0x3ca02732	0.01954994
198	0x3c0face9	0.008769252
199	0xbc028277	-0.007965676
200	0xbbba4e30	-0.00568559
201	0x3c661bfd	0.014044759
202	0x3ca69251	0.020333441
203	0x3c89c0ce	0.01681557
204	0xbc5729a0	-0.013132483
205	0xbb8725db	-0.004124386
206	0x3c3be197	0.011467359
207	0x3cfa82bd	0.030579919
208	0x3b6f39c9	0.0036502948
209	0x3d1dd05b	0.03852878
210	0xbc378acb	-0.011202524
211	0xbb5a88fc	-0.003334581
212	0x3c4548b9	0.012041264
213	0xbbebf2fb	-0.0072005964
214	0xbb262c3a	-0.002535595
215	0xbc18b52a	-0.009320537
216	0x3d0c9471	0.034321252
217	0x3ca06a56	0.019581955
218	0xbbfb79fb	-0.0076744533
219	0x39bae828	0.00035649654
220	0xbc98e45a	-0.018663574
221	0x3c9a4107	0.018829836
222	0x3cddfd7f	0.027098415
223	0x3ce233f2	0.02761266
224	0x3cf45355	0.029824892
225	0xbbdaac0a	-0.0066733407
226	0x3a290f57	0.0006449124
227	0xbc2423a5	-0.010018264
228	0x3cc60f32	0.024177168
229	0xbc8d927b	-0.017281761
230	0xbab7dc1f	-0.0014027393
231	0xbb4d4d99	-0.003132677
232	0xbc7339a8	-0.014845289
233	0xb994a285	-0.00028349846
234	0xbb48a6e5	-0.0030617055
235	0xbcb75dd9	-0.022383617
236	0x3c9e0a48	0.019292012
237	0xbc787e60	-0.015166849
238	0xbc5cad1e	-0.013469009
239	0x3ca259a7	0.01981814
240	0x3c13e4cb	0.009026716
241	0xbc1bc7e9	-0.0095081115
242	0x3d032c05	0.032024402
243	0xbbdd8fba	-0.0067615183
244	0x3c7f07bb	0.015565808
245	0x3b320e1f	0.0027169061
246	0x3b9b94db	0.0047479696
247	0x3c77c835	0.015123417
248	0x3c2fde10	0.010734096
249	0x3c6941ff	0.014236926
250	0x3c819892	0.015819822
251	0xbc9a9bf1	-0.018873187
252	0xbb3a2271	-0.0028401876
253	0xbbf62d15	-0.0075126984
254	0x3ab8770d	0.0014073566
255	0xbcb2742a	-0.021783907

action_model._discrete_distribution.branches.0.bias f4 [5]
0	0xbc1efd90	-0.009704009
1	0x3a9e1156	0.001205961
2	0x3c6e6eb7	0.014552764
3	0x3c1bcbed	0.009509069
4	0xbc3ae2db	-0.011406626
