Assets/Brain/Tests/TestBrain1million.onnx (onnx, 136172 bytes, 9 tensors)

network_body._body_endoder.seq_layers.0.weight f4 [128, 114]
0	0xbdee6a12	-0.11641325
1	0xbc863678	-0.016383395
2	0x3e320741	0.1738558
3	0xbe022071	-0.12707688
4	0x3d5080a4	0.05090393
5	0xbcc469d5	-0.023976246
6	0x3d8edc0f	0.069755666
7	0x3e661efe	0.2247276
8	0x3d1e3d3f	0.038632628
9	0x3df11170	0.11770904
10	0x3b1b5226	0.0023700087
11	0x3deff015	0.11715714
12	0x3e36b10f	0.1784098
13	0x3daf6284	0.08563712
14	0x3e5d782f	0.21627878
15	0xbd83be5a	-0.06432791
16	0x3c0a2f98	0.008434199
17	0xbba7af71	-0.00511735
18	0xbaa8a17c	-0.0012865509
19	0x3e403a41	0.18772222
20	0xbe290826	-0.16507015
21	0x3da73e98	0.08166236
22	0x3d7c33cc	0.061572835
23	0xbe0f2324	-0.13978249
24	0x3c311675	0.010808577
25	0x3df0729f	0.11740612
26	0xbbf15884	-0.007365288
27	0xbd54c3e9	-0.051944647
28	0xbd83e6c8	-0.064405024
29	0x3defbae5	0.11705569
30	0xbc13afbc	-0.009014066
31	0xbc00eddd	-0.007869211
32	0xbe25d043	-0.16192727
33	0xbd9ac895	-0.07557789
34	0x3da8c5ad	0.08240829
35	0x3bc732e0	0.006079063
36	0xbcb49636	-0.022044282
37	0xbe2428f9	-0.16031255
38	0xbd9a6c31	-0.07540167
39	0xbd32a352	-0.043612786
40	0x3b3d64ad	0.0028899119
41	0x3e106690	0.14101624
42	0xbdc14f7e	-0.0943899
43	0xbdf6edee	-0.120571
44	0x3e0a2267	0.13489686
45	0x3dd3d924	0.10344151
46	0xbe6c1cae	-0.23057815
47	0xbcb4e2f9	-0.022080885
48	0x3d38e217	0.04513749
49	0xbc19a974	-0.00937878
50	0xbe09d964	-0.13461834
51	0xbd82b30e	-0.06381808
52	0x3d822dbe	0.06356381
53	0xbdc3f209	-0.09567649
54	0x3c331070	0.010929212
55	0x3cf8d6ff	0.030375956
56	0xbb81386d	-0.003943494
57	0x3d82257c	0.06354806
58	0xbd21c62d	-0.039495636
59	0x3e22e1bf	0.15906428
60	0xbd9458b1	-0.07243479
61	0xbdc3c735	-0.0955948
62	0x3e053c26	0.13011226
63	0xbbc35ee6	-0.0059622405
64	0x3ccd2495	0.025041858
65	0xbeb3fb97	-0.35152885
66	0x3e446aaf	0.19181322
67	0xbd8479c1	-0.06468535
68	0xbdc25123	-0.09488132
69	0xbd43fab8	-0.047846526
70	0x3d45c0d7	0.04827961
71	0xbb304be5	-0.0026900705
72	0x3dd4736b	0.10373577
73	0x3e0ea1ef	0.1392896
74	0xbe234118	-0.159428
75	0x3d11ad67	0.03556576
76	0xbd04ecb0	-0.032452285
77	0xbd8de59d	-0.06928561
78	0xbd4e0704	-0.05029966
79	0x3c9930bc	0.018699996
80	0x3dbb54f1	0.09147061
81	0xbd40be11	-0.04705626
82	0x3e20151b	0.15633051
83	0x3caf721b	0.021416714
84	0x3ddbcd62	0.10732533
85	0x3c637ec3	0.013885203
86	0x3e3aef13	0.18255262
87	0xbd91c4b7	-0.071175985
88	0x3c6a8f31	0.014316366
89	0xbc77175b	-0.015081252
90	0xbbe97583	-0.007124604
91	0x3d525cae	0.051357917
92	0x3b335e0d	0.002736929
93	0xbe0ecab0	-0.13944507
94	0x3d9e2f67	0.07723885
95	0xbc18a3a4	-0.009316359
96	0x3dec7e75	0.11547557
97	0xbc5cd621	-0.013478787
98	0xbad7f764	-0.0016476926
99	0xbcd25e5c	-0.02567976
100	0x3d8a8984	0.0676451
101	0xbc10a2e5	-0.0088279
102	0xbd503eb5	-0.050841052
103	0xbc4e9c17	-0.012610457
104	0xbdf17bc1	-0.11791182
105	0xbe364b71	-0.17802216
106	0xbdce8f8c	-0.10085973
107	0x3a8d0e6e	0.0010761747
108	0xbca582bf	-0.020203946
109	0x3e1120c8	0.14172661
110	0xbd225bbf	-0.039638277
111	0x3ea52161	0.3225203
112	0x3d64b0fc	0.055832848
113	0x3d4f0890	0.050545275
114	0xbe0ef119	-0.13959159
115	0xbe124a22	-0.14286092
116	0xbdc77d87	-0.09740739
117	0x3decd70f	0.11564457
118	0x3db298fd	0.087205864
119	0x3e2755e5	0.1634136
120	0x3c5cc34d	0.013474298
121	0x3cae26e9	0.021258788
122	0x3dbdbe03	0.092647575
123	0x3d0b1b0f	0.033961352
124	0x3d8a57e4	0.06755045
125	0xbd967d9d	-0.073481776
126	0xbc2627e5	-0.010141348
127	0x3d045127	0.032303955
128	0x3e106074	0.14099294
129	0x3db8b4f4	0.09018889
130	0x3da78d98	0.08181304
131	0x3d99a639	0.075024076
132	0xbe2761b8	-0.1634587
133	0x3e0862a3	0.13318877
134	0xbcff0c89	-0.031133907
135	0x3dd98c8a	0.10622509
136	0x3d9d2f7c	0.076750726
137	0xbe1b5407	-0.15168773
138	0x3dfa1125	0.12210301
139	0x3c41d836	0.011831334
140	0x3deeb5b8	0.11655754
141	0xbd61d643	-0.055135977
142	0xbb9d1ca5	-0.0047946745
143	0xbde4e98f	-0.1117736
144	0xbd6aa962	-0.057290442
145	0x3e0c1050	0.13678098
146	0x3c406171	0.011741982
147	0x3e248e03	0.16069798
148	0x3e1407ea	0.14456144
149	0xbd209d5d	-0.039212573
150	0x3d7496ff	0.059714314
151	0x3d2de240	0.042452097
152	0xbcea8a16	-0.028630298
153	0x3e1bf45b	0.15229933
154	0x3dfb1caa	0.122613266
155	0xbcbe6dc8	-0.023245707
156	0x3d790df8	0.060804337
157	0xbd7ee2cb	-0.062228005
158	0xbbd3d6d1	-0.006464817
159	0xbd83e4d0	-0.06440127
160	0x3ca4a445	0.020097861
161	0xbdb79718	-0.08964366
162	0xbd3992ba	-0.045305945
163	0xbdab90d8	-0.08377236
164	0x3de04d84	0.10952285
165	0x3d3e6bcd	0.046489526
166	0xbdb9778f	-0.09056007
167	0xbe511e88	-0.20421803
168	0xbcf4cc31	-0.029882522
169	0x3c3f743c	0.011685427
170	0x3c7bbd59	0.015364968
171	0x3d76ece3	0.060284507
172	0x3cf5c5b9	0.030001508
173	0xbda6212c	-0.08111796
174	0x39a8d837	0.0003220455
175	0xbdb708fe	-0.08937262
176	0x3da3c7f9	0.07997126
177	0x3e0a7f44	0.1352511
178	0xbdd04939	-0.10170216
179	0x3c02541a	0.007954622
180	0x3e465084	0.19366652
181	0x3d16251f	0.036656495
182	0xbced4cb9	-0.028967248
183	0xbd9d3ddc	-0.07677814
184	0x3e7f60f3	0.24939327
185	0xbd36337b	-0.04448269
186	0x3e04e537	0.12978064
187	0xbdfcfacf	-0.123525254
188	0xbd7cbdc9	-0.06170443
189	0xbccd4caf	-0.02506098
190	0x3c538f50	0.012912586
191	0xbd964e25	-0.07339124
192	0x3de7843e	0.1130452
193	0xbcc09e02	-0.023512844
194	0xbc96faac	-0.018430077
195	0x3cc67d40	0.024229646
196	0x3e13e461	0.14442588
197	0xbdef6949	-0.116900034
198	0xbdd94d83	-0.10610487
199	0xbd13b458	-0.03606066
200	0x3d7ca8c0	0.06168437
201	0xbe48b846	-0.19601545
202	0x3d5b5515	0.053547937
203	0x3c6ed5d0	0.014577344
204	0xbd808ef5	-0.06277267
205	0x3d7104f6	0.05884262
206	0xbd0eeaa1	-0.03489173
207	0xbd789bfe	-0.06069564
208	0x3d0cd177	0.03437945
209	0x3d950bad	0.072776176
210	0x3dabdda5	0.08391885
211	0x3c2939ff	0.010328769
212	0x3d2e8c2b	0.042614143
213	0xbd6ae527	-0.057347443
214	0x3dcdb5d8	0.100444496
215	0xbcd7e6d7	-0.02635519
216	0xbcba20ad	-0.02272066
217	0x3df78a82	0.12086965
218	0xbda3870b	-0.07984742
219	0x3c93b840	0.018032193
220	0xbcbcc841	-0.023044707
221	0x3c064869	0.008195975
222	0xbe0778b8	-0.13229644
223	0xbd43419a	-0.047669984
224	0x3cec0753	0.028812086
225	0xbde5cc22	-0.11220576
226	0xbc47fa30	-0.012205645
227	0xbc8fdaaf	-0.017560331
228	0x3d462545	0.048375387
229	0x3dc9a90d	0.09846697
230	0xbe41185c	-0.18856949
231	0xbe3cbbd8	-0.18431032
232	0xbd8bc67f	-0.068249695
233	0xbc8f8592	-0.017519746
234	0xbcb8c70d	-0.022555852
235	0xbdda4626	-0.10657911
236	0x3d2155e2	0.039388545
237	0xbd823869	-0.06358416
238	0xbe402249	-0.18763079
239	0xbd6ad057	-0.057327595
240	0x3d0ec6b0	0.034857452
241	0xbd8d53f3	-0.06900778
242	0x3d73a0d3	0.059479546
243	0xbd696279	-0.056978676
244	0xbda3238f	-0.07965767
245	0xbb74719f	-0.0037299169
246	0xbca502d8	-0.020142958
247	0x3e17b997	0.1481689
248	0xbde4c1df	-0.111697905
249	0x3b61aed7	0.0034436488
250	0x3e27fc7e	0.16404912
251	0xbe366522	-0.17812017
252	0x3d5b2b44	0.05350806
253	0x3e0bb25e	0.1364226
254	0xbb350622	-0.0027622064
255	0x3e1eebce	0.1551964

network_body._body_endoder.seq_layers.0.bias f4 [128]
0	0x3c4e1c69	0.012580016
1	0x3c747f8f	0.01492299
2	0x3c3a8819	0.011384987
3	0xbc115966	-0.008871412
4	0x3ca46657	0.02006833
5	0x3b647cca	0.003486442
6	0x3ce0f193	0.027458942
7	0x3a0dc229	0.0005407655
8	0x3ca1609d	0.01969939
9	0x3c92e099	0.017929362
10	0x3c65f4ef	0.0140354475
11	0x3c99bea1	0.018767657
12	0xbb82350a	-0.003973608
13	0x3cb5e221	0.022202553
14	0x3bc19a3b	0.0059082783
15	0x3c282c10	0.010264412
16	0x3bd03aed	0.0063546808
17	0x3c08c1e2	0.0083470065
18	0x3ca40944	0.02002395
19	0x3cae688f	0.021290092
20	0x3cc0aef4	0.023520924
21	0x3b579d9a	0.0032900334
22	0x3d029da8	0.031888634
23	0xbb08a72c	-0.0020851595
24	0x3cb287f5	0.021793345
25	0x3cf4cca8	0.029882744
26	0xbbcfa617	-0.006336938
27	0x3d168d30	0.03675574
28	0xbc0971da	-0.008388961
29	0x3cb2406f	0.02175924
30	0x3b56c273	0.003276971
31	0x3be5304e	0.0069942838
32	0xbbb279c4	-0.0054466445
33	0x3c38042b	0.0112314625
34	0x3c776dae	0.015101833
35	0x3bd7bd87	0.0065838727
36	0x3c20a9eb	0.009806137
37	0x3b2e1dd9	0.0026568084
38	0x3cc1b97a	0.023648012
39	0x3cab72e8	0.020928815
40	0x3bd483e2	0.006485448
41	0x3c06d7d2	0.0082301665
42	0x3bcbc10b	0.006218081
43	0x3cd63689	0.026149051
44	0x3c5bb323	0.013409409
45	0x3ca9f45b	0.0207464
46	0x3c3dfef7	0.011596433
47	0x3cd57e87	0.02606131
48	0xbbf0e238	-0.007351186
49	0x3bf45b45	0.0074571692
50	0x3c3ab509	0.011395701
51	0x3c11b0ab	0.008892219
52	0x3b91a921	0.0044452106
53	0x3d1a7efd	0.03771876
54	0xba0f4d2c	-0.00054665166
55	0x39b83c86	0.00035140308
56	0x3c7e6ff7	0.015529624
57	0x3d2c3009	0.042037997
58	0x3b944dc5	0.0045258724
59	0x3c5bd140	0.013416588
60	0x3c610b7e	0.01373565
61	0x3cbd9572	0.02314255
62	0xbc73f3da	-0.014889682
63	0x3c183959	0.0092910165
64	0x3b913f12	0.0044325674
65	0x3c9e1264	0.019295879
66	0x38d53215	0.0001016596
67	0x3c96151d	0.018320614
68	0x3b0dc30e	0.0021631154
69	0x3c90d4ea	0.01767965
70	0x3bb0ab3c	0.0053915065
71	0x3d14a07e	0.03628587
72	0xbaa41470	-0.0012518298
73	0xbc2ee10b	-0.010673772
74	0x3c816a86	0.015797865
75	0x3c66bf0b	0.014083634
76	0x3c19a31f	0.00937727
77	0x3c759853	0.01498993
78	0x3c7daa4f	0.015482499
79	0x3caf0ca9	0.021368342
80	0x3c48165a	0.01221236
81	0x3c6120f6	0.013740769
82	0x3c94528a	0.018105764
83	0x3c2d4431	0.01057534
84	0x3b552079	0.0032520576
85	0xba97d078	-0.0011582514
86	0x3cad25da	0.021136213
87	0xbc8e7ccb	-0.01739349
88	0x3c0f4e1f	0.008746653
89	0x3c22a5cd	0.009927225
90	0x3cb62320	0.022233546
91	0xbae27662	-0.0017277712
92	0x3cece0d3	0.028915798
93	0x3c352c98	0.011057995
94	0x3c8be244	0.017075665
95	0xba804cc1	-0.00097885
96	0x3c3c4ad2	0.011492448
97	0x3c0cf021	0.008602173
98	0x3ae2c2b4	0.0017300458
99	0x3cdc01a4	0.026856251
100	0x3c6b494d	0.014360738
101	0x3c7757d9	0.015096628
102	0x3cb15d4d	0.021650935
103	0x3d01c8f1	0.031685773
104	0x3cb187fc	0.021671288
105	0x3c3d73cd	0.011563254
106	0x3c020e3e	0.007937966
107	0x3b8f52f3	0.004373902
108	0xbad7c702	-0.0016462507
109	0x3c2905b0	0.010316297
110	0x3cda5ae9	0.026654677
111	0x3ca81951	0.020519884
112	0xbb09bf26	-0.0021018474
113	0xbad21a64	-0.0016029594
114	0xbc802fa8	-0.015647724
115	0x3ca389fd	0.019963259
116	0x3c3cdca6	0.011527216
117	0xbbf778b9	-0.007552233
118	0x3c7a2357	0.015267215
119	0x3ca53e00	0.020171165
120	0xbbce3799	-0.006293249
121	0x3cb6b85e	0.02230471
122	0x3cf17a1d	0.029477173
123	0x3c38f9bc	0.01129001
124	0x3ba903b5	0.0051579126
125	0x3cc96d44	0.024588235
126	0xbbb5a66d	-0.005543521
127	0x3cd83d77	0.026396496

network_body._body_endoder.seq_layers.2.weight f4 [128, 128]
0	0xbc87c86c	-0.01657506
1	0x3d77dd6e	0.060513906
2	0xbe2f6469	-0.17128147
3	0x3e2019f5	0.15634902
4	0x3d2987e8	0.041389376
5	0xbd32cc30	-0.04365176
6	0xbe117250	-0.14203763
7	0xbc3e69f2	-0.011621939
8	0x3dfb0ed8	0.122586906
9	0x3e1e91ac	0.15485257
10	0x3db8e81b	0.090286456
11	0xbb4331cf	-0.0029784327
12	0xbd0afe27	-0.033933785
13	0x3df0fd7b	0.117670976
14	0x3d897b37	0.067129545
15	0xbdab8b63	-0.08376195
16	0x3dd5acd2	0.104333535
17	0xbdcf7a19	-0.1013071
18	0xbc14e714	-0.009088296
19	0x3d9508a1	0.072770365
20	0x3e451601	0.19246675
21	0xbcc27272	-0.023736212
22	0x3ae763a2	0.0017653594
23	0xbca0b641	-0.019618155
24	0x3db39634	0.08768883
25	0xbd5a1141	-0.05323911
26	0x3dbd4f90	0.09243691
27	0xbd9b2ef3	-0.07577314
28	0xbd32d503	-0.043660175
29	0x3d84b9e8	0.06480771
30	0xbca0b75b	-0.01961868
31	0x3df2ddcf	0.11858713
32	0x3ca31c13	0.019910848
33	0xbdf428d2	-0.11921848
34	0xbb947133	-0.004530096
35	0x3d4f4f02	0.050612457
36	0xbd511749	-0.051047597
37	0x3ce7d441	0.028299453
38	0xbd31cec8	-0.043410093
39	0xbd8a7dfb	-0.0676231
40	0xbd7b6e37	-0.061384406
41	0x3dcbcf45	0.09951643
42	0x395674d7	0.00020452157
43	0x3dbe6e5b	0.092983924
44	0x3e1b2a78	0.1515292
45	0x3bf42e84	0.007451834
46	0xbdf293e9	-0.11844618
47	0x3e015ec5	0.12633808
48	0x3d14c689	0.03632215
49	0x3c5700f7	0.013122789
50	0xbcf4a921	-0.029865803
51	0xbb9e393f	-0.0048286016
52	0x3debc4ec	0.11512169
53	0xbd3d0db2	-0.04615564
54	0x3e06ea56	0.1317533
55	0xbe26802d	-0.16259833
56	0x3d91d200	0.071201324
57	0x3d140756	0.03613981
58	0xbd0074a5	-0.03136124
59	0x3d2a6ede	0.041609637
60	0xbd196af6	-0.03745552
61	0x3dc46c7f	0.095910065
62	0xbc9a90d2	-0.018867884
63	0x3cac8428	0.02105911
64	0x3d84a9d0	0.06477702
65	0x3d272a15	0.040811617
66	0xbe0a78ea	-0.13522688
67	0x3cdd1573	0.026987767
68	0xbe214f7f	-0.15752982
69	0x3d5b9789	0.053611312
70	0x3d9d872c	0.076917976
71	0xbe1265d9	-0.14296664
72	0xbd3cc6c7	-0.046088006
73	0x3cd3a13e	0.025833722
74	0x3e29ec8a	0.16594139
75	0x3d2c9c91	0.0421415
76	0xbb230c0f	-0.0024879014
77	0x3d5bd44a	0.05366925
78	0x3ae97e4f	0.0017814132
79	0xbe49879c	-0.19680637
80	0x3d1cb4d3	0.038258385
81	0x3e2deec2	0.1698561
82	0x3d3964d9	0.04526219
83	0x3d02f5dd	0.031972755
84	0xbe1d363d	-0.15352722
85	0x3daf329b	0.08554574
86	0x3d79cf9a	0.060989
87	0x3e2504b4	0.16115075
88	0xb8ce829f	-9.8471755e-05
89	0xbc0a98e6	-0.008459305
90	0xbe59c424	-0.21266228
91	0x3df36fa8	0.11886531
92	0xbd30a956	-0.04313024
93	0x3ccad358	0.02475898
94	0x3ddc636c	0.10761151
95	0x3becf10c	0.0072308835
96	0x3d838a46	0.06422858
97	0x3d75c756	0.060004555
98	0x3d45f2b4	0.048327163
99	0xbd9632fc	-0.07333943
100	0x3db0548a	0.086098745
101	0x3ded6448	0.11591393
102	0x3dae4f68	0.08511239
103	0x3c9c731f	0.019097863
104	0xbd0311ad	-0.03199928
105	0xbdb2793a	-0.087145284
106	0x3b389d1a	0.0028169812
107	0xbd804f33	-0.06265106
108	0x3d70fe1f	0.0588361
109	0xbce56005	-0.027999887
110	0xbe4bd81a	-0.19906655
111	0xbd8f0066	-0.06982498
112	0x3d7a6d3f	0.06113934
113	0x3e004465	0.1252609
114	0x3c11427f	0.008865952
115	0xbe3599da	-0.17734471
116	0x3e33f648	0.17574418
117	0x3d7215a0	0.059102654
118	0x3d407262	0.046984084
119	0xbdfd0b97	-0.12355726
120	0x3d3ee87b	0.04660843
121	0x3e5c266a	0.21499029
122	0x3ba28b59	0.004960459
123	0x3e070aa6	0.13187656
124	0x3b97a2f2	0.004627579
125	0x3e81554f	0.25260398
126	0x3c2ccf9d	0.010547546
127	0xbdfbb608	-0.12290579
128	0x3cd9e55f	0.02659863
129	0xbd5351a6	-0.051591538
130	0x3e0c637b	0.13709824
131	0x3e3536f1	0.1769674
132	0xbe12ea8d	-0.14347287
133	0xbd8fed63	-0.070277
134	0x3dfae8f9	0.12251467
135	0xbca094a8	-0.019602135
136	0x3dad189a	0.08451958
137	0xbd8c660c	-0.068554014
138	0x3ddff908	0.10936171
139	0x3d85f6c4	0.065412074
140	0xbe4c3179	-0.19940747
141	0xbd832503	-0.06403544
142	0x3bc4752d	0.0059954138
143	0xbd93f328	-0.07224113
144	0x3e220e70	0.1582582
145	0xbbf3ab1c	-0.0074361693
146	0xbdbcfb84	-0.0922766
147	0x3c9fbb64	0.019498535
148	0x3d7d0a6e	0.061777525
149	0xbe2f1ef3	-0.1710165
150	0x3d911378	0.070837915
151	0xbdc46265	-0.0958908
152	0x3c87cd4c	0.016577385
153	0x3d0ae577	0.03391024
154	0xbd99522d	-0.07486377
155	0xbd392c0f	-0.045208033
156	0x3dacbca1	0.084344156
157	0x3e029af0	0.12754416
158	0xbe3d566a	-0.18489996
159	0x3dbff13d	0.093721844
160	0x3daa7e3d	0.08324859
161	0xbc315635	-0.010823776
162	0xbcfbe7ff	-0.030750273
163	0x3e796d56	0.24358115
164	0xbdfd8c2f	-0.123802535
165	0x3e644e04	0.22295386
166	0xbd20d91b	-0.039269548
167	0xbcb0aef5	-0.021567801
168	0xbcd48c77	-0.025945885
169	0x3ca834ae	0.020532932
170	0xb972f160	-0.00023168838
171	0xbd90fa14	-0.070789486
172	0x3ced1705	0.02894164
173	0xbc59b009	-0.013286599
174	0x3e4de068	0.20105135
175	0xbc5369e4	-0.012903664
176	0x3e1b2963	0.15152507
177	0x3cc10fc3	0.023567086
178	0xbe458b73	-0.19291477
179	0x3e13a4a7	0.14418279
180	0x3ca386e2	0.019961778
181	0x3e1237c3	0.14279084
182	0xbbcdd06e	-0.0062809503
183	0x3e57c22b	0.21070163
184	0xbd9cb742	-0.07652141
185	0xbe03df9e	-0.12878272
186	0xbe5b38d3	-0.21408395
187	0xbd8735b3	-0.06602039
188	0x3db60a82	0.08888723
189	0x3e36223e	0.177865
190	0xbdb995c8	-0.09061772
191	0x3e1f6fd9	0.1557001
192	0xbd232292	-0.03982789
193	0xbdaa4c6c	-0.083153576
194	0xbb2ad270	-0.0026065372
195	0xbdc24b87	-0.09487062
196	0x3e392c19	0.18083228
197	0x3dae738a	0.08518131
198	0xbe797194	-0.24359733
199	0xbd9246db	-0.07142421
200	0xbde80b98	-0.11330336
201	0xbd9f7365	-0.07785682
202	0x3dd91fc7	0.10601764
203	0xb664aaab	-3.407399e-06
204	0xbdb7868e	-0.08961211
205	0x3be6fd1d	0.0070492164
206	0xbe207938	-0.15671241
207	0xbe3ccdf3	-0.18437938
208	0xbdf771ee	-0.12082277
209	0x3e1aecea	0.15129438
210	0xbddfb232	-0.1092266
211	0xbd9c9702	-0.0764599
212	0xbe164cf3	-0.14677791
213	0x3d9a1bff	0.07524871
214	0x3dfe6707	0.12421995
215	0x3da7a624	0.08185986
216	0x3dccd07b	0.10000702
217	0x3e06b5f9	0.13155355
218	0xbd562020	-0.05227673
219	0xbdfada21	-0.12248636
220	0xbd954236	-0.07288019
221	0xbb47fee1	-0.003051691
222	0xbc7be15b	-0.015373553
223	0x3c9fe101	0.01951647
224	0x3bb18d78	0.0054184757
225	0xbd72691e	-0.05918228
226	0x3d44f5f9	0.04808614
227	0xbddaac93	-0.10677447
228	0x3ddb0065	0.106934346
229	0x3e27732b	0.16352527
230	0x3e01c302	0.12672046
231	0xbe332905	-0.17496116
232	0xbde03f24	-0.10949543
233	0x3d645534	0.05574532
234	0xbdf4027c	-0.11914536
235	0xbc0f04a1	-0.008729131
236	0x3cb903a7	0.02258475
237	0x3d26cb36	0.04072114
238	0xbdd5e5ce	-0.104442224
239	0xbd8ab7ef	-0.06773364
240	0xbe5c437e	-0.21510121
241	0xbd95d13b	-0.07315298
242	0x3e0316f0	0.12801719
243	0xbd4fad2c	-0.05070226
244	0x3e700f77	0.234434
245	0xbc3b4dda	-0.0114321355
246	0xbd77f515	-0.060536463
247	0xbcd1e254	-0.025620617
248	0x3cc04329	0.023469524
249	0xbd8a12ab	-0.06741842
250	0x3c0d20d4	0.008613784
251	0xbd46cc15	-0.04853447
252	0xbd1c9b05	-0.038233776
253	0xbcaf0bc8	-0.021367922
254	0xbc48d74f	-0.012258365
255	0x3d9734bd	0.07383106

network_body._body_endoder.seq_layers.2.bias f4 [128]
0	0x3b7f9b6e	0.0039002555
1	0x3c81ac48	0.01582922
2	0x3b11a9e1	0.00222265
3	0x3c7e7a8c	0.015532147
4	0x3b926643	0.004467757
5	0x3bcc3790	0.0062322095
6	0x3a8b0136	0.0010605219
7	0x3c3dba86	0.011580115
8	0x3cb6f959	0.022335695
9	0x3b8237d5	0.003973941
10	0x3ca54fc5	0.020179639
11	0x3c4a7664	0.012357328
12	0x3c9789a4	0.01849825
13	0x3c282069	0.010261633
14	0x3c6dfaed	0.014525157
15	0xb8d8def9	-0.000103412145
16	0x3c304751	0.010759191
17	0x3c233be2	0.009963008
18	0x3c4dc1a5	0.0125583755
19	0x3c9a46f6	0.018832665
20	0xbb97a850	-0.0046282187
21	0xbb9c1742	-0.0047635147
22	0x3bb2e61e	0.005459561
23	0x3c3cd496	0.011525294
24	0x3cb32093	0.021866119
25	0x3c4686ff	0.0121171465
26	0x3bd41985	0.0064727687
27	0x3c4302d6	0.011902532
28	0x3b2252c9	0.0024768582
29	0x3c6d2234	0.014473487
30	0x3c6a8853	0.014314729
31	0x3a6684de	0.00087936025
32	0x3ad122cb	0.0015955804
33	0xbb3ee9f9	-0.0029131158
34	0x3c9edc6b	0.019392213
35	0x3bb4292e	0.005498073
36	0xbb4833f5	-0.0030548547
37	0x3ccc7f1f	0.02496296
38	0x3c8ca5b1	0.017168852
39	0x3abf278b	0.0014583928
40	0x3c88b92a	0.016689856
41	0x3ccf870a	0.025332946
42	0x3ce4ee27	0.027945591
43	0x3c063490	0.008191243
44	0x3c85eec6	0.016349208
45	0x3d12711e	0.03575241
46	0x3b612291	0.0034352879
47	0x3cb54683	0.02212835
48	0x3c37c8b8	0.011217289
49	0xbbaccae6	-0.005273211
50	0xbbf1b02e	-0.0073757386
51	0x3c20d22e	0.009815736
52	0x3c8c2ab6	0.01711021
53	0x3c93cf99	0.018043326
54	0x3b352d9b	0.0027645591
55	0x3cbb490a	0.022861976
56	0x3c361176	0.011112561
57	0x3ccbf065	0.024894902
58	0xbb9177d6	-0.0044393344
59	0x3ca897a5	0.020580122
60	0x3c6a89b2	0.014315056
61	0x3c7ccee5	0.015430187
62	0x3c338d69	0.010959008
63	0x3bfb3e4e	0.0076673394
64	0x3cdea0ed	0.027176345
65	0x3ca0ba0b	0.019619962
66	0x3cde49f6	0.027134877
67	0x3cd33ad0	0.02578488
68	0x3c9d9fc7	0.019241227
69	0x3c34bb7d	0.011031029
70	0xb931f268	-0.00016970339
71	0x3cfc0682	0.030764822
72	0x3caee544	0.021349557
73	0x3c5747e3	0.013139698
74	0xbb94a4ac	-0.004536232
75	0x3c1dc9d4	0.009630639
76	0x3bd20c46	0.0064101545
77	0x3cac701b	0.02104955
78	0x3c64b3bd	0.013958869
79	0x3c5eb0d1	0.013591961
80	0x3c948e72	0.01813433
81	0x3b92c7b8	0.0044793747
82	0x3c62a19a	0.013832474
83	0x3ca1db05	0.019757757
84	0xba5531ee	-0.0008132745
85	0xbaa92a35	-0.0012906255
86	0x3c679ea4	0.014136944
87	0x3c57ba6f	0.013167008
88	0x3d085687	0.033285644
89	0x3c5c8178	0.013458602
90	0x3c11984c	0.008886408
91	0x3b577e82	0.00328818
92	0x3c76ce3b	0.015063818
93	0x3acf5b51	0.0015820061
94	0x3c952bd2	0.018209372
95	0x3a43e92f	0.0007473407
96	0xbc3b3f41	-0.011428655
97	0x3ab38033	0.0013694823
98	0xba254244	-0.0006304125
99	0x3c862a39	0.016377555
100	0x3c92aa34	0.017903425
101	0x3941af73	0.00018471274
102	0x3bb914a4	0.0056482125
103	0x3c152043	0.00910193
104	0x3c4befe9	0.012447336
105	0x3b1ffd0b	0.00244123
106	0x3b542b39	0.0032374396
107	0x3c01e4f8	0.007928126
108	0xbb27e2e9	-0.0025617427
109	0x3b998214	0.004684696
110	0x3c538444	0.012909953
111	0x3bb194ad	0.005419335
112	0x3c8a88b9	0.016910898
113	0x3c5b45f3	0.013383376
114	0x3c72806b	0.014801125
115	0x3c57010e	0.01312281
116	0x3cb2864c	0.021792553
117	0x3b21b7aa	0.0024676123
118	0x3ca46948	0.020069733
119	0xbbec040d	-0.0072026313
120	0x3ca4fc9e	0.020139989
121	0x3b53a8a1	0.0032296556
122	0x3c2f6721	0.01070574
123	0x3cb1c8d5	0.02170221
124	0xbb8196a0	-0.0039547235
125	0x3adf4a41	0.0017035679
126	0x3c61f361	0.013790936
127	0x3cae0b18	0.021245524

action_model._continuous_distribution.log_sigma f4 [1, 3]
0	0xbd8c3270	-0.06845558
1	0xbd46db2a	-0.048548855
2	0xbe99cc94	-0.30038893

action_model._continuous_distribution.mu.weight f4 [3, 128]
0	0x3d88ac70	0.06673515
1	0xbbac0e88	-0.0052507557
2	0xba39f601	-0.00070938474
3	0xbb2aa059	-0.0026035516
4	0x3d891e72	0.0669526
5	0x3d6b93f2	0.05751414
6	0xbc662598	-0.014047049
7	0xbd4bf92d	-0.04979818
8	0xbbf9bbb5	-0.0076212534
9	0xbc7afad9	-0.015318596
10	0xbd22873e	-0.03967976
11	0xbba5ed8f	-0.0050637196
12	0xbd9c6abd	-0.07637546
13	0x3d4173b6	0.04722949
14	0xbd165019	-0.03669748
15	0x3cf88695	0.030337611
16	0x3d801e7e	0.06255816
17	0x3d3f1f91	0.046660963
18	0x3d9aaae4	0.07552126
19	0x3dbd0d11	0.09231008
20	0xbbd60a53	-0.0065319925
21	0x3c9eb3b1	0.019372793
22	0x3c97177e	0.01844382
23	0x3d46faa8	0.04857889
24	0xbd429b9e	-0.04751169
25	0xbc969cfd	-0.018385405
26	0x3b3c694e	0.002874929
27	0xbc105314	-0.00880887
28	0x3bed3e39	0.0072400835
29	0x3c45e09c	0.012077477
30	0x3cd327e1	0.025775852
31	0xbd68f15b	-0.0568708
32	0xbc6726fe	-0.014108418
33	0xbcc7aff8	-0.0243759
34	0x3d8d7892	0.069077626
35	0x3cce8c10	0.025213271
36	0x3a1573b3	0.00057011395
37	0xbdc1e00e	-0.09466563
38	0x3d313242	0.04326082
39	0xbc6fb0ad	-0.014629525
40	0x3c76227e	0.015022872
41	0xbd845061	-0.064606436
42	0xbd104908	-0.035225898
43	0x3cb4a23b	0.022050014
44	0xbd5ae3be	-0.053439848
45	0xbce9edcd	-0.028555775
46	0xbd282c5d	-0.041057933
47	0xbd596c02	-0.05308152
48	0xbd2f616b	-0.042817514
49	0xbc726a0e	-0.014795793
50	0xbbda3397	-0.006658982
51	0x3c3d8f9b	0.011569883
52	0x3c6fce60	0.014636606
53	0x3c9cb6f8	0.019130215
54	0xbbd4aa6d	-0.006490043
55	0xbd4e46ed	-0.05036061
56	0x3d25a728	0.040442616
57	0xbdb4307d	-0.08798311
58	0xbc0c6896	-0.008569857
59	0xbd8aeb97	-0.067832164
60	0xbd1a3cdf	-0.037655707
61	0x3c1a161e	0.009404687
62	0x3d34bda2	0.04412616
63	0xbd63cd92	-0.05561597
64	0xbdb7b5dc	-0.08970234
65	0xbccc4fa5	-0.024940321
66	0xbde01f1f	-0.10943436
67	0xbdaa5dcd	-0.08318672
68	0x3bd6fb90	0.0065607503
69	0xbc9cab42	-0.01912463
70	0xbd0512c6	-0.032488607
71	0xbd8dfae0	-0.06932616
72	0x3dc2fdea	0.095210865
73	0xbd4b65c8	-0.049657613
74	0x3d4ea4ef	0.05045026
75	0xbba37f5d	-0.004989548
76	0x3d21f2b4	0.0395381
77	0xbd6db5f4	-0.058034852
78	0x3d5320ab	0.051544826
79	0xbd69965b	-0.057028156
80	0x3d1a54a0	0.03767836
81	0x3c59c64d	0.0132919075
82	0xbd73ed99	-0.059552763
83	0xbd7052a5	-0.058672566
84	0x3d0fba54	0.035089806
85	0x3d3ab838	0.04558584
86	0xbd8dc2a4	-0.069218904
87	0xbdad88fa	-0.08473392
88	0xbd7c879d	-0.06165277
89	0xbd537e45	-0.051634092
90	0xbd3e3762	-0.046439536
91	0x3c4143c7	0.0117959445
92	0x3d81a84a	0.06330927
93	0x3bdfb79a	0.006827307
94	0xbd07b6cb	-0.03313331
95	0x3d056c3f	0.032573935
96	0x3b57328a	0.003283652
97	0x3cb84307	0.022492899
98	0xbbdde78c	-0.0067719873
99	0x3da85e69	0.08221132
100	0xbd357b80	-0.044307232
101	0xbcf29264	-0.02961082
102	0xbce8d068	-0.028419688
103	0xbbe9258d	-0.007115072
104	0x3d4bb0a0	0.04972899
105	0xbcad0bd8	-0.021123812
106	0xbbe7c1c1	-0.007072658
107	0xbd3edd61	-0.046597842
108	0x3d1d4e45	0.03840472
109	0xbd0e73cb	-0.034778398
110	0xbd297b80	-0.041377544
111	0x3d82b0ba	0.06381364
112	0x3dd67e8e	0.10473357
113	0x3baca447	0.005268607
114	0xbb760a1f	-0.0037542654
115	0x3c482307	0.012215382
116	0x3dea6ff7	0.11447137
117	0xbc6cfbf8	-0.014464371
118	0x3d7d6fe9	0.061874304
119	0x3ab41b38	0.0013741022
120	0xbd8494b4	-0.06473675
121	0xbc546c95	-0.012965341
122	0xbd52cac2	-0.051462896
123	0x3dc39ce1	0.09551407
124	0x3c3c16a0	0.011480004
125	0xbc775913	-0.015096921
126	0xbcc0de8b	-0.023543617
127	0xbd6d43df	-0.057926055
128	0x3c9a79fd	0.018856997
129	0xba8fbfb4	-0.0010967166
130	0x3cb65a98	0.022259995
131	0xbdbfad3e	-0.09359215
132	0xbc68b3c3	-0.014203015
133	0x3cf0855b	0.029360464
134	0x3d636e54	0.05552514
135	0xbcfa5274	-0.030556895
136	0x3d97f7fd	0.07420347
137	0x3d560af1	0.05225653
138	0xbd4ff621	-0.050771836
139	0x3d1de098	0.038544267
140	0xbca8dcb4	-0.020613052
141	0x3c3a1951	0.011358575
142	0xbbc8f892	-0.0061331475
143	0xbd47c249	-0.04876927
144	0xbd29d5df	-0.04146373
145	0xbd00e03f	-0.031463858
146	0x3c859d49	0.016310351
147	0x3c1e656d	0.0096677365
148	0x3d01025b	0.031496387
149	0x3c17a2fe	0.009255169
150	0xbd58a6e7	-0.052893545
151	0x3be023e4	0.006840216
152	0xbcf8a398	-0.030351445
153	0x3cdee273	0.027207589
154	0x3d2da292	0.042391367
155	0xbce330d0	-0.027733237
156	0x3d6fd0b9	0.058548663
157	0xbdb9591d	-0.090502
158	0x3a6552f0	0.00087480154
159	0xbcce39ea	-0.0251741
160	0x3d08a530	0.03336066
161	0xbc4d041c	-0.012513187
162	0x3cb94336	0.022615056
163	0xbd7b52d4	-0.061358288
164	0xbd00551a	-0.03133116
165	0xbcc1c1f7	-0.02365206
166	0x3d3ac20c	0.045595214
167	0xbd5c70a6	-0.053818367
168	0xbdcbbefa	-0.09948535
169	0x3dbd61f2	0.09247197
170	0x3cf3e69a	0.029773045
171	0x3d3d867b	0.04627083
172	0x3d1d15e1	0.038350943
173	0x3dc1b632	0.09458579
174	0xbc5b89c1	-0.013399542
175	0x3da0c52f	0.0785011
176	0xbbefbcf9	-0.0073162285
177	0xbcbb6e81	-0.02287984
178	0xbc09c097	-0.008407733
179	0x3d9ae94d	0.0756403
180	0x3da74d6f	0.08169066
181	0x3db00965	0.08595542
182	0xbcdb1594	-0.026743688
183	0x3d9372b9	0.07199616
184	0xbcf42d12	-0.029806647
185	0xbcc1697d	-0.023609871
186	0x3c45f8e2	0.012083264
187	0x3bb2c225	0.0054552727
188	0xbd26fde4	-0.040769473
189	0x3da4127e	0.080113396
190	0xbd38a63a	-0.0450804
191	0x3c141c69	0.009039977
192	0x3d98ff70	0.07470596
193	0x3d0e65b1	0.03476495
194	0xbd811b3e	-0.06304024
195	0x3a9be0af	0.0011892522
196	0x3d192139	0.0373852
197	0x3ce70116	0.02819876
198	0x3c9850e2	0.018593255
199	0x3d40328c	0.046923205
200	0x3cccf507	0.025019182
201	0x3c639659	0.013890826
202	0x3ba5e6d4	0.0050629172
203	0xbc876ad2	-0.016530428
204	0x3c8f2f29	0.017478542
205	0x3d823151	0.063570626
206	0xbcc71713	-0.024302995
207	0x3c816ba1	0.015798392
208	0x3d338ef8	0.043837517
209	0xbd34512e	-0.04402273
210	0x3bc0ace2	0.0058799842
211	0xbc09cc62	-0.008410545
212	0xbd2c223a	-0.04202483
213	0x3c85d797	0.016338153
214	0x3cd8b37f	0.026452778
215	0x3a219f3a	0.0006165389
216	0xbdb1c898	-0.08680838
217	0xbc9c2b8b	-0.019063732
218	0xbd0f3d86	-0.034970783
219	0x3d4f3677	0.05058905
220	0x3cacf16d	0.021111215
221	0x3d236922	0.039895184
222	0xbd2e30a0	-0.04252684
223	0xbc76ee16	-0.015071413
224	0xbc752469	-0.014962294
225	0xbd117a11	-0.035516802
226	0xbc8d41d6	-0.017243307
227	0x3a92f229	0.0011211085
228	0x3cca6063	0.024704164
229	0x3c4211ae	0.0118450355
230	0x3d7ff34a	0.062487878
231	0x3c8cf0ae	0.017204609
232	0xbcf7d786	-0.030254137
233	0xbd3921b8	-0.045198172
234	0x3d3297fd	0.04360198
235	0x3d2f1ecb	0.042753976
236	0x3cc1dd67	0.023665143
237	0x3b672974	0.003527251
238	0x3bfbebd2	0.007688024
239	0xbc9e8ab2	-0.019353244
240	0xbc513bb8	-0.012770586
241	0xbcfcd140	-0.030861497
242	0x3d724b97	0.05915412
243	0xbd85d507	-0.06534772
244	0xbb9da97b	-0.0048114634
245	0xbc92ef3f	-0.017936347
246	0x3cf5fb1e	0.030026969
247	0x3cb7f19d	0.022454077
248	0xbcccd317	-0.025003
249	0xbd407c65	-0.046993632
250	0x3d146fd4	0.03623946
251	0x3d337a0f	0.043817576
252	0x3d5a2929	0.05326191
253	0x3d109950	0.03530246
254	0xbd397d9c	-0.045285806
255	0xbac99af9	-0.0015381268

action_model._continuous_distribution.mu.bias f4 [3]
0	0xbab282ea	-0.0013619338
1	0xb9736887	-0.00023213225
2	0xbb8f170b	-0.0043667606

action_model._discrete_distribution.branches.0.weight f4 [5, 128]
0	0xbc0bc98e	-0.008531941
1	0xbb2db8ff	-0.0026507971
2	0x3ca4a2bd	0.02009713
3	0x3d4be0fe	0.049775116
4	0xbb8432e1	-0.0040343856
5	0x3c9e699c	0.019337468
6	0xbc7c5efc	-0.015403505
7	0x3d595b9b	0.053065877
8	0xbc7015b1	-0.014653609
9	0xbbdeeafc	-0.0068029147
10	0xbc398f4b	-0.011325668
11	0x3cc25cdf	0.023725925
12	0xbcb10cfb	-0.021612635
13	0xbb0bc2ee	-0.0021325904
14	0x3c4adc73	0.012381661
15	0x3b08922f	0.0020839085
16	0x3a72b40c	0.00092583965
17	0x3c75cd5e	0.015002577
18	0x3c73ee6e	0.014888389
19	0xbc7d362f	-0.015454813
20	0x3c08ee2a	0.008357564
21	0x3c64a5fa	0.0139555875
22	0x3b107d46	0.0022047325
23	0xbc80404b	-0.015655657
24	0x3d17182a	0.03688828
25	0xbc330962	-0.01092753
26	0xbce024fc	-0.027361386
27	0xbbec8ab2	-0.007218682
28	0xbc72edcd	-0.014827204
29	0xbb2fb4d2	-0.0026810658
30	0x3b0867d5	0.0020813842
31	0x3bcb1ac3	0.0061982586
32	0x3b6077c4	0.0034251073
33	0xbb995a35	-0.004679943
34	0xbc2d3b9b	-0.010573293
35	0xbb588855	-0.0033040245
36	0x3c853295	0.016259471
37	0xbc17ec1f	-0.009272604
38	0xbbee267c	-0.0072677713
39	0x3c3cd59d	0.011525539
40	0xbb564b8c	-0.0032698838
41	0xbb998e75	-0.0046861717
42	0x3cdf5bb7	0.027265413
43	0xbb83717d	-0.0040113316
44	0x3ca57f03	0.020202165
45	0x3c3bceae	0.0114628505
46	0x3c3169a2	0.0108284075
47	0xbca637cf	-0.020290283
48	0x3cbbd7c1	0.022930028
49	0xba56b13a	-0.0008189861
50	0xbc849397	-0.016183658
51	0xbc4407f4	-0.011964787
52	0xbc12ef6c	-0.008968215
53	0x3c34414e	0.011001898
54	0x3caf975b	0.021434477
55	0xbb2ce1ed	-0.002637978
56	0x3c708a10	0.014681354
57	0xbb527b28	-0.0032116864
58	0x3b0b174a	0.0021223598
59	0xbbc1a483	-0.005909504
60	0x3c973c85	0.018461475
61	0xbc39fd02	-0.011351826
62	0x3ccb3503	0.024805551
63	0x3b31d0b9	0.0027132465
64	0x3a8c88f4	0.0010721968
65	0xbc20435b	-0.009781684
66	0x3c66d19e	0.014088063
67	0x3b3c3607	0.0028718726
68	0x3d2ec8b8	0.04267189
69	0x3cbd8da3	0.023138827
70	0x3c4cbe61	0.012496562
71	0x3c1fde11	0.009757535
72	0xbcc22759	-0.023700403
73	0xbc160f0d	-0.009158862
74	0x3ca7874d	0.020450259
75	0x3d08298d	0.03324275
76	0xbd06ccb0	-0.03291005
77	0xbb8388fe	-0.0040141335
78	0x3d039669	0.032125864
79	0xbc9c99af	-0.01911625
80	0x3c694b14	0.014239091
81	0x3ceef977	0.029171688
82	0xbc0da781	-0.008645893
83	0x3b381c57	0.0028093064
84	0x3b46c8e4	0.0030332142
85	0xbc1df74a	-0.009641478
86	0xbc46f010	-0.012142196
87	0xbc8cad82	-0.017172579
88	0x3b39c4c3	0.002834604
89	0xbc6d44ac	-0.014481705
90	0xbacaeb7a	-0.0015481554
91	0x3c75b464	0.014996622
92	0xbca1f103	-0.019768244
93	0x3c0ef759	0.008725964
94	0xbd135174	-0.03596635
95	0xbd1b3c3c	-0.03789924
96	0xbba301e2	-0.0049745897
97	0x3c5be152	0.01342042
98	0x3b64bdef	0.0034903248
99	0xbaecb97c	-0.001806065
100	0x3d42ad7a	0.04752872
101	0x3cbb0dbc	0.022833697
102	0x3c12d6b9	0.008962327
103	0xbd0607c7	-0.03272226
104	0xbcd6af44	-0.02620662
105	0xbca1c61e	-0.01974779
106	0xbcba17db	-0.022716453
107	0xbaecdaaa	-0.0018070538
108	0x3caac96e	0.020848002
109	0xba0f7083	-0.00054717826
110	0x3b308f4a	0.0026940876
111	0x3c9a9895	0.018871585
112	0x3cafc2c3	0.021455174
113	0x3cdd866a	0.027041633
114	0x3c939fde	0.018020567
115	0x3b01379a	0.001971698
116	0xbbd90bae	-0.006623707
117	0x3c2ebd99	0.010665321
118	0xbc2abe38	-0.010421328
119	0x3bc210c6	0.0059224097
120	0x3cc8db16	0.02451853
121	0x3cc47cae	0.023985233
122	0xbd0d5b2a	-0.03451077
123	0x3c57ea13	0.013178366
124	0xbc91c644	-0.017794736
125	0xbba91e2b	-0.005161067
126	0x399c23e7	0.00029781388
127	0x3c6816dc	0.014165606
128	0x3ceec579	0.029146897
129	0xbcd2ec5b	-0.025747469
130	0xbc6c9242	-0.014439167
131	0x3aa5350c	0.001260431
132	0xbb69261a	-0.0035575689
133	0xbc275b54	-0.010214645
134	0xbb35e791	-0.0027756433
135	0xbc84ddbc	-0.016219012
136	0x3cc9746f	0.024591653
137	0xbb5147dc	-0.00319337
138	0xbcc015e1	-0.023447933
139	0xbca7dbea	-0.020490605
140	0x3c8f86d0	0.017520338
141	0x3c5464c6	0.012963479
142	0xbbde25f0	-0.006779425
143	0x3c61c506	0.013779884
144	0x3be5e082	0.007015289
145	0x3c40838c	0.011750113
146	0x3c0786ac	0.008271854
147	0xbc83c8cd	-0.01608696
148	0xbc94418d	-0.018097663
149	0x3d09966a	0.03359071
150	0xbc17a3ee	-0.0092553925
151	0xbc86c297	-0.01645021
152	0xbbb4c1ce	-0.0055162674
153	0xbc26d855	-0.0101834135
154	0xbb2cb690	-0.0026353933
155	0x3b207127	0.0024481507
156	0xbabfed17	-0.0014642802
157	0x3d01fe8a	0.031736888
158	0x3c24da86	0.010061866
159	0x3c25804d	0.01010139
160	0xbaa82f8d	-0.0012831554
161	0x3d0c9f81	0.034331802
162	0x3d022ebe	0.031782858
163	0x3b7c298d	0.0038476915
164	0xbb7c8c72	-0.003853586
165	0x3c2ee4f4	0.010674704
166	0xbca9d3c9	-0.02073087
167	0x3c9018d4	0.017589964
168	0x3c793c36	0.015212109
169	0x3cb6a37b	0.02229475
170	0xbc9b6955	-0.018971125
171	0xbb300ccf	-0.0026863103
172	0x3c81f2f4	0.01586292
173	0xbcd1981b	-0.025585225
174	0x3c97b08a	0.018516798
175	0xb99f4eac	-0.00030385458
176	0xbd0f93d0	-0.035053074
177	0xbbedfc6e	-0.007262758
178	0xbc08e742	-0.008355917
179	0xbc26eafc	-0.010187861
180	0x3c2fa0da	0.010719502
181	0xbd02e31c	-0.03195487
182	0xbc1397e1	-0.009008379
183	0xbc2095c0	-0.009801328
184	0xbb832db1	-0.0040032496
185	0x3c9793db	0.01850312
186	0xbc8ecbae	-0.017431106
187	0xbc1a755a	-0.009427393
188	0x3cd758a9	0.026287394
189	0xbcbf86ae	-0.02337965
190	0x3ae44b84	0.0017417525
191	0x3c59b5ee	0.013288004
192	0xbb10b010	-0.0022077598
193	0xbb15f843	-0.0022883571
194	0x3c97d725	0.018535206
195	0x3aaedc0d	0.0013340727
196	0xbd17863a	-0.036993243
197	0xbca5aa33	-0.020222759
198	0xbbd5afac	-0.006521186
199	0x3c5b6040	0.013389647
200	0x3ccff15e	0.025383648
201	0x3b5280d8	0.0032120254
202	0xbc628e1d	-0.013827828
203	0xbcf024a1	-0.029314341
204	0x3c17f88e	0.009275569
205	0x3d29c0f9	0.0414438
206	0xbaa8ebc0	-0.0012887642
207	0x3c014ad1	0.007891373
208	0xbcd04e94	-0.025428094
209	0xbc33f05f	-0.010982602
210	0xbbd09000	-0.0063648224
211	0xbc4c1d16	-0.0124581065
212	0xbb177a27	-0.002311358
213	0x3c7405ef	0.014893993
214	0x3b4df2c0	0.0031425208
215	0xbb34e813	-0.0027604147
216	0x3c163a80	0.009169221
217	0xbc0c8a09	-0.008577832
218	0xbba98e0e	-0.005174405
219	0xbc9049e4	-0.017613359
220	0x3bada385	0.005299034
221	0x3c8adc94	0.016950883
222	0xbba7681b	-0.005108846
223	0xbc646dbb	-0.013942177
224	0x3c7fe412	0.015618341
225	0xbb20a5ef	-0.0024512967
226	0x3b9b52ea	0.0047401087
227	0xbc8d34a2	-0.017237011
228	0xbbafaa65	-0.005360889
229	0x3bc5946b	0.0060296557
230	0xbb27fb07	-0.0025631802
231	0xbc9654c3	-0.018350964
232	0xbc3a01db	-0.011352981
233	0xbc33920d	-0.010960114
234	0x3cbf04be	0.023317691
235	0xbbd190ca	-0.006395434
236	0xbd136d8c	-0.035993144
237	0x3aca44c9	0.0015431877
238	0xba278ea0	-0.0006391797
239	0x3ad7ca14	0.0016463422
240	0xbb819c43	-0.0039553954
241	0x3c731473	0.014836418
242	0xbd22db19	-0.03975973
243	0x3c6b9a48	0.014380045
244	0x3c8b3727	0.016994072
245	0x3c3c7135	0.0115016
246	0xbcc5d13f	-0.024147628
247	0xbc77b90e	-0.015119804
248	0xbba358aa	-0.004984935
249	0xbb00e986	-0.001967044
250	0x3bb37b38	0.0054773353
251	0xbafdd191	-0.0019364824
252	0x3b285295	0.0025683988
253	0x3cf0860d	0.029360795
254	0x39e05805	0.0004279019
255	0xbbdec1cb	-0.0067980043

action_model._discrete_distribution.branches.0.bias f4 [5]
0	0x3bc09238	0.0058768056
1	0xbbc51bc2	-0.006015272
2	0x3a47c291	0.000762024
3	0xbc2faa36	-0.010721734
4	0x3c3be08a	0.0114671085
